INFO:root:Loading net and associated files...
WARNING: Logging before InitGoogleLogging() is written to STDERR
I0502 09:50:36.082833 25078 net.cpp:49] Initializing net from parameters: 
name: "SituationCRF"
input: "data"
state {
  phase: TEST
}
input_shape {
  dim: 1
  dim: 3
  dim: 224
  dim: 224
}
layer {
  name: "conv1_1"
  type: "Convolution"
  bottom: "data"
  top: "conv1_1"
  param {
    lr_mult: 1
    decay_mult: 0
  }
  param {
    lr_mult: 1
    decay_mult: 0
  }
  convolution_param {
    num_output: 64
    pad: 1
    kernel_size: 3
  }
}
layer {
  name: "relu1_1"
  type: "ReLU"
  bottom: "conv1_1"
  top: "conv1_1"
}
layer {
  name: "conv1_2"
  type: "Convolution"
  bottom: "conv1_1"
  top: "conv1_2"
  param {
    lr_mult: 1
    decay_mult: 0
  }
  param {
    lr_mult: 1
    decay_mult: 0
  }
  convolution_param {
    num_output: 64
    pad: 1
    kernel_size: 3
  }
}
layer {
  name: "relu1_2"
  type: "ReLU"
  bottom: "conv1_2"
  top: "conv1_2"
}
layer {
  name: "pool1"
  type: "Pooling"
  bottom: "conv1_2"
  top: "pool1"
  pooling_param {
    pool: MAX
    kernel_size: 2
    stride: 2
  }
}
layer {
  name: "conv2_1"
  type: "Convolution"
  bottom: "pool1"
  top: "conv2_1"
  param {
    lr_mult: 1
    decay_mult: 0
  }
  param {
    lr_mult: 1
    decay_mult: 0
  }
  convolution_param {
    num_output: 128
    pad: 1
    kernel_size: 3
  }
}
layer {
  name: "relu2_1"
  type: "ReLU"
  bottom: "conv2_1"
  top: "conv2_1"
}
layer {
  name: "conv2_2"
  type: "Convolution"
  bottom: "conv2_1"
  top: "conv2_2"
  param {
    lr_mult: 1
    decay_mult: 0
  }
  param {
    lr_mult: 1
    decay_mult: 0
  }
  convolution_param {
    num_output: 128
    pad: 1
    kernel_size: 3
  }
}
layer {
  name: "relu2_2"
  type: "ReLU"
  bottom: "conv2_2"
  top: "conv2_2"
}
layer {
  name: "pool2"
  type: "Pooling"
  bottom: "conv2_2"
  top: "pool2"
  pooling_param {
    pool: MAX
    kernel_size: 2
    stride: 2
  }
}
layer {
  name: "conv3_1"
  type: "Convolution"
  bottom: "pool2"
  top: "conv3_1"
  param {
    lr_mult: 1
    decay_mult: 0
  }
  param {
    lr_mult: 1
    decay_mult: 0
  }
  convolution_param {
    num_output: 256
    pad: 1
    kernel_size: 3
  }
}
layer {
  name: "relu3_1"
  type: "ReLU"
  bottom: "conv3_1"
  top: "conv3_1"
}
layer {
  name: "conv3_2"
  type: "Convolution"
  bottom: "conv3_1"
  top: "conv3_2"
  param {
    lr_mult: 1
    decay_mult: 0
  }
  param {
    lr_mult: 1
    decay_mult: 0
  }
  convolution_param {
    num_output: 256
    pad: 1
    kernel_size: 3
  }
}
layer {
  name: "relu3_2"
  type: "ReLU"
  bottom: "conv3_2"
  top: "conv3_2"
}
layer {
  name: "conv3_3"
  type: "Convolution"
  bottom: "conv3_2"
  top: "conv3_3"
  param {
    lr_mult: 1
    decay_mult: 0
  }
  param {
    lr_mult: 1
    decay_mult: 0
  }
  convolution_param {
    num_output: 256
    pad: 1
    kernel_size: 3
  }
}
layer {
  name: "relu3_3"
  type: "ReLU"
  bottom: "conv3_3"
  top: "conv3_3"
}
layer {
  name: "pool3"
  type: "Pooling"
  bottom: "conv3_3"
  top: "pool3"
  pooling_param {
    pool: MAX
    kernel_size: 2
    stride: 2
  }
}
layer {
  name: "conv4_1"
  type: "Convolution"
  bottom: "pool3"
  top: "conv4_1"
  param {
    lr_mult: 1
    decay_mult: 0
  }
  param {
    lr_mult: 1
    decay_mult: 0
  }
  convolution_param {
    num_output: 512
    pad: 1
    kernel_size: 3
  }
}
layer {
  name: "relu4_1"
  type: "ReLU"
  bottom: "conv4_1"
  top: "conv4_1"
}
layer {
  name: "conv4_2"
  type: "Convolution"
  bottom: "conv4_1"
  top: "conv4_2"
  param {
    lr_mult: 1
    decay_mult: 0
  }
  param {
    lr_mult: 1
    decay_mult: 0
  }
  convolution_param {
    num_output: 512
    pad: 1
    kernel_size: 3
  }
}
layer {
  name: "relu4_2"
  type: "ReLU"
  bottom: "conv4_2"
  top: "conv4_2"
}
layer {
  name: "conv4_3"
  type: "Convolution"
  bottom: "conv4_2"
  top: "conv4_3"
  param {
    lr_mult: 1
    decay_mult: 0
  }
  param {
    lr_mult: 1
    decay_mult: 0
  }
  convolution_param {
    num_output: 512
    pad: 1
    kernel_size: 3
  }
}
layer {
  name: "relu4_3"
  type: "ReLU"
  bottom: "conv4_3"
  top: "conv4_3"
}
layer {
  name: "pool4"
  type: "Pooling"
  bottom: "conv4_3"
  top: "pool4"
  pooling_param {
    pool: MAX
    kernel_size: 2
    stride: 2
  }
}
layer {
  name: "conv5_1"
  type: "Convolution"
  bottom: "pool4"
  top: "conv5_1"
  param {
    lr_mult: 1
    decay_mult: 0
  }
  param {
    lr_mult: 1
    decay_mult: 0
  }
  convolution_param {
    num_output: 512
    pad: 1
    kernel_size: 3
  }
}
layer {
  name: "relu5_1"
  type: "ReLU"
  bottom: "conv5_1"
  top: "conv5_1"
}
layer {
  name: "conv5_2"
  type: "Convolution"
  bottom: "conv5_1"
  top: "conv5_2"
  param {
    lr_mult: 1
    decay_mult: 0
  }
  param {
    lr_mult: 1
    decay_mult: 0
  }
  convolution_param {
    num_output: 512
    pad: 1
    kernel_size: 3
  }
}
layer {
  name: "relu5_2"
  type: "ReLU"
  bottom: "conv5_2"
  top: "conv5_2"
}
layer {
  name: "conv5_3"
  type: "Convolution"
  bottom: "conv5_2"
  top: "conv5_3"
  param {
    lr_mult: 1
    decay_mult: 0
  }
  param {
    lr_mult: 1
    decay_mult: 0
  }
  convolution_param {
    num_output: 512
    pad: 1
    kernel_size: 3
  }
}
layer {
  name: "relu5_3"
  type: "ReLU"
  bottom: "conv5_3"
  top: "conv5_3"
}
layer {
  name: "pool5"
  type: "Pooling"
  bottom: "conv5_3"
  top: "pool5"
  pooling_param {
    pool: MAX
    kernel_size: 2
    stride: 2
  }
}
layer {
  name: "fc6_"
  type: "InnerProduct"
  bottom: "pool5"
  top: "fc6_"
  param {
    lr_mult: 1
    decay_mult: 0
  }
  param {
    lr_mult: 1
    decay_mult: 0
  }
  inner_product_param {
    num_output: 1024
    weight_filler {
      type: "xavier"
    }
    bias_filler {
      type: "constant"
    }
  }
}
layer {
  name: "relu6"
  type: "ReLU"
  bottom: "fc6_"
  top: "fc6"
}
layer {
  name: "drop6"
  type: "Dropout"
  bottom: "fc6"
  top: "fc6"
  dropout_param {
    dropout_ratio: 0.5
  }
}
layer {
  name: "fc7_"
  type: "InnerProduct"
  bottom: "fc6"
  top: "fc7_"
  param {
    lr_mult: 1
    decay_mult: 0
  }
  param {
    lr_mult: 1
    decay_mult: 0
  }
  inner_product_param {
    num_output: 1024
    weight_filler {
      type: "xavier"
    }
    bias_filler {
      type: "constant"
    }
  }
}
layer {
  name: "relu7"
  type: "ReLU"
  bottom: "fc7_"
  top: "fc7_"
}
layer {
  name: "s"
  type: "Split"
  bottom: "fc7_"
  top: "fc7"
  top: "features"
}
layer {
  name: "drop7"
  type: "Dropout"
  bottom: "fc7"
  top: "fc7"
  dropout_param {
    dropout_ratio: 0.5
  }
}
layer {
  name: "arg-inner"
  type: "InnerProduct"
  bottom: "fc7"
  top: "arg-inner"
  param {
    lr_mult: 1
    decay_mult: 0
  }
  param {
    lr_mult: 1
    decay_mult: 0
  }
  inner_product_param {
    num_output: 121381
  }
}
layer {
  name: "slicer"
  type: "Slice"
  bottom: "arg-inner"
  top: "value-adjusting-Tool"
  top: "value-adjusting-Item"
  top: "value-adjusting-Feature"
  top: "value-adjusting-Place"
  top: "value-adjusting-Agent"
  top: "value-admiring-Place"
  top: "value-admiring-Admired"
  top: "value-admiring-Agent"
  top: "value-ailing-Cause"
  top: "value-ailing-Place"
  top: "value-ailing-Victim"
  top: "value-ailing-VictimPart"
  top: "value-aiming-Place"
…
  top: "value-inserting-Container"
  top: "value-installing-Tool"
  top: "value-installing-Place"
  top: "value-installing-Component"
  top: "value-installing-Destination"
  top: "value-installing-Ag
I0502 09:50:36.086714 25078 net.cpp:413] Input 0 -> data
I0502 09:50:36.098273 25078 layer_factory.hpp:76] Creating layer conv1_1
I0502 09:50:36.098299 25078 net.cpp:106] Creating Layer conv1_1
I0502 09:50:36.098304 25078 net.cpp:454] conv1_1 <- data
I0502 09:50:36.098312 25078 net.cpp:411] conv1_1 -> conv1_1
I0502 09:50:36.099472 25078 net.cpp:150] Setting up conv1_1
I0502 09:50:36.099490 25078 net.cpp:157] Top shape: 1 64 224 224 (3211264)
I0502 09:50:36.099495 25078 net.cpp:165] Memory required for data: 12845056
I0502 09:50:36.099509 25078 layer_factory.hpp:76] Creating layer relu1_1
I0502 09:50:36.099519 25078 net.cpp:106] Creating Layer relu1_1
I0502 09:50:36.099524 25078 net.cpp:454] relu1_1 <- conv1_1
I0502 09:50:36.099530 25078 net.cpp:397] relu1_1 -> conv1_1 (in-place)
I0502 09:50:36.099542 25078 net.cpp:150] Setting up relu1_1
I0502 09:50:36.099548 25078 net.cpp:157] Top shape: 1 64 224 224 (3211264)
I0502 09:50:36.099552 25078 net.cpp:165] Memory required for data: 25690112
I0502 09:50:36.099556 25078 layer_factory.hpp:76] Creating layer conv1_2
I0502 09:50:36.099565 25078 net.cpp:106] Creating Layer conv1_2
I0502 09:50:36.099570 25078 net.cpp:454] conv1_2 <- conv1_1
I0502 09:50:36.099575 25078 net.cpp:411] conv1_2 -> conv1_2
I0502 09:50:36.099800 25078 net.cpp:150] Setting up conv1_2
I0502 09:50:36.099810 25078 net.cpp:157] Top shape: 1 64 224 224 (3211264)
I0502 09:50:36.099814 25078 net.cpp:165] Memory required for data: 38535168
I0502 09:50:36.099823 25078 layer_factory.hpp:76] Creating layer relu1_2
I0502 09:50:36.099830 25078 net.cpp:106] Creating Layer relu1_2
I0502 09:50:36.099834 25078 net.cpp:454] relu1_2 <- conv1_2
I0502 09:50:36.099839 25078 net.cpp:397] relu1_2 -> conv1_2 (in-place)
I0502 09:50:36.099845 25078 net.cpp:150] Setting up relu1_2
I0502 09:50:36.099851 25078 net.cpp:157] Top shape: 1 64 224 224 (3211264)
I0502 09:50:36.099854 25078 net.cpp:165] Memory required for data: 51380224
I0502 09:50:36.099858 25078 layer_factory.hpp:76] Creating layer pool1
I0502 09:50:36.099867 25078 net.cpp:106] Creating Layer pool1
I0502 09:50:36.099872 25078 net.cpp:454] pool1 <- conv1_2
I0502 09:50:36.099877 25078 net.cpp:411] pool1 -> pool1
I0502 09:50:36.099915 25078 net.cpp:150] Setting up pool1
I0502 09:50:36.099921 25078 net.cpp:157] Top shape: 1 64 112 112 (802816)
I0502 09:50:36.099925 25078 net.cpp:165] Memory required for data: 54591488
I0502 09:50:36.099930 25078 layer_factory.hpp:76] Creating layer conv2_1
I0502 09:50:36.099937 25078 net.cpp:106] Creating Layer conv2_1
I0502 09:50:36.099942 25078 net.cpp:454] conv2_1 <- pool1
I0502 09:50:36.099947 25078 net.cpp:411] conv2_1 -> conv2_1
I0502 09:50:36.101096 25078 net.cpp:150] Setting up conv2_1
I0502 09:50:36.101119 25078 net.cpp:157] Top shape: 1 128 112 112 (1605632)
I0502 09:50:36.101122 25078 net.cpp:165] Memory required for data: 61014016
I0502 09:50:36.101133 25078 layer_factory.hpp:76] Creating layer relu2_1
I0502 09:50:36.101141 25078 net.cpp:106] Creating Layer relu2_1
I0502 09:50:36.101146 25078 net.cpp:454] relu2_1 <- conv2_1
I0502 09:50:36.101153 25078 net.cpp:397] relu2_1 -> conv2_1 (in-place)
I0502 09:50:36.101161 25078 net.cpp:150] Setting up relu2_1
I0502 09:50:36.101166 25078 net.cpp:157] Top shape: 1 128 112 112 (1605632)
I0502 09:50:36.101171 25078 net.cpp:165] Memory required for data: 67436544
I0502 09:50:36.101173 25078 layer_factory.hpp:76] Creating layer conv2_2
I0502 09:50:36.101181 25078 net.cpp:106] Creating Layer conv2_2
I0502 09:50:36.101186 25078 net.cpp:454] conv2_2 <- conv2_1
I0502 09:50:36.101192 25078 net.cpp:411] conv2_2 -> conv2_2
I0502 09:50:36.101444 25078 net.cpp:150] Setting up conv2_2
I0502 09:50:36.101454 25078 net.cpp:157] Top shape: 1 128 112 112 (1605632)
I0502 09:50:36.101457 25078 net.cpp:165] Memory required for data: 73859072
I0502 09:50:36.101464 25078 layer_factory.hpp:76] Creating layer relu2_2
I0502 09:50:36.101471 25078 net.cpp:106] Creating Layer relu2_2
I0502 09:50:36.101476 25078 net.cpp:454] relu2_2 <- conv2_2
I0502 09:50:36.101481 25078 net.cpp:397] relu2_2 -> conv2_2 (in-place)
I0502 09:50:36.101487 25078 net.cpp:150] Setting up relu2_2
I0502 09:50:36.101491 25078 net.cpp:157] Top shape: 1 128 112 112 (1605632)
I0502 09:50:36.101495 25078 net.cpp:165] Memory required for data: 80281600
I0502 09:50:36.101500 25078 layer_factory.hpp:76] Creating layer pool2
I0502 09:50:36.101507 25078 net.cpp:106] Creating Layer pool2
I0502 09:50:36.101511 25078 net.cpp:454] pool2 <- conv2_2
I0502 09:50:36.101516 25078 net.cpp:411] pool2 -> pool2
I0502 09:50:36.101548 25078 net.cpp:150] Setting up pool2
I0502 09:50:36.101554 25078 net.cpp:157] Top shape: 1 128 56 56 (401408)
I0502 09:50:36.101558 25078 net.cpp:165] Memory required for data: 81887232
I0502 09:50:36.101562 25078 layer_factory.hpp:76] Creating layer conv3_1
I0502 09:50:36.101569 25078 net.cpp:106] Creating Layer conv3_1
I0502 09:50:36.101574 25078 net.cpp:454] conv3_1 <- pool2
I0502 09:50:36.101579 25078 net.cpp:411] conv3_1 -> conv3_1
I0502 09:50:36.102386 25078 net.cpp:150] Setting up conv3_1
I0502 09:50:36.102401 25078 net.cpp:157] Top shape: 1 256 56 56 (802816)
I0502 09:50:36.102406 25078 net.cpp:165] Memory required for data: 85098496
I0502 09:50:36.102421 25078 layer_factory.hpp:76] Creating layer relu3_1
I0502 09:50:36.102427 25078 net.cpp:106] Creating Layer relu3_1
I0502 09:50:36.102432 25078 net.cpp:454] relu3_1 <- conv3_1
I0502 09:50:36.102437 25078 net.cpp:397] relu3_1 -> conv3_1 (in-place)
I0502 09:50:36.102444 25078 net.cpp:150] Setting up relu3_1
I0502 09:50:36.102449 25078 net.cpp:157] Top shape: 1 256 56 56 (802816)
I0502 09:50:36.102453 25078 net.cpp:165] Memory required for data: 88309760
I0502 09:50:36.102458 25078 layer_factory.hpp:76] Creating layer conv3_2
I0502 09:50:36.102465 25078 net.cpp:106] Creating Layer conv3_2
I0502 09:50:36.102469 25078 net.cpp:454] conv3_2 <- conv3_1
I0502 09:50:36.102474 25078 net.cpp:411] conv3_2 -> conv3_2
I0502 09:50:36.103780 25078 net.cpp:150] Setting up conv3_2
I0502 09:50:36.103795 25078 net.cpp:157] Top shape: 1 256 56 56 (802816)
I0502 09:50:36.103798 25078 net.cpp:165] Memory required for data: 91521024
I0502 09:50:36.103806 25078 layer_factory.hpp:76] Creating layer relu3_2
I0502 09:50:36.103814 25078 net.cpp:106] Creating Layer relu3_2
I0502 09:50:36.103819 25078 net.cpp:454] relu3_2 <- conv3_2
I0502 09:50:36.103824 25078 net.cpp:397] relu3_2 -> conv3_2 (in-place)
I0502 09:50:36.103831 25078 net.cpp:150] Setting up relu3_2
I0502 09:50:36.103837 25078 net.cpp:157] Top shape: 1 256 56 56 (802816)
I0502 09:50:36.103839 25078 net.cpp:165] Memory required for data: 94732288
I0502 09:50:36.103843 25078 layer_factory.hpp:76] Creating layer conv3_3
I0502 09:50:36.103852 25078 net.cpp:106] Creating Layer conv3_3
I0502 09:50:36.103860 25078 net.cpp:454] conv3_3 <- conv3_2
I0502 09:50:36.103866 25078 net.cpp:411] conv3_3 -> conv3_3
I0502 09:50:36.105185 25078 net.cpp:150] Setting up conv3_3
I0502 09:50:36.105200 25078 net.cpp:157] Top shape: 1 256 56 56 (802816)
I0502 09:50:36.105203 25078 net.cpp:165] Memory required for data: 97943552
I0502 09:50:36.105211 25078 layer_factory.hpp:76] Creating layer relu3_3
I0502 09:50:36.105217 25078 net.cpp:106] Creating Layer relu3_3
I0502 09:50:36.105222 25078 net.cpp:454] relu3_3 <- conv3_3
I0502 09:50:36.105229 25078 net.cpp:397] relu3_3 -> conv3_3 (in-place)
I0502 09:50:36.105237 25078 net.cpp:150] Setting up relu3_3
I0502 09:50:36.105242 25078 net.cpp:157] Top shape: 1 256 56 56 (802816)
I0502 09:50:36.105245 25078 net.cpp:165] Memory required for data: 101154816
I0502 09:50:36.105249 25078 layer_factory.hpp:76] Creating layer pool3
I0502 09:50:36.105257 25078 net.cpp:106] Creating Layer pool3
I0502 09:50:36.105260 25078 net.cpp:454] pool3 <- conv3_3
I0502 09:50:36.105268 25078 net.cpp:411] pool3 -> pool3
I0502 09:50:36.105301 25078 net.cpp:150] Setting up pool3
I0502 09:50:36.105309 25078 net.cpp:157] Top shape: 1 256 28 28 (200704)
I0502 09:50:36.105312 25078 net.cpp:165] Memory required for data: 101957632
I0502 09:50:36.105315 25078 layer_factory.hpp:76] Creating layer conv4_1
I0502 09:50:36.105324 25078 net.cpp:106] Creating Layer conv4_1
I0502 09:50:36.105329 25078 net.cpp:454] conv4_1 <- pool3
I0502 09:50:36.105335 25078 net.cpp:411] conv4_1 -> conv4_1
I0502 09:50:36.108053 25078 net.cpp:150] Setting up conv4_1
I0502 09:50:36.108068 25078 net.cpp:157] Top shape: 1 512 28 28 (401408)
I0502 09:50:36.108072 25078 net.cpp:165] Memory required for data: 103563264
I0502 09:50:36.108079 25078 layer_factory.hpp:76] Creating layer relu4_1
I0502 09:50:36.108088 25078 net.cpp:106] Creating Layer relu4_1
I0502 09:50:36.108093 25078 net.cpp:454] relu4_1 <- conv4_1
I0502 09:50:36.108098 25078 net.cpp:397] relu4_1 -> conv4_1 (in-place)
I0502 09:50:36.108104 25078 net.cpp:150] Setting up relu4_1
I0502 09:50:36.108109 25078 net.cpp:157] Top shape: 1 512 28 28 (401408)
I0502 09:50:36.108113 25078 net.cpp:165] Memory required for data: 105168896
I0502 09:50:36.108116 25078 layer_factory.hpp:76] Creating layer conv4_2
I0502 09:50:36.108124 25078 net.cpp:106] Creating Layer conv4_2
I0502 09:50:36.108127 25078 net.cpp:454] conv4_2 <- conv4_1
I0502 09:50:36.108134 25078 net.cpp:411] conv4_2 -> conv4_2
I0502 09:50:36.112424 25078 net.cpp:150] Setting up conv4_2
I0502 09:50:36.112444 25078 net.cpp:157] Top shape: 1 512 28 28 (401408)
I0502 09:50:36.112448 25078 net.cpp:165] Memory required for data: 106774528
I0502 09:50:36.112462 25078 layer_factory.hpp:76] Creating layer relu4_2
I0502 09:50:36.112470 25078 net.cpp:106] Creating Layer relu4_2
I0502 09:50:36.112475 25078 net.cpp:454] relu4_2 <- conv4_2
I0502 09:50:36.112481 25078 net.cpp:397] relu4_2 -> conv4_2 (in-place)
I0502 09:50:36.112488 25078 net.cpp:150] Setting up relu4_2
I0502 09:50:36.112493 25078 net.cpp:157] Top shape: 1 512 28 28 (401408)
I0502 09:50:36.112498 25078 net.cpp:165] Memory required for data: 108380160
I0502 09:50:36.112501 25078 layer_factory.hpp:76] Creating layer conv4_3
I0502 09:50:36.112510 25078 net.cpp:106] Creating Layer conv4_3
I0502 09:50:36.112514 25078 net.cpp:454] conv4_3 <- conv4_2
I0502 09:50:36.112520 25078 net.cpp:411] conv4_3 -> conv4_3
I0502 09:50:36.116734 25078 net.cpp:150] Setting up conv4_3
I0502 09:50:36.116755 25078 net.cpp:157] Top shape: 1 512 28 28 (401408)
I0502 09:50:36.116758 25078 net.cpp:165] Memory required for data: 109985792
I0502 09:50:36.116767 25078 layer_factory.hpp:76] Creating layer relu4_3
I0502 09:50:36.116775 25078 net.cpp:106] Creating Layer relu4_3
I0502 09:50:36.116780 25078 net.cpp:454] relu4_3 <- conv4_3
I0502 09:50:36.116786 25078 net.cpp:397] relu4_3 -> conv4_3 (in-place)
I0502 09:50:36.116793 25078 net.cpp:150] Setting up relu4_3
I0502 09:50:36.116798 25078 net.cpp:157] Top shape: 1 512 28 28 (401408)
I0502 09:50:36.116801 25078 net.cpp:165] Memory required for data: 111591424
I0502 09:50:36.116812 25078 layer_factory.hpp:76] Creating layer pool4
I0502 09:50:36.116819 25078 net.cpp:106] Creating Layer pool4
I0502 09:50:36.116823 25078 net.cpp:454] pool4 <- conv4_3
I0502 09:50:36.116828 25078 net.cpp:411] pool4 -> pool4
I0502 09:50:36.116863 25078 net.cpp:150] Setting up pool4
I0502 09:50:36.116870 25078 net.cpp:157] Top shape: 1 512 14 14 (100352)
I0502 09:50:36.116874 25078 net.cpp:165] Memory required for data: 111992832
I0502 09:50:36.116878 25078 layer_factory.hpp:76] Creating layer conv5_1
I0502 09:50:36.116886 25078 net.cpp:106] Creating Layer conv5_1
I0502 09:50:36.116891 25078 net.cpp:454] conv5_1 <- pool4
I0502 09:50:36.116896 25078 net.cpp:411] conv5_1 -> conv5_1
I0502 09:50:36.121033 25078 net.cpp:150] Setting up conv5_1
I0502 09:50:36.121052 25078 net.cpp:157] Top shape: 1 512 14 14 (100352)
I0502 09:50:36.121057 25078 net.cpp:165] Memory required for data: 112394240
I0502 09:50:36.121065 25078 layer_factory.hpp:76] Creating layer relu5_1
I0502 09:50:36.121073 25078 net.cpp:106] Creating Layer relu5_1
I0502 09:50:36.121088 25078 net.cpp:454] relu5_1 <- conv5_1
I0502 09:50:36.121094 25078 net.cpp:397] relu5_1 -> conv5_1 (in-place)
I0502 09:50:36.121101 25078 net.cpp:150] Setting up relu5_1
I0502 09:50:36.121106 25078 net.cpp:157] Top shape: 1 512 14 14 (100352)
I0502 09:50:36.121110 25078 net.cpp:165] Memory required for data: 112795648
I0502 09:50:36.121114 25078 layer_factory.hpp:76] Creating layer conv5_2
I0502 09:50:36.121122 25078 net.cpp:106] Creating Layer conv5_2
I0502 09:50:36.121126 25078 net.cpp:454] conv5_2 <- conv5_1
I0502 09:50:36.121132 25078 net.cpp:411] conv5_2 -> conv5_2
I0502 09:50:36.125347 25078 net.cpp:150] Setting up conv5_2
I0502 09:50:36.125367 25078 net.cpp:157] Top shape: 1 512 14 14 (100352)
I0502 09:50:36.125371 25078 net.cpp:165] Memory required for data: 113197056
I0502 09:50:36.125380 25078 layer_factory.hpp:76] Creating layer relu5_2
I0502 09:50:36.125388 25078 net.cpp:106] Creating Layer relu5_2
I0502 09:50:36.125393 25078 net.cpp:454] relu5_2 <- conv5_2
I0502 09:50:36.125398 25078 net.cpp:397] relu5_2 -> conv5_2 (in-place)
I0502 09:50:36.125406 25078 net.cpp:150] Setting up relu5_2
I0502 09:50:36.125411 25078 net.cpp:157] Top shape: 1 512 14 14 (100352)
I0502 09:50:36.125414 25078 net.cpp:165] Memory required for data: 113598464
I0502 09:50:36.125417 25078 layer_factory.hpp:76] Creating layer conv5_3
I0502 09:50:36.125427 25078 net.cpp:106] Creating Layer conv5_3
I0502 09:50:36.125430 25078 net.cpp:454] conv5_3 <- conv5_2
I0502 09:50:36.125437 25078 net.cpp:411] conv5_3 -> conv5_3
I0502 09:50:36.129582 25078 net.cpp:150] Setting up conv5_3
I0502 09:50:36.129602 25078 net.cpp:157] Top shape: 1 512 14 14 (100352)
I0502 09:50:36.129606 25078 net.cpp:165] Memory required for data: 113999872
I0502 09:50:36.129614 25078 layer_factory.hpp:76] Creating layer relu5_3
I0502 09:50:36.129623 25078 net.cpp:106] Creating Layer relu5_3
I0502 09:50:36.129627 25078 net.cpp:454] relu5_3 <- conv5_3
I0502 09:50:36.129633 25078 net.cpp:397] relu5_3 -> conv5_3 (in-place)
I0502 09:50:36.129640 25078 net.cpp:150] Setting up relu5_3
I0502 09:50:36.129645 25078 net.cpp:157] Top shape: 1 512 14 14 (100352)
I0502 09:50:36.129648 25078 net.cpp:165] Memory required for data: 114401280
I0502 09:50:36.129652 25078 layer_factory.hpp:76] Creating layer pool5
I0502 09:50:36.129659 25078 net.cpp:106] Creating Layer pool5
I0502 09:50:36.129663 25078 net.cpp:454] pool5 <- conv5_3
I0502 09:50:36.129668 25078 net.cpp:411] pool5 -> pool5
I0502 09:50:36.129709 25078 net.cpp:150] Setting up pool5
I0502 09:50:36.129715 25078 net.cpp:157] Top shape: 1 512 7 7 (25088)
I0502 09:50:36.129719 25078 net.cpp:165] Memory required for data: 114501632
I0502 09:50:36.129722 25078 layer_factory.hpp:76] Creating layer fc6_
I0502 09:50:36.129731 25078 net.cpp:106] Creating Layer fc6_
I0502 09:50:36.129735 25078 net.cpp:454] fc6_ <- pool5
I0502 09:50:36.129741 25078 net.cpp:411] fc6_ -> fc6_
I0502 09:50:36.284838 25078 net.cpp:150] Setting up fc6_
I0502 09:50:36.284870 25078 net.cpp:157] Top shape: 1 1024 (1024)
I0502 09:50:36.284880 25078 net.cpp:165] Memory required for data: 114505728
I0502 09:50:36.284890 25078 layer_factory.hpp:76] Creating layer relu6
I0502 09:50:36.284905 25078 net.cpp:106] Creating Layer relu6
I0502 09:50:36.284910 25078 net.cpp:454] relu6 <- fc6_
I0502 09:50:36.284916 25078 net.cpp:411] relu6 -> fc6
I0502 09:50:36.284939 25078 net.cpp:150] Setting up relu6
I0502 09:50:36.284943 25078 net.cpp:157] Top shape: 1 1024 (1024)
I0502 09:50:36.284947 25078 net.cpp:165] Memory required for data: 114509824
I0502 09:50:36.284950 25078 layer_factory.hpp:76] Creating layer drop6
I0502 09:50:36.284958 25078 net.cpp:106] Creating Layer drop6
I0502 09:50:36.284962 25078 net.cpp:454] drop6 <- fc6
I0502 09:50:36.284966 25078 net.cpp:397] drop6 -> fc6 (in-place)
I0502 09:50:36.284982 25078 net.cpp:150] Setting up drop6
I0502 09:50:36.284987 25078 net.cpp:157] Top shape: 1 1024 (1024)
I0502 09:50:36.284991 25078 net.cpp:165] Memory required for data: 114513920
I0502 09:50:36.284993 25078 layer_factory.hpp:76] Creating layer fc7_
I0502 09:50:36.285001 25078 net.cpp:106] Creating Layer fc7_
I0502 09:50:36.285004 25078 net.cpp:454] fc7_ <- fc6
I0502 09:50:36.285009 25078 net.cpp:411] fc7_ -> fc7_
I0502 09:50:36.291122 25078 net.cpp:150] Setting up fc7_
I0502 09:50:36.291134 25078 net.cpp:157] Top shape: 1 1024 (1024)
I0502 09:50:36.291137 25078 net.cpp:165] Memory required for data: 114518016
I0502 09:50:36.291143 25078 layer_factory.hpp:76] Creating layer relu7
I0502 09:50:36.291151 25078 net.cpp:106] Creating Layer relu7
I0502 09:50:36.291154 25078 net.cpp:454] relu7 <- fc7_
I0502 09:50:36.291158 25078 net.cpp:397] relu7 -> fc7_ (in-place)
I0502 09:50:36.291164 25078 net.cpp:150] Setting up relu7
I0502 09:50:36.291168 25078 net.cpp:157] Top shape: 1 1024 (1024)
I0502 09:50:36.291172 25078 net.cpp:165] Memory required for data: 114522112
I0502 09:50:36.291174 25078 layer_factory.hpp:76] Creating layer s
I0502 09:50:36.291179 25078 net.cpp:106] Creating Layer s
I0502 09:50:36.291182 25078 net.cpp:454] s <- fc7_
I0502 09:50:36.291187 25078 net.cpp:411] s -> fc7
I0502 09:50:36.291194 25078 net.cpp:411] s -> features
I0502 09:50:36.291219 25078 net.cpp:150] Setting up s
I0502 09:50:36.291224 25078 net.cpp:157] Top shape: 1 1024 (1024)
I0502 09:50:36.291229 25078 net.cpp:157] Top shape: 1 1024 (1024)
I0502 09:50:36.291231 25078 net.cpp:165] Memory required for data: 114530304
I0502 09:50:36.291234 25078 layer_factory.hpp:76] Creating layer drop7
I0502 09:50:36.291240 25078 net.cpp:106] Creating Layer drop7
I0502 09:50:36.291244 25078 net.cpp:454] drop7 <- fc7
I0502 09:50:36.291249 25078 net.cpp:397] drop7 -> fc7 (in-place)
I0502 09:50:36.291263 25078 net.cpp:150] Setting up drop7
I0502 09:50:36.291267 25078 net.cpp:157] Top shape: 1 1024 (1024)
I0502 09:50:36.291270 25078 net.cpp:165] Memory required for data: 114534400
I0502 09:50:36.291275 25078 layer_factory.hpp:76] Creating layer fc7_drop7_0_split
I0502 09:50:36.291278 25078 net.cpp:106] Creating Layer fc7_drop7_0_split
I0502 09:50:36.291281 25078 net.cpp:454] fc7_drop7_0_split <- fc7
I0502 09:50:36.291287 25078 net.cpp:411] fc7_drop7_0_split -> fc7_drop7_0_split_0
I0502 09:50:36.291292 25078 net.cpp:411] fc7_drop7_0_split -> fc7_drop7_0_split_1
I0502 09:50:36.291314 25078 net.cpp:150] Setting up fc7_drop7_0_split
I0502 09:50:36.291319 25078 net.cpp:157] Top shape: 1 1024 (1024)
I0502 09:50:36.291322 25078 net.cpp:157] Top shape: 1 1024 (1024)
I0502 09:50:36.291326 25078 net.cpp:165] Memory required for data: 114542592
I0502 09:50:36.291328 25078 layer_factory.hpp:76] Creating layer arg-inner
I0502 09:50:36.291335 25078 net.cpp:106] Creating Layer arg-inner
I0502 09:50:36.291338 25078 net.cpp:454] arg-inner <- fc7_drop7_0_split_0
I0502 09:50:36.291343 25078 net.cpp:411] arg-inner -> arg-inner
I0502 09:50:36.505985 25078 net.cpp:150] Setting up arg-inner
I0502 09:50:36.506017 25078 net.cpp:157] Top shape: 1 121381 (121381)
I0502 09:50:36.506021 25078 net.cpp:165] Memory required for data: 115028116
I0502 09:50:36.506031 25078 layer_factory.hpp:76] Creating layer slicer
I0502 09:50:36.506152 25078 net.cpp:106] Creating Layer slicer
I0502 09:50:36.506160 25078 net.cpp:454] slicer <- arg-inner
I0502 09:50:36.506258 25078 net.cpp:411] slicer -> value-adjusting-Tool
I0502 09:50:36.506388 25078 net.cpp:411] slicer -> value-adjusting-Item
…
I0502 09:50:36.735998 25078 net.cpp:411] slicer -> value-writing-Target
I0502 09:50:36.736127 25078 net.cpp:411] slicer -> value-yanking-Yanked
I0502 09:50:36.736256 25078 net.cpp:411] slicer -> value-yanking-Place
I0502 09:50:36.736385 25078 net.cpp:411] slicer -> value-yanking-YankedPart
I0502 09:50:36.736515 25078 net.cpp:411] slicer -> value-yanking-Agent
I0502 09:50:36.736644 25078 net.cpp:411] slicer -> value-yawning-Agent
I0502 09:50:36.736773 25078 net.cpp:411] slicer -> value-yawning-Place
I0502 09:50:36.736840 25078 slice_layer.cpp:24] !1 121381
I0502 09:50:36.750543 25078 net.cpp:150] Setting up slicer
I0502 09:50:36.750553 25078 net.cpp:157] Top shape: 1 92 (92)
I0502 09:50:36.750557 25078 net.cpp:157] Top shape: 1 293 (293)
I0502 09:50:36.750561 25078 net.cpp:157] Top shape: 1 210 (210)
I0502 09:50:36.750565 25078 net.cpp:157] Top shape: 1 83 (83)
I0502 09:50:36.750568 25078 net.cpp:157] Top shape: 1 49 (49)
I0502 09:50:36.750572 25078 net.cpp:157] Top shape: 1 164 (164)
I0502 09:50:36.750576 25078 net.cpp:157] Top shape: 1 249 (249)
I0502 09:50:36.750579 25078 net.cpp:157] Top shape: 1 63 (63)
I0502 09:50:36.750583 25078 net.cpp:157] Top shape: 1 86 (86)
I0502 09:50:36.750587 25078 net.cpp:157] Top shape: 1 69 (69)
I0502 09:50:36.750591 25078 net.cpp:157] Top shape: 1 46 (46)
I0502 09:50:36.750594 25078 net.cpp:157] Top shape: 1 55 (55)
I0502 09:50:36.750597 25078 net.cpp:157] Top shape: 1 73 (73)
I0502 09:50:36.750602 25078 net.cpp:157] Top shape: 1 55 (55)
I0502 09:50:36.750604 25078 net.cpp:157] Top shape: 1 53 (53)
I0502 09:50:36.750608 25078 net.cpp:157] Top shape: 1 47 (47)
I0502 09:50:36.750615 25078 net.cpp:157] Top shape: 1 104 (104)
I0502 09:50:36.750618 25078 net.cpp:157] Top shape: 1 74 (74)
I0502 09:50:36.750622 25078 net.cpp:157] Top shape: 1 85 (85)
I0502 09:50:36.750627 25078 net.cpp:157] Top shape: 1 82 (82)
I0502 09:50:36.750629 25078 net.cpp:157] Top shape: 1 146 (146)
I0502 09:50:36.750633 25078 net.cpp:157] Top shape: 1 59 (59)
I0502 09:50:36.750636 25078 net.cpp:157] Top shape: 1 125 (125)
I0502 09:50:36.750640 25078 net.cpp:157] Top shape: 1 36 (36)
I0502 09:50:36.750643 25078 net.cpp:157] Top shape: 1 54 (54)
I0502 09:50:36.750648 25078 net.cpp:157] Top shape: 1 70 (70)
I0502 09:50:36.750650 25078 net.cpp:157] Top shape: 1 43 (43)
I0502 09:50:36.750654 25078 net.cpp:157] Top shape: 1 65 (65)
I0502 09:50:36.750658 25078 net.cpp:157] Top shape: 1 33 (33)
I0502 09:50:36.750661 25078 net.cpp:157] Top shape: 1 35 (35)
I0502 09:50:36.750664 25078 net.cpp:157] Top shape: 1 74 (74)
I0502 09:50:36.750669 25078 net.cpp:157] Top shape: 1 166 (166)
I0502 09:50:36.750672 25078 net.cpp:157] Top shape: 1 37 (37)
I0502 09:50:36.750675 25078 net.cpp:157] Top shape: 1 104 (104)
I0502 09:50:36.750679 25078 net.cpp:157] Top shape: 1 49 (49)
I0502 09:50:36.750682 25078 net.cpp:157] Top shape: 1 44 (44)
I0502 09:50:36.750686 25078 net.cpp:157] Top shape: 1 27 (27)
I0502 09:50:36.750690 25078 net.cpp:157] Top shape: 1 44 (44)
I0502 09:50:36.750694 25078 net.cpp:157] Top shape: 1 66 (66)
I0502 09:50:36.750697 25078 net.cpp:157] Top shape: 1 85 (85)
I0502 09:50:36.750700 25078 net.cpp:157] Top shape: 1 70 (70)
I0502 09:50:36.750705 25078 net.cpp:157] Top shape: 1 70 (70)
I0502 09:50:36.750707 25078 net.cpp:157] Top shape: 1 118 (118)
I0502 09:50:36.750711 25078 net.cpp:157] Top shape: 1 224 (224)
I0502 09:50:36.750715 25078 net.cpp:157] Top shape: 1 73 (73)
I0502 09:50:36.750718 25078 net.cpp:157] Top shape: 1 233 (233)
I0502 09:50:36.750721 25078 net.cpp:157] Top shape: 1 50 (50)
I0502 09:50:36.750725 25078 net.cpp:157] Top shape: 1 277 (277)
I0502 09:50:36.750728 25078 net.cpp:157] Top shape: 1 73 (73)
I0502 09:50:36.750732 25078 net.cpp:157] Top shape: 1 292 (292)
I0502 09:50:36.750736 25078 net.cpp:157] Top shape: 1 41 (41)
I0502 09:50:36.750740 25078 net.cpp:157] Top shape: 1 114 (114)
I0502 09:50:36.750743 25078 net.cpp:157] Top shape: 1 81 (81)
I0502 09:50:36.750746 25078 net.cpp:157] Top shape: 1 96 (96)
I0502 09:50:36.750751 25078 net.cpp:157] Top shape: 1 106 (106)
I0502 09:50:36.750753 25078 net.cpp:157] Top shape: 1 105 (105)
I0502 09:50:36.750757 25078 net.cpp:157] Top shape: 1 128 (128)
I0502 09:50:36.750761 25078 net.cpp:157] Top shape: 1 78 (78)
I0502 09:50:36.750764 25078 net.cpp:157] Top shape: 1 74 (74)
I0502 09:50:36.750767 25078 net.cpp:157] Top shape: 1 28 (28)
I0502 09:50:36.750771 25078 net.cpp:157] Top shape: 1 38 (38)
I0502 09:50:36.750774 25078 net.cpp:157] Top shape: 1 32 (32)
I0502 09:50:36.750778 25078 net.cpp:157] Top shape: 1 90 (90)
I0502 09:50:36.750782 25078 net.cpp:157] Top shape: 1 38 (38)
I0502 09:50:36.750785 25078 net.cpp:157] Top shape: 1 68 (68)
I0502 09:50:36.750788 25078 net.cpp:157] Top shape: 1 22 (22)
I0502 09:50:36.750792 25078 net.cpp:157] Top shape: 1 19 (19)
I0502 09:50:36.750795 25078 net.cpp:157] Top shape: 1 39 (39)
I0502 09:50:36.750799 25078 net.cpp:157] Top shape: 1 48 (48)
I0502 09:50:36.750802 25078 net.cpp:157] Top shape: 1 72 (72)
I0502 09:50:36.750807 25078 net.cpp:157] Top shape: 1 42 (42)
I0502 09:50:36.750809 25078 net.cpp:157] Top shape: 1 31 (31)
I0502 09:50:36.750813 25078 net.cpp:157] Top shape: 1 34 (34)
I0502 09:50:36.750816 25078 net.cpp:157] Top shape: 1 29 (29)
I0502 09:50:36.750820 25078 net.cpp:157] Top shape: 1 60 (60)
I0502 09:50:36.750823 25078 net.cpp:157] Top shape: 1 48 (48)
I0502 09:50:36.750828 25078 net.cpp:157] Top shape: 1 31 (31)
I0502 09:50:36.750830 25078 net.cpp:157] Top shape: 1 25 (25)
I0502 09:50:36.750834 25078 net.cpp:157] Top shape: 1 36 (36)
I0502 09:50:36.750838 25078 net.cpp:157] Top shape: 1 53 (53)
I0502 09:50:36.750841 25078 net.cpp:157] Top shape: 1 36 (36)
I0502 09:50:36.750846 25078 net.cpp:157] Top shape: 1 37 (37)
I0502 09:50:36.750850 25078 net.cpp:157] Top shape: 1 56 (56)
I0502 09:50:36.750854 25078 net.cpp:157] Top shape: 1 40 (40)
I0502 09:50:36.750857 25078 net.cpp:157] Top shape: 1 57 (57)
I0502 09:50:36.750860 25078 net.cpp:157] Top shape: 1 30 (30)
I0502 09:50:36.750864 25078 net.cpp:157] Top shape: 1 23 (23)
I0502 09:50:36.750867 25078 net.cpp:157] Top shape: 1 60 (60)
I0502 09:50:36.750871 25078 net.cpp:157] Top shape: 1 32 (32)
I0502 09:50:36.750874 25078 net.cpp:157] Top shape: 1 66 (66)
I0502 09:50:36.750879 25078 net.cpp:157] Top shape: 1 93 (93)
I0502 09:50:36.750881 25078 net.cpp:157] Top shape: 1 190 (190)
I0502 09:50:36.750885 25078 net.cpp:157] Top shape: 1 93 (93)
I0502 09:50:36.750888 25078 net.cpp:157] Top shape: 1 75 (75)
I0502 09:50:36.750892 25078 net.cpp:157] Top shape: 1 78 (78)
I0502 09:50:36.750895 25078 net.cpp:157] Top shape: 1 84 (84)
I0502 09:50:36.750900 25078 net.cpp:157] Top shape: 1 63 (63)
I0502 09:50:36.750902 25078 net.cpp:157] Top shape: 1 31 (31)
I0502 09:50:36.750906 25078 net.cpp:157] Top shape: 1 64 (64)
I0502 09:50:36.750910 25078 net.cpp:157] Top shape: 1 42 (42)
I0502 09:50:36.750913 25078 net.cpp:157] Top shape: 1 50 (50)
I0502 09:50:36.750917 25078 net.cpp:157] Top shape: 1 47 (47)
I0502 09:50:36.750921 25078 net.cpp:157] Top shape: 1 30 (30)
I0502 09:50:36.750924 25078 net.cpp:157] Top shape: 1 15 (15)
I0502 09:50:36.750928 25078 net.cpp:157] Top shape: 1 32 (32)
I0502 09:50:36.750931 25078 net.cpp:157] Top shape: 1 64 (64)
I0502 09:50:36.750936 25078 net.cpp:157] Top shape: 1 164 (164)
I0502 09:50:36.750938 25078 net.cpp:157] Top shape: 1 81 (81)
I0502 09:50:36.750942 25078 net.cpp:157] Top shape: 1 66 (66)
I0502 09:50:36.750946 25078 net.cpp:157] Top shape: 1 65 (65)
I0502 09:50:36.750949 25078 net.cpp:157] Top shape: 1 61 (61)
I0502 09:50:36.750952 25078 net.cpp:157] Top shape: 1 92 (92)
I0502 09:50:36.750957 25078 net.cpp:157] Top shape: 1 73 (73)
I0502 09:50:36.750959 25078 net.cpp:157] Top shape: 1 115 (115)
I0502 09:50:36.750963 25078 net.cpp:157] Top shape: 1 25 (25)
I0502 09:50:36.750967 25078 net.cpp:157] Top shape: 1 28 (28)
I0502 09:50:36.750970 25078 net.cpp:157] Top shape: 1 20 (20)
I0502 09:50:36.750974 25078 net.cpp:157] Top shape: 1 94 (94)
I0502 09:50:36.750977 25078 net.cpp:157] Top shape: 1 79 (79)
I0502 09:50:36.750982 25078 net.cpp:157] Top shape: 1 50 (50)
I0502 09:50:36.750984 25078 net.cpp:157] Top shape: 1 84 (84)
I0502 09:50:36.750988 25078 net.cpp:157] Top shape: 1 72 (72)
I0502 09:50:36.750991 25078 net.cpp:157] Top shape: 1 113 (113)
I0502 09:50:36.750995 25078 net.cpp:157] Top shape: 1 61 (61)
I0502 09:50:36.750998 25078 net.cpp:157] Top shape: 1 73 (73)
I0502 09:50:36.751003 25078 net.cpp:157] Top shape: 1 31 (31)
I0502 09:50:36.751005 25078 net.cpp:157] Top shape: 1 41 (41)
I0502 09:50:36.751009 25078 net.cpp:157] Top shape: 1 32 (32)
I0502 09:50:36.751013 25078 net.cpp:157] Top shape: 1 92 (92)
I0502 09:50:36.751016 25078 net.cpp:157] Top shape: 1 57 (57)
I0502 09:50:36.751019 25078 net.cpp:157] Top shape: 1 21 (21)
I0502 09:50:36.751024 25078 net.cpp:157] Top shape: 1 43 (43)
I0502 09:50:36.751026 25078 net.cpp:157] Top shape: 1 28 (28)
I0502 09:50:36.751030 25078 net.cpp:157] Top shape: 1 164 (164)
I0502 09:50:36.751034 25078 net.cpp:157] Top shape: 1 89 (89)
I0502 09:50:36.751037 25078 net.cpp:157] Top shape: 1 50 (50)
I0502 09:50:36.751040 25078 net.cpp:157] Top shape: 1 135 (135)
I0502 09:50:36.751044 25078 net.cpp:157] Top shape: 1 91 (91)
I0502 09:50:36.751047 25078 net.cpp:157] Top shape: 1 19 (19)
I0502 09:50:36.751051 25078 net.cpp:157] Top shape: 1 50 (50)
I0502 09:50:36.751055 25078 net.cpp:157] Top shape: 1 30 (30)
I0502 09:50:36.751058 25078 net.cpp:157] Top shape: 1 49 (49)
I0502 09:50:36.751062 25078 net.cpp:157] Top shape: 1 37 (37)
I0502 09:50:36.751065 25078 net.cpp:157] Top shape: 1 115 (115)
I0502 09:50:36.751070 25078 net.cpp:157] Top shape: 1 55 (55)
I0502 09:50:36.751072 25078 net.cpp:157] Top shape: 1 109 (109)
I0502 09:50:36.751076 25078 net.cpp:157] Top shape: 1 133 (133)
I0502 09:50:36.751081 25078 net.cpp:157] Top shape: 1 45 (45)
I0502 09:50:36.751085 25078 net.cpp:157] Top shape: 1 49 (49)
I0502 09:50:36.751088 25078 net.cpp:157] Top shape: 1 51 (51)
I0502 09:50:36.751092 25078 net.cpp:157] Top shape: 1 14 (14)
I0502 09:50:36.751096 25078 net.cpp:157] Top shape: 1 166 (166)
I0502 09:50:36.751099 25078 net.cpp:157] Top shape: 1 81 (81)
I0502 09:50:36.751102 25078 net.cpp:157] Top shape: 1 50 (50)
I0502 09:50:36.751106 25078 net.cpp:157] Top shape: 1 40 (40)
I0502 09:50:36.751109 25078 net.cpp:157] Top shape: 1 94 (94)
I0502 09:50:36.751113 25078 net.cpp:157] Top shape: 1 48 (48)
I0502 09:50:36.751116 25078 net.cpp:157] Top shape: 1 34 (34)
I0502 09:50:36.751121 25078 net.cpp:157] Top shape: 1 44 (44)
I0502 09:50:36.751123 25078 net.cpp:157] Top shape: 1 42 (42)
I0502 09:50:36.751127 25078 net.cpp:157] Top shape: 1 65 (65)
I0502 09:50:36.751130 25078 net.cpp:157] Top shape: 1 22 (22)
I0502 09:50:36.751134 25078 net.cpp:157] Top shape: 1 39 (39)
I0502 09:50:36.751137 25078 net.cpp:157] Top shape: 1 81 (81)
I0502 09:50:36.751142 25078 net.cpp:157] Top shape: 1 71 (71)
I0502 09:50:36.751145 25078 net.cpp:157] Top shape: 1 69 (69)
I0502 09:50:36.751148 25078 net.cpp:157] Top shape: 1 31 (31)
I0502 09:50:36.751152 25078 net.cpp:157] Top shape: 1 47 (47)
I0502 09:50:36.751155 25078 net.cpp:157] Top shape: 1 25 (25)
I0502 09:50:36.751159 25078 net.cpp:157] Top shape: 1 66 (66)
I0502 09:50:36.751163 25078 net.cpp:157] Top shape: 1 117 (117)
I0502 09:50:36.751166 25078 net.cpp:157] Top shape: 1 35 (35)
I0502 09:50:36.751169 25078 net.cpp:157] Top shape: 1 25 (25)
I0502 09:50:36.751173 25078 net.cpp:157] Top shape: 1 29 (29)
I0502 09:50:36.751176 25078 net.cpp:157] Top shape: 1 52 (52)
I0502 09:50:36.751180 25078 net.cpp:157] Top shape: 1 11 (11)
I0502 09:50:36.751183 25078 net.cpp:157] Top shape: 1 34 (34)
I0502 09:50:36.751188 25078 net.cpp:157] Top shape: 1 25 (25)
I0502 09:50:36.751190 25078 net.cpp:157] Top shape: 1 66 (66)
I0502 09:50:36.751194 25078 net.cpp:157] Top shape: 1 43 (43)
I0502 09:50:36.751199 25078 net.cpp:157] Top shape: 1 56 (56)
I0502 09:50:36.751201 25078 net.cpp:157] Top shape: 1 50 (50)
I0502 09:50:36.751205 25078 net.cpp:157] Top shape: 1 86 (86)
I0502 09:50:36.751209 25078 net.cpp:157] Top shape: 1 54 (54)
I0502 09:50:36.751212 25078 net.cpp:157] Top shape: 1 26 (26)
I0502 09:50:36.751215 25078 net.cpp:157] Top shape: 1 37 (37)
I0502 09:50:36.751219 25078 net.cpp:157] Top shape: 1 53 (53)
I0502 09:50:36.751222 25078 net.cpp:157] Top shape: 1 79 (79)
I0502 09:50:36.751226 25078 net.cpp:157] Top shape: 1 43 (43)
I0502 09:50:36.751230 25078 net.cpp:157] Top shape: 1 64 (64)
I0502 09:50:36.751233 25078 net.cpp:157] Top shape: 1 102 (102)
I0502 09:50:36.751236 25078 net.cpp:157] Top shape: 1 214 (214)
I0502 09:50:36.751240 25078 net.cpp:157] Top shape: 1 50 (50)
I0502 09:50:36.751243 25078 net.cpp:157] Top shape: 1 56 (56)
I0502 09:50:36.751247 25078 net.cpp:157] Top shape: 1 62 (62)
I0502 09:50:36.751250 25078 net.cpp:157] Top shape: 1 162 (162)
I0502 09:50:36.751255 25078 net.cpp:157] Top shape: 1 76 (76)
I0502 09:50:36.751258 25078 net.cpp:157] Top shape: 1 84 (84)
I0502 09:50:36.751261 25078 net.cpp:157] Top shape: 1 78 (78)
I0502 09:50:36.751266 25078 net.cpp:157] Top shape: 1 57 (57)
I0502 09:50:36.751268 25078 net.cpp:157] Top shape: 1 25 (25)
I0502 09:50:36.751272 25078 net.cpp:157] Top shape: 1 48 (48)
I0502 09:50:36.751276 25078 net.cpp:157] Top shape: 1 96 (96)
I0502 09:50:36.751279 25078 net.cpp:157] Top shape: 1 67 (67)
I0502 09:50:36.751282 25078 net.cpp:157] Top shape: 1 93 (93)
I0502 09:50:36.751286 25078 net.cpp:157] Top shape: 1 91 (91)
I0502 09:50:36.751289 25078 net.cpp:157] Top shape: 1 100 (100)
I0502 09:50:36.751293 25078 net.cpp:157] Top shape: 1 118 (118)
I0502 09:50:36.751296 25078 net.cpp:157] Top shape: 1 83 (83)
I0502 09:50:36.751301 25078 net.cpp:157] Top shape: 1 156 (156)
I0502 09:50:36.751303 25078 net.cpp:157] Top shape: 1 112 (112)
I0502 09:50:36.751307 25078 net.cpp:157] Top shape: 1 118 (118)
I0502 09:50:36.751310 25078 net.cpp:157] Top shape: 1 111 (111)
I0502 09:50:36.751317 25078 net.cpp:157] Top shape: 1 84 (84)
I0502 09:50:36.751319 25078 net.cpp:157] Top shape: 1 167 (167)
I0502 09:50:36.751323 25078 net.cpp:157] Top shape: 1 155 (155)
I0502 09:50:36.751327 25078 net.cpp:157] Top shape: 1 43 (43)
I0502 09:50:36.751330 25078 net.cpp:157] Top shape: 1 38 (38)
I0502 09:50:36.751333 25078 net.cpp:157] Top shape: 1 76 (76)
I0502 09:50:36.751338 25078 net.cpp:157] Top shape: 1 50 (50)
I0502 09:50:36.751341 25078 net.cpp:157] Top shape: 1 33 (33)
I0502 09:50:36.751344 25078 net.cpp:157] Top shape: 1 14 (14)
I0502 09:50:36.751348 25078 net.cpp:157] Top shape: 1 67 (67)
I0502 09:50:36.751351 25078 net.cpp:157] Top shape: 1 179 (179)
I0502 09:50:36.751355 25078 net.cpp:157] Top shape: 1 82 (82)
I0502 09:50:36.751358 25078 net.cpp:157] Top shape: 1 45 (45)
I0502 09:50:36.751363 25078 net.cpp:157] Top shape: 1 69 (69)
I0502 09:50:36.751365 25078 net.cpp:157] Top shape: 1 24 (24)
I0502 09:50:36.751369 25078 net.cpp:157] Top shape: 1 26 (26)
I0502 09:50:36.751374 25078 net.cpp:157] Top shape: 1 87 (87)
I0502 09:50:36.751377 25078 net.cpp:157] Top shape: 1 22 (22)
I0502 09:50:36.751380 25078 net.cpp:157] Top shape: 1 42 (42)
I0502 09:50:36.751384 25078 net.cpp:157] Top shape: 1 86 (86)
I0502 09:50:36.751387 25078 net.cpp:157] Top shape: 1 61 (61)
I0502 09:50:36.751391 25078 net.cpp:157] Top shape: 1 94 (94)
I0502 09:50:36.751394 25078 net.cpp:157] Top shape: 1 79 (79)
I0502 09:50:36.751399 25078 net.cpp:157] Top shape: 1 8 (8)
I0502 09:50:36.751401 25078 net.cpp:157] Top shape: 1 72 (72)
I0502 09:50:36.751405 25078 net.cpp:157] Top shape: 1 155 (155)
I0502 09:50:36.751408 25078 net.cpp:157] Top shape: 1 80 (80)
I0502 09:50:36.751412 25078 net.cpp:157] Top shape: 1 59 (59)
I0502 09:50:36.751415 25078 net.cpp:157] Top shape: 1 131 (131)
I0502 09:50:36.751420 25078 net.cpp:157] Top shape: 1 273 (273)
I0502 09:50:36.751422 25078 net.cpp:157] Top shape: 1 81 (81)
I0502 09:50:36.751426 25078 net.cpp:157] Top shape: 1 160 (160)
I0502 09:50:36.751430 25078 net.cpp:157] Top shape: 1 90 (90)
I0502 09:50:36.751433 25078 net.cpp:157] Top shape: 1 91 (91)
I0502 09:50:36.751436 25078 net.cpp:157] Top shape: 1 45 (45)
I0502 09:50:36.751441 25078 net.cpp:157] Top shape: 1 72 (72)
I0502 09:50:36.751443 25078 net.cpp:157] Top shape: 1 108 (108)
I0502 09:50:36.751447 25078 net.cpp:157] Top shape: 1 38 (38)
I0502 09:50:36.751451 25078 net.cpp:157] Top shape: 1 35 (35)
I0502 09:50:36.751454 25078 net.cpp:157] Top shape: 1 14 (14)
I0502 09:50:36.751457 25078 net.cpp:157] Top shape: 1 40 (40)
I0502 09:50:36.751461 25078 net.cpp:157] Top shape: 1 64 (64)
I0502 09:50:36.751464 25078 net.cpp:157] Top shape: 1 54 (54)
I0502 09:50:36.751468 25078 net.cpp:157] Top shape: 1 49 (49)
I0502 09:50:36.751471 25078 net.cpp:157] Top shape: 1 47 (47)
I0502 09:50:36.751476 25078 net.cpp:157] Top shape: 1 88 (88)
I0502 09:50:36.751478 25078 net.cpp:157] Top shape: 1 155 (155)
I0502 09:50:36.751482 25078 net.cpp:157] Top shape: 1 110 (110)
I0502 09:50:36.751485 25078 net.cpp:157] Top shape: 1 33 (33)
I0502 09:50:36.751489 25078 net.cpp:157] Top shape: 1 67 (67)
I0502 09:50:36.751492 25078 net.cpp:157] Top shape: 1 26 (26)
I0502 09:50:36.751497 25078 net.cpp:157] Top shape: 1 60 (60)
I0502 09:50:36.751499 25078 net.cpp:157] Top shape: 1 89 (89)
I0502 09:50:36.751503 25078 net.cpp:157] Top shape: 1 48 (48)
I0502 09:50:36.751507 25078 net.cpp:157] Top shape: 1 73 (73)
I0502 09:50:36.751510 25078 net.cpp:157] Top shape: 1 25 (25)
I0502 09:50:36.751513 25078 net.cpp:157] Top shape: 1 46 (46)
I0502 09:50:36.751518 25078 net.cpp:157] Top shape: 1 74 (74)
I0502 09:50:36.751520 25078 net.cpp:157] Top shape: 1 99 (99)
I0502 09:50:36.751524 25078 net.cpp:157] Top shape: 1 59 (59)
I0502 09:50:36.751528 25078 net.cpp:157] Top shape: 1 31 (31)
I0502 09:50:36.751531 25078 net.cpp:157] Top shape: 1 67 (67)
I0502 09:50:36.751534 25078 net.cpp:157] Top shape: 1 24 (24)
I0502 09:50:36.751538 25078 net.cpp:157] Top shape: 1 45 (45)
I0502 09:50:36.751541 25078 net.cpp:157] Top shape: 1 34 (34)
I0502 09:50:36.751545 25078 net.cpp:157] Top shape: 1 19 (19)
I0502 09:50:36.751551 25078 net.cpp:157] Top shape: 1 17 (17)
I0502 09:50:36.751555 25078 net.cpp:157] Top shape: 1 19 (19)
I0502 09:50:36.751559 25078 net.cpp:157] Top shape: 1 61 (61)
I0502 09:50:36.751562 25078 net.cpp:157] Top shape: 1 99 (99)
I0502 09:50:36.751565 25078 net.cpp:157] Top shape: 1 50 (50)
I0502 09:50:36.751569 25078 net.cpp:157] Top shape: 1 43 (43)
I0502 09:50:36.751572 25078 net.cpp:157] Top shape: 1 19 (19)
I0502 09:50:36.751576 25078 net.cpp:157] Top shape: 1 24 (24)
I0502 09:50:36.751579 25078 net.cpp:157] Top shape: 1 130 (130)
I0502 09:50:36.751584 25078 net.cpp:157] Top shape: 1 77 (77)
I0502 09:50:36.751586 25078 net.cpp:157] Top shape: 1 89 (89)
I0502 09:50:36.751590 25078 net.cpp:157] Top shape: 1 85 (85)
I0502 09:50:36.751593 25078 net.cpp:157] Top shape: 1 74 (74)
I0502 09:50:36.751597 25078 net.cpp:157] Top shape: 1 51 (51)
I0502 09:50:36.751600 25078 net.cpp:157] Top shape: 1 73 (73)
I0502 09:50:36.751605 25078 net.cpp:157] Top shape: 1 69 (69)
I0502 09:50:36.751607 25078 net.cpp:157] Top shape: 1 62 (62)
I0502 09:50:36.751611 25078 net.cpp:157] Top shape: 1 154 (154)
I0502 09:50:36.751615 25078 net.cpp:157] Top shape: 1 99 (99)
I0502 09:50:36.751618 25078 net.cpp:157] Top shape: 1 114 (114)
I0502 09:50:36.751621 25078 net.cpp:157] Top shape: 1 66 (66)
I0502 09:50:36.751626 25078 net.cpp:157] Top shape: 1 138 (138)
I0502 09:50:36.751628 25078 net.cpp:157] Top shape: 1 103 (103)
I0502 09:50:36.751632 25078 net.cpp:157] Top shape: 1 27 (27)
I0502 09:50:36.751636 25078 net.cpp:157] Top shape: 1 104 (104)
I0502 09:50:36.751639 25078 net.cpp:157] Top shape: 1 54 (54)
I0502 09:50:36.751643 25078 net.cpp:157] Top shape: 1 44 (44)
I0502 09:50:36.751646 25078 net.cpp:157] Top shape: 1 56 (56)
I0502 09:50:36.751651 25078 net.cpp:157] Top shape: 1 38 (38)
I0502 09:50:36.751653 25078 net.cpp:157] Top shape: 1 42 (42)
I0502 09:50:36.751657 25078 net.cpp:157] Top shape: 1 21 (21)
I0502 09:50:36.751660 25078 net.cpp:157] Top shape: 1 31 (31)
I0502 09:50:36.751664 25078 net.cpp:157] Top shape: 1 186 (186)
I0502 09:50:36.751667 25078 net.cpp:157] Top shape: 1 70 (70)
I0502 09:50:36.751672 25078 net.cpp:157] Top shape: 1 43 (43)
I0502 09:50:36.751674 25078 net.cpp:157] Top shape: 1 57 (57)
I0502 09:50:36.751678 25078 net.cpp:157] Top shape: 1 135 (135)
I0502 09:50:36.751682 25078 net.cpp:157] Top shape: 1 54 (54)
I0502 09:50:36.751685 25078 net.cpp:157] Top shape: 1 137 (137)
I0502 09:50:36.751688 25078 net.cpp:157] Top shape: 1 37 (37)
I0502 09:50:36.751693 25078 net.cpp:157] Top shape: 1 108 (108)
I0502 09:50:36.751695 25078 net.cpp:157] Top shape: 1 137 (137)
I0502 09:50:36.751699 25078 net.cpp:157] Top shape: 1 28 (28)
I0502 09:50:36.751703 25078 net.cpp:157] Top shape: 1 110 (110)
I0502 09:50:36.751706 25078 net.cpp:157] Top shape: 1 73 (73)
I0502 09:50:36.751709 25078 net.cpp:157] Top shape: 1 50 (50)
I0502 09:50:36.751713 25078 net.cpp:157] Top shape: 1 82 (82)
I0502 09:50:36.751716 25078 net.cpp:157] Top shape: 1 65 (65)
I0502 09:50:36.751720 25078 net.cpp:157] Top shape: 1 30 (30)
I0502 09:50:36.751724 25078 net.cpp:157] Top shape: 1 58 (58)
I0502 09:50:36.751727 25078 net.cpp:157] Top shape: 1 95 (95)
I0502 09:50:36.751731 25078 net.cpp:157] Top shape: 1 56 (56)
I0502 09:50:36.751734 25078 net.cpp:157] Top shape: 1 100 (100)
I0502 09:50:36.751739 25078 net.cpp:157] Top shape: 1 64 (64)
I0502 09:50:36.751741 25078 net.cpp:157] Top shape: 1 47 (47)
I0502 09:50:36.751745 25078 net.cpp:157] Top shape: 1 73 (73)
I0502 09:50:36.751749 25078 net.cpp:157] Top shape: 1 156 (156)
I0502 09:50:36.751752 25078 net.cpp:157] Top shape: 1 27 (27)
I0502 09:50:36.751755 25078 net.cpp:157] Top shape: 1 33 (33)
I0502 09:50:36.751760 25078 net.cpp:157] Top shape: 1 20 (20)
I0502 09:50:36.751762 25078 net.cpp:157] Top shape: 1 27 (27)
I0502 09:50:36.751766 25078 net.cpp:157] Top shape: 1 127 (127)
I0502 09:50:36.751770 25078 net.cpp:157] Top shape: 1 74 (74)
I0502 09:50:36.751773 25078 net.cpp:157] Top shape: 1 76 (76)
I0502 09:50:36.751776 25078 net.cpp:157] Top shape: 1 176 (176)
I0502 09:50:36.751781 25078 net.cpp:157] Top shape: 1 30 (30)
I0502 09:50:36.751785 25078 net.cpp:157] Top shape: 1 75 (75)
I0502 09:50:36.751788 25078 net.cpp:157] Top shape: 1 35 (35)
I0502 09:50:36.751792 25078 net.cpp:157] Top shape: 1 39 (39)
I0502 09:50:36.751796 25078 net.cpp:157] Top shape: 1 32 (32)
I0502 09:50:36.751799 25078 net.cpp:157] Top shape: 1 27 (27)
I0502 09:50:36.751802 25078 net.cpp:157] Top shape: 1 26 (26)
I0502 09:50:36.751806 25078 net.cpp:157] Top shape: 1 52 (52)
I0502 09:50:36.751809 25078 net.cpp:157] Top shape: 1 37 (37)
I0502 09:50:36.751813 25078 net.cpp:157] Top shape: 1 65 (65)
I0502 09:50:36.751816 25078 net.cpp:157] Top shape: 1 100 (100)
I0502 09:50:36.751821 25078 net.cpp:157] Top shape: 1 66 (66)
I0502 09:50:36.751823 25078 net.cpp:157] Top shape: 1 160 (160)
I0502 09:50:36.751827 25078 net.cpp:157] Top shape: 1 135 (135)
I0502 09:50:36.751830 25078 net.cpp:157] Top shape: 1 34 (34)
I0502 09:50:36.751834 25078 net.cpp:157] Top shape: 1 56 (56)
I0502 09:50:36.751837 25078 net.cpp:157] Top shape: 1 48 (48)
I0502 09:50:36.751842 25078 net.cpp:157] Top shape: 1 66 (66)
I0502 09:50:36.751844 25078 net.cpp:157] Top shape: 1 58 (58)
I0502 09:50:36.751848 25078 net.cpp:157] Top shape: 1 66 (66)
I0502 09:50:36.751852 25078 net.cpp:157] Top shape: 1 86 (86)
I0502 09:50:36.751855 25078 net.cpp:157] Top shape: 1 102 (102)
I0502 09:50:36.751859 25078 net.cpp:157] Top shape: 1 62 (62)
I0502 09:50:36.751863 25078 net.cpp:157] Top shape: 1 74 (74)
I0502 09:50:36.751866 25078 net.cpp:157] Top shape: 1 106 (106)
I0502 09:50:36.751869 25078 net.cpp:157] Top shape: 1 177 (177)
I0502 09:50:36.751873 25078 net.cpp:157] Top shape: 1 93 (93)
I0502 09:50:36.751876 25078 net.cpp:157] Top shape: 1 97 (97)
I0502 09:50:36.751880 25078 net.cpp:157] Top shape: 1 26 (26)
I0502 09:50:36.751883 25078 net.cpp:157] Top shape: 1 48 (48)
I0502 09:50:36.751888 25078 net.cpp:157] Top shape: 1 32 (32)
I0502 09:50:36.751890 25078 net.cpp:157] Top shape: 1 36 (36)
I0502 09:50:36.751894 25078 net.cpp:157] Top shape: 1 12 (12)
I0502 09:50:36.751898 25078 net.cpp:157] Top shape: 1 24 (24)
I0502 09:50:36.751901 25078 net.cpp:157] Top shape: 1 54 (54)
I0502 09:50:36.751904 25078 net.cpp:157] Top shape: 1 89 (89)
I0502 09:50:36.751909 25078 net.cpp:157] Top shape: 1 25 (25)
I0502 09:50:36.751911 25078 net.cpp:157] Top shape: 1 122 (122)
I0502 09:50:36.751915 25078 net.cpp:157] Top shape: 1 206 (206)
I0502 09:50:36.751919 25078 net.cpp:157] Top shape: 1 25 (25)
I0502 09:50:36.751922 25078 net.cpp:157] Top shape: 1 88 (88)
I0502 09:50:36.751925 25078 net.cpp:157] Top shape: 1 41 (41)
I0502 09:50:36.751929 25078 net.cpp:157] Top shape: 1 44 (44)
I0502 09:50:36.751932 25078 net.cpp:157] Top shape: 1 26 (26)
I0502 09:50:36.751936 25078 net.cpp:157] Top shape: 1 29 (29)
I0502 09:50:36.751940 25078 net.cpp:157] Top shape: 1 71 (71)
I0502 09:50:36.751943 25078 net.cpp:157] Top shape: 1 98 (98)
I0502 09:50:36.751946 25078 net.cpp:157] Top shape: 1 37 (37)
I0502 09:50:36.751950 25078 net.cpp:157] Top shape: 1 56 (56)
I0502 09:50:36.751953 25078 net.cpp:157] Top shape: 1 30 (30)
I0502 09:50:36.751957 25078 net.cpp:157] Top shape: 1 116 (116)
I0502 09:50:36.751960 25078 net.cpp:157] Top shape: 1 239 (239)
I0502 09:50:36.751965 25078 net.cpp:157] Top shape: 1 94 (94)
I0502 09:50:36.751967 25078 net.cpp:157] Top shape: 1 54 (54)
I0502 09:50:36.751971 25078 net.cpp:157] Top shape: 1 42 (42)
I0502 09:50:36.751974 25078 net.cpp:157] Top shape: 1 120 (120)
I0502 09:50:36.751978 25078 net.cpp:157] Top shape: 1 33 (33)
I0502 09:50:36.751981 25078 net.cpp:157] Top shape: 1 35 (35)
I0502 09:50:36.751986 25078 net.cpp:157] Top shape: 1 40 (40)
I0502 09:50:36.751988 25078 net.cpp:157] Top shape: 1 52 (52)
I0502 09:50:36.751992 25078 net.cpp:157] Top shape: 1 64 (64)
I0502 09:50:36.751996 25078 net.cpp:157] Top shape: 1 37 (37)
I0502 09:50:36.751999 25078 net.cpp:157] Top shape: 1 70 (70)
I0502 09:50:36.752002 25078 net.cpp:157] Top shape: 1 63 (63)
I0502 09:50:36.752007 25078 net.cpp:157] Top shape: 1 152 (152)
I0502 09:50:36.752009 25078 net.cpp:157] Top shape: 1 59 (59)
I0502 09:50:36.752015 25078 net.cpp:157] Top shape: 1 31 (31)
I0502 09:50:36.752018 25078 net.cpp:157] Top shape: 1 35 (35)
I0502 09:50:36.752022 25078 net.cpp:157] Top shape: 1 42 (42)
I0502 09:50:36.752025 25078 net.cpp:157] Top shape: 1 48 (48)
I0502 09:50:36.752029 25078 net.cpp:157] Top shape: 1 50 (50)
I0502 09:50:36.752032 25078 net.cpp:157] Top shape: 1 35 (35)
I0502 09:50:36.752037 25078 net.cpp:157] Top shape: 1 70 (70)
I0502 09:50:36.752039 25078 net.cpp:157] Top shape: 1 89 (89)
I0502 09:50:36.752043 25078 net.cpp:157] Top shape: 1 51 (51)
I0502 09:50:36.752046 25078 net.cpp:157] Top shape: 1 22 (22)
I0502 09:50:36.752050 25078 net.cpp:157] Top shape: 1 95 (95)
I0502 09:50:36.752053 25078 net.cpp:157] Top shape: 1 199 (199)
I0502 09:50:36.752058 25078 net.cpp:157] Top shape: 1 122 (122)
I0502 09:50:36.752060 25078 net.cpp:157] Top shape: 1 151 (151)
I0502 09:50:36.752064 25078 net.cpp:157] Top shape: 1 110 (110)
I0502 09:50:36.752068 25078 net.cpp:157] Top shape: 1 57 (57)
I0502 09:50:36.752071 25078 net.cpp:157] Top shape: 1 45 (45)
I0502 09:50:36.752074 25078 net.cpp:157] Top shape: 1 34 (34)
I0502 09:50:36.752079 25078 net.cpp:157] Top shape: 1 268 (268)
I0502 09:50:36.752081 25078 net.cpp:157] Top shape: 1 100 (100)
I0502 09:50:36.752085 25078 net.cpp:157] Top shape: 1 131 (131)
I0502 09:50:36.752089 25078 net.cpp:157] Top shape: 1 41 (41)
I0502 09:50:36.752092 25078 net.cpp:157] Top shape: 1 111 (111)
I0502 09:50:36.752096 25078 net.cpp:157] Top shape: 1 112 (112)
I0502 09:50:36.752099 25078 net.cpp:157] Top shape: 1 87 (87)
I0502 09:50:36.752104 25078 net.cpp:157] Top shape: 1 115 (115)
I0502 09:50:36.752106 25078 net.cpp:157] Top shape: 1 66 (66)
I0502 09:50:36.752110 25078 net.cpp:157] Top shape: 1 57 (57)
I0502 09:50:36.752113 25078 net.cpp:157] Top shape: 1 120 (120)
I0502 09:50:36.752117 25078 net.cpp:157] Top shape: 1 211 (211)
I0502 09:50:36.752120 25078 net.cpp:157] Top shape: 1 82 (82)
I0502 09:50:36.752125 25078 net.cpp:157] Top shape: 1 67 (67)
I0502 09:50:36.752127 25078 net.cpp:157] Top shape: 1 166 (166)
I0502 09:50:36.752131 25078 net.cpp:157] Top shape: 1 51 (51)
I0502 09:50:36.752135 25078 net.cpp:157] Top shape: 1 42 (42)
I0502 09:50:36.752138 25078 net.cpp:157] Top shape: 1 31 (31)
I0502 09:50:36.752141 25078 net.cpp:157] Top shape: 1 71 (71)
I0502 09:50:36.752146 25078 net.cpp:157] Top shape: 1 51 (51)
I0502 09:50:36.752148 25078 net.cpp:157] Top shape: 1 47 (47)
I0502 09:50:36.752152 25078 net.cpp:157] Top shape: 1 78 (78)
I0502 09:50:36.752156 25078 net.cpp:157] Top shape: 1 165 (165)
I0502 09:50:36.752159 25078 net.cpp:157] Top shape: 1 79 (79)
I0502 09:50:36.752163 25078 net.cpp:157] Top shape: 1 98 (98)
I0502 09:50:36.752166 25078 net.cpp:157] Top shape: 1 85 (85)
I0502 09:50:36.752171 25078 net.cpp:157] Top shape: 1 17 (17)
I0502 09:50:36.752173 25078 net.cpp:157] Top shape: 1 28 (28)
I0502 09:50:36.752177 25078 net.cpp:157] Top shape: 1 46 (46)
I0502 09:50:36.752180 25078 net.cpp:157] Top shape: 1 65 (65)
I0502 09:50:36.752184 25078 net.cpp:157] Top shape: 1 73 (73)
I0502 09:50:36.752187 25078 net.cpp:157] Top shape: 1 102 (102)
I0502 09:50:36.752192 25078 net.cpp:157] Top shape: 1 37 (37)
I0502 09:50:36.752194 25078 net.cpp:157] Top shape: 1 61 (61)
I0502 09:50:36.752198 25078 net.cpp:157] Top shape: 1 99 (99)
I0502 09:50:36.752202 25078 net.cpp:157] Top shape: 1 119 (119)
I0502 09:50:36.752205 25078 net.cpp:157] Top shape: 1 57 (57)
I0502 09:50:36.752208 25078 net.cpp:157] Top shape: 1 57 (57)
I0502 09:50:36.752213 25078 net.cpp:157] Top shape: 1 172 (172)
I0502 09:50:36.752215 25078 net.cpp:157] Top shape: 1 33 (33)
I0502 09:50:36.752219 25078 net.cpp:157] Top shape: 1 56 (56)
I0502 09:50:36.752223 25078 net.cpp:157] Top shape: 1 65 (65)
I0502 09:50:36.752226 25078 net.cpp:157] Top shape: 1 42 (42)
I0502 09:50:36.752229 25078 net.cpp:157] Top shape: 1 34 (34)
I0502 09:50:36.752233 25078 net.cpp:157] Top shape: 1 47 (47)
I0502 09:50:36.752236 25078 net.cpp:157] Top shape: 1 74 (74)
I0502 09:50:36.752240 25078 net.cpp:157] Top shape: 1 188 (188)
I0502 09:50:36.752245 25078 net.cpp:157] Top shape: 1 80 (80)
I0502 09:50:36.752249 25078 net.cpp:157] Top shape: 1 27 (27)
I0502 09:50:36.752252 25078 net.cpp:157] Top shape: 1 74 (74)
I0502 09:50:36.752256 25078 net.cpp:157] Top shape: 1 23 (23)
I0502 09:50:36.752259 25078 net.cpp:157] Top shape: 1 38 (38)
I0502 09:50:36.752264 25078 net.cpp:157] Top shape: 1 91 (91)
I0502 09:50:36.752266 25078 net.cpp:157] Top shape: 1 33 (33)
I0502 09:50:36.752270 25078 net.cpp:157] Top shape: 1 24 (24)
I0502 09:50:36.752274 25078 net.cpp:157] Top shape: 1 60 (60)
I0502 09:50:36.752277 25078 net.cpp:157] Top shape: 1 66 (66)
I0502 09:50:36.752284 25078 net.cpp:157] Top shape: 1 35 (35)
I0502 09:50:36.752287 25078 net.cpp:157] Top shape: 1 74 (74)
I0502 09:50:36.752290 25078 net.cpp:157] Top shape: 1 77 (77)
I0502 09:50:36.752295 25078 net.cpp:157] Top shape: 1 54 (54)
I0502 09:50:36.752297 25078 net.cpp:157] Top shape: 1 43 (43)
I0502 09:50:36.752301 25078 net.cpp:157] Top shape: 1 53 (53)
I0502 09:50:36.752305 25078 net.cpp:157] Top shape: 1 69 (69)
I0502 09:50:36.752308 25078 net.cpp:157] Top shape: 1 88 (88)
I0502 09:50:36.752311 25078 net.cpp:157] Top shape: 1 64 (64)
I0502 09:50:36.752315 25078 net.cpp:157] Top shape: 1 61 (61)
I0502 09:50:36.752318 25078 net.cpp:157] Top shape: 1 126 (126)
I0502 09:50:36.752322 25078 net.cpp:157] Top shape: 1 56 (56)
I0502 09:50:36.752326 25078 net.cpp:157] Top shape: 1 128 (128)
I0502 09:50:36.752329 25078 net.cpp:157] Top shape: 1 88 (88)
I0502 09:50:36.752333 25078 net.cpp:157] Top shape: 1 159 (159)
I0502 09:50:36.752336 25078 net.cpp:157] Top shape: 1 42 (42)
I0502 09:50:36.752339 25078 net.cpp:157] Top shape: 1 86 (86)
I0502 09:50:36.752343 25078 net.cpp:157] Top shape: 1 36 (36)
I0502 09:50:36.752347 25078 net.cpp:157] Top shape: 1 32 (32)
I0502 09:50:36.752351 25078 net.cpp:157] Top shape: 1 64 (64)
I0502 09:50:36.752354 25078 net.cpp:157] Top shape: 1 23 (23)
I0502 09:50:36.752357 25078 net.cpp:157] Top shape: 1 18 (18)
I0502 09:50:36.752362 25078 net.cpp:157] Top shape: 1 23 (23)
I0502 09:50:36.752364 25078 net.cpp:157] Top shape: 1 18 (18)
I0502 09:50:36.752367 25078 net.cpp:157] Top shape: 1 19 (19)
I0502 09:50:36.752372 25078 net.cpp:157] Top shape: 1 73 (73)
I0502 09:50:36.752375 25078 net.cpp:157] Top shape: 1 147 (147)
I0502 09:50:36.752378 25078 net.cpp:157] Top shape: 1 46 (46)
I0502 09:50:36.752382 25078 net.cpp:157] Top shape: 1 42 (42)
I0502 09:50:36.752385 25078 net.cpp:157] Top shape: 1 46 (46)
I0502 09:50:36.752389 25078 net.cpp:157] Top shape: 1 24 (24)
I0502 09:50:36.752393 25078 net.cpp:157] Top shape: 1 18 (18)
I0502 09:50:36.752396 25078 net.cpp:157] Top shape: 1 89 (89)
I0502 09:50:36.752399 25078 net.cpp:157] Top shape: 1 44 (44)
I0502 09:50:36.752403 25078 net.cpp:157] Top shape: 1 9 (9)
I0502 09:50:36.752406 25078 net.cpp:157] Top shape: 1 26 (26)
I0502 09:50:36.752410 25078 net.cpp:157] Top shape: 1 109 (109)
I0502 09:50:36.752413 25078 net.cpp:157] Top shape: 1 25 (25)
I0502 09:50:36.752418 25078 net.cpp:157] Top shape: 1 40 (40)
I0502 09:50:36.752420 25078 net.cpp:157] Top shape: 1 100 (100)
I0502 09:50:36.752424 25078 net.cpp:157] Top shape: 1 127 (127)
I0502 09:50:36.752427 25078 net.cpp:157] Top shape: 1 85 (85)
I0502 09:50:36.752431 25078 net.cpp:157] Top shape: 1 74 (74)
I0502 09:50:36.752434 25078 net.cpp:157] Top shape: 1 90 (90)
I0502 09:50:36.752439 25078 net.cpp:157] Top shape: 1 88 (88)
I0502 09:50:36.752441 25078 net.cpp:157] Top shape: 1 32 (32)
I0502 09:50:36.752445 25078 net.cpp:157] Top shape: 1 61 (61)
I0502 09:50:36.752449 25078 net.cpp:157] Top shape: 1 46 (46)
I0502 09:50:36.752452 25078 net.cpp:157] Top shape: 1 176 (176)
I0502 09:50:36.752455 25078 net.cpp:157] Top shape: 1 57 (57)
I0502 09:50:36.752460 25078 net.cpp:157] Top shape: 1 101 (101)
I0502 09:50:36.752462 25078 net.cpp:157] Top shape: 1 36 (36)
I0502 09:50:36.752466 25078 net.cpp:157] Top shape: 1 67 (67)
I0502 09:50:36.752470 25078 net.cpp:157] Top shape: 1 215 (215)
I0502 09:50:36.752473 25078 net.cpp:157] Top shape: 1 94 (94)
I0502 09:50:36.752476 25078 net.cpp:157] Top shape: 1 115 (115)
I0502 09:50:36.752482 25078 net.cpp:157] Top shape: 1 114 (114)
I0502 09:50:36.752485 25078 net.cpp:157] Top shape: 1 121 (121)
I0502 09:50:36.752490 25078 net.cpp:157] Top shape: 1 75 (75)
I0502 09:50:36.752492 25078 net.cpp:157] Top shape: 1 63 (63)
I0502 09:50:36.752496 25078 net.cpp:157] Top shape: 1 83 (83)
I0502 09:50:36.752499 25078 net.cpp:157] Top shape: 1 47 (47)
I0502 09:50:36.752503 25078 net.cpp:157] Top shape: 1 60 (60)
I0502 09:50:36.752506 25078 net.cpp:157] Top shape: 1 89 (89)
I0502 09:50:36.752511 25078 net.cpp:157] Top shape: 1 148 (148)
I0502 09:50:36.752513 25078 net.cpp:157] Top shape: 1 134 (134)
I0502 09:50:36.752517 25078 net.cpp:157] Top shape: 1 45 (45)
I0502 09:50:36.752521 25078 net.cpp:157] Top shape: 1 53 (53)
I0502 09:50:36.752524 25078 net.cpp:157] Top shape: 1 108 (108)
I0502 09:50:36.752527 25078 net.cpp:157] Top shape: 1 114 (114)
I0502 09:50:36.752532 25078 net.cpp:157] Top shape: 1 15 (15)
I0502 09:50:36.752534 25078 net.cpp:157] Top shape: 1 18 (18)
I0502 09:50:36.752538 25078 net.cpp:157] Top shape: 1 98 (98)
I0502 09:50:36.752542 25078 net.cpp:157] Top shape: 1 22 (22)
I0502 09:50:36.752545 25078 net.cpp:157] Top shape: 1 28 (28)
I0502 09:50:36.752548 25078 net.cpp:157] Top shape: 1 31 (31)
I0502 09:50:36.752552 25078 net.cpp:157] Top shape: 1 51 (51)
I0502 09:50:36.752555 25078 net.cpp:157] Top shape: 1 128 (128)
I0502 09:50:36.752559 25078 net.cpp:157] Top shape: 1 82 (82)
I0502 09:50:36.752562 25078 net.cpp:157] Top shape: 1 259 (259)
I0502 09:50:36.752567 25078 net.cpp:157] Top shape: 1 237 (237)
I0502 09:50:36.752569 25078 net.cpp:157] Top shape: 1 47 (47)
I0502 09:50:36.752573 25078 net.cpp:157] Top shape: 1 167 (167)
I0502 09:50:36.752576 25078 net.cpp:157] Top shape: 1 94 (94)
I0502 09:50:36.752580 25078 net.cpp:157] Top shape: 1 92 (92)
I0502 09:50:36.752583 25078 net.cpp:157] Top shape: 1 31 (31)
I0502 09:50:36.752588 25078 net.cpp:157] Top shape: 1 70 (70)
I0502 09:50:36.752590 25078 net.cpp:157] Top shape: 1 26 (26)
I0502 09:50:36.752594 25078 net.cpp:157] Top shape: 1 25 (25)
I0502 09:50:36.752598 25078 net.cpp:157] Top shape: 1 29 (29)
I0502 09:50:36.752601 25078 net.cpp:157] Top shape: 1 53 (53)
I0502 09:50:36.752604 25078 net.cpp:157] Top shape: 1 40 (40)
I0502 09:50:36.752609 25078 net.cpp:157] Top shape: 1 12 (12)
I0502 09:50:36.752611 25078 net.cpp:157] Top shape: 1 37 (37)
I0502 09:50:36.752615 25078 net.cpp:157] Top shape: 1 70 (70)
I0502 09:50:36.752619 25078 net.cpp:157] Top shape: 1 27 (27)
I0502 09:50:36.752622 25078 net.cpp:157] Top shape: 1 22 (22)
I0502 09:50:36.752625 25078 net.cpp:157] Top shape: 1 114 (114)
I0502 09:50:36.752629 25078 net.cpp:157] Top shape: 1 93 (93)
I0502 09:50:36.752632 25078 net.cpp:157] Top shape: 1 79 (79)
I0502 09:50:36.752636 25078 net.cpp:157] Top shape: 1 65 (65)
I0502 09:50:36.752640 25078 net.cpp:157] Top shape: 1 80 (80)
I0502 09:50:36.752643 25078 net.cpp:157] Top shape: 1 57 (57)
I0502 09:50:36.752646 25078 net.cpp:157] Top shape: 1 60 (60)
I0502 09:50:36.752650 25078 net.cpp:157] Top shape: 1 69 (69)
I0502 09:50:36.752653 25078 net.cpp:157] Top shape: 1 19 (19)
I0502 09:50:36.752657 25078 net.cpp:157] Top shape: 1 80 (80)
I0502 09:50:36.752660 25078 net.cpp:157] Top shape: 1 142 (142)
I0502 09:50:36.752665 25078 net.cpp:157] Top shape: 1 50 (50)
I0502 09:50:36.752667 25078 net.cpp:157] Top shape: 1 18 (18)
I0502 09:50:36.752671 25078 net.cpp:157] Top shape: 1 11 (11)
I0502 09:50:36.752674 25078 net.cpp:157] Top shape: 1 20 (20)
I0502 09:50:36.752678 25078 net.cpp:157] Top shape: 1 82 (82)
I0502 09:50:36.752682 25078 net.cpp:157] Top shape: 1 104 (104)
I0502 09:50:36.752686 25078 net.cpp:157] Top shape: 1 26 (26)
I0502 09:50:36.752688 25078 net.cpp:157] Top shape: 1 60 (60)
I0502 09:50:36.752692 25078 net.cpp:157] Top shape: 1 90 (90)
I0502 09:50:36.752696 25078 net.cpp:157] Top shape: 1 99 (99)
I0502 09:50:36.752699 25078 net.cpp:157] Top shape: 1 126 (126)
I0502 09:50:36.752703 25078 net.cpp:157] Top shape: 1 21 (21)
I0502 09:50:36.752707 25078 net.cpp:157] Top shape: 1 58 (58)
I0502 09:50:36.752709 25078 net.cpp:157] Top shape: 1 44 (44)
I0502 09:50:36.752715 25078 net.cpp:157] Top shape: 1 34 (34)
I0502 09:50:36.752718 25078 net.cpp:157] Top shape: 1 48 (48)
I0502 09:50:36.752722 25078 net.cpp:157] Top shape: 1 33 (33)
I0502 09:50:36.752725 25078 net.cpp:157] Top shape: 1 45 (45)
I0502 09:50:36.752729 25078 net.cpp:157] Top shape: 1 68 (68)
I0502 09:50:36.752732 25078 net.cpp:157] Top shape: 1 35 (35)
I0502 09:50:36.752737 25078 net.cpp:157] Top shape: 1 103 (103)
I0502 09:50:36.752739 25078 net.cpp:157] Top shape: 1 25 (25)
I0502 09:50:36.752743 25078 net.cpp:157] Top shape: 1 28 (28)
I0502 09:50:36.752746 25078 net.cpp:157] Top shape: 1 22 (22)
I0502 09:50:36.752750 25078 net.cpp:157] Top shape: 1 37 (37)
I0502 09:50:36.752753 25078 net.cpp:157] Top shape: 1 29 (29)
I0502 09:50:36.752758 25078 net.cpp:157] Top shape: 1 36 (36)
I0502 09:50:36.752760 25078 net.cpp:157] Top shape: 1 46 (46)
I0502 09:50:36.752764 25078 net.cpp:157] Top shape: 1 15 (15)
I0502 09:50:36.752768 25078 net.cpp:157] Top shape: 1 22 (22)
I0502 09:50:36.752771 25078 net.cpp:157] Top shape: 1 46 (46)
I0502 09:50:36.752774 25078 net.cpp:157] Top shape: 1 64 (64)
I0502 09:50:36.752779 25078 net.cpp:157] Top shape: 1 33 (33)
I0502 09:50:36.752781 25078 net.cpp:157] Top shape: 1 51 (51)
I0502 09:50:36.752785 25078 net.cpp:157] Top shape: 1 86 (86)
I0502 09:50:36.752789 25078 net.cpp:157] Top shape: 1 59 (59)
I0502 09:50:36.752792 25078 net.cpp:157] Top shape: 1 120 (120)
I0502 09:50:36.752795 25078 net.cpp:157] Top shape: 1 89 (89)
I0502 09:50:36.752799 25078 net.cpp:157] Top shape: 1 94 (94)
I0502 09:50:36.752802 25078 net.cpp:157] Top shape: 1 60 (60)
I0502 09:50:36.752806 25078 net.cpp:157] Top shape: 1 107 (107)
I0502 09:50:36.752810 25078 net.cpp:157] Top shape: 1 194 (194)
I0502 09:50:36.752813 25078 net.cpp:157] Top shape: 1 69 (69)
I0502 09:50:36.752816 25078 net.cpp:157] Top shape: 1 73 (73)
I0502 09:50:36.752820 25078 net.cpp:157] Top shape: 1 53 (53)
I0502 09:50:36.752823 25078 net.cpp:157] Top shape: 1 96 (96)
I0502 09:50:36.752827 25078 net.cpp:157] Top shape: 1 65 (65)
I0502 09:50:36.752830 25078 net.cpp:157] Top shape: 1 277 (277)
I0502 09:50:36.752835 25078 net.cpp:157] Top shape: 1 142 (142)
I0502 09:50:36.752837 25078 net.cpp:157] Top shape: 1 209 (209)
I0502 09:50:36.752841 25078 net.cpp:157] Top shape: 1 29 (29)
I0502 09:50:36.752846 25078 net.cpp:157] Top shape: 1 165 (165)
I0502 09:50:36.752848 25078 net.cpp:157] Top shape: 1 52 (52)
I0502 09:50:36.752852 25078 net.cpp:157] Top shape: 1 28 (28)
I0502 09:50:36.752856 25078 net.cpp:157] Top shape: 1 96 (96)
I0502 09:50:36.752859 25078 net.cpp:157] Top shape: 1 211 (211)
I0502 09:50:36.752862 25078 net.cpp:157] Top shape: 1 92 (92)
I0502 09:50:36.752866 25078 net.cpp:157] Top shape: 1 34 (34)
I0502 09:50:36.752869 25078 net.cpp:157] Top shape: 1 52 (52)
I0502 09:50:36.752873 25078 net.cpp:157] Top shape: 1 43 (43)
I0502 09:50:36.752876 25078 net.cpp:157] Top shape: 1 56 (56)
I0502 09:50:36.752881 25078 net.cpp:157] Top shape: 1 27 (27)
I0502 09:50:36.752883 25078 net.cpp:157] Top shape: 1 219 (219)
I0502 09:50:36.752887 25078 net.cpp:157] Top shape: 1 116 (116)
I0502 09:50:36.752890 25078 net.cpp:157] Top shape: 1 77 (77)
I0502 09:50:36.752894 25078 net.cpp:157] Top shape: 1 69 (69)
I0502 09:50:36.752897 25078 net.cpp:157] Top shape: 1 160 (160)
I0502 09:50:36.752902 25078 net.cpp:157] Top shape: 1 66 (66)
I0502 09:50:36.752904 25078 net.cpp:157] Top shape: 1 66 (66)
I0502 09:50:36.752908 25078 net.cpp:157] Top shape: 1 53 (53)
I0502 09:50:36.752912 25078 net.cpp:157] Top shape: 1 62 (62)
I0502 09:50:36.752915 25078 net.cpp:157] Top shape: 1 118 (118)
I0502 09:50:36.752918 25078 net.cpp:157] Top shape: 1 49 (49)
I0502 09:50:36.752923 25078 net.cpp:157] Top shape: 1 164 (164)
I0502 09:50:36.752925 25078 net.cpp:157] Top shape: 1 36 (36)
I0502 09:50:36.752929 25078 net.cpp:157] Top shape: 1 80 (80)
I0502 09:50:36.752933 25078 net.cpp:157] Top shape: 1 30 (30)
I0502 09:50:36.752936 25078 net.cpp:157] Top shape: 1 46 (46)
I0502 09:50:36.752939 25078 net.cpp:157] Top shape: 1 15 (15)
I0502 09:50:36.752944 25078 net.cpp:157] Top shape: 1 75 (75)
I0502 09:50:36.752948 25078 net.cpp:157] Top shape: 1 126 (126)
I0502 09:50:36.752951 25078 net.cpp:157] Top shape: 1 44 (44)
I0502 09:50:36.752955 25078 net.cpp:157] Top shape: 1 56 (56)
I0502 09:50:36.752959 25078 net.cpp:157] Top shape: 1 45 (45)
I0502 09:50:36.752962 25078 net.cpp:157] Top shape: 1 86 (86)
I0502 09:50:36.752965 25078 net.cpp:157] Top shape: 1 24 (24)
I0502 09:50:36.752969 25078 net.cpp:157] Top shape: 1 20 (20)
I0502 09:50:36.752972 25078 net.cpp:157] Top shape: 1 36 (36)
I0502 09:50:36.752976 25078 net.cpp:157] Top shape: 1 59 (59)
I0502 09:50:36.752979 25078 net.cpp:157] Top shape: 1 140 (140)
I0502 09:50:36.752984 25078 net.cpp:157] Top shape: 1 54 (54)
I0502 09:50:36.752987 25078 net.cpp:157] Top shape: 1 47 (47)
I0502 09:50:36.752990 25078 net.cpp:157] Top shape: 1 30 (30)
I0502 09:50:36.752993 25078 net.cpp:157] Top shape: 1 70 (70)
I0502 09:50:36.752997 25078 net.cpp:157] Top shape: 1 27 (27)
I0502 09:50:36.753001 25078 net.cpp:157] Top shape: 1 51 (51)
I0502 09:50:36.753005 25078 net.cpp:157] Top shape: 1 120 (120)
I0502 09:50:36.753008 25078 net.cpp:157] Top shape: 1 106 (106)
I0502 09:50:36.753011 25078 net.cpp:157] Top shape: 1 73 (73)
I0502 09:50:36.753015 25078 net.cpp:157] Top shape: 1 77 (77)
I0502 09:50:36.753018 25078 net.cpp:157] Top shape: 1 26 (26)
I0502 09:50:36.753021 25078 net.cpp:157] Top shape: 1 63 (63)
I0502 09:50:36.753026 25078 net.cpp:157] Top shape: 1 21 (21)
I0502 09:50:36.753029 25078 net.cpp:157] Top shape: 1 29 (29)
I0502 09:50:36.753032 25078 net.cpp:157] Top shape: 1 88 (88)
I0502 09:50:36.753036 25078 net.cpp:157] Top shape: 1 77 (77)
I0502 09:50:36.753039 25078 net.cpp:157] Top shape: 1 73 (73)
I0502 09:50:36.753043 25078 net.cpp:157] Top shape: 1 96 (96)
I0502 09:50:36.753046 25078 net.cpp:157] Top shape: 1 59 (59)
I0502 09:50:36.753051 25078 net.cpp:157] Top shape: 1 31 (31)
I0502 09:50:36.753053 25078 net.cpp:157] Top shape: 1 38 (38)
I0502 09:50:36.753057 25078 net.cpp:157] Top shape: 1 32 (32)
I0502 09:50:36.753060 25078 net.cpp:157] Top shape: 1 68 (68)
I0502 09:50:36.753064 25078 net.cpp:157] Top shape: 1 187 (187)
I0502 09:50:36.753067 25078 net.cpp:157] Top shape: 1 71 (71)
I0502 09:50:36.753072 25078 net.cpp:157] Top shape: 1 137 (137)
I0502 09:50:36.753074 25078 net.cpp:157] Top shape: 1 100 (100)
I0502 09:50:36.753083 25078 net.cpp:157] Top shape: 1 112 (112)
I0502 09:50:36.753087 25078 net.cpp:157] Top shape: 1 22 (22)
I0502 09:50:36.753092 25078 net.cpp:157] Top shape: 1 79 (79)
I0502 09:50:36.753094 25078 net.cpp:157] Top shape: 1 113 (113)
I0502 09:50:36.753098 25078 net.cpp:157] Top shape: 1 165 (165)
I0502 09:50:36.753103 25078 net.cpp:157] Top shape: 1 106 (106)
I0502 09:50:36.753105 25078 net.cpp:157] Top shape: 1 73 (73)
I0502 09:50:36.753109 25078 net.cpp:157] Top shape: 1 60 (60)
I0502 09:50:36.753113 25078 net.cpp:157] Top shape: 1 93 (93)
I0502 09:50:36.753116 25078 net.cpp:157] Top shape: 1 67 (67)
I0502 09:50:36.753119 25078 net.cpp:157] Top shape: 1 40 (40)
I0502 09:50:36.753123 25078 net.cpp:157] Top shape: 1 28 (28)
I0502 09:50:36.753126 25078 net.cpp:157] Top shape: 1 53 (53)
I0502 09:50:36.753130 25078 net.cpp:157] Top shape: 1 55 (55)
I0502 09:50:36.753134 25078 net.cpp:157] Top shape: 1 37 (37)
I0502 09:50:36.753137 25078 net.cpp:157] Top shape: 1 70 (70)
I0502 09:50:36.753140 25078 net.cpp:157] Top shape: 1 150 (150)
I0502 09:50:36.753144 25078 net.cpp:157] Top shape: 1 34 (34)
I0502 09:50:36.753147 25078 net.cpp:157] Top shape: 1 58 (58)
I0502 09:50:36.753151 25078 net.cpp:157] Top shape: 1 47 (47)
I0502 09:50:36.753154 25078 net.cpp:157] Top shape: 1 44 (44)
I0502 09:50:36.753159 25078 net.cpp:157] Top shape: 1 31 (31)
I0502 09:50:36.753162 25078 net.cpp:157] Top shape: 1 80 (80)
I0502 09:50:36.753165 25078 net.cpp:157] Top shape: 1 68 (68)
I0502 09:50:36.753170 25078 net.cpp:157] Top shape: 1 47 (47)
I0502 09:50:36.753172 25078 net.cpp:157] Top shape: 1 55 (55)
I0502 09:50:36.753176 25078 net.cpp:157] Top shape: 1 85 (85)
I0502 09:50:36.753180 25078 net.cpp:157] Top shape: 1 58 (58)
I0502 09:50:36.753185 25078 net.cpp:157] Top shape: 1 19 (19)
I0502 09:50:36.753188 25078 net.cpp:157] Top shape: 1 46 (46)
I0502 09:50:36.753192 25078 net.cpp:157] Top shape: 1 43 (43)
I0502 09:50:36.753196 25078 net.cpp:157] Top shape: 1 26 (26)
I0502 09:50:36.753199 25078 net.cpp:157] Top shape: 1 55 (55)
I0502 09:50:36.753202 25078 net.cpp:157] Top shape: 1 21 (21)
I0502 09:50:36.753206 25078 net.cpp:157] Top shape: 1 118 (118)
I0502 09:50:36.753209 25078 net.cpp:157] Top shape: 1 40 (40)
I0502 09:50:36.753213 25078 net.cpp:157] Top shape: 1 53 (53)
I0502 09:50:36.753216 25078 net.cpp:157] Top shape: 1 42 (42)
I0502 09:50:36.753221 25078 net.cpp:157] Top shape: 1 241 (241)
I0502 09:50:36.753223 25078 net.cpp:157] Top shape: 1 70 (70)
I0502 09:50:36.753227 25078 net.cpp:157] Top shape: 1 36 (36)
I0502 09:50:36.753231 25078 net.cpp:157] Top shape: 1 236 (236)
I0502 09:50:36.753234 25078 net.cpp:157] Top shape: 1 94 (94)
I0502 09:50:36.753237 25078 net.cpp:157] Top shape: 1 42 (42)
I0502 09:50:36.753242 25078 net.cpp:157] Top shape: 1 220 (220)
I0502 09:50:36.753244 25078 net.cpp:157] Top shape: 1 128 (128)
I0502 09:50:36.753248 25078 net.cpp:157] Top shape: 1 21 (21)
I0502 09:50:36.753252 25078 net.cpp:157] Top shape: 1 62 (62)
I0502 09:50:36.753255 25078 net.cpp:157] Top shape: 1 83 (83)
I0502 09:50:36.753259 25078 net.cpp:157] Top shape: 1 56 (56)
I0502 09:50:36.753262 25078 net.cpp:157] Top shape: 1 70 (70)
I0502 09:50:36.753267 25078 net.cpp:157] Top shape: 1 164 (164)
I0502 09:50:36.753269 25078 net.cpp:157] Top shape: 1 50 (50)
I0502 09:50:36.753273 25078 net.cpp:157] Top shape: 1 67 (67)
I0502 09:50:36.753276 25078 net.cpp:157] Top shape: 1 44 (44)
I0502 09:50:36.753280 25078 net.cpp:157] Top shape: 1 43 (43)
I0502 09:50:36.753283 25078 net.cpp:157] Top shape: 1 54 (54)
I0502 09:50:36.753288 25078 net.cpp:157] Top shape: 1 77 (77)
I0502 09:50:36.753290 25078 net.cpp:157] Top shape: 1 40 (40)
I0502 09:50:36.753294 25078 net.cpp:157] Top shape: 1 26 (26)
I0502 09:50:36.753298 25078 net.cpp:157] Top shape: 1 64 (64)
I0502 09:50:36.753301 25078 net.cpp:157] Top shape: 1 68 (68)
I0502 09:50:36.753304 25078 net.cpp:157] Top shape: 1 67 (67)
I0502 09:50:36.753309 25078 net.cpp:157] Top shape: 1 31 (31)
I0502 09:50:36.753311 25078 net.cpp:157] Top shape: 1 87 (87)
I0502 09:50:36.753315 25078 net.cpp:157] Top shape: 1 79 (79)
I0502 09:50:36.753319 25078 net.cpp:157] Top shape: 1 88 (88)
I0502 09:50:36.753322 25078 net.cpp:157] Top shape: 1 75 (75)
I0502 09:50:36.753325 25078 net.cpp:157] Top shape: 1 85 (85)
I0502 09:50:36.753329 25078 net.cpp:157] Top shape: 1 103 (103)
I0502 09:50:36.753332 25078 net.cpp:157] Top shape: 1 109 (109)
I0502 09:50:36.753336 25078 net.cpp:157] Top shape: 1 81 (81)
I0502 09:50:36.753340 25078 net.cpp:157] Top shape: 1 65 (65)
I0502 09:50:36.753343 25078 net.cpp:157] Top shape: 1 63 (63)
I0502 09:50:36.753346 25078 net.cpp:157] Top shape: 1 12 (12)
I0502 09:50:36.753350 25078 net.cpp:157] Top shape: 1 60 (60)
I0502 09:50:36.753353 25078 net.cpp:157] Top shape: 1 86 (86)
I0502 09:50:36.753357 25078 net.cpp:157] Top shape: 1 42 (42)
I0502 09:50:36.753360 25078 net.cpp:157] Top shape: 1 38 (38)
I0502 09:50:36.753365 25078 net.cpp:157] Top shape: 1 41 (41)
I0502 09:50:36.753367 25078 net.cpp:157] Top shape: 1 24 (24)
I0502 09:50:36.753371 25078 net.cpp:157] Top shape: 1 104 (104)
I0502 09:50:36.753376 25078 net.cpp:157] Top shape: 1 75 (75)
I0502 09:50:36.753378 25078 net.cpp:157] Top shape: 1 58 (58)
I0502 09:50:36.753382 25078 net.cpp:157] Top shape: 1 46 (46)
I0502 09:50:36.753386 25078 net.cpp:157] Top shape: 1 52 (52)
I0502 09:50:36.753389 25078 net.cpp:157] Top shape: 1 44 (44)
I0502 09:50:36.753392 25078 net.cpp:157] Top shape: 1 63 (63)
I0502 09:50:36.753396 25078 net.cpp:157] Top shape: 1 83 (83)
I0502 09:50:36.753399 25078 net.cpp:157] Top shape: 1 35 (35)
I0502 09:50:36.753403 25078 net.cpp:157] Top shape: 1 45 (45)
I0502 09:50:36.753407 25078 net.cpp:157] Top shape: 1 52 (52)
I0502 09:50:36.753410 25078 net.cpp:157] Top shape: 1 46 (46)
I0502 09:50:36.753413 25078 net.cpp:157] Top shape: 1 59 (59)
I0502 09:50:36.753418 25078 net.cpp:157] Top shape: 1 31 (31)
I0502 09:50:36.753422 25078 net.cpp:157] Top shape: 1 73 (73)
I0502 09:50:36.753427 25078 net.cpp:157] Top shape: 1 72 (72)
I0502 09:50:36.753429 25078 net.cpp:157] Top shape: 1 26 (26)
I0502 09:50:36.753433 25078 net.cpp:157] Top shape: 1 39 (39)
I0502 09:50:36.753437 25078 net.cpp:157] Top shape: 1 19 (19)
I0502 09:50:36.753440 25078 net.cpp:157] Top shape: 1 32 (32)
I0502 09:50:36.753443 25078 net.cpp:157] Top shape: 1 71 (71)
I0502 09:50:36.753448 25078 net.cpp:157] Top shape: 1 102 (102)
I0502 09:50:36.753450 25078 net.cpp:157] Top shape: 1 22 (22)
I0502 09:50:36.753454 25078 net.cpp:157] Top shape: 1 18 (18)
I0502 09:50:36.753458 25078 net.cpp:157] Top shape: 1 35 (35)
I0502 09:50:36.753461 25078 net.cpp:157] Top shape: 1 28 (28)
I0502 09:50:36.753464 25078 net.cpp:157] Top shape: 1 35 (35)
I0502 09:50:36.753468 25078 net.cpp:157] Top shape: 1 89 (89)
I0502 09:50:36.753471 25078 net.cpp:157] Top shape: 1 102 (102)
I0502 09:50:36.753475 25078 net.cpp:157] Top shape: 1 90 (90)
I0502 09:50:36.753479 25078 net.cpp:157] Top shape: 1 96 (96)
I0502 09:50:36.753482 25078 net.cpp:157] Top shape: 1 74 (74)
I0502 09:50:36.753486 25078 net.cpp:157] Top shape: 1 55 (55)
I0502 09:50:36.753489 25078 net.cpp:157] Top shape: 1 40 (40)
I0502 09:50:36.753494 25078 net.cpp:157] Top shape: 1 101 (101)
I0502 09:50:36.753496 25078 net.cpp:157] Top shape: 1 44 (44)
I0502 09:50:36.753500 25078 net.cpp:157] Top shape: 1 45 (45)
I0502 09:50:36.753504 25078 net.cpp:157] Top shape: 1 126 (126)
I0502 09:50:36.753507 25078 net.cpp:157] Top shape: 1 88 (88)
I0502 09:50:36.753510 25078 net.cpp:157] Top shape: 1 66 (66)
I0502 09:50:36.753515 25078 net.cpp:157] Top shape: 1 73 (73)
I0502 09:50:36.753517 25078 net.cpp:157] Top shape: 1 76 (76)
I0502 09:50:36.753521 25078 net.cpp:157] Top shape: 1 110 (110)
I0502 09:50:36.753525 25078 net.cpp:157] Top shape: 1 50 (50)
I0502 09:50:36.753528 25078 net.cpp:157] Top shape: 1 37 (37)
I0502 09:50:36.753531 25078 net.cpp:157] Top shape: 1 41 (41)
I0502 09:50:36.753535 25078 net.cpp:157] Top shape: 1 81 (81)
I0502 09:50:36.753538 25078 net.cpp:157] Top shape: 1 211 (211)
I0502 09:50:36.753542 25078 net.cpp:157] Top shape: 1 88 (88)
I0502 09:50:36.753545 25078 net.cpp:157] Top shape: 1 91 (91)
I0502 09:50:36.753550 25078 net.cpp:157] Top shape: 1 162 (162)
I0502 09:50:36.753552 25078 net.cpp:157] Top shape: 1 63 (63)
I0502 09:50:36.753556 25078 net.cpp:157] Top shape: 1 69 (69)
I0502 09:50:36.753559 25078 net.cpp:157] Top shape: 1 80 (80)
I0502 09:50:36.753563 25078 net.cpp:157] Top shape: 1 50 (50)
I0502 09:50:36.753566 25078 net.cpp:157] Top shape: 1 84 (84)
I0502 09:50:36.753571 25078 net.cpp:157] Top shape: 1 35 (35)
I0502 09:50:36.753573 25078 net.cpp:157] Top shape: 1 55 (55)
I0502 09:50:36.753577 25078 net.cpp:157] Top shape: 1 94 (94)
I0502 09:50:36.753581 25078 net.cpp:157] Top shape: 1 197 (197)
I0502 09:50:36.753584 25078 net.cpp:157] Top shape: 1 88 (88)
I0502 09:50:36.753587 25078 net.cpp:157] Top shape: 1 138 (138)
I0502 09:50:36.753592 25078 net.cpp:157] Top shape: 1 63 (63)
I0502 09:50:36.753595 25078 net.cpp:157] Top shape: 1 47 (47)
I0502 09:50:36.753598 25078 net.cpp:157] Top shape: 1 53 (53)
I0502 09:50:36.753602 25078 net.cpp:157] Top shape: 1 21 (21)
I0502 09:50:36.753605 25078 net.cpp:157] Top shape: 1 46 (46)
I0502 09:50:36.753609 25078 net.cpp:157] Top shape: 1 151 (151)
I0502 09:50:36.753612 25078 net.cpp:157] Top shape: 1 246 (246)
I0502 09:50:36.753617 25078 net.cpp:157] Top shape: 1 81 (81)
I0502 09:50:36.753619 25078 net.cpp:157] Top shape: 1 213 (213)
I0502 09:50:36.753623 25078 net.cpp:157] Top shape: 1 56 (56)
I0502 09:50:36.753626 25078 net.cpp:157] Top shape: 1 60 (60)
I0502 09:50:36.753630 25078 net.cpp:157] Top shape: 1 13 (13)
I0502 09:50:36.753633 25078 net.cpp:157] Top shape: 1 14 (14)
I0502 09:50:36.753638 25078 net.cpp:157] Top shape: 1 25 (25)
I0502 09:50:36.753640 25078 net.cpp:157] Top shape: 1 43 (43)
I0502 09:50:36.753644 25078 net.cpp:157] Top shape: 1 49 (49)
I0502 09:50:36.753649 25078 net.cpp:157] Top shape: 1 68 (68)
I0502 09:50:36.753654 25078 net.cpp:157] Top shape: 1 114 (114)
I0502 09:50:36.753656 25078 net.cpp:157] Top shape: 1 32 (32)
I0502 09:50:36.753660 25078 net.cpp:157] Top shape: 1 56 (56)
I0502 09:50:36.753664 25078 net.cpp:157] Top shape: 1 32 (32)
I0502 09:50:36.753667 25078 net.cpp:157] Top shape: 1 41 (41)
I0502 09:50:36.753670 25078 net.cpp:157] Top shape: 1 23 (23)
I0502 09:50:36.753674 25078 net.cpp:157] Top shape: 1 52 (52)
I0502 09:50:36.753677 25078 net.cpp:157] Top shape: 1 278 (278)
I0502 09:50:36.753681 25078 net.cpp:157] Top shape: 1 119 (119)
I0502 09:50:36.753684 25078 net.cpp:157] Top shape: 1 52 (52)
I0502 09:50:36.753689 25078 net.cpp:157] Top shape: 1 78 (78)
I0502 09:50:36.753691 25078 net.cpp:157] Top shape: 1 122 (122)
I0502 09:50:36.753695 25078 net.cpp:157] Top shape: 1 133 (133)
I0502 09:50:36.753698 25078 net.cpp:157] Top shape: 1 197 (197)
I0502 09:50:36.753702 25078 net.cpp:157] Top shape: 1 51 (51)
I0502 09:50:36.753706 25078 net.cpp:157] Top shape: 1 84 (84)
I0502 09:50:36.753710 25078 net.cpp:157] Top shape: 1 22 (22)
I0502 09:50:36.753713 25078 net.cpp:157] Top shape: 1 95 (95)
I0502 09:50:36.753716 25078 net.cpp:157] Top shape: 1 24 (24)
I0502 09:50:36.753720 25078 net.cpp:157] Top shape: 1 45 (45)
I0502 09:50:36.753723 25078 net.cpp:157] Top shape: 1 10 (10)
I0502 09:50:36.753727 25078 net.cpp:157] Top shape: 1 19 (19)
I0502 09:50:36.753731 25078 net.cpp:157] Top shape: 1 34 (34)
I0502 09:50:36.753734 25078 net.cpp:157] Top shape: 1 34 (34)
I0502 09:50:36.753737 25078 net.cpp:157] Top shape: 1 33 (33)
I0502 09:50:36.753741 25078 net.cpp:157] Top shape: 1 278 (278)
I0502 09:50:36.753744 25078 net.cpp:157] Top shape: 1 68 (68)
I0502 09:50:36.753748 25078 net.cpp:157] Top shape: 1 43 (43)
I0502 09:50:36.753751 25078 net.cpp:157] Top shape: 1 79 (79)
I0502 09:50:36.753756 25078 net.cpp:157] Top shape: 1 62 (62)
I0502 09:50:36.753758 25078 net.cpp:157] Top shape: 1 42 (42)
I0502 09:50:36.753762 25078 net.cpp:157] Top shape: 1 46 (46)
I0502 09:50:36.753765 25078 net.cpp:157] Top shape: 1 40 (40)
I0502 09:50:36.753769 25078 net.cpp:157] Top shape: 1 73 (73)
I0502 09:50:36.753772 25078 net.cpp:157] Top shape: 1 65 (65)
I0502 09:50:36.753777 25078 net.cpp:157] Top shape: 1 140 (140)
I0502 09:50:36.753779 25078 net.cpp:157] Top shape: 1 47 (47)
I0502 09:50:36.753783 25078 net.cpp:157] Top shape: 1 62 (62)
I0502 09:50:36.753787 25078 net.cpp:157] Top shape: 1 36 (36)
I0502 09:50:36.753790 25078 net.cpp:157] Top shape: 1 20 (20)
I0502 09:50:36.753794 25078 net.cpp:157] Top shape: 1 13 (13)
I0502 09:50:36.753798 25078 net.cpp:157] Top shape: 1 34 (34)
I0502 09:50:36.753801 25078 net.cpp:157] Top shape: 1 64 (64)
I0502 09:50:36.753804 25078 net.cpp:157] Top shape: 1 31 (31)
I0502 09:50:36.753808 25078 net.cpp:157] Top shape: 1 31 (31)
I0502 09:50:36.753811 25078 net.cpp:157] Top shape: 1 114 (114)
I0502 09:50:36.753815 25078 net.cpp:157] Top shape: 1 20 (20)
I0502 09:50:36.753818 25078 net.cpp:157] Top shape: 1 68 (68)
I0502 09:50:36.753823 25078 net.cpp:157] Top shape: 1 26 (26)
I0502 09:50:36.753825 25078 net.cpp:157] Top shape: 1 41 (41)
I0502 09:50:36.753829 25078 net.cpp:157] Top shape: 1 68 (68)
I0502 09:50:36.753832 25078 net.cpp:157] Top shape: 1 19 (19)
I0502 09:50:36.753836 25078 net.cpp:157] Top shape: 1 22 (22)
I0502 09:50:36.753839 25078 net.cpp:157] Top shape: 1 24 (24)
I0502 09:50:36.753844 25078 net.cpp:157] Top shape: 1 28 (28)
I0502 09:50:36.753846 25078 net.cpp:157] Top shape: 1 28 (28)
I0502 09:50:36.753850 25078 net.cpp:157] Top shape: 1 28 (28)
I0502 09:50:36.753854 25078 net.cpp:157] Top shape: 1 29 (29)
I0502 09:50:36.753857 25078 net.cpp:157] Top shape: 1 24 (24)
I0502 09:50:36.753860 25078 net.cpp:157] Top shape: 1 84 (84)
I0502 09:50:36.753865 25078 net.cpp:157] Top shape: 1 42 (42)
I0502 09:50:36.753867 25078 net.cpp:157] Top shape: 1 89 (89)
I0502 09:50:36.753871 25078 net.cpp:157] Top shape: 1 25 (25)
I0502 09:50:36.753875 25078 net.cpp:157] Top shape: 1 73 (73)
I0502 09:50:36.753878 25078 net.cpp:157] Top shape: 1 145 (145)
I0502 09:50:36.753883 25078 net.cpp:157] Top shape: 1 65 (65)
I0502 09:50:36.753887 25078 net.cpp:157] Top shape: 1 93 (93)
I0502 09:50:36.753891 25078 net.cpp:157] Top shape: 1 146 (146)
I0502 09:50:36.753895 25078 net.cpp:157] Top shape: 1 136 (136)
I0502 09:50:36.753898 25078 net.cpp:157] Top shape: 1 166 (166)
I0502 09:50:36.753901 25078 net.cpp:157] Top shape: 1 81 (81)
I0502 09:50:36.753906 25078 net.cpp:157] Top shape: 1 61 (61)
I0502 09:50:36.753908 25078 net.cpp:157] Top shape: 1 82 (82)
I0502 09:50:36.753912 25078 net.cpp:157] Top shape: 1 51 (51)
I0502 09:50:36.753916 25078 net.cpp:157] Top shape: 1 57 (57)
I0502 09:50:36.753919 25078 net.cpp:157] Top shape: 1 44 (44)
I0502 09:50:36.753922 25078 net.cpp:157] Top shape: 1 43 (43)
I0502 09:50:36.753926 25078 net.cpp:157] Top shape: 1 116 (116)
I0502 09:50:36.753929 25078 net.cpp:157] Top shape: 1 28 (28)
I0502 09:50:36.753933 25078 net.cpp:157] Top shape: 1 64 (64)
I0502 09:50:36.753937 25078 net.cpp:157] Top shape: 1 60 (60)
I0502 09:50:36.753940 25078 net.cpp:157] Top shape: 1 204 (204)
I0502 09:50:36.753943 25078 net.cpp:157] Top shape: 1 62 (62)
I0502 09:50:36.753947 25078 net.cpp:157] Top shape: 1 113 (113)
I0502 09:50:36.753952 25078 net.cpp:157] Top shape: 1 86 (86)
I0502 09:50:36.753954 25078 net.cpp:157] Top shape: 1 148 (148)
I0502 09:50:36.753958 25078 net.cpp:157] Top shape: 1 139 (139)
I0502 09:50:36.753962 25078 net.cpp:157] Top shape: 1 61 (61)
I0502 09:50:36.753965 25078 net.cpp:157] Top shape: 1 153 (153)
I0502 09:50:36.753968 25078 net.cpp:157] Top shape: 1 38 (38)
I0502 09:50:36.753973 25078 net.cpp:157] Top shape: 1 59 (59)
I0502 09:50:36.753975 25078 net.cpp:157] Top shape: 1 145 (145)
I0502 09:50:36.753979 25078 net.cpp:157] Top shape: 1 41 (41)
I0502 09:50:36.753983 25078 net.cpp:157] Top shape: 1 54 (54)
I0502 09:50:36.753986 25078 net.cpp:157] Top shape: 1 33 (33)
I0502 09:50:36.753989 25078 net.cpp:157] Top shape: 1 100 (100)
I0502 09:50:36.753993 25078 net.cpp:157] Top shape: 1 28 (28)
I0502 09:50:36.753996 25078 net.cpp:157] Top shape: 1 43 (43)
I0502 09:50:36.754000 25078 net.cpp:157] Top shape: 1 26 (26)
I0502 09:50:36.754004 25078 net.cpp:157] Top shape: 1 32 (32)
I0502 09:50:36.754007 25078 net.cpp:157] Top shape: 1 20 (20)
I0502 09:50:36.754010 25078 net.cpp:157] Top shape: 1 26 (26)
I0502 09:50:36.754014 25078 net.cpp:157] Top shape: 1 10 (10)
I0502 09:50:36.754017 25078 net.cpp:157] Top shape: 1 26 (26)
I0502 09:50:36.754021 25078 net.cpp:157] Top shape: 1 21 (21)
I0502 09:50:36.754024 25078 net.cpp:157] Top shape: 1 57 (57)
I0502 09:50:36.754029 25078 net.cpp:157] Top shape: 1 41 (41)
I0502 09:50:36.754032 25078 net.cpp:157] Top shape: 1 104 (104)
I0502 09:50:36.754035 25078 net.cpp:157] Top shape: 1 41 (41)
I0502 09:50:36.754040 25078 net.cpp:157] Top shape: 1 44 (44)
I0502 09:50:36.754042 25078 net.cpp:157] Top shape: 1 81 (81)
I0502 09:50:36.754046 25078 net.cpp:157] Top shape: 1 27 (27)
I0502 09:50:36.754050 25078 net.cpp:157] Top shape: 1 22 (22)
I0502 09:50:36.754053 25078 net.cpp:157] Top shape: 1 164 (164)
I0502 09:50:36.754056 25078 net.cpp:157] Top shape: 1 70 (70)
I0502 09:50:36.754060 25078 net.cpp:157] Top shape: 1 107 (107)
I0502 09:50:36.754063 25078 net.cpp:157] Top shape: 1 153 (153)
I0502 09:50:36.754067 25078 net.cpp:157] Top shape: 1 17 (17)
I0502 09:50:36.754070 25078 net.cpp:157] Top shape: 1 51 (51)
I0502 09:50:36.754075 25078 net.cpp:157] Top shape: 1 75 (75)
I0502 09:50:36.754077 25078 net.cpp:157] Top shape: 1 55 (55)
I0502 09:50:36.754081 25078 net.cpp:157] Top shape: 1 84 (84)
I0502 09:50:36.754084 25078 net.cpp:157] Top shape: 1 43 (43)
I0502 09:50:36.754088 25078 net.cpp:157] Top shape: 1 29 (29)
I0502 09:50:36.754091 25078 net.cpp:157] Top shape: 1 26 (26)
I0502 09:50:36.754096 25078 net.cpp:157] Top shape: 1 65 (65)
I0502 09:50:36.754098 25078 net.cpp:157] Top shape: 1 22 (22)
I0502 09:50:36.754103 25078 net.cpp:157] Top shape: 1 130 (130)
I0502 09:50:36.754106 25078 net.cpp:157] Top shape: 1 77 (77)
I0502 09:50:36.754111 25078 net.cpp:157] Top shape: 1 64 (64)
I0502 09:50:36.754113 25078 net.cpp:157] Top shape: 1 32 (32)
I0502 09:50:36.754119 25078 net.cpp:157] Top shape: 1 109 (109)
I0502 09:50:36.754123 25078 net.cpp:157] Top shape: 1 21 (21)
I0502 09:50:36.754127 25078 net.cpp:157] Top shape: 1 30 (30)
I0502 09:50:36.754130 25078 net.cpp:157] Top shape: 1 35 (35)
I0502 09:50:36.754133 25078 net.cpp:157] Top shape: 1 45 (45)
I0502 09:50:36.754137 25078 net.cpp:157] Top shape: 1 55 (55)
I0502 09:50:36.754140 25078 net.cpp:157] Top shape: 1 49 (49)
I0502 09:50:36.754144 25078 net.cpp:157] Top shape: 1 22 (22)
I0502 09:50:36.754148 25078 net.cpp:157] Top shape: 1 32 (32)
I0502 09:50:36.754151 25078 net.cpp:157] Top shape: 1 63 (63)
I0502 09:50:36.754154 25078 net.cpp:157] Top shape: 1 65 (65)
I0502 09:50:36.754158 25078 net.cpp:157] Top shape: 1 9 (9)
I0502 09:50:36.754161 25078 net.cpp:157] Top shape: 1 28 (28)
I0502 09:50:36.754165 25078 net.cpp:157] Top shape: 1 15 (15)
I0502 09:50:36.754168 25078 net.cpp:157] Top shape: 1 158 (158)
I0502 09:50:36.754173 25078 net.cpp:157] Top shape: 1 28 (28)
I0502 09:50:36.754175 25078 net.cpp:157] Top shape: 1 90 (90)
I0502 09:50:36.754179 25078 net.cpp:157] Top shape: 1 43 (43)
I0502 09:50:36.754182 25078 net.cpp:157] Top shape: 1 72 (72)
I0502 09:50:36.754186 25078 net.cpp:157] Top shape: 1 39 (39)
I0502 09:50:36.754189 25078 net.cpp:157] Top shape: 1 100 (100)
I0502 09:50:36.754194 25078 net.cpp:157] Top shape: 1 29 (29)
I0502 09:50:36.754196 25078 net.cpp:157] Top shape: 1 23 (23)
I0502 09:50:36.754200 25078 net.cpp:157] Top shape: 1 26 (26)
I0502 09:50:36.754204 25078 net.cpp:157] Top shape: 1 19 (19)
I0502 09:50:36.754207 25078 net.cpp:157] Top shape: 1 32 (32)
I0502 09:50:36.754211 25078 net.cpp:157] Top shape: 1 100 (100)
I0502 09:50:36.754215 25078 net.cpp:157] Top shape: 1 46 (46)
I0502 09:50:36.754218 25078 net.cpp:157] Top shape: 1 33 (33)
I0502 09:50:36.754221 25078 net.cpp:157] Top shape: 1 91 (91)
I0502 09:50:36.754225 25078 net.cpp:157] Top shape: 1 94 (94)
I0502 09:50:36.754228 25078 net.cpp:157] Top shape: 1 92 (92)
I0502 09:50:36.754232 25078 net.cpp:157] Top shape: 1 39 (39)
I0502 09:50:36.754235 25078 net.cpp:157] Top shape: 1 65 (65)
I0502 09:50:36.754240 25078 net.cpp:157] Top shape: 1 17 (17)
I0502 09:50:36.754242 25078 net.cpp:157] Top shape: 1 8 (8)
I0502 09:50:36.754246 25078 net.cpp:157] Top shape: 1 19 (19)
I0502 09:50:36.754250 25078 net.cpp:157] Top shape: 1 9 (9)
I0502 09:50:36.754253 25078 net.cpp:157] Top shape: 1 251 (251)
I0502 09:50:36.754256 25078 net.cpp:157] Top shape: 1 315 (315)
I0502 09:50:36.754261 25078 net.cpp:157] Top shape: 1 58 (58)
I0502 09:50:36.754263 25078 net.cpp:157] Top shape: 1 103 (103)
I0502 09:50:36.754267 25078 net.cpp:157] Top shape: 1 22 (22)
I0502 09:50:36.754271 25078 net.cpp:157] Top shape: 1 16 (16)
I0502 09:50:36.754274 25078 net.cpp:157] Top shape: 1 39 (39)
I0502 09:50:36.754277 25078 net.cpp:157] Top shape: 1 48 (48)
I0502 09:50:36.754281 25078 net.cpp:157] Top shape: 1 21 (21)
I0502 09:50:36.754284 25078 net.cpp:157] Top shape: 1 37 (37)
I0502 09:50:36.754288 25078 net.cpp:157] Top shape: 1 38 (38)
I0502 09:50:36.754292 25078 net.cpp:157] Top shape: 1 22 (22)
I0502 09:50:36.754295 25078 net.cpp:157] Top shape: 1 31 (31)
I0502 09:50:36.754298 25078 net.cpp:157] Top shape: 1 58 (58)
I0502 09:50:36.754302 25078 net.cpp:157] Top shape: 1 54 (54)
I0502 09:50:36.754305 25078 net.cpp:157] Top shape: 1 53 (53)
I0502 09:50:36.754309 25078 net.cpp:157] Top shape: 1 53 (53)
I0502 09:50:36.754312 25078 net.cpp:157] Top shape: 1 73 (73)
I0502 09:50:36.754317 25078 net.cpp:157] Top shape: 1 63 (63)
I0502 09:50:36.754319 25078 net.cpp:157] Top shape: 1 48 (48)
I0502 09:50:36.754323 25078 net.cpp:157] Top shape: 1 72 (72)
I0502 09:50:36.754326 25078 net.cpp:157] Top shape: 1 83 (83)
I0502 09:50:36.754330 25078 net.cpp:157] Top shape: 1 111 (111)
I0502 09:50:36.754333 25078 net.cpp:157] Top shape: 1 169 (169)
I0502 09:50:36.754338 25078 net.cpp:157] Top shape: 1 45 (45)
I0502 09:50:36.754340 25078 net.cpp:157] Top shape: 1 60 (60)
I0502 09:50:36.754344 25078 net.cpp:157] Top shape: 1 71 (71)
I0502 09:50:36.754350 25078 net.cpp:157] Top shape: 1 68 (68)
I0502 09:50:36.754354 25078 net.cpp:157] Top shape: 1 42 (42)
I0502 09:50:36.754357 25078 net.cpp:157] Top shape: 1 46 (46)
I0502 09:50:36.754360 25078 net.cpp:157] Top shape: 1 25 (25)
I0502 09:50:36.754364 25078 net.cpp:157] Top shape: 1 34 (34)
I0502 09:50:36.754367 25078 net.cpp:157] Top shape: 1 73 (73)
I0502 09:50:36.754371 25078 net.cpp:157] Top shape: 1 121 (121)
I0502 09:50:36.754374 25078 net.cpp:157] Top shape: 1 75 (75)
I0502 09:50:36.754379 25078 net.cpp:157] Top shape: 1 38 (38)
I0502 09:50:36.754381 25078 net.cpp:157] Top shape: 1 140 (140)
I0502 09:50:36.754385 25078 net.cpp:157] Top shape: 1 44 (44)
I0502 09:50:36.754389 25078 net.cpp:157] Top shape: 1 164 (164)
I0502 09:50:36.754392 25078 net.cpp:157] Top shape: 1 88 (88)
I0502 09:50:36.754395 25078 net.cpp:157] Top shape: 1 110 (110)
I0502 09:50:36.754400 25078 net.cpp:157] Top shape: 1 35 (35)
I0502 09:50:36.754402 25078 net.cpp:157] Top shape: 1 60 (60)
I0502 09:50:36.754406 25078 net.cpp:157] Top shape: 1 100 (100)
I0502 09:50:36.754410 25078 net.cpp:157] Top shape: 1 193 (193)
I0502 09:50:36.754413 25078 net.cpp:157] Top shape: 1 64 (64)
I0502 09:50:36.754416 25078 net.cpp:157] Top shape: 1 218 (218)
I0502 09:50:36.754420 25078 net.cpp:157] Top shape: 1 44 (44)
I0502 09:50:36.754423 25078 net.cpp:157] Top shape: 1 61 (61)
I0502 09:50:36.754427 25078 net.cpp:157] Top shape: 1 44 (44)
I0502 09:50:36.754431 25078 net.cpp:157] Top shape: 1 31 (31)
I0502 09:50:36.754434 25078 net.cpp:157] Top shape: 1 39 (39)
I0502 09:50:36.754437 25078 net.cpp:157] Top shape: 1 96 (96)
I0502 09:50:36.754441 25078 net.cpp:157] Top shape: 1 220 (220)
I0502 09:50:36.754444 25078 net.cpp:157] Top shape: 1 43 (43)
I0502 09:50:36.754448 25078 net.cpp:157] Top shape: 1 68 (68)
I0502 09:50:36.754451 25078 net.cpp:157] Top shape: 1 71 (71)
I0502 09:50:36.754456 25078 net.cpp:157] Top shape: 1 36 (36)
I0502 09:50:36.754458 25078 net.cpp:157] Top shape: 1 44 (44)
I0502 09:50:36.754462 25078 net.cpp:157] Top shape: 1 19 (19)
I0502 09:50:36.754465 25078 net.cpp:157] Top shape: 1 45 (45)
I0502 09:50:36.754469 25078 net.cpp:157] Top shape: 1 99 (99)
I0502 09:50:36.754472 25078 net.cpp:157] Top shape: 1 187 (187)
I0502 09:50:36.754477 25078 net.cpp:157] Top shape: 1 84 (84)
I0502 09:50:36.754479 25078 net.cpp:157] Top shape: 1 72 (72)
I0502 09:50:36.754483 25078 net.cpp:157] Top shape: 1 197 (197)
I0502 09:50:36.754487 25078 net.cpp:157] Top shape: 1 15 (15)
I0502 09:50:36.754490 25078 net.cpp:157] Top shape: 1 66 (66)
I0502 09:50:36.754493 25078 net.cpp:157] Top shape: 1 54 (54)
I0502 09:50:36.754498 25078 net.cpp:157] Top shape: 1 37 (37)
I0502 09:50:36.754500 25078 net.cpp:157] Top shape: 1 40 (40)
I0502 09:50:36.754504 25078 net.cpp:157] Top shape: 1 30 (30)
I0502 09:50:36.754508 25078 net.cpp:157] Top shape: 1 29 (29)
I0502 09:50:36.754511 25078 net.cpp:157] Top shape: 1 21 (21)
I0502 09:50:36.754514 25078 net.cpp:157] Top shape: 1 81 (81)
I0502 09:50:36.754518 25078 net.cpp:157] Top shape: 1 201 (201)
I0502 09:50:36.754521 25078 net.cpp:157] Top shape: 1 64 (64)
I0502 09:50:36.754525 25078 net.cpp:157] Top shape: 1 181 (181)
I0502 09:50:36.754528 25078 net.cpp:157] Top shape: 1 26 (26)
I0502 09:50:36.754533 25078 net.cpp:157] Top shape: 1 49 (49)
I0502 09:50:36.754535 25078 net.cpp:157] Top shape: 1 11 (11)
I0502 09:50:36.754539 25078 net.cpp:157] Top shape: 1 35 (35)
I0502 09:50:36.754542 25078 net.cpp:157] Top shape: 1 92 (92)
I0502 09:50:36.754546 25078 net.cpp:157] Top shape: 1 203 (203)
I0502 09:50:36.754550 25078 net.cpp:157] Top shape: 1 100 (100)
I0502 09:50:36.754554 25078 net.cpp:157] Top shape: 1 150 (150)
I0502 09:50:36.754557 25078 net.cpp:157] Top shape: 1 30 (30)
I0502 09:50:36.754560 25078 net.cpp:157] Top shape: 1 35 (35)
I0502 09:50:36.754565 25078 net.cpp:157] Top shape: 1 32 (32)
I0502 09:50:36.754567 25078 net.cpp:157] Top shape: 1 62 (62)
I0502 09:50:36.754571 25078 net.cpp:157] Top shape: 1 44 (44)
I0502 09:50:36.754575 25078 net.cpp:157] Top shape: 1 59 (59)
I0502 09:50:36.754577 25078 net.cpp:157] Top shape: 1 45 (45)
I0502 09:50:36.754583 25078 net.cpp:157] Top shape: 1 28 (28)
I0502 09:50:36.754586 25078 net.cpp:157] Top shape: 1 33 (33)
I0502 09:50:36.754590 25078 net.cpp:157] Top shape: 1 52 (52)
I0502 09:50:36.754593 25078 net.cpp:157] Top shape: 1 19 (19)
I0502 09:50:36.754597 25078 net.cpp:157] Top shape: 1 11 (11)
I0502 09:50:36.754601 25078 net.cpp:157] Top shape: 1 18 (18)
I0502 09:50:36.754604 25078 net.cpp:157] Top shape: 1 157 (157)
I0502 09:50:36.754607 25078 net.cpp:157] Top shape: 1 172 (172)
I0502 09:50:36.754611 25078 net.cpp:157] Top shape: 1 52 (52)
I0502 09:50:36.754614 25078 net.cpp:157] Top shape: 1 75 (75)
I0502 09:50:36.754618 25078 net.cpp:157] Top shape: 1 235 (235)
I0502 09:50:36.754621 25078 net.cpp:157] Top shape: 1 342 (342)
I0502 09:50:36.754626 25078 net.cpp:157] Top shape: 1 73 (73)
I0502 09:50:36.754628 25078 net.cpp:157] Top shape: 1 109 (109)
I0502 09:50:36.754632 25078 net.cpp:157] Top shape: 1 41 (41)
I0502 09:50:36.754636 25078 net.cpp:157] Top shape: 1 110 (110)
I0502 09:50:36.754639 25078 net.cpp:157] Top shape: 1 77 (77)
I0502 09:50:36.754642 25078 net.cpp:157] Top shape: 1 60 (60)
I0502 09:50:36.754647 25078 net.cpp:157] Top shape: 1 18 (18)
I0502 09:50:36.754649 25078 net.cpp:157] Top shape: 1 15 (15)
I0502 09:50:36.754653 25078 net.cpp:157] Top shape: 1 100 (100)
I0502 09:50:36.754657 25078 net.cpp:157] Top shape: 1 46 (46)
I0502 09:50:36.754660 25078 net.cpp:157] Top shape: 1 58 (58)
I0502 09:50:36.754663 25078 net.cpp:157] Top shape: 1 31 (31)
I0502 09:50:36.754667 25078 net.cpp:157] Top shape: 1 56 (56)
I0502 09:50:36.754670 25078 net.cpp:157] Top shape: 1 37 (37)
I0502 09:50:36.754674 25078 net.cpp:157] Top shape: 1 104 (104)
I0502 09:50:36.754678 25078 net.cpp:157] Top shape: 1 69 (69)
I0502 09:50:36.754681 25078 net.cpp:157] Top shape: 1 78 (78)
I0502 09:50:36.754684 25078 net.cpp:157] Top shape: 1 73 (73)
I0502 09:50:36.754688 25078 net.cpp:157] Top shape: 1 83 (83)
I0502 09:50:36.754691 25078 net.cpp:157] Top shape: 1 68 (68)
I0502 09:50:36.754695 25078 net.cpp:157] Top shape: 1 65 (65)
I0502 09:50:36.754698 25078 net.cpp:157] Top shape: 1 17 (17)
I0502 09:50:36.754703 25078 net.cpp:157] Top shape: 1 64 (64)
I0502 09:50:36.754705 25078 net.cpp:157] Top shape: 1 66 (66)
I0502 09:50:36.754709 25078 net.cpp:157] Top shape: 1 50 (50)
I0502 09:50:36.754712 25078 net.cpp:157] Top shape: 1 54 (54)
I0502 09:50:36.754715 25078 net.cpp:157] Top shape: 1 98 (98)
I0502 09:50:36.754719 25078 net.cpp:157] Top shape: 1 52 (52)
I0502 09:50:36.754722 25078 net.cpp:157] Top shape: 1 65 (65)
I0502 09:50:36.754726 25078 net.cpp:157] Top shape: 1 59 (59)
I0502 09:50:36.754729 25078 net.cpp:157] Top shape: 1 40 (40)
I0502 09:50:36.754734 25078 net.cpp:157] Top shape: 1 41 (41)
I0502 09:50:36.754736 25078 net.cpp:157] Top shape: 1 36 (36)
I0502 09:50:36.754740 25078 net.cpp:157] Top shape: 1 68 (68)
I0502 09:50:36.754744 25078 net.cpp:157] Top shape: 1 58 (58)
I0502 09:50:36.754747 25078 net.cpp:157] Top shape: 1 70 (70)
I0502 09:50:36.754750 25078 net.cpp:157] Top shape: 1 50 (50)
I0502 09:50:36.754755 25078 net.cpp:157] Top shape: 1 77 (77)
I0502 09:50:36.754757 25078 net.cpp:157] Top shape: 1 72 (72)
I0502 09:50:36.754761 25078 net.cpp:157] Top shape: 1 41 (41)
I0502 09:50:36.754765 25078 net.cpp:157] Top shape: 1 218 (218)
I0502 09:50:36.754768 25078 net.cpp:157] Top shape: 1 219 (219)
I0502 09:50:36.754771 25078 net.cpp:157] Top shape: 1 158 (158)
I0502 09:50:36.754776 25078 net.cpp:157] Top shape: 1 78 (78)
I0502 09:50:36.754778 25078 net.cpp:157] Top shape: 1 42 (42)
I0502 09:50:36.754782 25078 net.cpp:157] Top shape: 1 98 (98)
I0502 09:50:36.754786 25078 net.cpp:157] Top shape: 1 52 (52)
I0502 09:50:36.754789 25078 net.cpp:157] Top shape: 1 92 (92)
I0502 09:50:36.754792 25078 net.cpp:157] Top shape: 1 159 (159)
I0502 09:50:36.754796 25078 net.cpp:157] Top shape: 1 61 (61)
I0502 09:50:36.754799 25078 net.cpp:157] Top shape: 1 83 (83)
I0502 09:50:36.754803 25078 net.cpp:157] Top shape: 1 65 (65)
I0502 09:50:36.754806 25078 net.cpp:157] Top shape: 1 83 (83)
I0502 09:50:36.754811 25078 net.cpp:157] Top shape: 1 72 (72)
I0502 09:50:36.754815 25078 net.cpp:157] Top shape: 1 26 (26)
I0502 09:50:36.754819 25078 net.cpp:157] Top shape: 1 53 (53)
I0502 09:50:36.754822 25078 net.cpp:157] Top shape: 1 80 (80)
I0502 09:50:36.754827 25078 net.cpp:157] Top shape: 1 156 (156)
I0502 09:50:36.754829 25078 net.cpp:157] Top shape: 1 102 (102)
I0502 09:50:36.754833 25078 net.cpp:157] Top shape: 1 173 (173)
I0502 09:50:36.754837 25078 net.cpp:157] Top shape: 1 52 (52)
I0502 09:50:36.754840 25078 net.cpp:157] Top shape: 1 30 (30)
I0502 09:50:36.754843 25078 net.cpp:157] Top shape: 1 35 (35)
I0502 09:50:36.754848 25078 net.cpp:157] Top shape: 1 31 (31)
I0502 09:50:36.754850 25078 net.cpp:157] Top shape: 1 46 (46)
I0502 09:50:36.754854 25078 net.cpp:157] Top shape: 1 32 (32)
I0502 09:50:36.754858 25078 net.cpp:157] Top shape: 1 25 (25)
I0502 09:50:36.754861 25078 net.cpp:157] Top shape: 1 140 (140)
I0502 09:50:36.754864 25078 net.cpp:157] Top shape: 1 90 (90)
I0502 09:50:36.754868 25078 net.cpp:157] Top shape: 1 170 (170)
I0502 09:50:36.754871 25078 net.cpp:157] Top shape: 1 20 (20)
I0502 09:50:36.754875 25078 net.cpp:157] Top shape: 1 23 (23)
I0502 09:50:36.754878 25078 net.cpp:157] Top shape: 1 21 (21)
I0502 09:50:36.754883 25078 net.cpp:157] Top shape: 1 59 (59)
I0502 09:50:36.754885 25078 net.cpp:157] Top shape: 1 130 (130)
I0502 09:50:36.754889 25078 net.cpp:157] Top shape: 1 57 (57)
I0502 09:50:36.754892 25078 net.cpp:157] Top shape: 1 53 (53)
I0502 09:50:36.754896 25078 net.cpp:157] Top shape: 1 38 (38)
I0502 09:50:36.754899 25078 net.cpp:157] Top shape: 1 78 (78)
I0502 09:50:36.754904 25078 net.cpp:157] Top shape: 1 43 (43)
I0502 09:50:36.754906 25078 net.cpp:157] Top shape: 1 54 (54)
I0502 09:50:36.754910 25078 net.cpp:157] Top shape: 1 74 (74)
I0502 09:50:36.754914 25078 net.cpp:157] Top shape: 1 75 (75)
I0502 09:50:36.754917 25078 net.cpp:157] Top shape: 1 97 (97)
I0502 09:50:36.754920 25078 net.cpp:157] Top shape: 1 95 (95)
I0502 09:50:36.754925 25078 net.cpp:157] Top shape: 1 30 (30)
I0502 09:50:36.754927 25078 net.cpp:157] Top shape: 1 38 (38)
I0502 09:50:36.754931 25078 net.cpp:157] Top shape: 1 35 (35)
I0502 09:50:36.754935 25078 net.cpp:157] Top shape: 1 75 (75)
I0502 09:50:36.754938 25078 net.cpp:157] Top shape: 1 186 (186)
I0502 09:50:36.754941 25078 net.cpp:157] Top shape: 1 35 (35)
I0502 09:50:36.754945 25078 net.cpp:157] Top shape: 1 97 (97)
I0502 09:50:36.754948 25078 net.cpp:157] Top shape: 1 160 (160)
I0502 09:50:36.754952 25078 net.cpp:157] Top shape: 1 25 (25)
I0502 09:50:36.754956 25078 net.cpp:157] Top shape: 1 33 (33)
I0502 09:50:36.754959 25078 net.cpp:157] Top shape: 1 77 (77)
I0502 09:50:36.754962 25078 net.cpp:157] Top shape: 1 174 (174)
I0502 09:50:36.754966 25078 net.cpp:157] Top shape: 1 36 (36)
I0502 09:50:36.754969 25078 net.cpp:157] Top shape: 1 88 (88)
I0502 09:50:36.754973 25078 net.cpp:157] Top shape: 1 80 (80)
I0502 09:50:36.754976 25078 net.cpp:157] Top shape: 1 43 (43)
I0502 09:50:36.754981 25078 net.cpp:157] Top shape: 1 65 (65)
I0502 09:50:36.754983 25078 net.cpp:157] Top shape: 1 46 (46)
I0502 09:50:36.754987 25078 net.cpp:157] Top shape: 1 78 (78)
I0502 09:50:36.754990 25078 net.cpp:157] Top shape: 1 166 (166)
I0502 09:50:36.754994 25078 net.cpp:157] Top shape: 1 43 (43)
I0502 09:50:36.754997 25078 net.cpp:157] Top shape: 1 91 (91)
I0502 09:50:36.755002 25078 net.cpp:157] Top shape: 1 51 (51)
I0502 09:50:36.755004 25078 net.cpp:157] Top shape: 1 163 (163)
I0502 09:50:36.755008 25078 net.cpp:157] Top shape: 1 98 (98)
I0502 09:50:36.755012 25078 net.cpp:157] Top shape: 1 32 (32)
I0502 09:50:36.755015 25078 net.cpp:157] Top shape: 1 219 (219)
I0502 09:50:36.755018 25078 net.cpp:157] Top shape: 1 35 (35)
I0502 09:50:36.755023 25078 net.cpp:157] Top shape: 1 58 (58)
I0502 09:50:36.755025 25078 net.cpp:157] Top shape: 1 78 (78)
I0502 09:50:36.755029 25078 net.cpp:157] Top shape: 1 78 (78)
I0502 09:50:36.755033 25078 net.cpp:157] Top shape: 1 94 (94)
I0502 09:50:36.755036 25078 net.cpp:157] Top shape: 1 75 (75)
I0502 09:50:36.755039 25078 net.cpp:157] Top shape: 1 51 (51)
I0502 09:50:36.755044 25078 net.cpp:157] Top shape: 1 20 (20)
I0502 09:50:36.755048 25078 net.cpp:157] Top shape: 1 70 (70)
I0502 09:50:36.755053 25078 net.cpp:157] Top shape: 1 29 (29)
I0502 09:50:36.755055 25078 net.cpp:157] Top shape: 1 41 (41)
I0502 09:50:36.755059 25078 net.cpp:157] Top shape: 1 16 (16)
I0502 09:50:36.755062 25078 net.cpp:157] Top shape: 1 42 (42)
I0502 09:50:36.755066 25078 net.cpp:157] Top shape: 1 52 (52)
I0502 09:50:36.755069 25078 net.cpp:157] Top shape: 1 56 (56)
I0502 09:50:36.755074 25078 net.cpp:157] Top shape: 1 48 (48)
I0502 09:50:36.755076 25078 net.cpp:157] Top shape: 1 63 (63)
I0502 09:50:36.755080 25078 net.cpp:157] Top shape: 1 25 (25)
I0502 09:50:36.755084 25078 net.cpp:157] Top shape: 1 38 (38)
I0502 09:50:36.755087 25078 net.cpp:157] Top shape: 1 26 (26)
I0502 09:50:36.755090 25078 net.cpp:157] Top shape: 1 11 (11)
I0502 09:50:36.755095 25078 net.cpp:157] Top shape: 1 26 (26)
I0502 09:50:36.755097 25078 net.cpp:157] Top shape: 1 26 (26)
I0502 09:50:36.755101 25078 net.cpp:157] Top shape: 1 21 (21)
I0502 09:50:36.755105 25078 net.cpp:157] Top shape: 1 26 (26)
I0502 09:50:36.755108 25078 net.cpp:157] Top shape: 1 50 (50)
I0502 09:50:36.755111 25078 net.cpp:157] Top shape: 1 12 (12)
I0502 09:50:36.755115 25078 net.cpp:157] Top shape: 1 16 (16)
I0502 09:50:36.755118 25078 net.cpp:157] Top shape: 1 28 (28)
I0502 09:50:36.755122 25078 net.cpp:157] Top shape: 1 59 (59)
I0502 09:50:36.755125 25078 net.cpp:157] Top shape: 1 75 (75)
I0502 09:50:36.755130 25078 net.cpp:157] Top shape: 1 30 (30)
I0502 09:50:36.755132 25078 net.cpp:157] Top shape: 1 35 (35)
I0502 09:50:36.755136 25078 net.cpp:157] Top shape: 1 116 (116)
I0502 09:50:36.755139 25078 net.cpp:157] Top shape: 1 34 (34)
I0502 09:50:36.755143 25078 net.cpp:157] Top shape: 1 45 (45)
I0502 09:50:36.755146 25078 net.cpp:157] Top shape: 1 39 (39)
I0502 09:50:36.755151 25078 net.cpp:157] Top shape: 1 62 (62)
I0502 09:50:36.755153 25078 net.cpp:157] Top shape: 1 31 (31)
I0502 09:50:36.755157 25078 net.cpp:157] Top shape: 1 35 (35)
I0502 09:50:36.755161 25078 net.cpp:157] Top shape: 1 19 (19)
I0502 09:50:36.755164 25078 net.cpp:157] Top shape: 1 39 (39)
I0502 09:50:36.755167 25078 net.cpp:157] Top shape: 1 45 (45)
I0502 09:50:36.755172 25078 net.cpp:157] Top shape: 1 168 (168)
I0502 09:50:36.755174 25078 net.cpp:157] Top shape: 1 32 (32)
I0502 09:50:36.755178 25078 net.cpp:157] Top shape: 1 76 (76)
I0502 09:50:36.755182 25078 net.cpp:157] Top shape: 1 71 (71)
I0502 09:50:36.755185 25078 net.cpp:157] Top shape: 1 70 (70)
I0502 09:50:36.755189 25078 net.cpp:157] Top shape: 1 82 (82)
I0502 09:50:36.755192 25078 net.cpp:157] Top shape: 1 47 (47)
I0502 09:50:36.755197 25078 net.cpp:157] Top shape: 1 68 (68)
I0502 09:50:36.755199 25078 net.cpp:157] Top shape: 1 41 (41)
I0502 09:50:36.755203 25078 net.cpp:157] Top shape: 1 48 (48)
I0502 09:50:36.755206 25078 net.cpp:157] Top shape: 1 94 (94)
I0502 09:50:36.755210 25078 net.cpp:157] Top shape: 1 29 (29)
I0502 09:50:36.755213 25078 net.cpp:157] Top shape: 1 48 (48)
I0502 09:50:36.755218 25078 net.cpp:157] Top shape: 1 25 (25)
I0502 09:50:36.755220 25078 net.cpp:157] Top shape: 1 31 (31)
I0502 09:50:36.755224 25078 net.cpp:157] Top shape: 1 33 (33)
I0502 09:50:36.755228 25078 net.cpp:157] Top shape: 1 68 (68)
I0502 09:50:36.755231 25078 net.cpp:157] Top shape: 1 51 (51)
I0502 09:50:36.755234 25078 net.cpp:157] Top shape: 1 138 (138)
I0502 09:50:36.755239 25078 net.cpp:157] Top shape: 1 95 (95)
I0502 09:50:36.755241 25078 net.cpp:157] Top shape: 1 49 (49)
I0502 09:50:36.755245 25078 net.cpp:157] Top shape: 1 68 (68)
I0502 09:50:36.755249 25078 net.cpp:157] Top shape: 1 65 (65)
I0502 09:50:36.755252 25078 net.cpp:157] Top shape: 1 42 (42)
I0502 09:50:36.755255 25078 net.cpp:157] Top shape: 1 16 (16)
I0502 09:50:36.755259 25078 net.cpp:157] Top shape: 1 67 (67)
I0502 09:50:36.755262 25078 net.cpp:157] Top shape: 1 42 (42)
I0502 09:50:36.755266 25078 net.cpp:157] Top shape: 1 40 (40)
I0502 09:50:36.755270 25078 net.cpp:157] Top shape: 1 51 (51)
I0502 09:50:36.755273 25078 net.cpp:157] Top shape: 1 105 (105)
I0502 09:50:36.755278 25078 net.cpp:157] Top shape: 1 114 (114)
I0502 09:50:36.755282 25078 net.cpp:157] Top shape: 1 62 (62)
I0502 09:50:36.755286 25078 net.cpp:157] Top shape: 1 36 (36)
I0502 09:50:36.755290 25078 net.cpp:157] Top shape: 1 61 (61)
I0502 09:50:36.755293 25078 net.cpp:157] Top shape: 1 18 (18)
I0502 09:50:36.755296 25078 net.cpp:157] Top shape: 1 47 (47)
I0502 09:50:36.755300 25078 net.cpp:157] Top shape: 1 220 (220)
I0502 09:50:36.755303 25078 net.cpp:157] Top shape: 1 34 (34)
I0502 09:50:36.755307 25078 net.cpp:157] Top shape: 1 56 (56)
I0502 09:50:36.755311 25078 net.cpp:157] Top shape: 1 30 (30)
I0502 09:50:36.755314 25078 net.cpp:157] Top shape: 1 45 (45)
I0502 09:50:36.755317 25078 net.cpp:157] Top shape: 1 64 (64)
I0502 09:50:36.755321 25078 net.cpp:157] Top shape: 1 18 (18)
I0502 09:50:36.755324 25078 net.cpp:157] Top shape: 1 39 (39)
I0502 09:50:36.755328 25078 net.cpp:157] Top shape: 1 66 (66)
I0502 09:50:36.755331 25078 net.cpp:157] Top shape: 1 29 (29)
I0502 09:50:36.755336 25078 net.cpp:157] Top shape: 1 42 (42)
I0502 09:50:36.755338 25078 net.cpp:157] Top shape: 1 63 (63)
I0502 09:50:36.755342 25078 net.cpp:157] Top shape: 1 10 (10)
I0502 09:50:36.755345 25078 net.cpp:157] Top shape: 1 53 (53)
I0502 09:50:36.755349 25078 net.cpp:157] Top shape: 1 43 (43)
I0502 09:50:36.755353 25078 net.cpp:157] Top shape: 1 22 (22)
I0502 09:50:36.755357 25078 net.cpp:157] Top shape: 1 66 (66)
I0502 09:50:36.755360 25078 net.cpp:157] Top shape: 1 125 (125)
I0502 09:50:36.755363 25078 net.cpp:157] Top shape: 1 23 (23)
I0502 09:50:36.755367 25078 net.cpp:157] Top shape: 1 109 (109)
I0502 09:50:36.755370 25078 net.cpp:157] Top shape: 1 16 (16)
I0502 09:50:36.755374 25078 net.cpp:157] Top shape: 1 29 (29)
I0502 09:50:36.755378 25078 net.cpp:157] Top shape: 1 59 (59)
I0502 09:50:36.755381 25078 net.cpp:157] Top shape: 1 64 (64)
I0502 09:50:36.755384 25078 net.cpp:157] Top shape: 1 70 (70)
I0502 09:50:36.755388 25078 net.cpp:157] Top shape: 1 60 (60)
I0502 09:50:36.755391 25078 net.cpp:157] Top shape: 1 46 (46)
I0502 09:50:36.755395 25078 net.cpp:157] Top shape: 1 61 (61)
I0502 09:50:36.755398 25078 net.cpp:157] Top shape: 1 46 (46)
I0502 09:50:36.755403 25078 net.cpp:157] Top shape: 1 36 (36)
I0502 09:50:36.755405 25078 net.cpp:157] Top shape: 1 23 (23)
I0502 09:50:36.755409 25078 net.cpp:157] Top shape: 1 88 (88)
I0502 09:50:36.755412 25078 net.cpp:157] Top shape: 1 51 (51)
I0502 09:50:36.755416 25078 net.cpp:157] Top shape: 1 58 (58)
I0502 09:50:36.755419 25078 net.cpp:157] Top shape: 1 35 (35)
I0502 09:50:36.755424 25078 net.cpp:157] Top shape: 1 85 (85)
I0502 09:50:36.755426 25078 net.cpp:157] Top shape: 1 143 (143)
I0502 09:50:36.755430 25078 net.cpp:157] Top shape: 1 94 (94)
I0502 09:50:36.755434 25078 net.cpp:157] Top shape: 1 85 (85)
I0502 09:50:36.755437 25078 net.cpp:157] Top shape: 1 58 (58)
I0502 09:50:36.755440 25078 net.cpp:157] Top shape: 1 56 (56)
I0502 09:50:36.755445 25078 net.cpp:157] Top shape: 1 100 (100)
I0502 09:50:36.755447 25078 net.cpp:157] Top shape: 1 117 (117)
I0502 09:50:36.755451 25078 net.cpp:157] Top shape: 1 64 (64)
I0502 09:50:36.755455 25078 net.cpp:157] Top shape: 1 31 (31)
I0502 09:50:36.755458 25078 net.cpp:157] Top shape: 1 69 (69)
I0502 09:50:36.755462 25078 net.cpp:157] Top shape: 1 176 (176)
I0502 09:50:36.755465 25078 net.cpp:157] Top shape: 1 43 (43)
I0502 09:50:36.755470 25078 net.cpp:157] Top shape: 1 71 (71)
I0502 09:50:36.755472 25078 net.cpp:157] Top shape: 1 63 (63)
I0502 09:50:36.755476 25078 net.cpp:157] Top shape: 1 18 (18)
I0502 09:50:36.755480 25078 net.cpp:157] Top shape: 1 33 (33)
I0502 09:50:36.755483 25078 net.cpp:157] Top shape: 1 95 (95)
I0502 09:50:36.755486 25078 net.cpp:157] Top shape: 1 234 (234)
I0502 09:50:36.755491 25078 net.cpp:157] Top shape: 1 83 (83)
I0502 09:50:36.755493 25078 net.cpp:157] Top shape: 1 86 (86)
I0502 09:50:36.755497 25078 net.cpp:157] Top shape: 1 57 (57)
I0502 09:50:36.755501 25078 net.cpp:157] Top shape: 1 76 (76)
I0502 09:50:36.755504 25078 net.cpp:157] Top shape: 1 59 (59)
I0502 09:50:36.755507 25078 net.cpp:157] Top shape: 1 46 (46)
I0502 09:50:36.755514 25078 net.cpp:157] Top shape: 1 66 (66)
I0502 09:50:36.755517 25078 net.cpp:157] Top shape: 1 48 (48)
I0502 09:50:36.755522 25078 net.cpp:157] Top shape: 1 34 (34)
I0502 09:50:36.755524 25078 net.cpp:157] Top shape: 1 31 (31)
I0502 09:50:36.755528 25078 net.cpp:157] Top shape: 1 45 (45)
I0502 09:50:36.755532 25078 net.cpp:157] Top shape: 1 21 (21)
I0502 09:50:36.755535 25078 net.cpp:157] Top shape: 1 117 (117)
I0502 09:50:36.755538 25078 net.cpp:157] Top shape: 1 51 (51)
I0502 09:50:36.755542 25078 net.cpp:157] Top shape: 1 50 (50)
I0502 09:50:36.755545 25078 net.cpp:157] Top shape: 1 22 (22)
I0502 09:50:36.755549 25078 net.cpp:157] Top shape: 1 31 (31)
I0502 09:50:36.755553 25078 net.cpp:157] Top shape: 1 20 (20)
I0502 09:50:36.755556 25078 net.cpp:157] Top shape: 1 55 (55)
I0502 09:50:36.755560 25078 net.cpp:157] Top shape: 1 33 (33)
I0502 09:50:36.755563 25078 net.cpp:157] Top shape: 1 44 (44)
I0502 09:50:36.755568 25078 net.cpp:157] Top shape: 1 43 (43)
I0502 09:50:36.755570 25078 net.cpp:157] Top shape: 1 70 (70)
I0502 09:50:36.755574 25078 net.cpp:157] Top shape: 1 54 (54)
I0502 09:50:36.755578 25078 net.cpp:157] Top shape: 1 45 (45)
I0502 09:50:36.755581 25078 net.cpp:157] Top shape: 1 64 (64)
I0502 09:50:36.755584 25078 net.cpp:157] Top shape: 1 64 (64)
I0502 09:50:36.755589 25078 net.cpp:157] Top shape: 1 42 (42)
I0502 09:50:36.755591 25078 net.cpp:157] Top shape: 1 96 (96)
I0502 09:50:36.755595 25078 net.cpp:157] Top shape: 1 98 (98)
I0502 09:50:36.755599 25078 net.cpp:157] Top shape: 1 46 (46)
I0502 09:50:36.755602 25078 net.cpp:157] Top shape: 1 125 (125)
I0502 09:50:36.755605 25078 net.cpp:157] Top shape: 1 56 (56)
I0502 09:50:36.755609 25078 net.cpp:157] Top shape: 1 29 (29)
I0502 09:50:36.755612 25078 net.cpp:157] Top shape: 1 27 (27)
I0502 09:50:36.755616 25078 net.cpp:157] Top shape: 1 32 (32)
I0502 09:50:36.755620 25078 net.cpp:157] Top shape: 1 38 (38)
I0502 09:50:36.755623 25078 net.cpp:157] Top shape: 1 61 (61)
I0502 09:50:36.755627 25078 net.cpp:157] Top shape: 1 41 (41)
I0502 09:50:36.755630 25078 net.cpp:157] Top shape: 1 42 (42)
I0502 09:50:36.755635 25078 net.cpp:157] Top shape: 1 59 (59)
I0502 09:50:36.755637 25078 net.cpp:157] Top shape: 1 86 (86)
I0502 09:50:36.755641 25078 net.cpp:157] Top shape: 1 54 (54)
I0502 09:50:36.755645 25078 net.cpp:157] Top shape: 1 21 (21)
I0502 09:50:36.755648 25078 net.cpp:157] Top shape: 1 79 (79)
I0502 09:50:36.755651 25078 net.cpp:157] Top shape: 1 65 (65)
I0502 09:50:36.755656 25078 net.cpp:157] Top shape: 1 71 (71)
I0502 09:50:36.755658 25078 net.cpp:157] Top shape: 1 65 (65)
I0502 09:50:36.755662 25078 net.cpp:157] Top shape: 1 59 (59)
I0502 09:50:36.755666 25078 net.cpp:157] Top shape: 1 177 (177)
I0502 09:50:36.755669 25078 net.cpp:157] Top shape: 1 89 (89)
I0502 09:50:36.755672 25078 net.cpp:157] Top shape: 1 81 (81)
I0502 09:50:36.755676 25078 net.cpp:157] Top shape: 1 67 (67)
I0502 09:50:36.755681 25078 net.cpp:157] Top shape: 1 84 (84)
I0502 09:50:36.755683 25078 net.cpp:157] Top shape: 1 43 (43)
I0502 09:50:36.755687 25078 net.cpp:157] Top shape: 1 83 (83)
I0502 09:50:36.755691 25078 net.cpp:157] Top shape: 1 44 (44)
I0502 09:50:36.755694 25078 net.cpp:157] Top shape: 1 36 (36)
I0502 09:50:36.755697 25078 net.cpp:157] Top shape: 1 138 (138)
I0502 09:50:36.755702 25078 net.cpp:157] Top shape: 1 75 (75)
I0502 09:50:36.755704 25078 net.cpp:157] Top shape: 1 41 (41)
I0502 09:50:36.755708 25078 net.cpp:157] Top shape: 1 57 (57)
I0502 09:50:36.755712 25078 net.cpp:157] Top shape: 1 76 (76)
I0502 09:50:36.755715 25078 net.cpp:157] Top shape: 1 25 (25)
I0502 09:50:36.755718 25078 net.cpp:157] Top shape: 1 51 (51)
I0502 09:50:36.755722 25078 net.cpp:157] Top shape: 1 73 (73)
I0502 09:50:36.755725 25078 net.cpp:157] Top shape: 1 42 (42)
I0502 09:50:36.755729 25078 net.cpp:157] Top shape: 1 64 (64)
I0502 09:50:36.755733 25078 net.cpp:157] Top shape: 1 48 (48)
I0502 09:50:36.755736 25078 net.cpp:157] Top shape: 1 28 (28)
I0502 09:50:36.755739 25078 net.cpp:157] Top shape: 1 34 (34)
I0502 09:50:36.755743 25078 net.cpp:157] Top shape: 1 17 (17)
I0502 09:50:36.755749 25078 net.cpp:157] Top shape: 1 105 (105)
I0502 09:50:36.755753 25078 net.cpp:157] Top shape: 1 22 (22)
I0502 09:50:36.755756 25078 net.cpp:157] Top shape: 1 52 (52)
I0502 09:50:36.755759 25078 net.cpp:157] Top shape: 1 76 (76)
I0502 09:50:36.755764 25078 net.cpp:157] Top shape: 1 58 (58)
I0502 09:50:36.755766 25078 net.cpp:157] Top shape: 1 52 (52)
I0502 09:50:36.755770 25078 net.cpp:157] Top shape: 1 88 (88)
I0502 09:50:36.755774 25078 net.cpp:157] Top shape: 1 119 (119)
I0502 09:50:36.755777 25078 net.cpp:157] Top shape: 1 143 (143)
I0502 09:50:36.755780 25078 net.cpp:157] Top shape: 1 51 (51)
I0502 09:50:36.755784 25078 net.cpp:157] Top shape: 1 43 (43)
I0502 09:50:36.755787 25078 net.cpp:157] Top shape: 1 60 (60)
I0502 09:50:36.755791 25078 net.cpp:157] Top shape: 1 69 (69)
I0502 09:50:36.755795 25078 net.cpp:157] Top shape: 1 140 (140)
I0502 09:50:36.755798 25078 net.cpp:157] Top shape: 1 7 (7)
I0502 09:50:36.755801 25078 net.cpp:157] Top shape: 1 85 (85)
I0502 09:50:36.755805 25078 net.cpp:157] Top shape: 1 93 (93)
I0502 09:50:36.755810 25078 net.cpp:157] Top shape: 1 37 (37)
I0502 09:50:36.755812 25078 net.cpp:157] Top shape: 1 15 (15)
I0502 09:50:36.755815 25078 net.cpp:157] Top shape: 1 140 (140)
I0502 09:50:36.755820 25078 net.cpp:157] Top shape: 1 170 (170)
I0502 09:50:36.755823 25078 net.cpp:157] Top shape: 1 85 (85)
I0502 09:50:36.755826 25078 net.cpp:157] Top shape: 1 49 (49)
I0502 09:50:36.755831 25078 net.cpp:157] Top shape: 1 29 (29)
I0502 09:50:36.755833 25078 net.cpp:157] Top shape: 1 40 (40)
I0502 09:50:36.755837 25078 net.cpp:157] Top shape: 1 34 (34)
I0502 09:50:36.755841 25078 net.cpp:157] Top shape: 1 35 (35)
I0502 09:50:36.755844 25078 net.cpp:157] Top shape: 1 23 (23)
I0502 09:50:36.755847 25078 net.cpp:157] Top shape: 1 39 (39)
I0502 09:50:36.755851 25078 net.cpp:157] Top shape: 1 28 (28)
I0502 09:50:36.755854 25078 net.cpp:157] Top shape: 1 45 (45)
I0502 09:50:36.755858 25078 net.cpp:157] Top shape: 1 95 (95)
I0502 09:50:36.755861 25078 net.cpp:157] Top shape: 1 45 (45)
I0502 09:50:36.755866 25078 net.cpp:157] Top shape: 1 49 (49)
I0502 09:50:36.755868 25078 net.cpp:157] Top shape: 1 31 (31)
I0502 09:50:36.755872 25078 net.cpp:157] Top shape: 1 27 (27)
I0502 09:50:36.755875 25078 net.cpp:157] Top shape: 1 35 (35)
I0502 09:50:36.755879 25078 net.cpp:157] Top shape: 1 24 (24)
I0502 09:50:36.755882 25078 net.cpp:157] Top shape: 1 25 (25)
I0502 09:50:36.755887 25078 net.cpp:157] Top shape: 1 76 (76)
I0502 09:50:36.755889 25078 net.cpp:157] Top shape: 1 157 (157)
I0502 09:50:36.755893 25078 net.cpp:157] Top shape: 1 78 (78)
I0502 09:50:36.755897 25078 net.cpp:157] Top shape: 1 107 (107)
I0502 09:50:36.755900 25078 net.cpp:157] Top shape: 1 111 (111)
I0502 09:50:36.755903 25078 net.cpp:157] Top shape: 1 59 (59)
I0502 09:50:36.755908 25078 net.cpp:157] Top shape: 1 73 (73)
I0502 09:50:36.755910 25078 net.cpp:157] Top shape: 1 59 (59)
I0502 09:50:36.755914 25078 net.cpp:157] Top shape: 1 60 (60)
I0502 09:50:36.755918 25078 net.cpp:157] Top shape: 1 61 (61)
I0502 09:50:36.755921 25078 net.cpp:157] Top shape: 1 59 (59)
I0502 09:50:36.755925 25078 net.cpp:157] Top shape: 1 74 (74)
I0502 09:50:36.755928 25078 net.cpp:157] Top shape: 1 75 (75)
I0502 09:50:36.755933 25078 net.cpp:157] Top shape: 1 47 (47)
I0502 09:50:36.755935 25078 net.cpp:157] Top shape: 1 54 (54)
I0502 09:50:36.755939 25078 net.cpp:157] Top shape: 1 41 (41)
I0502 09:50:36.755942 25078 net.cpp:157] Top shape: 1 124 (124)
I0502 09:50:36.755946 25078 net.cpp:157] Top shape: 1 132 (132)
I0502 09:50:36.755949 25078 net.cpp:157] Top shape: 1 95 (95)
I0502 09:50:36.755954 25078 net.cpp:157] Top shape: 1 75 (75)
I0502 09:50:36.755956 25078 net.cpp:157] Top shape: 1 47 (47)
I0502 09:50:36.755960 25078 net.cpp:157] Top shape: 1 80 (80)
I0502 09:50:36.755964 25078 net.cpp:157] Top shape: 1 84 (84)
I0502 09:50:36.755967 25078 net.cpp:157] Top shape: 1 34 (34)
I0502 09:50:36.755970 25078 net.cpp:157] Top shape: 1 64 (64)
I0502 09:50:36.755975 25078 net.cpp:157] Top shape: 1 32 (32)
I0502 09:50:36.755977 25078 net.cpp:157] Top shape: 1 61 (61)
I0502 09:50:36.755982 25078 net.cpp:157] Top shape: 1 117 (117)
I0502 09:50:36.755986 25078 net.cpp:157] Top shape: 1 178 (178)
I0502 09:50:36.755990 25078 net.cpp:157] Top shape: 1 51 (51)
I0502 09:50:36.755993 25078 net.cpp:157] Top shape: 1 104 (104)
I0502 09:50:36.755997 25078 net.cpp:157] Top shape: 1 95 (95)
I0502 09:50:36.756000 25078 net.cpp:157] Top shape: 1 70 (70)
I0502 09:50:36.756005 25078 net.cpp:157] Top shape: 1 60 (60)
I0502 09:50:36.756007 25078 net.cpp:157] Top shape: 1 61 (61)
I0502 09:50:36.756011 25078 net.cpp:157] Top shape: 1 82 (82)
I0502 09:50:36.756014 25078 net.cpp:157] Top shape: 1 42 (42)
I0502 09:50:36.756018 25078 net.cpp:157] Top shape: 1 86 (86)
I0502 09:50:36.756021 25078 net.cpp:157] Top shape: 1 45 (45)
I0502 09:50:36.756026 25078 net.cpp:157] Top shape: 1 78 (78)
I0502 09:50:36.756028 25078 net.cpp:157] Top shape: 1 7 (7)
I0502 09:50:36.756032 25078 net.cpp:157] Top shape: 1 64 (64)
I0502 09:50:36.756036 25078 net.cpp:157] Top shape: 1 67 (67)
I0502 09:50:36.756039 25078 net.cpp:157] Top shape: 1 52 (52)
I0502 09:50:36.756042 25078 net.cpp:157] Top shape: 1 17 (17)
I0502 09:50:36.756047 25078 net.cpp:157] Top shape: 1 18 (18)
I0502 09:50:36.756049 25078 net.cpp:157] Top shape: 1 15 (15)
I0502 09:50:36.756053 25078 net.cpp:157] Top shape: 1 19 (19)
I0502 09:50:36.756057 25078 net.cpp:157] Top shape: 1 108 (108)
I0502 09:50:36.756060 25078 net.cpp:157] Top shape: 1 42 (42)
I0502 09:50:36.756063 25078 net.cpp:157] Top shape: 1 59 (59)
I0502 09:50:36.756067 25078 net.cpp:157] Top shape: 1 74 (74)
I0502 09:50:36.756070 25078 net.cpp:157] Top shape: 1 21 (21)
I0502 09:50:36.756074 25078 net.cpp:157] Top shape: 1 43 (43)
I0502 09:50:36.756078 25078 net.cpp:157] Top shape: 1 61 (61)
I0502 09:50:36.756081 25078 net.cpp:157] Top shape: 1 21 (21)
I0502 09:50:36.756084 25078 net.cpp:157] Top shape: 1 63 (63)
I0502 09:50:36.756088 25078 net.cpp:157] Top shape: 1 57 (57)
I0502 09:50:36.756091 25078 net.cpp:157] Top shape: 1 47 (47)
I0502 09:50:36.756095 25078 net.cpp:157] Top shape: 1 40 (40)
I0502 09:50:36.756098 25078 net.cpp:157] Top shape: 1 77 (77)
I0502 09:50:36.756103 25078 net.cpp:157] Top shape: 1 35 (35)
I0502 09:50:36.756105 25078 net.cpp:157] Top shape: 1 35 (35)
I0502 09:50:36.756109 25078 net.cpp:157] Top shape: 1 26 (26)
I0502 09:50:36.756113 25078 net.cpp:157] Top shape: 1 88 (88)
I0502 09:50:36.756116 25078 net.cpp:157] Top shape: 1 93 (93)
I0502 09:50:36.756119 25078 net.cpp:157] Top shape: 1 77 (77)
I0502 09:50:36.756124 25078 net.cpp:157] Top shape: 1 113 (113)
I0502 09:50:36.756126 25078 net.cpp:157] Top shape: 1 136 (136)
I0502 09:50:36.756130 25078 net.cpp:157] Top shape: 1 33 (33)
I0502 09:50:36.756134 25078 net.cpp:157] Top shape: 1 45 (45)
I0502 09:50:36.756137 25078 net.cpp:157] Top shape: 1 50 (50)
I0502 09:50:36.756141 25078 net.cpp:157] Top shape: 1 115 (115)
I0502 09:50:36.756145 25078 net.cpp:157] Top shape: 1 29 (29)
I0502 09:50:36.756148 25078 net.cpp:157] Top shape: 1 54 (54)
I0502 09:50:36.756151 25078 net.cpp:157] Top shape: 1 25 (25)
I0502 09:50:36.756155 25078 net.cpp:157] Top shape: 1 19 (19)
I0502 09:50:36.756158 25078 net.cpp:157] Top shape: 1 21 (21)
I0502 09:50:36.756162 25078 net.cpp:157] Top shape: 1 46 (46)
I0502 09:50:36.756165 25078 net.cpp:157] Top shape: 1 17 (17)
I0502 09:50:36.756170 25078 net.cpp:157] Top shape: 1 16 (16)
I0502 09:50:36.756172 25078 net.cpp:157] Top shape: 1 15 (15)
I0502 09:50:36.756176 25078 net.cpp:157] Top shape: 1 50 (50)
I0502 09:50:36.756180 25078 net.cpp:157] Top shape: 1 63 (63)
I0502 09:50:36.756183 25078 net.cpp:157] Top shape: 1 48 (48)
I0502 09:50:36.756186 25078 net.cpp:157] Top shape: 1 40 (40)
I0502 09:50:36.756191 25078 net.cpp:157] Top shape: 1 115 (115)
I0502 09:50:36.756193 25078 net.cpp:157] Top shape: 1 45 (45)
I0502 09:50:36.756197 25078 net.cpp:157] Top shape: 1 48 (48)
I0502 09:50:36.756201 25078 net.cpp:157] Top shape: 1 37 (37)
I0502 09:50:36.756204 25078 net.cpp:157] Top shape: 1 63 (63)
I0502 09:50:36.756208 25078 net.cpp:157] Top shape: 1 125 (125)
I0502 09:50:36.756211 25078 net.cpp:157] Top shape: 1 153 (153)
I0502 09:50:36.756217 25078 net.cpp:157] Top shape: 1 92 (92)
I0502 09:50:36.756220 25078 net.cpp:157] Top shape: 1 149 (149)
I0502 09:50:36.756223 25078 net.cpp:157] Top shape: 1 26 (26)
I0502 09:50:36.756227 25078 net.cpp:157] Top shape: 1 59 (59)
I0502 09:50:36.756230 25078 net.cpp:157] Top shape: 1 55 (55)
I0502 09:50:36.756234 25078 net.cpp:157] Top shape: 1 80 (80)
I0502 09:50:36.756238 25078 net.cpp:157] Top shape: 1 36 (36)
I0502 09:50:36.756242 25078 net.cpp:157] Top shape: 1 42 (42)
I0502 09:50:36.756245 25078 net.cpp:157] Top shape: 1 28 (28)
I0502 09:50:36.756248 25078 net.cpp:157] Top shape: 1 110 (110)
I0502 09:50:36.756253 25078 net.cpp:157] Top shape: 1 106 (106)
I0502 09:50:36.756255 25078 net.cpp:157] Top shape: 1 55 (55)
I0502 09:50:36.756259 25078 net.cpp:157] Top shape: 1 99 (99)
I0502 09:50:36.756263 25078 net.cpp:157] Top shape: 1 87 (87)
I0502 09:50:36.756266 25078 net.cpp:157] Top shape: 1 104 (104)
I0502 09:50:36.756269 25078 net.cpp:157] Top shape: 1 97 (97)
I0502 09:50:36.756273 25078 net.cpp:157] Top shape: 1 82 (82)
I0502 09:50:36.756276 25078 net.cpp:157] Top shape: 1 42 (42)
I0502 09:50:36.756280 25078 net.cpp:157] Top shape: 1 59 (59)
I0502 09:50:36.756283 25078 net.cpp:157] Top shape: 1 33 (33)
I0502 09:50:36.756288 25078 net.cpp:157] Top shape: 1 79 (79)
I0502 09:50:36.756290 25078 net.cpp:157] Top shape: 1 81 (81)
I0502 09:50:36.756294 25078 net.cpp:157] Top shape: 1 72 (72)
I0502 09:50:36.756297 25078 net.cpp:157] Top shape: 1 53 (53)
I0502 09:50:36.756301 25078 net.cpp:157] Top shape: 1 127 (127)
I0502 09:50:36.756304 25078 net.cpp:157] Top shape: 1 94 (94)
I0502 09:50:36.756309 25078 net.cpp:157] Top shape: 1 54 (54)
I0502 09:50:36.756312 25078 net.cpp:157] Top shape: 1 42 (42)
I0502 09:50:36.756315 25078 net.cpp:157] Top shape: 1 99 (99)
I0502 09:50:36.756319 25078 net.cpp:157] Top shape: 1 116 (116)
I0502 09:50:36.756322 25078 net.cpp:157] Top shape: 1 62 (62)
I0502 09:50:36.756326 25078 net.cpp:157] Top shape: 1 113 (113)
I0502 09:50:36.756330 25078 net.cpp:157] Top shape: 1 132 (132)
I0502 09:50:36.756333 25078 net.cpp:157] Top shape: 1 77 (77)
I0502 09:50:36.756336 25078 net.cpp:157] Top shape: 1 59 (59)
I0502 09:50:36.756340 25078 net.cpp:157] Top shape: 1 52 (52)
I0502 09:50:36.756343 25078 net.cpp:157] Top shape: 1 30 (30)
I0502 09:50:36.756347 25078 net.cpp:157] Top shape: 1 33 (33)
I0502 09:50:36.756350 25078 net.cpp:157] Top shape: 1 70 (70)
I0502 09:50:36.756355 25078 net.cpp:157] Top shape: 1 92 (92)
I0502 09:50:36.756357 25078 net.cpp:157] Top shape: 1 62 (62)
I0502 09:50:36.756361 25078 net.cpp:157] Top shape: 1 80 (80)
I0502 09:50:36.756364 25078 net.cpp:157] Top shape: 1 104 (104)
I0502 09:50:36.756368 25078 net.cpp:157] Top shape: 1 39 (39)
I0502 09:50:36.756371 25078 net.cpp:157] Top shape: 1 61 (61)
I0502 09:50:36.756376 25078 net.cpp:157] Top shape: 1 57 (57)
I0502 09:50:36.756378 25078 net.cpp:157] Top shape: 1 23 (23)
I0502 09:50:36.756382 25078 net.cpp:157] Top shape: 1 115 (115)
I0502 09:50:36.756386 25078 net.cpp:157] Top shape: 1 53 (53)
I0502 09:50:36.756389 25078 net.cpp:157] Top shape: 1 72 (72)
I0502 09:50:36.756392 25078 net.cpp:157] Top shape: 1 91 (91)
I0502 09:50:36.756397 25078 net.cpp:157] Top shape: 1 38 (38)
I0502 09:50:36.756399 25078 net.cpp:157] Top shape: 1 36 (36)
I0502 09:50:36.756403 25078 net.cpp:157] Top shape: 1 22 (22)
I0502 09:50:36.756407 25078 net.cpp:157] Top shape: 1 35 (35)
I0502 09:50:36.756410 25078 net.cpp:157] Top shape: 1 33 (33)
I0502 09:50:36.756413 25078 net.cpp:157] Top shape: 1 31 (31)
I0502 09:50:36.756417 25078 net.cpp:157] Top shape: 1 21 (21)
I0502 09:50:36.756420 25078 net.cpp:157] Top shape: 1 11 (11)
I0502 09:50:36.756424 25078 net.cpp:157] Top shape: 1 92 (92)
I0502 09:50:36.756428 25078 net.cpp:157] Top shape: 1 187 (187)
I0502 09:50:36.756431 25078 net.cpp:157] Top shape: 1 71 (71)
I0502 09:50:36.756434 25078 net.cpp:157] Top shape: 1 89 (89)
I0502 09:50:36.756438 25078 net.cpp:157] Top shape: 1 107 (107)
I0502 09:50:36.756441 25078 net.cpp:157] Top shape: 1 39 (39)
I0502 09:50:36.756448 25078 net.cpp:157] Top shape: 1 31 (31)
I0502 09:50:36.756453 25078 net.cpp:157] Top shape: 1 43 (43)
I0502 09:50:36.756455 25078 net.cpp:157] Top shape: 1 43 (43)
I0502 09:50:36.756459 25078 net.cpp:157] Top shape: 1 26 (26)
I0502 09:50:36.756464 25078 net.cpp:157] Top shape: 1 48 (48)
I0502 09:50:36.756466 25078 net.cpp:157] Top shape: 1 109 (109)
I0502 09:50:36.756470 25078 net.cpp:157] Top shape: 1 31 (31)
I0502 09:50:36.756474 25078 net.cpp:157] Top shape: 1 39 (39)
I0502 09:50:36.756477 25078 net.cpp:157] Top shape: 1 56 (56)
I0502 09:50:36.756480 25078 net.cpp:157] Top shape: 1 40 (40)
I0502 09:50:36.756484 25078 net.cpp:157] Top shape: 1 11 (11)
I0502 09:50:36.756487 25078 net.cpp:157] Top shape: 1 55 (55)
I0502 09:50:36.756491 25078 net.cpp:157] Top shape: 1 86 (86)
I0502 09:50:36.756494 25078 net.cpp:157] Top shape: 1 23 (23)
I0502 09:50:36.756499 25078 net.cpp:157] Top shape: 1 111 (111)
I0502 09:50:36.756501 25078 net.cpp:157] Top shape: 1 72 (72)
I0502 09:50:36.756505 25078 net.cpp:157] Top shape: 1 55 (55)
I0502 09:50:36.756508 25078 net.cpp:157] Top shape: 1 60 (60)
I0502 09:50:36.756512 25078 net.cpp:157] Top shape: 1 9 (9)
I0502 09:50:36.756515 25078 net.cpp:157] Top shape: 1 34 (34)
I0502 09:50:36.756520 25078 net.cpp:157] Top shape: 1 96 (96)
I0502 09:50:36.756522 25078 net.cpp:157] Top shape: 1 21 (21)
I0502 09:50:36.756526 25078 net.cpp:157] Top shape: 1 29 (29)
I0502 09:50:36.756530 25078 net.cpp:157] Top shape: 1 30 (30)
I0502 09:50:36.756533 25078 net.cpp:157] Top shape: 1 32 (32)
I0502 09:50:36.756536 25078 net.cpp:157] Top shape: 1 45 (45)
I0502 09:50:36.756541 25078 net.cpp:157] Top shape: 1 54 (54)
I0502 09:50:36.756543 25078 net.cpp:157] Top shape: 1 100 (100)
I0502 09:50:36.756547 25078 net.cpp:157] Top shape: 1 135 (135)
I0502 09:50:36.756551 25078 net.cpp:157] Top shape: 1 34 (34)
I0502 09:50:36.756554 25078 net.cpp:157] Top shape: 1 26 (26)
I0502 09:50:36.756558 25078 net.cpp:157] Top shape: 1 35 (35)
I0502 09:50:36.756561 25078 net.cpp:157] Top shape: 1 36 (36)
I0502 09:50:36.756566 25078 net.cpp:157] Top shape: 1 72 (72)
I0502 09:50:36.756568 25078 net.cpp:157] Top shape: 1 60 (60)
I0502 09:50:36.756572 25078 net.cpp:157] Top shape: 1 22 (22)
I0502 09:50:36.756575 25078 net.cpp:157] Top shape: 1 67 (67)
I0502 09:50:36.756579 25078 net.cpp:157] Top shape: 1 40 (40)
I0502 09:50:36.756582 25078 net.cpp:157] Top shape: 1 11 (11)
I0502 09:50:36.756587 25078 net.cpp:157] Top shape: 1 33 (33)
I0502 09:50:36.756589 25078 net.cpp:157] Top shape: 1 59 (59)
I0502 09:50:36.756593 25078 net.cpp:157] Top shape: 1 36 (36)
I0502 09:50:36.756597 25078 net.cpp:157] Top shape: 1 110 (110)
I0502 09:50:36.756600 25078 net.cpp:157] Top shape: 1 52 (52)
I0502 09:50:36.756603 25078 net.cpp:157] Top shape: 1 89 (89)
I0502 09:50:36.756608 25078 net.cpp:157] Top shape: 1 79 (79)
I0502 09:50:36.756610 25078 net.cpp:157] Top shape: 1 142 (142)
I0502 09:50:36.756614 25078 net.cpp:157] Top shape: 1 54 (54)
I0502 09:50:36.756618 25078 net.cpp:157] Top shape: 1 74 (74)
I0502 09:50:36.756621 25078 net.cpp:157] Top shape: 1 36 (36)
I0502 09:50:36.756624 25078 net.cpp:157] Top shape: 1 31 (31)
I0502 09:50:36.756628 25078 net.cpp:157] Top shape: 1 45 (45)
I0502 09:50:36.756633 25078 net.cpp:157] Top shape: 1 33 (33)
I0502 09:50:36.756635 25078 net.cpp:157] Top shape: 1 65 (65)
I0502 09:50:36.756639 25078 net.cpp:157] Top shape: 1 134 (134)
I0502 09:50:36.756642 25078 net.cpp:157] Top shape: 1 25 (25)
I0502 09:50:36.756646 25078 net.cpp:157] Top shape: 1 84 (84)
I0502 09:50:36.756649 25078 net.cpp:157] Top shape: 1 25 (25)
I0502 09:50:36.756654 25078 net.cpp:157] Top shape: 1 20 (20)
I0502 09:50:36.756656 25078 net.cpp:157] Top shape: 1 13 (13)
I0502 09:50:36.756660 25078 net.cpp:157] Top shape: 1 22 (22)
I0502 09:50:36.756664 25078 net.cpp:157] Top shape: 1 46 (46)
I0502 09:50:36.756667 25078 net.cpp:157] Top shape: 1 40 (40)
I0502 09:50:36.756670 25078 net.cpp:157] Top shape: 1 27 (27)
I0502 09:50:36.756675 25078 net.cpp:157] Top shape: 1 45 (45)
I0502 09:50:36.756677 25078 net.cpp:157] Top shape: 1 76 (76)
I0502 09:50:36.756682 25078 net.cpp:157] Top shape: 1 15 (15)
I0502 09:50:36.756686 25078 net.cpp:157] Top shape: 1 60 (60)
I0502 09:50:36.756690 25078 net.cpp:157] Top shape: 1 38 (38)
I0502 09:50:36.756693 25078 net.cpp:157] Top shape: 1 115 (115)
I0502 09:50:36.756697 25078 net.cpp:157] Top shape: 1 16 (16)
I0502 09:50:36.756700 25078 net.cpp:157] Top shape: 1 29 (29)
I0502 09:50:36.756705 25078 net.cpp:157] Top shape: 1 54 (54)
I0502 09:50:36.756707 25078 net.cpp:157] Top shape: 1 31 (31)
I0502 09:50:36.756711 25078 net.cpp:157] Top shape: 1 22 (22)
I0502 09:50:36.756714 25078 net.cpp:157] Top shape: 1 158 (158)
I0502 09:50:36.756718 25078 net.cpp:157] Top shape: 1 103 (103)
I0502 09:50:36.756721 25078 net.cpp:157] Top shape: 1 29 (29)
I0502 09:50:36.756726 25078 net.cpp:157] Top shape: 1 85 (85)
I0502 09:50:36.756728 25078 net.cpp:157] Top shape: 1 56 (56)
I0502 09:50:36.756732 25078 net.cpp:157] Top shape: 1 71 (71)
I0502 09:50:36.756736 25078 net.cpp:157] Top shape: 1 127 (127)
I0502 09:50:36.756739 25078 net.cpp:157] Top shape: 1 57 (57)
I0502 09:50:36.756742 25078 net.cpp:157] Top shape: 1 88 (88)
I0502 09:50:36.756747 25078 net.cpp:157] Top shape: 1 25 (25)
I0502 09:50:36.756749 25078 net.cpp:157] Top shape: 1 49 (49)
I0502 09:50:36.756753 25078 net.cpp:157] Top shape: 1 37 (37)
I0502 09:50:36.756757 25078 net.cpp:157] Top shape: 1 59 (59)
I0502 09:50:36.756760 25078 net.cpp:157] Top shape: 1 54 (54)
I0502 09:50:36.756763 25078 net.cpp:157] Top shape: 1 66 (66)
I0502 09:50:36.756767 25078 net.cpp:157] Top shape: 1 24 (24)
I0502 09:50:36.756770 25078 net.cpp:157] Top shape: 1 54 (54)
I0502 09:50:36.756774 25078 net.cpp:157] Top shape: 1 34 (34)
I0502 09:50:36.756778 25078 net.cpp:157] Top shape: 1 24 (24)
I0502 09:50:36.756781 25078 net.cpp:157] Top shape: 1 46 (46)
I0502 09:50:36.756784 25078 net.cpp:157] Top shape: 1 20 (20)
I0502 09:50:36.756788 25078 net.cpp:157] Top shape: 1 38 (38)
I0502 09:50:36.756791 25078 net.cpp:157] Top shape: 1 50 (50)
I0502 09:50:36.756795 25078 net.cpp:157] Top shape: 1 45 (45)
I0502 09:50:36.756799 25078 net.cpp:157] Top shape: 1 50 (50)
I0502 09:50:36.756803 25078 net.cpp:157] Top shape: 1 23 (23)
I0502 09:50:36.756805 25078 net.cpp:157] Top shape: 1 45 (45)
I0502 09:50:36.756809 25078 net.cpp:157] Top shape: 1 45 (45)
I0502 09:50:36.756813 25078 net.cpp:157] Top shape: 1 89 (89)
I0502 09:50:36.756816 25078 net.cpp:157] Top shape: 1 49 (49)
I0502 09:50:36.756820 25078 net.cpp:157] Top shape: 1 72 (72)
I0502 09:50:36.756824 25078 net.cpp:157] Top shape: 1 46 (46)
I0502 09:50:36.756827 25078 net.cpp:157] Top shape: 1 207 (207)
I0502 09:50:36.756830 25078 net.cpp:157] Top shape: 1 82 (82)
I0502 09:50:36.756834 25078 net.cpp:157] Top shape: 1 59 (59)
I0502 09:50:36.756837 25078 net.cpp:157] Top shape: 1 48 (48)
I0502 09:50:36.756841 25078 net.cpp:157] Top shape: 1 133 (133)
I0502 09:50:36.756844 25078 net.cpp:157] Top shape: 1 32 (32)
I0502 09:50:36.756849 25078 net.cpp:157] Top shape: 1 100 (100)
I0502 09:50:36.756851 25078 net.cpp:157] Top shape: 1 60 (60)
I0502 09:50:36.756855 25078 net.cpp:157] Top shape: 1 66 (66)
I0502 09:50:36.756858 25078 net.cpp:157] Top shape: 1 26 (26)
I0502 09:50:36.756862 25078 net.cpp:157] Top shape: 1 32 (32)
I0502 09:50:36.756865 25078 net.cpp:157] Top shape: 1 16 (16)
I0502 09:50:36.756870 25078 net.cpp:157] Top shape: 1 32 (32)
I0502 09:50:36.756872 25078 net.cpp:157] Top shape: 1 30 (30)
I0502 09:50:36.756876 25078 net.cpp:157] Top shape: 1 22 (22)
I0502 09:50:36.756880 25078 net.cpp:157] Top shape: 1 23 (23)
I0502 09:50:36.756883 25078 net.cpp:157] Top shape: 1 55 (55)
I0502 09:50:36.756886 25078 net.cpp:157] Top shape: 1 118 (118)
I0502 09:50:36.756891 25078 net.cpp:157] Top shape: 1 80 (80)
I0502 09:50:36.756893 25078 net.cpp:157] Top shape: 1 114 (114)
I0502 09:50:36.756897 25078 net.cpp:157] Top shape: 1 62 (62)
I0502 09:50:36.756901 25078 net.cpp:157] Top shape: 1 88 (88)
I0502 09:50:36.756904 25078 net.cpp:157] Top shape: 1 91 (91)
I0502 09:50:36.756907 25078 net.cpp:165] Memory required for data: 115513640
I0502 09:50:36.756914 25078 layer_factory.hpp:76] Creating layer value-frame
I0502 09:50:36.756923 25078 net.cpp:106] Creating Layer value-frame
I0502 09:50:36.756927 25078 net.cpp:454] value-frame <- fc7_drop7_0_split_1
I0502 09:50:36.756933 25078 net.cpp:411] value-frame -> value-frame
I0502 09:50:36.757791 25078 net.cpp:150] Setting up value-frame
I0502 09:50:36.757803 25078 net.cpp:157] Top shape: 1 504 (504)
I0502 09:50:36.757807 25078 net.cpp:165] Memory required for data: 115515656
I0502 09:50:36.757818 25078 layer_factory.hpp:76] Creating layer crf-log-loss
I0502 09:50:36.757926 25078 net.cpp:106] Creating Layer crf-log-loss
I0502 09:50:36.757932 25078 net.cpp:454] crf-log-loss <- value-adjusting-Item
I0502 09:50:36.757938 25078 net.cpp:454] crf-log-loss <- value-adjusting-Tool
I0502 09:50:36.757942 25078 net.cpp:454] crf-log-loss <- value-adjusting-Place
…
