…
  phase: TEST
}
layer {
  name: "data"
  type: "MultiLabelImageData"
  top: "data"
  top: "label"
  top: "rois"
  include {
    phase: TEST
  }
  transform_param {
    mirror: false
    crop_size: 224
    mean_value: 104
    mean_value: 117
    mean_value: 123
  }
  multilabel_image_data_param {
    source: "of500/object/temp/_test.tab"
    batch_size: 50
    shuffle: false
    new_height: 224
    new_width: 224
    root_folder: "of500/resized_256/"
    max_labels: 17
    references: 1
    bounding_box_folder: "of500/output_224/"
    n_bounding_boxes: 1
  }
}
layer {
  name: "conv1_1"
  type: "Convolution"
  bottom: "data"
  top: "conv1_1"
  param {
    lr_mult: 1
    decay_mult: 0
  }
  param {
    lr_mult: 1
    decay_mult: 0
  }
  convolution_param {
    num_output: 64
    pad: 1
    kernel_size: 3
  }
}
layer {
  name: "relu1_1"
  type: "ReLU"
  bottom: "conv1_1"
  top: "conv1_1"
}
layer {
  name: "conv1_2"
  type: "Convolution"
  bottom: "conv1_1"
  top: "conv1_2"
  param {
    lr_mult: 1
    decay_mult: 0
  }
  param {
    lr_mult: 1
    decay_mult: 0
  }
  convolution_param {
    num_output: 64
    pad: 1
    kernel_size: 3
  }
}
layer {
  name: "relu1_2"
  type: "ReLU"
  bottom: "conv1_2"
  top: "conv1_2"
}
layer {
  name: "pool1"
  type: "Pooling"
  bottom: "conv1_2"
  top: "pool1"
  pooling_param {
    pool: MAX
    kernel_size: 2
    stride: 2
  }
}
layer {
  name: "conv2_1"
  type: "Convolution"
  bottom: "pool1"
  top: "conv2_1"
  param {
    lr_mult: 1
    decay_mult: 0
  }
  param {
    lr_mult: 1
    decay_mult: 0
  }
  convolution_param {
    num_output: 128
    pad: 1
    kernel_size: 3
  }
}
layer {
  name: "relu2_1"
  type: "ReLU"
  bottom: "conv2_1"
  top: "conv2_1"
}
layer {
  name: "conv2_2"
  type: "Convolution"
  bottom: "conv2_1"
  top: "conv2_2"
  param {
    lr_mult: 1
    decay_mult: 0
  }
  param {
    lr_mult: 1
    decay_mult: 0
  }
  convolution_param {
    num_output: 128
    pad: 1
    kernel_size: 3
  }
}
layer {
  name: "relu2_2"
  type: "ReLU"
  bottom: "conv2_2"
  top: "conv2_2"
}
layer {
  name: "pool2"
  type: "Pooling"
  bottom: "conv2_2"
  top: "pool2"
  pooling_param {
    pool: MAX
    kernel_size: 2
    stride: 2
  }
}
layer {
  name: "conv3_1"
  type: "Convolution"
  bottom: "pool2"
  top: "conv3_1"
  param {
    lr_mult: 1
    decay_mult: 0
  }
  param {
    lr_mult: 1
    decay_mult: 0
  }
  convolution_param {
    num_output: 256
    pad: 1
    kernel_size: 3
  }
}
layer {
  name: "relu3_1"
  type: "ReLU"
  bottom: "conv3_1"
  top: "conv3_1"
}
layer {
  name: "conv3_2"
  type: "Convolution"
  bottom: "conv3_1"
  top: "conv3_2"
  param {
    lr_mult: 1
    decay_mult: 0
  }
  param {
    lr_mult: 1
    decay_mult: 0
  }
  convolution_param {
    num_output: 256
    pad: 1
    kernel_size: 3
  }
}
layer {
  name: "relu3_2"
  type: "ReLU"
  bottom: "conv3_2"
  top: "conv3_2"
}
layer {
  name: "conv3_3"
  type: "Convolution"
  bottom: "conv3_2"
  top: "conv3_3"
  param {
    lr_mult: 1
    decay_mult: 0
  }
  param {
    lr_mult: 1
    decay_mult: 0
  }
  convolution_param {
    num_output: 256
    pad: 1
    kernel_size: 3
  }
}
layer {
  name: "relu3_3"
  type: "ReLU"
  bottom: "conv3_3"
  top: "conv3_3"
}
layer {
  name: "pool3"
  type: "Pooling"
  bottom: "conv3_3"
  top: "pool3"
  pooling_param {
    pool: MAX
    kernel_size: 2
    stride: 2
  }
}
layer {
  name: "conv4_1"
  type: "Convolution"
  bottom: "pool3"
  top: "conv4_1"
  param {
    lr_mult: 1
    decay_mult: 0
  }
  param {
    lr_mult: 1
    decay_mult: 0
  }
  convolution_param {
    num_output: 512
    pad: 1
    kernel_size: 3
  }
}
layer {
  name: "relu4_1"
  type: "ReLU"
  bottom: "conv4_1"
  top: "conv4_1"
}
layer {
  name: "conv4_2"
  type: "Convolution"
  bottom: "conv4_1"
  top: "conv4_2"
  param {
    lr_mult: 1
    decay_mult: 0
  }
  param {
    lr_mult: 1
    decay_mult: 0
  }
  convolution_param {
    num_output: 512
    pad: 1
    kernel_size: 3
  }
}
layer {
  name: "relu4_2"
  type: "ReLU"
  bottom: "conv4_2"
  top: "conv4_2"
}
layer {
  name: "conv4_3"
  type: "Convolution"
  bottom: "conv4_2"
  top: "conv4_3"
  param {
    lr_mult: 1
    decay_mult: 0
  }
  param {
    lr_mult: 1
    decay_mult: 0
  }
  convolution_param {
    num_output: 512
    pad: 1
    kernel_size: 3
  }
}
layer {
  name: "relu4_3"
  type: "ReLU"
  bottom: "conv4_3"
  top: "conv4_3"
}
layer {
  name: "pool4"
  type: "Pooling"
  bottom: "conv4_3"
  top: "pool4"
  pooling_param {
    pool: MAX
    kernel_size: 2
    stride: 2
  }
}
layer {
  name: "conv5_1"
  type: "Convolution"
  bottom: "pool4"
  top: "conv5_1"
  param {
    lr_mult: 1
    decay_mult: 0
  }
  param {
    lr_mult: 1
    decay_mult: 0
  }
  convolution_param {
    num_output: 512
    pad: 1
    kernel_size: 3
  }
}
layer {
  name: "relu5_1"
  type: "ReLU"
  bottom: "conv5_1"
  top: "conv5_1"
}
layer {
  name: "conv5_2"
  type: "Convolution"
  bottom: "conv5_1"
  top: "conv5_2"
  param {
    lr_mult: 1
    decay_mult: 0
  }
  param {
    lr_mult: 1
    decay_mult: 0
  }
  convolution_param {
    num_output: 512
    pad: 1
    kernel_size: 3
  }
}
layer {
  name: "relu5_2"
  type: "ReLU"
  bottom: "conv5_2"
  top: "conv5_2"
}
layer {
  name: "conv5_3"
  type: "Convolution"
  bottom: "conv5_2"
  top: "conv5_3"
  param {
    lr_mult: 1
    decay_mult: 0
  }
  param {
    lr_mult: 1
    decay_mult: 0
  }
  convolution_param {
    num_output: 512
    pad: 1
    kernel_size: 3
  }
}
layer {
  name: "relu5_3"
  type: "ReLU"
  bottom: "conv5_3"
  top: "conv5_3"
}
layer {
  name: "roi_pool5"
  type: "ROIPooling"
  bottom: "conv5_3"
  bottom: "rois"
  top: "pool5"
  roi_pooling_param {
    pooled_h: 7
    pooled_w: 7
    spatial_scale: 0.0625
  }
}
layer {
  name: "fc6_"
  type: "InnerProduct"
  bottom: "pool5"
  top: "fc6_"
  param {
    lr_mult: 1
    decay_mult: 0
  }
  param {
    lr_mult: 1
    decay_mult: 0
  }
  inner_product_param {
    num_output: 1024
    weight_filler {
      type: "xavier"
    }
    bias_filler {
      type: "constant"
    }
  }
}
layer {
  name: "relu6"
  type: "ReLU"
  bottom: "fc6_"
  top: "fc6"
}
layer {
  name: "drop6"
  type: "Dropout"
  bottom: "fc6"
  top: "fc6"
  dropout_param {
    dropout_ratio: 0.5
  }
}
layer {
  name: "fc7_"
  type: "InnerProduct"
  bottom: "fc6"
  top: "fc7_"
  param {
    lr_mult: 1
    decay_mult: 0
  }
  param {
    lr_mult: 1
    decay_mult: 0
  }
  inner_product_param {
    num_output: 1024
    weight_filler {
      type: "xavier"
    }
    bias_filler {
      type: "constant"
    }
  }
}
layer {
  name: "relu7"
  type: "ReLU"
  bottom: "fc7_"
  top: "fc7"
}
layer {
  name: "drop7"
  type: "Dropout"
  bottom: "fc7"
  top: "fc7"
  dropout_param {
    dropout_ratio: 0.5
  }
}
layer {
  name: "arg-inner"
  type: "InnerProduct"
  bottom: "fc7"
  top: "arg-inner"
  param {
    lr_mult: 1
    decay_mult: 0
  }
  param {
    lr_mult: 1
    decay_mult: 0
  }
  inner_product_param {
    num_output: 121381
  }
}
layer {
  name: "slicer"
  type: "Slice"
  bottom: "arg-inner"
  top: "value-adjusting-Tool"
  top: "value-adjusting-Item"
  top: "value-adjusting-Feature"
  top: "value-adjusting-Place"
  top: "value-adjusting-Agent"
  top: "value-admiring-Place"
  top: "value-admiring-Admired"
  top: "value-admiring-Agent"
  top: "value-ailing-Cause"
  top: "value-ailing-Place"
  top: "value-ailing-Victim"
  top: "value-ailing-VictimPart"
  top: "value-aiming-Place"
…
I0410 19:16:41.107040  4325 net.cpp:411] data -> label
I0410 19:16:41.107054  4325 net.cpp:411] data -> rois
I0410 19:16:41.107070  4325 multilabel_data_layer.cpp:46] Opening file of500/object/temp/_test.tab
I0410 19:16:41.107095  4325 multilabel_data_layer.cpp:52] Expecting 17 labels.
I0410 19:16:41.185494  4325 multilabel_data_layer.cpp:86] *A total of 25200 images.
I0410 19:16:41.234079  4325 multilabel_data_layer.cpp:116] output data size: 50,3,224,224
I0410 19:16:41.234697  4325 multilabel_data_layer.cpp:127] preallocating bbs
I0410 19:16:41.249483  4325 net.cpp:150] Setting up data
I0410 19:16:41.249505  4325 net.cpp:157] Top shape: 50 3 224 224 (7526400)
I0410 19:16:41.249511  4325 net.cpp:157] Top shape: 50 1 1 17 (850)
I0410 19:16:41.249517  4325 net.cpp:157] Top shape: 50 1 1 5 (250)
I0410 19:16:41.249522  4325 net.cpp:165] Memory required for data: 30110000
I0410 19:16:41.249531  4325 layer_factory.hpp:76] Creating layer label_data_1_split
I0410 19:16:41.249543  4325 net.cpp:106] Creating Layer label_data_1_split
I0410 19:16:41.249549  4325 net.cpp:454] label_data_1_split <- label
I0410 19:16:41.249562  4325 net.cpp:411] label_data_1_split -> label_data_1_split_0
I0410 19:16:41.249572  4325 net.cpp:411] label_data_1_split -> label_data_1_split_1
I0410 19:16:41.249580  4325 net.cpp:411] label_data_1_split -> label_data_1_split_2
I0410 19:16:41.249630  4325 net.cpp:150] Setting up label_data_1_split
I0410 19:16:41.249639  4325 net.cpp:157] Top shape: 50 1 1 17 (850)
I0410 19:16:41.249644  4325 net.cpp:157] Top shape: 50 1 1 17 (850)
I0410 19:16:41.249649  4325 net.cpp:157] Top shape: 50 1 1 17 (850)
I0410 19:16:41.249652  4325 net.cpp:165] Memory required for data: 30120200
I0410 19:16:41.249656  4325 layer_factory.hpp:76] Creating layer conv1_1
I0410 19:16:41.249667  4325 net.cpp:106] Creating Layer conv1_1
I0410 19:16:41.249672  4325 net.cpp:454] conv1_1 <- data
I0410 19:16:41.249678  4325 net.cpp:411] conv1_1 -> conv1_1
I0410 19:16:41.250689  4325 net.cpp:150] Setting up conv1_1
I0410 19:16:41.250702  4325 net.cpp:157] Top shape: 50 64 224 224 (160563200)
I0410 19:16:41.250707  4325 net.cpp:165] Memory required for data: 672373000
I0410 19:16:41.250722  4325 layer_factory.hpp:76] Creating layer relu1_1
I0410 19:16:41.250731  4325 net.cpp:106] Creating Layer relu1_1
I0410 19:16:41.250736  4325 net.cpp:454] relu1_1 <- conv1_1
I0410 19:16:41.250742  4325 net.cpp:397] relu1_1 -> conv1_1 (in-place)
I0410 19:16:41.250761  4325 net.cpp:150] Setting up relu1_1
I0410 19:16:41.250774  4325 net.cpp:157] Top shape: 50 64 224 224 (160563200)
I0410 19:16:41.250778  4325 net.cpp:165] Memory required for data: 1314625800
I0410 19:16:41.250783  4325 layer_factory.hpp:76] Creating layer conv1_2
I0410 19:16:41.250792  4325 net.cpp:106] Creating Layer conv1_2
I0410 19:16:41.250797  4325 net.cpp:454] conv1_2 <- conv1_1
I0410 19:16:41.250802  4325 net.cpp:411] conv1_2 -> conv1_2
I0410 19:16:41.250965  4325 net.cpp:150] Setting up conv1_2
I0410 19:16:41.250974  4325 net.cpp:157] Top shape: 50 64 224 224 (160563200)
I0410 19:16:41.250979  4325 net.cpp:165] Memory required for data: 1956878600
I0410 19:16:41.250988  4325 layer_factory.hpp:76] Creating layer relu1_2
I0410 19:16:41.250994  4325 net.cpp:106] Creating Layer relu1_2
I0410 19:16:41.250999  4325 net.cpp:454] relu1_2 <- conv1_2
I0410 19:16:41.251004  4325 net.cpp:397] relu1_2 -> conv1_2 (in-place)
I0410 19:16:41.251011  4325 net.cpp:150] Setting up relu1_2
I0410 19:16:41.251016  4325 net.cpp:157] Top shape: 50 64 224 224 (160563200)
I0410 19:16:41.251020  4325 net.cpp:165] Memory required for data: 2599131400
I0410 19:16:41.251024  4325 layer_factory.hpp:76] Creating layer pool1
I0410 19:16:41.251031  4325 net.cpp:106] Creating Layer pool1
I0410 19:16:41.251035  4325 net.cpp:454] pool1 <- conv1_2
I0410 19:16:41.251041  4325 net.cpp:411] pool1 -> pool1
I0410 19:16:41.251085  4325 net.cpp:150] Setting up pool1
I0410 19:16:41.251092  4325 net.cpp:157] Top shape: 50 64 112 112 (40140800)
I0410 19:16:41.251097  4325 net.cpp:165] Memory required for data: 2759694600
I0410 19:16:41.251101  4325 layer_factory.hpp:76] Creating layer conv2_1
I0410 19:16:41.251108  4325 net.cpp:106] Creating Layer conv2_1
I0410 19:16:41.251113  4325 net.cpp:454] conv2_1 <- pool1
I0410 19:16:41.251121  4325 net.cpp:411] conv2_1 -> conv2_1
I0410 19:16:41.252017  4325 net.cpp:150] Setting up conv2_1
I0410 19:16:41.252029  4325 net.cpp:157] Top shape: 50 128 112 112 (80281600)
I0410 19:16:41.252033  4325 net.cpp:165] Memory required for data: 3080821000
I0410 19:16:41.252043  4325 layer_factory.hpp:76] Creating layer relu2_1
I0410 19:16:41.252051  4325 net.cpp:106] Creating Layer relu2_1
I0410 19:16:41.252056  4325 net.cpp:454] relu2_1 <- conv2_1
I0410 19:16:41.252063  4325 net.cpp:397] relu2_1 -> conv2_1 (in-place)
I0410 19:16:41.252070  4325 net.cpp:150] Setting up relu2_1
I0410 19:16:41.252075  4325 net.cpp:157] Top shape: 50 128 112 112 (80281600)
I0410 19:16:41.252079  4325 net.cpp:165] Memory required for data: 3401947400
I0410 19:16:41.252084  4325 layer_factory.hpp:76] Creating layer conv2_2
I0410 19:16:41.252091  4325 net.cpp:106] Creating Layer conv2_2
I0410 19:16:41.252095  4325 net.cpp:454] conv2_2 <- conv2_1
I0410 19:16:41.252102  4325 net.cpp:411] conv2_2 -> conv2_2
I0410 19:16:41.252307  4325 net.cpp:150] Setting up conv2_2
I0410 19:16:41.252316  4325 net.cpp:157] Top shape: 50 128 112 112 (80281600)
I0410 19:16:41.252321  4325 net.cpp:165] Memory required for data: 3723073800
I0410 19:16:41.252328  4325 layer_factory.hpp:76] Creating layer relu2_2
I0410 19:16:41.252334  4325 net.cpp:106] Creating Layer relu2_2
I0410 19:16:41.252338  4325 net.cpp:454] relu2_2 <- conv2_2
I0410 19:16:41.252344  4325 net.cpp:397] relu2_2 -> conv2_2 (in-place)
I0410 19:16:41.252351  4325 net.cpp:150] Setting up relu2_2
I0410 19:16:41.252356  4325 net.cpp:157] Top shape: 50 128 112 112 (80281600)
I0410 19:16:41.252359  4325 net.cpp:165] Memory required for data: 4044200200
I0410 19:16:41.252363  4325 layer_factory.hpp:76] Creating layer pool2
I0410 19:16:41.252370  4325 net.cpp:106] Creating Layer pool2
I0410 19:16:41.252374  4325 net.cpp:454] pool2 <- conv2_2
I0410 19:16:41.252379  4325 net.cpp:411] pool2 -> pool2
I0410 19:16:41.252408  4325 net.cpp:150] Setting up pool2
I0410 19:16:41.252414  4325 net.cpp:157] Top shape: 50 128 56 56 (20070400)
I0410 19:16:41.252418  4325 net.cpp:165] Memory required for data: 4124481800
I0410 19:16:41.252423  4325 layer_factory.hpp:76] Creating layer conv3_1
I0410 19:16:41.252434  4325 net.cpp:106] Creating Layer conv3_1
I0410 19:16:41.252442  4325 net.cpp:454] conv3_1 <- pool2
I0410 19:16:41.252449  4325 net.cpp:411] conv3_1 -> conv3_1
I0410 19:16:41.253089  4325 net.cpp:150] Setting up conv3_1
I0410 19:16:41.253103  4325 net.cpp:157] Top shape: 50 256 56 56 (40140800)
I0410 19:16:41.253108  4325 net.cpp:165] Memory required for data: 4285045000
I0410 19:16:41.253118  4325 layer_factory.hpp:76] Creating layer relu3_1
I0410 19:16:41.253126  4325 net.cpp:106] Creating Layer relu3_1
I0410 19:16:41.253131  4325 net.cpp:454] relu3_1 <- conv3_1
I0410 19:16:41.253137  4325 net.cpp:397] relu3_1 -> conv3_1 (in-place)
I0410 19:16:41.253144  4325 net.cpp:150] Setting up relu3_1
I0410 19:16:41.253149  4325 net.cpp:157] Top shape: 50 256 56 56 (40140800)
I0410 19:16:41.253154  4325 net.cpp:165] Memory required for data: 4445608200
I0410 19:16:41.253157  4325 layer_factory.hpp:76] Creating layer conv3_2
I0410 19:16:41.253165  4325 net.cpp:106] Creating Layer conv3_2
I0410 19:16:41.253170  4325 net.cpp:454] conv3_2 <- conv3_1
I0410 19:16:41.253176  4325 net.cpp:411] conv3_2 -> conv3_2
I0410 19:16:41.256353  4325 net.cpp:150] Setting up conv3_2
I0410 19:16:41.256371  4325 net.cpp:157] Top shape: 50 256 56 56 (40140800)
I0410 19:16:41.256376  4325 net.cpp:165] Memory required for data: 4606171400
I0410 19:16:41.256384  4325 layer_factory.hpp:76] Creating layer relu3_2
I0410 19:16:41.256395  4325 net.cpp:106] Creating Layer relu3_2
I0410 19:16:41.256400  4325 net.cpp:454] relu3_2 <- conv3_2
I0410 19:16:41.256407  4325 net.cpp:397] relu3_2 -> conv3_2 (in-place)
I0410 19:16:41.256417  4325 net.cpp:150] Setting up relu3_2
I0410 19:16:41.256422  4325 net.cpp:157] Top shape: 50 256 56 56 (40140800)
I0410 19:16:41.256425  4325 net.cpp:165] Memory required for data: 4766734600
I0410 19:16:41.256429  4325 layer_factory.hpp:76] Creating layer conv3_3
I0410 19:16:41.256439  4325 net.cpp:106] Creating Layer conv3_3
I0410 19:16:41.256444  4325 net.cpp:454] conv3_3 <- conv3_2
I0410 19:16:41.256453  4325 net.cpp:411] conv3_3 -> conv3_3
I0410 19:16:41.257472  4325 net.cpp:150] Setting up conv3_3
I0410 19:16:41.257486  4325 net.cpp:157] Top shape: 50 256 56 56 (40140800)
I0410 19:16:41.257490  4325 net.cpp:165] Memory required for data: 4927297800
I0410 19:16:41.257498  4325 layer_factory.hpp:76] Creating layer relu3_3
I0410 19:16:41.257505  4325 net.cpp:106] Creating Layer relu3_3
I0410 19:16:41.257509  4325 net.cpp:454] relu3_3 <- conv3_3
I0410 19:16:41.257515  4325 net.cpp:397] relu3_3 -> conv3_3 (in-place)
I0410 19:16:41.257524  4325 net.cpp:150] Setting up relu3_3
I0410 19:16:41.257529  4325 net.cpp:157] Top shape: 50 256 56 56 (40140800)
I0410 19:16:41.257532  4325 net.cpp:165] Memory required for data: 5087861000
I0410 19:16:41.257536  4325 layer_factory.hpp:76] Creating layer pool3
I0410 19:16:41.257544  4325 net.cpp:106] Creating Layer pool3
I0410 19:16:41.257549  4325 net.cpp:454] pool3 <- conv3_3
I0410 19:16:41.257555  4325 net.cpp:411] pool3 -> pool3
I0410 19:16:41.257585  4325 net.cpp:150] Setting up pool3
I0410 19:16:41.257591  4325 net.cpp:157] Top shape: 50 256 28 28 (10035200)
I0410 19:16:41.257594  4325 net.cpp:165] Memory required for data: 5128001800
I0410 19:16:41.257598  4325 layer_factory.hpp:76] Creating layer conv4_1
I0410 19:16:41.257607  4325 net.cpp:106] Creating Layer conv4_1
I0410 19:16:41.257611  4325 net.cpp:454] conv4_1 <- pool3
I0410 19:16:41.257618  4325 net.cpp:411] conv4_1 -> conv4_1
I0410 19:16:41.259338  4325 net.cpp:150] Setting up conv4_1
I0410 19:16:41.259353  4325 net.cpp:157] Top shape: 50 512 28 28 (20070400)
I0410 19:16:41.259358  4325 net.cpp:165] Memory required for data: 5208283400
I0410 19:16:41.259366  4325 layer_factory.hpp:76] Creating layer relu4_1
I0410 19:16:41.259373  4325 net.cpp:106] Creating Layer relu4_1
I0410 19:16:41.259377  4325 net.cpp:454] relu4_1 <- conv4_1
I0410 19:16:41.259383  4325 net.cpp:397] relu4_1 -> conv4_1 (in-place)
I0410 19:16:41.259390  4325 net.cpp:150] Setting up relu4_1
I0410 19:16:41.259395  4325 net.cpp:157] Top shape: 50 512 28 28 (20070400)
I0410 19:16:41.259404  4325 net.cpp:165] Memory required for data: 5288565000
I0410 19:16:41.259414  4325 layer_factory.hpp:76] Creating layer conv4_2
I0410 19:16:41.259423  4325 net.cpp:106] Creating Layer conv4_2
I0410 19:16:41.259426  4325 net.cpp:454] conv4_2 <- conv4_1
I0410 19:16:41.259433  4325 net.cpp:411] conv4_2 -> conv4_2
I0410 19:16:41.262706  4325 net.cpp:150] Setting up conv4_2
I0410 19:16:41.262727  4325 net.cpp:157] Top shape: 50 512 28 28 (20070400)
I0410 19:16:41.262732  4325 net.cpp:165] Memory required for data: 5368846600
I0410 19:16:41.262745  4325 layer_factory.hpp:76] Creating layer relu4_2
I0410 19:16:41.262754  4325 net.cpp:106] Creating Layer relu4_2
I0410 19:16:41.262759  4325 net.cpp:454] relu4_2 <- conv4_2
I0410 19:16:41.262768  4325 net.cpp:397] relu4_2 -> conv4_2 (in-place)
I0410 19:16:41.262775  4325 net.cpp:150] Setting up relu4_2
I0410 19:16:41.262780  4325 net.cpp:157] Top shape: 50 512 28 28 (20070400)
I0410 19:16:41.262784  4325 net.cpp:165] Memory required for data: 5449128200
I0410 19:16:41.262789  4325 layer_factory.hpp:76] Creating layer conv4_3
I0410 19:16:41.262795  4325 net.cpp:106] Creating Layer conv4_3
I0410 19:16:41.262799  4325 net.cpp:454] conv4_3 <- conv4_2
I0410 19:16:41.262806  4325 net.cpp:411] conv4_3 -> conv4_3
I0410 19:16:41.265995  4325 net.cpp:150] Setting up conv4_3
I0410 19:16:41.266012  4325 net.cpp:157] Top shape: 50 512 28 28 (20070400)
I0410 19:16:41.266016  4325 net.cpp:165] Memory required for data: 5529409800
I0410 19:16:41.266024  4325 layer_factory.hpp:76] Creating layer relu4_3
I0410 19:16:41.266034  4325 net.cpp:106] Creating Layer relu4_3
I0410 19:16:41.266039  4325 net.cpp:454] relu4_3 <- conv4_3
I0410 19:16:41.266046  4325 net.cpp:397] relu4_3 -> conv4_3 (in-place)
I0410 19:16:41.266053  4325 net.cpp:150] Setting up relu4_3
I0410 19:16:41.266058  4325 net.cpp:157] Top shape: 50 512 28 28 (20070400)
I0410 19:16:41.266062  4325 net.cpp:165] Memory required for data: 5609691400
I0410 19:16:41.266067  4325 layer_factory.hpp:76] Creating layer pool4
I0410 19:16:41.266074  4325 net.cpp:106] Creating Layer pool4
I0410 19:16:41.266078  4325 net.cpp:454] pool4 <- conv4_3
I0410 19:16:41.266084  4325 net.cpp:411] pool4 -> pool4
I0410 19:16:41.266118  4325 net.cpp:150] Setting up pool4
I0410 19:16:41.266124  4325 net.cpp:157] Top shape: 50 512 14 14 (5017600)
I0410 19:16:41.266129  4325 net.cpp:165] Memory required for data: 5629761800
I0410 19:16:41.266132  4325 layer_factory.hpp:76] Creating layer conv5_1
I0410 19:16:41.266142  4325 net.cpp:106] Creating Layer conv5_1
I0410 19:16:41.266146  4325 net.cpp:454] conv5_1 <- pool4
I0410 19:16:41.266154  4325 net.cpp:411] conv5_1 -> conv5_1
I0410 19:16:41.269412  4325 net.cpp:150] Setting up conv5_1
I0410 19:16:41.269431  4325 net.cpp:157] Top shape: 50 512 14 14 (5017600)
I0410 19:16:41.269435  4325 net.cpp:165] Memory required for data: 5649832200
I0410 19:16:41.269443  4325 layer_factory.hpp:76] Creating layer relu5_1
I0410 19:16:41.269451  4325 net.cpp:106] Creating Layer relu5_1
I0410 19:16:41.269456  4325 net.cpp:454] relu5_1 <- conv5_1
I0410 19:16:41.269462  4325 net.cpp:397] relu5_1 -> conv5_1 (in-place)
I0410 19:16:41.269470  4325 net.cpp:150] Setting up relu5_1
I0410 19:16:41.269475  4325 net.cpp:157] Top shape: 50 512 14 14 (5017600)
I0410 19:16:41.269479  4325 net.cpp:165] Memory required for data: 5669902600
I0410 19:16:41.269484  4325 layer_factory.hpp:76] Creating layer conv5_2
I0410 19:16:41.269492  4325 net.cpp:106] Creating Layer conv5_2
I0410 19:16:41.269497  4325 net.cpp:454] conv5_2 <- conv5_1
I0410 19:16:41.269503  4325 net.cpp:411] conv5_2 -> conv5_2
I0410 19:16:41.272846  4325 net.cpp:150] Setting up conv5_2
I0410 19:16:41.272866  4325 net.cpp:157] Top shape: 50 512 14 14 (5017600)
I0410 19:16:41.272871  4325 net.cpp:165] Memory required for data: 5689973000
I0410 19:16:41.272878  4325 layer_factory.hpp:76] Creating layer relu5_2
I0410 19:16:41.272887  4325 net.cpp:106] Creating Layer relu5_2
I0410 19:16:41.272893  4325 net.cpp:454] relu5_2 <- conv5_2
I0410 19:16:41.272907  4325 net.cpp:397] relu5_2 -> conv5_2 (in-place)
I0410 19:16:41.272922  4325 net.cpp:150] Setting up relu5_2
I0410 19:16:41.272927  4325 net.cpp:157] Top shape: 50 512 14 14 (5017600)
I0410 19:16:41.272932  4325 net.cpp:165] Memory required for data: 5710043400
I0410 19:16:41.272935  4325 layer_factory.hpp:76] Creating layer conv5_3
I0410 19:16:41.272943  4325 net.cpp:106] Creating Layer conv5_3
I0410 19:16:41.272946  4325 net.cpp:454] conv5_3 <- conv5_2
I0410 19:16:41.272953  4325 net.cpp:411] conv5_3 -> conv5_3
I0410 19:16:41.276207  4325 net.cpp:150] Setting up conv5_3
I0410 19:16:41.276224  4325 net.cpp:157] Top shape: 50 512 14 14 (5017600)
I0410 19:16:41.276228  4325 net.cpp:165] Memory required for data: 5730113800
I0410 19:16:41.276237  4325 layer_factory.hpp:76] Creating layer relu5_3
I0410 19:16:41.276245  4325 net.cpp:106] Creating Layer relu5_3
I0410 19:16:41.276250  4325 net.cpp:454] relu5_3 <- conv5_3
I0410 19:16:41.276257  4325 net.cpp:397] relu5_3 -> conv5_3 (in-place)
I0410 19:16:41.276264  4325 net.cpp:150] Setting up relu5_3
I0410 19:16:41.276269  4325 net.cpp:157] Top shape: 50 512 14 14 (5017600)
I0410 19:16:41.276273  4325 net.cpp:165] Memory required for data: 5750184200
I0410 19:16:41.276278  4325 layer_factory.hpp:76] Creating layer roi_pool5
I0410 19:16:41.276295  4325 net.cpp:106] Creating Layer roi_pool5
I0410 19:16:41.276300  4325 net.cpp:454] roi_pool5 <- conv5_3
I0410 19:16:41.276305  4325 net.cpp:454] roi_pool5 <- rois
I0410 19:16:41.276311  4325 net.cpp:411] roi_pool5 -> pool5
I0410 19:16:41.276321  4325 roi_pooling_layer.cpp:30] Spatial scale: 0.0625
I0410 19:16:41.276373  4325 roi_pooling_layer.cpp:43] 50 , 512 , 14 , 14
I0410 19:16:41.276378  4325 net.cpp:150] Setting up roi_pool5
I0410 19:16:41.276384  4325 net.cpp:157] Top shape: 50 512 7 7 (1254400)
I0410 19:16:41.276388  4325 net.cpp:165] Memory required for data: 5755201800
I0410 19:16:41.276392  4325 layer_factory.hpp:76] Creating layer fc6_
I0410 19:16:41.276401  4325 net.cpp:106] Creating Layer fc6_
I0410 19:16:41.276406  4325 net.cpp:454] fc6_ <- pool5
I0410 19:16:41.276413  4325 net.cpp:411] fc6_ -> fc6_
I0410 19:16:41.426276  4325 net.cpp:150] Setting up fc6_
I0410 19:16:41.426304  4325 net.cpp:157] Top shape: 50 1024 (51200)
I0410 19:16:41.426309  4325 net.cpp:165] Memory required for data: 5755406600
I0410 19:16:41.426321  4325 layer_factory.hpp:76] Creating layer relu6
I0410 19:16:41.426332  4325 net.cpp:106] Creating Layer relu6
I0410 19:16:41.426338  4325 net.cpp:454] relu6 <- fc6_
I0410 19:16:41.426347  4325 net.cpp:411] relu6 -> fc6
I0410 19:16:41.426374  4325 net.cpp:150] Setting up relu6
I0410 19:16:41.426381  4325 net.cpp:157] Top shape: 50 1024 (51200)
I0410 19:16:41.426385  4325 net.cpp:165] Memory required for data: 5755611400
I0410 19:16:41.426389  4325 layer_factory.hpp:76] Creating layer drop6
I0410 19:16:41.426396  4325 net.cpp:106] Creating Layer drop6
I0410 19:16:41.426401  4325 net.cpp:454] drop6 <- fc6
I0410 19:16:41.426409  4325 net.cpp:397] drop6 -> fc6 (in-place)
I0410 19:16:41.426430  4325 net.cpp:150] Setting up drop6
I0410 19:16:41.426436  4325 net.cpp:157] Top shape: 50 1024 (51200)
I0410 19:16:41.426440  4325 net.cpp:165] Memory required for data: 5755816200
I0410 19:16:41.426445  4325 layer_factory.hpp:76] Creating layer fc7_
I0410 19:16:41.426455  4325 net.cpp:106] Creating Layer fc7_
I0410 19:16:41.426458  4325 net.cpp:454] fc7_ <- fc6
I0410 19:16:41.426465  4325 net.cpp:411] fc7_ -> fc7_
I0410 19:16:41.432550  4325 net.cpp:150] Setting up fc7_
I0410 19:16:41.432564  4325 net.cpp:157] Top shape: 50 1024 (51200)
I0410 19:16:41.432569  4325 net.cpp:165] Memory required for data: 5756021000
I0410 19:16:41.432575  4325 layer_factory.hpp:76] Creating layer relu7
I0410 19:16:41.432584  4325 net.cpp:106] Creating Layer relu7
I0410 19:16:41.432587  4325 net.cpp:454] relu7 <- fc7_
I0410 19:16:41.432593  4325 net.cpp:411] relu7 -> fc7
I0410 19:16:41.432616  4325 net.cpp:150] Setting up relu7
I0410 19:16:41.432623  4325 net.cpp:157] Top shape: 50 1024 (51200)
I0410 19:16:41.432627  4325 net.cpp:165] Memory required for data: 5756225800
I0410 19:16:41.432643  4325 layer_factory.hpp:76] Creating layer drop7
I0410 19:16:41.432651  4325 net.cpp:106] Creating Layer drop7
I0410 19:16:41.432656  4325 net.cpp:454] drop7 <- fc7
I0410 19:16:41.432662  4325 net.cpp:397] drop7 -> fc7 (in-place)
I0410 19:16:41.432682  4325 net.cpp:150] Setting up drop7
I0410 19:16:41.432687  4325 net.cpp:157] Top shape: 50 1024 (51200)
I0410 19:16:41.432692  4325 net.cpp:165] Memory required for data: 5756430600
I0410 19:16:41.432695  4325 layer_factory.hpp:76] Creating layer fc7_drop7_0_split
I0410 19:16:41.432703  4325 net.cpp:106] Creating Layer fc7_drop7_0_split
I0410 19:16:41.432708  4325 net.cpp:454] fc7_drop7_0_split <- fc7
I0410 19:16:41.432713  4325 net.cpp:411] fc7_drop7_0_split -> fc7_drop7_0_split_0
I0410 19:16:41.432720  4325 net.cpp:411] fc7_drop7_0_split -> fc7_drop7_0_split_1
I0410 19:16:41.432749  4325 net.cpp:150] Setting up fc7_drop7_0_split
I0410 19:16:41.432754  4325 net.cpp:157] Top shape: 50 1024 (51200)
I0410 19:16:41.432760  4325 net.cpp:157] Top shape: 50 1024 (51200)
I0410 19:16:41.432763  4325 net.cpp:165] Memory required for data: 5756840200
I0410 19:16:41.432767  4325 layer_factory.hpp:76] Creating layer arg-inner
I0410 19:16:41.432773  4325 net.cpp:106] Creating Layer arg-inner
I0410 19:16:41.432778  4325 net.cpp:454] arg-inner <- fc7_drop7_0_split_0
I0410 19:16:41.432785  4325 net.cpp:411] arg-inner -> arg-inner
I0410 19:16:41.645153  4325 net.cpp:150] Setting up arg-inner
I0410 19:16:41.645182  4325 net.cpp:157] Top shape: 50 121381 (6069050)
I0410 19:16:41.645187  4325 net.cpp:165] Memory required for data: 5781116400
I0410 19:16:41.645197  4325 layer_factory.hpp:76] Creating layer slicer
I0410 19:16:41.645359  4325 net.cpp:106] Creating Layer slicer
I0410 19:16:41.645367  4325 net.cpp:454] slicer <- arg-inner
I0410 19:16:41.645480  4325 net.cpp:411] slicer -> value-adjusting-Tool
I0410 19:16:41.645653  4325 net.cpp:411] slicer -> value-adjusting-Item
…
I0410 19:16:41.945626  4325 net.cpp:411] slicer -> value-writing-Target
I0410 19:16:41.945796  4325 net.cpp:411] slicer -> value-yanking-Yanked
I0410 19:16:41.945963  4325 net.cpp:411] slicer -> value-yanking-Place
I0410 19:16:41.946131  4325 net.cpp:411] slicer -> value-yanking-YankedPart
I0410 19:16:41.946300  4325 net.cpp:411] slicer -> value-yanking-Agent
I0410 19:16:41.946468  4325 net.cpp:411] slicer -> value-yawning-Agent
I0410 19:16:41.946636  4325 net.cpp:411] slicer -> value-yawning-Place
I0410 19:16:41.946735  4325 slice_layer.cpp:24] !50 121381
I0410 19:16:41.961177  4325 net.cpp:150] Setting up slicer
I0410 19:16:41.961190  4325 net.cpp:157] Top shape: 50 92 (4600)
I0410 19:16:41.961196  4325 net.cpp:157] Top shape: 50 293 (14650)
I0410 19:16:41.961201  4325 net.cpp:157] Top shape: 50 210 (10500)
I0410 19:16:41.961205  4325 net.cpp:157] Top shape: 50 83 (4150)
I0410 19:16:41.961210  4325 net.cpp:157] Top shape: 50 49 (2450)
I0410 19:16:41.961215  4325 net.cpp:157] Top shape: 50 164 (8200)
I0410 19:16:41.961218  4325 net.cpp:157] Top shape: 50 249 (12450)
I0410 19:16:41.961223  4325 net.cpp:157] Top shape: 50 63 (3150)
I0410 19:16:41.961227  4325 net.cpp:157] Top shape: 50 86 (4300)
I0410 19:16:41.961231  4325 net.cpp:157] Top shape: 50 69 (3450)
I0410 19:16:41.961236  4325 net.cpp:157] Top shape: 50 46 (2300)
I0410 19:16:41.961241  4325 net.cpp:157] Top shape: 50 55 (2750)
I0410 19:16:41.961244  4325 net.cpp:157] Top shape: 50 73 (3650)
I0410 19:16:41.961249  4325 net.cpp:157] Top shape: 50 55 (2750)
I0410 19:16:41.961253  4325 net.cpp:157] Top shape: 50 53 (2650)
I0410 19:16:41.961257  4325 net.cpp:157] Top shape: 50 47 (2350)
I0410 19:16:41.961262  4325 net.cpp:157] Top shape: 50 104 (5200)
I0410 19:16:41.961266  4325 net.cpp:157] Top shape: 50 74 (3700)
I0410 19:16:41.961272  4325 net.cpp:157] Top shape: 50 85 (4250)
I0410 19:16:41.961275  4325 net.cpp:157] Top shape: 50 82 (4100)
I0410 19:16:41.961279  4325 net.cpp:157] Top shape: 50 146 (7300)
I0410 19:16:41.961283  4325 net.cpp:157] Top shape: 50 59 (2950)
I0410 19:16:41.961288  4325 net.cpp:157] Top shape: 50 125 (6250)
I0410 19:16:41.961292  4325 net.cpp:157] Top shape: 50 36 (1800)
I0410 19:16:41.961297  4325 net.cpp:157] Top shape: 50 54 (2700)
I0410 19:16:41.961302  4325 net.cpp:157] Top shape: 50 70 (3500)
I0410 19:16:41.961305  4325 net.cpp:157] Top shape: 50 43 (2150)
I0410 19:16:41.961310  4325 net.cpp:157] Top shape: 50 65 (3250)
I0410 19:16:41.961314  4325 net.cpp:157] Top shape: 50 33 (1650)
I0410 19:16:41.961318  4325 net.cpp:157] Top shape: 50 35 (1750)
I0410 19:16:41.961323  4325 net.cpp:157] Top shape: 50 74 (3700)
I0410 19:16:41.961328  4325 net.cpp:157] Top shape: 50 166 (8300)
I0410 19:16:41.961331  4325 net.cpp:157] Top shape: 50 37 (1850)
I0410 19:16:41.961336  4325 net.cpp:157] Top shape: 50 104 (5200)
I0410 19:16:41.961340  4325 net.cpp:157] Top shape: 50 49 (2450)
I0410 19:16:41.961345  4325 net.cpp:157] Top shape: 50 44 (2200)
I0410 19:16:41.961349  4325 net.cpp:157] Top shape: 50 27 (1350)
I0410 19:16:41.961354  4325 net.cpp:157] Top shape: 50 44 (2200)
I0410 19:16:41.961359  4325 net.cpp:157] Top shape: 50 66 (3300)
I0410 19:16:41.961362  4325 net.cpp:157] Top shape: 50 85 (4250)
I0410 19:16:41.961366  4325 net.cpp:157] Top shape: 50 70 (3500)
I0410 19:16:41.961371  4325 net.cpp:157] Top shape: 50 70 (3500)
I0410 19:16:41.961375  4325 net.cpp:157] Top shape: 50 118 (5900)
I0410 19:16:41.961380  4325 net.cpp:157] Top shape: 50 224 (11200)
I0410 19:16:41.961385  4325 net.cpp:157] Top shape: 50 73 (3650)
I0410 19:16:41.961388  4325 net.cpp:157] Top shape: 50 233 (11650)
I0410 19:16:41.961392  4325 net.cpp:157] Top shape: 50 50 (2500)
I0410 19:16:41.961397  4325 net.cpp:157] Top shape: 50 277 (13850)
I0410 19:16:41.961401  4325 net.cpp:157] Top shape: 50 73 (3650)
I0410 19:16:41.961405  4325 net.cpp:157] Top shape: 50 292 (14600)
I0410 19:16:41.961410  4325 net.cpp:157] Top shape: 50 41 (2050)
I0410 19:16:41.961417  4325 net.cpp:157] Top shape: 50 114 (5700)
I0410 19:16:41.961427  4325 net.cpp:157] Top shape: 50 81 (4050)
I0410 19:16:41.961431  4325 net.cpp:157] Top shape: 50 96 (4800)
I0410 19:16:41.961436  4325 net.cpp:157] Top shape: 50 106 (5300)
I0410 19:16:41.961441  4325 net.cpp:157] Top shape: 50 105 (5250)
I0410 19:16:41.961444  4325 net.cpp:157] Top shape: 50 128 (6400)
I0410 19:16:41.961449  4325 net.cpp:157] Top shape: 50 78 (3900)
I0410 19:16:41.961453  4325 net.cpp:157] Top shape: 50 74 (3700)
I0410 19:16:41.961457  4325 net.cpp:157] Top shape: 50 28 (1400)
I0410 19:16:41.961462  4325 net.cpp:157] Top shape: 50 38 (1900)
I0410 19:16:41.961467  4325 net.cpp:157] Top shape: 50 32 (1600)
I0410 19:16:41.961470  4325 net.cpp:157] Top shape: 50 90 (4500)
I0410 19:16:41.961475  4325 net.cpp:157] Top shape: 50 38 (1900)
I0410 19:16:41.961479  4325 net.cpp:157] Top shape: 50 68 (3400)
I0410 19:16:41.961484  4325 net.cpp:157] Top shape: 50 22 (1100)
I0410 19:16:41.961488  4325 net.cpp:157] Top shape: 50 19 (950)
I0410 19:16:41.961493  4325 net.cpp:157] Top shape: 50 39 (1950)
I0410 19:16:41.961498  4325 net.cpp:157] Top shape: 50 48 (2400)
I0410 19:16:41.961501  4325 net.cpp:157] Top shape: 50 72 (3600)
I0410 19:16:41.961505  4325 net.cpp:157] Top shape: 50 42 (2100)
I0410 19:16:41.961510  4325 net.cpp:157] Top shape: 50 31 (1550)
I0410 19:16:41.961514  4325 net.cpp:157] Top shape: 50 34 (1700)
I0410 19:16:41.961519  4325 net.cpp:157] Top shape: 50 29 (1450)
I0410 19:16:41.961524  4325 net.cpp:157] Top shape: 50 60 (3000)
I0410 19:16:41.961527  4325 net.cpp:157] Top shape: 50 48 (2400)
I0410 19:16:41.961532  4325 net.cpp:157] Top shape: 50 31 (1550)
I0410 19:16:41.961536  4325 net.cpp:157] Top shape: 50 25 (1250)
I0410 19:16:41.961540  4325 net.cpp:157] Top shape: 50 36 (1800)
I0410 19:16:41.961545  4325 net.cpp:157] Top shape: 50 53 (2650)
I0410 19:16:41.961549  4325 net.cpp:157] Top shape: 50 36 (1800)
I0410 19:16:41.961555  4325 net.cpp:157] Top shape: 50 37 (1850)
I0410 19:16:41.961558  4325 net.cpp:157] Top shape: 50 56 (2800)
I0410 19:16:41.961562  4325 net.cpp:157] Top shape: 50 40 (2000)
I0410 19:16:41.961567  4325 net.cpp:157] Top shape: 50 57 (2850)
I0410 19:16:41.961571  4325 net.cpp:157] Top shape: 50 30 (1500)
I0410 19:16:41.961575  4325 net.cpp:157] Top shape: 50 23 (1150)
I0410 19:16:41.961580  4325 net.cpp:157] Top shape: 50 60 (3000)
I0410 19:16:41.961585  4325 net.cpp:157] Top shape: 50 32 (1600)
I0410 19:16:41.961588  4325 net.cpp:157] Top shape: 50 66 (3300)
I0410 19:16:41.961593  4325 net.cpp:157] Top shape: 50 93 (4650)
I0410 19:16:41.961597  4325 net.cpp:157] Top shape: 50 190 (9500)
I0410 19:16:41.961602  4325 net.cpp:157] Top shape: 50 93 (4650)
I0410 19:16:41.961606  4325 net.cpp:157] Top shape: 50 75 (3750)
I0410 19:16:41.961611  4325 net.cpp:157] Top shape: 50 78 (3900)
I0410 19:16:41.961616  4325 net.cpp:157] Top shape: 50 84 (4200)
I0410 19:16:41.961619  4325 net.cpp:157] Top shape: 50 63 (3150)
I0410 19:16:41.961624  4325 net.cpp:157] Top shape: 50 31 (1550)
I0410 19:16:41.961629  4325 net.cpp:157] Top shape: 50 64 (3200)
I0410 19:16:41.961633  4325 net.cpp:157] Top shape: 50 42 (2100)
I0410 19:16:41.961638  4325 net.cpp:157] Top shape: 50 50 (2500)
I0410 19:16:41.961642  4325 net.cpp:157] Top shape: 50 47 (2350)
I0410 19:16:41.961647  4325 net.cpp:157] Top shape: 50 30 (1500)
I0410 19:16:41.961652  4325 net.cpp:157] Top shape: 50 15 (750)
I0410 19:16:41.961655  4325 net.cpp:157] Top shape: 50 32 (1600)
I0410 19:16:41.961659  4325 net.cpp:157] Top shape: 50 64 (3200)
I0410 19:16:41.961664  4325 net.cpp:157] Top shape: 50 164 (8200)
I0410 19:16:41.961668  4325 net.cpp:157] Top shape: 50 81 (4050)
I0410 19:16:41.961673  4325 net.cpp:157] Top shape: 50 66 (3300)
I0410 19:16:41.961678  4325 net.cpp:157] Top shape: 50 65 (3250)
I0410 19:16:41.961681  4325 net.cpp:157] Top shape: 50 61 (3050)
I0410 19:16:41.961686  4325 net.cpp:157] Top shape: 50 92 (4600)
I0410 19:16:41.961690  4325 net.cpp:157] Top shape: 50 73 (3650)
I0410 19:16:41.961695  4325 net.cpp:157] Top shape: 50 115 (5750)
I0410 19:16:41.961701  4325 net.cpp:157] Top shape: 50 25 (1250)
I0410 19:16:41.961709  4325 net.cpp:157] Top shape: 50 28 (1400)
I0410 19:16:41.961714  4325 net.cpp:157] Top shape: 50 20 (1000)
I0410 19:16:41.961719  4325 net.cpp:157] Top shape: 50 94 (4700)
I0410 19:16:41.961722  4325 net.cpp:157] Top shape: 50 79 (3950)
I0410 19:16:41.961727  4325 net.cpp:157] Top shape: 50 50 (2500)
I0410 19:16:41.961731  4325 net.cpp:157] Top shape: 50 84 (4200)
I0410 19:16:41.961735  4325 net.cpp:157] Top shape: 50 72 (3600)
I0410 19:16:41.961740  4325 net.cpp:157] Top shape: 50 113 (5650)
I0410 19:16:41.961745  4325 net.cpp:157] Top shape: 50 61 (3050)
I0410 19:16:41.961748  4325 net.cpp:157] Top shape: 50 73 (3650)
I0410 19:16:41.961753  4325 net.cpp:157] Top shape: 50 31 (1550)
I0410 19:16:41.961757  4325 net.cpp:157] Top shape: 50 41 (2050)
I0410 19:16:41.961761  4325 net.cpp:157] Top shape: 50 32 (1600)
I0410 19:16:41.961766  4325 net.cpp:157] Top shape: 50 92 (4600)
I0410 19:16:41.961771  4325 net.cpp:157] Top shape: 50 57 (2850)
I0410 19:16:41.961776  4325 net.cpp:157] Top shape: 50 21 (1050)
I0410 19:16:41.961779  4325 net.cpp:157] Top shape: 50 43 (2150)
I0410 19:16:41.961783  4325 net.cpp:157] Top shape: 50 28 (1400)
I0410 19:16:41.961788  4325 net.cpp:157] Top shape: 50 164 (8200)
I0410 19:16:41.961792  4325 net.cpp:157] Top shape: 50 89 (4450)
I0410 19:16:41.961796  4325 net.cpp:157] Top shape: 50 50 (2500)
I0410 19:16:41.961802  4325 net.cpp:157] Top shape: 50 135 (6750)
I0410 19:16:41.961805  4325 net.cpp:157] Top shape: 50 91 (4550)
I0410 19:16:41.961810  4325 net.cpp:157] Top shape: 50 19 (950)
I0410 19:16:41.961814  4325 net.cpp:157] Top shape: 50 50 (2500)
I0410 19:16:41.961818  4325 net.cpp:157] Top shape: 50 30 (1500)
I0410 19:16:41.961823  4325 net.cpp:157] Top shape: 50 49 (2450)
I0410 19:16:41.961827  4325 net.cpp:157] Top shape: 50 37 (1850)
I0410 19:16:41.961832  4325 net.cpp:157] Top shape: 50 115 (5750)
I0410 19:16:41.961836  4325 net.cpp:157] Top shape: 50 55 (2750)
I0410 19:16:41.961840  4325 net.cpp:157] Top shape: 50 109 (5450)
I0410 19:16:41.961845  4325 net.cpp:157] Top shape: 50 133 (6650)
I0410 19:16:41.961849  4325 net.cpp:157] Top shape: 50 45 (2250)
I0410 19:16:41.961853  4325 net.cpp:157] Top shape: 50 49 (2450)
I0410 19:16:41.961858  4325 net.cpp:157] Top shape: 50 51 (2550)
I0410 19:16:41.961863  4325 net.cpp:157] Top shape: 50 14 (700)
I0410 19:16:41.961866  4325 net.cpp:157] Top shape: 50 166 (8300)
I0410 19:16:41.961871  4325 net.cpp:157] Top shape: 50 81 (4050)
I0410 19:16:41.961875  4325 net.cpp:157] Top shape: 50 50 (2500)
I0410 19:16:41.961879  4325 net.cpp:157] Top shape: 50 40 (2000)
I0410 19:16:41.961884  4325 net.cpp:157] Top shape: 50 94 (4700)
I0410 19:16:41.961889  4325 net.cpp:157] Top shape: 50 48 (2400)
I0410 19:16:41.961892  4325 net.cpp:157] Top shape: 50 34 (1700)
I0410 19:16:41.961897  4325 net.cpp:157] Top shape: 50 44 (2200)
I0410 19:16:41.961901  4325 net.cpp:157] Top shape: 50 42 (2100)
I0410 19:16:41.961906  4325 net.cpp:157] Top shape: 50 65 (3250)
I0410 19:16:41.961910  4325 net.cpp:157] Top shape: 50 22 (1100)
I0410 19:16:41.961915  4325 net.cpp:157] Top shape: 50 39 (1950)
I0410 19:16:41.961920  4325 net.cpp:157] Top shape: 50 81 (4050)
I0410 19:16:41.961923  4325 net.cpp:157] Top shape: 50 71 (3550)
I0410 19:16:41.961927  4325 net.cpp:157] Top shape: 50 69 (3450)
I0410 19:16:41.961932  4325 net.cpp:157] Top shape: 50 31 (1550)
I0410 19:16:41.961936  4325 net.cpp:157] Top shape: 50 47 (2350)
I0410 19:16:41.961941  4325 net.cpp:157] Top shape: 50 25 (1250)
I0410 19:16:41.961946  4325 net.cpp:157] Top shape: 50 66 (3300)
I0410 19:16:41.961949  4325 net.cpp:157] Top shape: 50 117 (5850)
I0410 19:16:41.961953  4325 net.cpp:157] Top shape: 50 35 (1750)
I0410 19:16:41.961958  4325 net.cpp:157] Top shape: 50 25 (1250)
I0410 19:16:41.961962  4325 net.cpp:157] Top shape: 50 29 (1450)
I0410 19:16:41.961966  4325 net.cpp:157] Top shape: 50 52 (2600)
I0410 19:16:41.961971  4325 net.cpp:157] Top shape: 50 11 (550)
I0410 19:16:41.961976  4325 net.cpp:157] Top shape: 50 34 (1700)
I0410 19:16:41.961982  4325 net.cpp:157] Top shape: 50 25 (1250)
I0410 19:16:41.961989  4325 net.cpp:157] Top shape: 50 66 (3300)
I0410 19:16:41.961994  4325 net.cpp:157] Top shape: 50 43 (2150)
I0410 19:16:41.961998  4325 net.cpp:157] Top shape: 50 56 (2800)
I0410 19:16:41.962003  4325 net.cpp:157] Top shape: 50 50 (2500)
I0410 19:16:41.962007  4325 net.cpp:157] Top shape: 50 86 (4300)
I0410 19:16:41.962012  4325 net.cpp:157] Top shape: 50 54 (2700)
I0410 19:16:41.962016  4325 net.cpp:157] Top shape: 50 26 (1300)
I0410 19:16:41.962020  4325 net.cpp:157] Top shape: 50 37 (1850)
I0410 19:16:41.962025  4325 net.cpp:157] Top shape: 50 53 (2650)
I0410 19:16:41.962029  4325 net.cpp:157] Top shape: 50 79 (3950)
I0410 19:16:41.962033  4325 net.cpp:157] Top shape: 50 43 (2150)
I0410 19:16:41.962038  4325 net.cpp:157] Top shape: 50 64 (3200)
I0410 19:16:41.962043  4325 net.cpp:157] Top shape: 50 102 (5100)
I0410 19:16:41.962046  4325 net.cpp:157] Top shape: 50 214 (10700)
I0410 19:16:41.962051  4325 net.cpp:157] Top shape: 50 50 (2500)
I0410 19:16:41.962055  4325 net.cpp:157] Top shape: 50 56 (2800)
I0410 19:16:41.962059  4325 net.cpp:157] Top shape: 50 62 (3100)
I0410 19:16:41.962064  4325 net.cpp:157] Top shape: 50 162 (8100)
I0410 19:16:41.962069  4325 net.cpp:157] Top shape: 50 76 (3800)
I0410 19:16:41.962072  4325 net.cpp:157] Top shape: 50 84 (4200)
I0410 19:16:41.962077  4325 net.cpp:157] Top shape: 50 78 (3900)
I0410 19:16:41.962081  4325 net.cpp:157] Top shape: 50 57 (2850)
I0410 19:16:41.962086  4325 net.cpp:157] Top shape: 50 25 (1250)
I0410 19:16:41.962090  4325 net.cpp:157] Top shape: 50 48 (2400)
I0410 19:16:41.962095  4325 net.cpp:157] Top shape: 50 96 (4800)
I0410 19:16:41.962100  4325 net.cpp:157] Top shape: 50 67 (3350)
I0410 19:16:41.962103  4325 net.cpp:157] Top shape: 50 93 (4650)
I0410 19:16:41.962107  4325 net.cpp:157] Top shape: 50 91 (4550)
I0410 19:16:41.962112  4325 net.cpp:157] Top shape: 50 100 (5000)
I0410 19:16:41.962116  4325 net.cpp:157] Top shape: 50 118 (5900)
I0410 19:16:41.962121  4325 net.cpp:157] Top shape: 50 83 (4150)
I0410 19:16:41.962126  4325 net.cpp:157] Top shape: 50 156 (7800)
I0410 19:16:41.962129  4325 net.cpp:157] Top shape: 50 112 (5600)
I0410 19:16:41.962134  4325 net.cpp:157] Top shape: 50 118 (5900)
I0410 19:16:41.962138  4325 net.cpp:157] Top shape: 50 111 (5550)
I0410 19:16:41.962142  4325 net.cpp:157] Top shape: 50 84 (4200)
I0410 19:16:41.962147  4325 net.cpp:157] Top shape: 50 167 (8350)
I0410 19:16:41.962152  4325 net.cpp:157] Top shape: 50 155 (7750)
I0410 19:16:41.962157  4325 net.cpp:157] Top shape: 50 43 (2150)
I0410 19:16:41.962160  4325 net.cpp:157] Top shape: 50 38 (1900)
I0410 19:16:41.962164  4325 net.cpp:157] Top shape: 50 76 (3800)
I0410 19:16:41.962169  4325 net.cpp:157] Top shape: 50 50 (2500)
I0410 19:16:41.962173  4325 net.cpp:157] Top shape: 50 33 (1650)
I0410 19:16:41.962177  4325 net.cpp:157] Top shape: 50 14 (700)
I0410 19:16:41.962182  4325 net.cpp:157] Top shape: 50 67 (3350)
I0410 19:16:41.962187  4325 net.cpp:157] Top shape: 50 179 (8950)
I0410 19:16:41.962190  4325 net.cpp:157] Top shape: 50 82 (4100)
I0410 19:16:41.962195  4325 net.cpp:157] Top shape: 50 45 (2250)
I0410 19:16:41.962200  4325 net.cpp:157] Top shape: 50 69 (3450)
I0410 19:16:41.962204  4325 net.cpp:157] Top shape: 50 24 (1200)
I0410 19:16:41.962209  4325 net.cpp:157] Top shape: 50 26 (1300)
I0410 19:16:41.962213  4325 net.cpp:157] Top shape: 50 87 (4350)
I0410 19:16:41.962218  4325 net.cpp:157] Top shape: 50 22 (1100)
I0410 19:16:41.962223  4325 net.cpp:157] Top shape: 50 42 (2100)
I0410 19:16:41.962226  4325 net.cpp:157] Top shape: 50 86 (4300)
I0410 19:16:41.962231  4325 net.cpp:157] Top shape: 50 61 (3050)
I0410 19:16:41.962235  4325 net.cpp:157] Top shape: 50 94 (4700)
I0410 19:16:41.962239  4325 net.cpp:157] Top shape: 50 79 (3950)
I0410 19:16:41.962244  4325 net.cpp:157] Top shape: 50 8 (400)
I0410 19:16:41.962249  4325 net.cpp:157] Top shape: 50 72 (3600)
I0410 19:16:41.962252  4325 net.cpp:157] Top shape: 50 155 (7750)
I0410 19:16:41.962257  4325 net.cpp:157] Top shape: 50 80 (4000)
I0410 19:16:41.962263  4325 net.cpp:157] Top shape: 50 59 (2950)
I0410 19:16:41.962271  4325 net.cpp:157] Top shape: 50 131 (6550)
I0410 19:16:41.962276  4325 net.cpp:157] Top shape: 50 273 (13650)
I0410 19:16:41.962280  4325 net.cpp:157] Top shape: 50 81 (4050)
I0410 19:16:41.962285  4325 net.cpp:157] Top shape: 50 160 (8000)
I0410 19:16:41.962290  4325 net.cpp:157] Top shape: 50 90 (4500)
I0410 19:16:41.962293  4325 net.cpp:157] Top shape: 50 91 (4550)
I0410 19:16:41.962298  4325 net.cpp:157] Top shape: 50 45 (2250)
I0410 19:16:41.962302  4325 net.cpp:157] Top shape: 50 72 (3600)
I0410 19:16:41.962306  4325 net.cpp:157] Top shape: 50 108 (5400)
I0410 19:16:41.962311  4325 net.cpp:157] Top shape: 50 38 (1900)
I0410 19:16:41.962316  4325 net.cpp:157] Top shape: 50 35 (1750)
I0410 19:16:41.962319  4325 net.cpp:157] Top shape: 50 14 (700)
I0410 19:16:41.962324  4325 net.cpp:157] Top shape: 50 40 (2000)
I0410 19:16:41.962328  4325 net.cpp:157] Top shape: 50 64 (3200)
I0410 19:16:41.962332  4325 net.cpp:157] Top shape: 50 54 (2700)
I0410 19:16:41.962337  4325 net.cpp:157] Top shape: 50 49 (2450)
I0410 19:16:41.962342  4325 net.cpp:157] Top shape: 50 47 (2350)
I0410 19:16:41.962347  4325 net.cpp:157] Top shape: 50 88 (4400)
I0410 19:16:41.962350  4325 net.cpp:157] Top shape: 50 155 (7750)
I0410 19:16:41.962354  4325 net.cpp:157] Top shape: 50 110 (5500)
I0410 19:16:41.962359  4325 net.cpp:157] Top shape: 50 33 (1650)
I0410 19:16:41.962363  4325 net.cpp:157] Top shape: 50 67 (3350)
I0410 19:16:41.962368  4325 net.cpp:157] Top shape: 50 26 (1300)
I0410 19:16:41.962373  4325 net.cpp:157] Top shape: 50 60 (3000)
I0410 19:16:41.962376  4325 net.cpp:157] Top shape: 50 89 (4450)
I0410 19:16:41.962380  4325 net.cpp:157] Top shape: 50 48 (2400)
I0410 19:16:41.962385  4325 net.cpp:157] Top shape: 50 73 (3650)
I0410 19:16:41.962389  4325 net.cpp:157] Top shape: 50 25 (1250)
I0410 19:16:41.962393  4325 net.cpp:157] Top shape: 50 46 (2300)
I0410 19:16:41.962399  4325 net.cpp:157] Top shape: 50 74 (3700)
I0410 19:16:41.962402  4325 net.cpp:157] Top shape: 50 99 (4950)
I0410 19:16:41.962406  4325 net.cpp:157] Top shape: 50 59 (2950)
I0410 19:16:41.962411  4325 net.cpp:157] Top shape: 50 31 (1550)
I0410 19:16:41.962415  4325 net.cpp:157] Top shape: 50 67 (3350)
I0410 19:16:41.962419  4325 net.cpp:157] Top shape: 50 24 (1200)
I0410 19:16:41.962424  4325 net.cpp:157] Top shape: 50 45 (2250)
I0410 19:16:41.962429  4325 net.cpp:157] Top shape: 50 34 (1700)
I0410 19:16:41.962432  4325 net.cpp:157] Top shape: 50 19 (950)
I0410 19:16:41.962437  4325 net.cpp:157] Top shape: 50 17 (850)
I0410 19:16:41.962441  4325 net.cpp:157] Top shape: 50 19 (950)
I0410 19:16:41.962445  4325 net.cpp:157] Top shape: 50 61 (3050)
I0410 19:16:41.962450  4325 net.cpp:157] Top shape: 50 99 (4950)
I0410 19:16:41.962455  4325 net.cpp:157] Top shape: 50 50 (2500)
I0410 19:16:41.962458  4325 net.cpp:157] Top shape: 50 43 (2150)
I0410 19:16:41.962462  4325 net.cpp:157] Top shape: 50 19 (950)
I0410 19:16:41.962467  4325 net.cpp:157] Top shape: 50 24 (1200)
I0410 19:16:41.962471  4325 net.cpp:157] Top shape: 50 130 (6500)
I0410 19:16:41.962476  4325 net.cpp:157] Top shape: 50 77 (3850)
I0410 19:16:41.962481  4325 net.cpp:157] Top shape: 50 89 (4450)
I0410 19:16:41.962484  4325 net.cpp:157] Top shape: 50 85 (4250)
I0410 19:16:41.962488  4325 net.cpp:157] Top shape: 50 74 (3700)
I0410 19:16:41.962493  4325 net.cpp:157] Top shape: 50 51 (2550)
I0410 19:16:41.962497  4325 net.cpp:157] Top shape: 50 73 (3650)
I0410 19:16:41.962502  4325 net.cpp:157] Top shape: 50 69 (3450)
I0410 19:16:41.962507  4325 net.cpp:157] Top shape: 50 62 (3100)
I0410 19:16:41.962510  4325 net.cpp:157] Top shape: 50 154 (7700)
I0410 19:16:41.962514  4325 net.cpp:157] Top shape: 50 99 (4950)
I0410 19:16:41.962519  4325 net.cpp:157] Top shape: 50 114 (5700)
I0410 19:16:41.962523  4325 net.cpp:157] Top shape: 50 66 (3300)
I0410 19:16:41.962527  4325 net.cpp:157] Top shape: 50 138 (6900)
I0410 19:16:41.962532  4325 net.cpp:157] Top shape: 50 103 (5150)
I0410 19:16:41.962539  4325 net.cpp:157] Top shape: 50 27 (1350)
I0410 19:16:41.962543  4325 net.cpp:157] Top shape: 50 104 (5200)
I0410 19:16:41.962551  4325 net.cpp:157] Top shape: 50 54 (2700)
I0410 19:16:41.962555  4325 net.cpp:157] Top shape: 50 44 (2200)
I0410 19:16:41.962560  4325 net.cpp:157] Top shape: 50 56 (2800)
I0410 19:16:41.962564  4325 net.cpp:157] Top shape: 50 38 (1900)
I0410 19:16:41.962568  4325 net.cpp:157] Top shape: 50 42 (2100)
I0410 19:16:41.962574  4325 net.cpp:157] Top shape: 50 21 (1050)
I0410 19:16:41.962577  4325 net.cpp:157] Top shape: 50 31 (1550)
I0410 19:16:41.962581  4325 net.cpp:157] Top shape: 50 186 (9300)
I0410 19:16:41.962586  4325 net.cpp:157] Top shape: 50 70 (3500)
I0410 19:16:41.962590  4325 net.cpp:157] Top shape: 50 43 (2150)
I0410 19:16:41.962594  4325 net.cpp:157] Top shape: 50 57 (2850)
I0410 19:16:41.962599  4325 net.cpp:157] Top shape: 50 135 (6750)
I0410 19:16:41.962604  4325 net.cpp:157] Top shape: 50 54 (2700)
I0410 19:16:41.962607  4325 net.cpp:157] Top shape: 50 137 (6850)
I0410 19:16:41.962612  4325 net.cpp:157] Top shape: 50 37 (1850)
I0410 19:16:41.962616  4325 net.cpp:157] Top shape: 50 108 (5400)
I0410 19:16:41.962620  4325 net.cpp:157] Top shape: 50 137 (6850)
I0410 19:16:41.962625  4325 net.cpp:157] Top shape: 50 28 (1400)
I0410 19:16:41.962630  4325 net.cpp:157] Top shape: 50 110 (5500)
I0410 19:16:41.962633  4325 net.cpp:157] Top shape: 50 73 (3650)
I0410 19:16:41.962638  4325 net.cpp:157] Top shape: 50 50 (2500)
I0410 19:16:41.962642  4325 net.cpp:157] Top shape: 50 82 (4100)
I0410 19:16:41.962646  4325 net.cpp:157] Top shape: 50 65 (3250)
I0410 19:16:41.962651  4325 net.cpp:157] Top shape: 50 30 (1500)
I0410 19:16:41.962656  4325 net.cpp:157] Top shape: 50 58 (2900)
I0410 19:16:41.962659  4325 net.cpp:157] Top shape: 50 95 (4750)
I0410 19:16:41.962663  4325 net.cpp:157] Top shape: 50 56 (2800)
I0410 19:16:41.962668  4325 net.cpp:157] Top shape: 50 100 (5000)
I0410 19:16:41.962672  4325 net.cpp:157] Top shape: 50 64 (3200)
I0410 19:16:41.962677  4325 net.cpp:157] Top shape: 50 47 (2350)
I0410 19:16:41.962682  4325 net.cpp:157] Top shape: 50 73 (3650)
I0410 19:16:41.962685  4325 net.cpp:157] Top shape: 50 156 (7800)
I0410 19:16:41.962689  4325 net.cpp:157] Top shape: 50 27 (1350)
I0410 19:16:41.962694  4325 net.cpp:157] Top shape: 50 33 (1650)
I0410 19:16:41.962698  4325 net.cpp:157] Top shape: 50 20 (1000)
I0410 19:16:41.962702  4325 net.cpp:157] Top shape: 50 27 (1350)
I0410 19:16:41.962707  4325 net.cpp:157] Top shape: 50 127 (6350)
I0410 19:16:41.962712  4325 net.cpp:157] Top shape: 50 74 (3700)
I0410 19:16:41.962715  4325 net.cpp:157] Top shape: 50 76 (3800)
I0410 19:16:41.962720  4325 net.cpp:157] Top shape: 50 176 (8800)
I0410 19:16:41.962724  4325 net.cpp:157] Top shape: 50 30 (1500)
I0410 19:16:41.962728  4325 net.cpp:157] Top shape: 50 75 (3750)
I0410 19:16:41.962733  4325 net.cpp:157] Top shape: 50 35 (1750)
I0410 19:16:41.962738  4325 net.cpp:157] Top shape: 50 39 (1950)
I0410 19:16:41.962741  4325 net.cpp:157] Top shape: 50 32 (1600)
I0410 19:16:41.962746  4325 net.cpp:157] Top shape: 50 27 (1350)
I0410 19:16:41.962750  4325 net.cpp:157] Top shape: 50 26 (1300)
I0410 19:16:41.962754  4325 net.cpp:157] Top shape: 50 52 (2600)
I0410 19:16:41.962759  4325 net.cpp:157] Top shape: 50 37 (1850)
I0410 19:16:41.962764  4325 net.cpp:157] Top shape: 50 65 (3250)
I0410 19:16:41.962769  4325 net.cpp:157] Top shape: 50 100 (5000)
I0410 19:16:41.962772  4325 net.cpp:157] Top shape: 50 66 (3300)
I0410 19:16:41.962776  4325 net.cpp:157] Top shape: 50 160 (8000)
I0410 19:16:41.962781  4325 net.cpp:157] Top shape: 50 135 (6750)
I0410 19:16:41.962785  4325 net.cpp:157] Top shape: 50 34 (1700)
I0410 19:16:41.962790  4325 net.cpp:157] Top shape: 50 56 (2800)
I0410 19:16:41.962795  4325 net.cpp:157] Top shape: 50 48 (2400)
I0410 19:16:41.962798  4325 net.cpp:157] Top shape: 50 66 (3300)
I0410 19:16:41.962802  4325 net.cpp:157] Top shape: 50 58 (2900)
I0410 19:16:41.962807  4325 net.cpp:157] Top shape: 50 66 (3300)
I0410 19:16:41.962811  4325 net.cpp:157] Top shape: 50 86 (4300)
I0410 19:16:41.962817  4325 net.cpp:157] Top shape: 50 102 (5100)
I0410 19:16:41.962826  4325 net.cpp:157] Top shape: 50 62 (3100)
I0410 19:16:41.962831  4325 net.cpp:157] Top shape: 50 74 (3700)
I0410 19:16:41.962834  4325 net.cpp:157] Top shape: 50 106 (5300)
I0410 19:16:41.962838  4325 net.cpp:157] Top shape: 50 177 (8850)
I0410 19:16:41.962843  4325 net.cpp:157] Top shape: 50 93 (4650)
I0410 19:16:41.962847  4325 net.cpp:157] Top shape: 50 97 (4850)
I0410 19:16:41.962852  4325 net.cpp:157] Top shape: 50 26 (1300)
I0410 19:16:41.962857  4325 net.cpp:157] Top shape: 50 48 (2400)
I0410 19:16:41.962860  4325 net.cpp:157] Top shape: 50 32 (1600)
I0410 19:16:41.962864  4325 net.cpp:157] Top shape: 50 36 (1800)
I0410 19:16:41.962868  4325 net.cpp:157] Top shape: 50 12 (600)
I0410 19:16:41.962873  4325 net.cpp:157] Top shape: 50 24 (1200)
I0410 19:16:41.962877  4325 net.cpp:157] Top shape: 50 54 (2700)
I0410 19:16:41.962882  4325 net.cpp:157] Top shape: 50 89 (4450)
I0410 19:16:41.962887  4325 net.cpp:157] Top shape: 50 25 (1250)
I0410 19:16:41.962890  4325 net.cpp:157] Top shape: 50 122 (6100)
I0410 19:16:41.962895  4325 net.cpp:157] Top shape: 50 206 (10300)
I0410 19:16:41.962899  4325 net.cpp:157] Top shape: 50 25 (1250)
I0410 19:16:41.962903  4325 net.cpp:157] Top shape: 50 88 (4400)
I0410 19:16:41.962908  4325 net.cpp:157] Top shape: 50 41 (2050)
I0410 19:16:41.962913  4325 net.cpp:157] Top shape: 50 44 (2200)
I0410 19:16:41.962916  4325 net.cpp:157] Top shape: 50 26 (1300)
I0410 19:16:41.962920  4325 net.cpp:157] Top shape: 50 29 (1450)
I0410 19:16:41.962925  4325 net.cpp:157] Top shape: 50 71 (3550)
I0410 19:16:41.962929  4325 net.cpp:157] Top shape: 50 98 (4900)
I0410 19:16:41.962934  4325 net.cpp:157] Top shape: 50 37 (1850)
I0410 19:16:41.962939  4325 net.cpp:157] Top shape: 50 56 (2800)
I0410 19:16:41.962942  4325 net.cpp:157] Top shape: 50 30 (1500)
I0410 19:16:41.962946  4325 net.cpp:157] Top shape: 50 116 (5800)
I0410 19:16:41.962951  4325 net.cpp:157] Top shape: 50 239 (11950)
I0410 19:16:41.962955  4325 net.cpp:157] Top shape: 50 94 (4700)
I0410 19:16:41.962960  4325 net.cpp:157] Top shape: 50 54 (2700)
I0410 19:16:41.962963  4325 net.cpp:157] Top shape: 50 42 (2100)
I0410 19:16:41.962968  4325 net.cpp:157] Top shape: 50 120 (6000)
I0410 19:16:41.962972  4325 net.cpp:157] Top shape: 50 33 (1650)
I0410 19:16:41.962977  4325 net.cpp:157] Top shape: 50 35 (1750)
I0410 19:16:41.962981  4325 net.cpp:157] Top shape: 50 40 (2000)
I0410 19:16:41.962985  4325 net.cpp:157] Top shape: 50 52 (2600)
I0410 19:16:41.962990  4325 net.cpp:157] Top shape: 50 64 (3200)
I0410 19:16:41.962995  4325 net.cpp:157] Top shape: 50 37 (1850)
I0410 19:16:41.962998  4325 net.cpp:157] Top shape: 50 70 (3500)
I0410 19:16:41.963003  4325 net.cpp:157] Top shape: 50 63 (3150)
I0410 19:16:41.963007  4325 net.cpp:157] Top shape: 50 152 (7600)
I0410 19:16:41.963011  4325 net.cpp:157] Top shape: 50 59 (2950)
I0410 19:16:41.963016  4325 net.cpp:157] Top shape: 50 31 (1550)
I0410 19:16:41.963021  4325 net.cpp:157] Top shape: 50 35 (1750)
I0410 19:16:41.963024  4325 net.cpp:157] Top shape: 50 42 (2100)
I0410 19:16:41.963029  4325 net.cpp:157] Top shape: 50 48 (2400)
I0410 19:16:41.963033  4325 net.cpp:157] Top shape: 50 50 (2500)
I0410 19:16:41.963037  4325 net.cpp:157] Top shape: 50 35 (1750)
I0410 19:16:41.963042  4325 net.cpp:157] Top shape: 50 70 (3500)
I0410 19:16:41.963047  4325 net.cpp:157] Top shape: 50 89 (4450)
I0410 19:16:41.963050  4325 net.cpp:157] Top shape: 50 51 (2550)
I0410 19:16:41.963055  4325 net.cpp:157] Top shape: 50 22 (1100)
I0410 19:16:41.963059  4325 net.cpp:157] Top shape: 50 95 (4750)
I0410 19:16:41.963063  4325 net.cpp:157] Top shape: 50 199 (9950)
I0410 19:16:41.963068  4325 net.cpp:157] Top shape: 50 122 (6100)
I0410 19:16:41.963073  4325 net.cpp:157] Top shape: 50 151 (7550)
I0410 19:16:41.963076  4325 net.cpp:157] Top shape: 50 110 (5500)
I0410 19:16:41.963080  4325 net.cpp:157] Top shape: 50 57 (2850)
I0410 19:16:41.963085  4325 net.cpp:157] Top shape: 50 45 (2250)
I0410 19:16:41.963089  4325 net.cpp:157] Top shape: 50 34 (1700)
I0410 19:16:41.963095  4325 net.cpp:157] Top shape: 50 268 (13400)
I0410 19:16:41.963104  4325 net.cpp:157] Top shape: 50 100 (5000)
I0410 19:16:41.963109  4325 net.cpp:157] Top shape: 50 131 (6550)
I0410 19:16:41.963112  4325 net.cpp:157] Top shape: 50 41 (2050)
I0410 19:16:41.963116  4325 net.cpp:157] Top shape: 50 111 (5550)
I0410 19:16:41.963121  4325 net.cpp:157] Top shape: 50 112 (5600)
I0410 19:16:41.963125  4325 net.cpp:157] Top shape: 50 87 (4350)
I0410 19:16:41.963129  4325 net.cpp:157] Top shape: 50 115 (5750)
I0410 19:16:41.963135  4325 net.cpp:157] Top shape: 50 66 (3300)
I0410 19:16:41.963138  4325 net.cpp:157] Top shape: 50 57 (2850)
I0410 19:16:41.963142  4325 net.cpp:157] Top shape: 50 120 (6000)
I0410 19:16:41.963147  4325 net.cpp:157] Top shape: 50 211 (10550)
I0410 19:16:41.963151  4325 net.cpp:157] Top shape: 50 82 (4100)
I0410 19:16:41.963155  4325 net.cpp:157] Top shape: 50 67 (3350)
I0410 19:16:41.963160  4325 net.cpp:157] Top shape: 50 166 (8300)
I0410 19:16:41.963165  4325 net.cpp:157] Top shape: 50 51 (2550)
I0410 19:16:41.963168  4325 net.cpp:157] Top shape: 50 42 (2100)
I0410 19:16:41.963173  4325 net.cpp:157] Top shape: 50 31 (1550)
I0410 19:16:41.963177  4325 net.cpp:157] Top shape: 50 71 (3550)
I0410 19:16:41.963181  4325 net.cpp:157] Top shape: 50 51 (2550)
I0410 19:16:41.963186  4325 net.cpp:157] Top shape: 50 47 (2350)
I0410 19:16:41.963191  4325 net.cpp:157] Top shape: 50 78 (3900)
I0410 19:16:41.963194  4325 net.cpp:157] Top shape: 50 165 (8250)
I0410 19:16:41.963199  4325 net.cpp:157] Top shape: 50 79 (3950)
I0410 19:16:41.963203  4325 net.cpp:157] Top shape: 50 98 (4900)
I0410 19:16:41.963207  4325 net.cpp:157] Top shape: 50 85 (4250)
I0410 19:16:41.963212  4325 net.cpp:157] Top shape: 50 17 (850)
I0410 19:16:41.963217  4325 net.cpp:157] Top shape: 50 28 (1400)
I0410 19:16:41.963220  4325 net.cpp:157] Top shape: 50 46 (2300)
I0410 19:16:41.963224  4325 net.cpp:157] Top shape: 50 65 (3250)
I0410 19:16:41.963229  4325 net.cpp:157] Top shape: 50 73 (3650)
I0410 19:16:41.963233  4325 net.cpp:157] Top shape: 50 102 (5100)
I0410 19:16:41.963238  4325 net.cpp:157] Top shape: 50 37 (1850)
I0410 19:16:41.963243  4325 net.cpp:157] Top shape: 50 61 (3050)
I0410 19:16:41.963246  4325 net.cpp:157] Top shape: 50 99 (4950)
I0410 19:16:41.963250  4325 net.cpp:157] Top shape: 50 119 (5950)
I0410 19:16:41.963255  4325 net.cpp:157] Top shape: 50 57 (2850)
I0410 19:16:41.963259  4325 net.cpp:157] Top shape: 50 57 (2850)
I0410 19:16:41.963263  4325 net.cpp:157] Top shape: 50 172 (8600)
I0410 19:16:41.963268  4325 net.cpp:157] Top shape: 50 33 (1650)
I0410 19:16:41.963273  4325 net.cpp:157] Top shape: 50 56 (2800)
I0410 19:16:41.963276  4325 net.cpp:157] Top shape: 50 65 (3250)
I0410 19:16:41.963280  4325 net.cpp:157] Top shape: 50 42 (2100)
I0410 19:16:41.963285  4325 net.cpp:157] Top shape: 50 34 (1700)
I0410 19:16:41.963289  4325 net.cpp:157] Top shape: 50 47 (2350)
I0410 19:16:41.963294  4325 net.cpp:157] Top shape: 50 74 (3700)
I0410 19:16:41.963299  4325 net.cpp:157] Top shape: 50 188 (9400)
I0410 19:16:41.963302  4325 net.cpp:157] Top shape: 50 80 (4000)
I0410 19:16:41.963306  4325 net.cpp:157] Top shape: 50 27 (1350)
I0410 19:16:41.963311  4325 net.cpp:157] Top shape: 50 74 (3700)
I0410 19:16:41.963315  4325 net.cpp:157] Top shape: 50 23 (1150)
I0410 19:16:41.963320  4325 net.cpp:157] Top shape: 50 38 (1900)
I0410 19:16:41.963325  4325 net.cpp:157] Top shape: 50 91 (4550)
I0410 19:16:41.963331  4325 net.cpp:157] Top shape: 50 33 (1650)
I0410 19:16:41.963336  4325 net.cpp:157] Top shape: 50 24 (1200)
I0410 19:16:41.963341  4325 net.cpp:157] Top shape: 50 60 (3000)
I0410 19:16:41.963346  4325 net.cpp:157] Top shape: 50 66 (3300)
I0410 19:16:41.963349  4325 net.cpp:157] Top shape: 50 35 (1750)
I0410 19:16:41.963354  4325 net.cpp:157] Top shape: 50 74 (3700)
I0410 19:16:41.963358  4325 net.cpp:157] Top shape: 50 77 (3850)
I0410 19:16:41.963362  4325 net.cpp:157] Top shape: 50 54 (2700)
I0410 19:16:41.963367  4325 net.cpp:157] Top shape: 50 43 (2150)
I0410 19:16:41.963371  4325 net.cpp:157] Top shape: 50 53 (2650)
I0410 19:16:41.963377  4325 net.cpp:157] Top shape: 50 69 (3450)
I0410 19:16:41.963385  4325 net.cpp:157] Top shape: 50 88 (4400)
I0410 19:16:41.963390  4325 net.cpp:157] Top shape: 50 64 (3200)
I0410 19:16:41.963394  4325 net.cpp:157] Top shape: 50 61 (3050)
I0410 19:16:41.963399  4325 net.cpp:157] Top shape: 50 126 (6300)
I0410 19:16:41.963403  4325 net.cpp:157] Top shape: 50 56 (2800)
I0410 19:16:41.963407  4325 net.cpp:157] Top shape: 50 128 (6400)
I0410 19:16:41.963413  4325 net.cpp:157] Top shape: 50 88 (4400)
I0410 19:16:41.963416  4325 net.cpp:157] Top shape: 50 159 (7950)
I0410 19:16:41.963420  4325 net.cpp:157] Top shape: 50 42 (2100)
I0410 19:16:41.963425  4325 net.cpp:157] Top shape: 50 86 (4300)
I0410 19:16:41.963429  4325 net.cpp:157] Top shape: 50 36 (1800)
I0410 19:16:41.963433  4325 net.cpp:157] Top shape: 50 32 (1600)
I0410 19:16:41.963438  4325 net.cpp:157] Top shape: 50 64 (3200)
I0410 19:16:41.963443  4325 net.cpp:157] Top shape: 50 23 (1150)
I0410 19:16:41.963446  4325 net.cpp:157] Top shape: 50 18 (900)
I0410 19:16:41.963451  4325 net.cpp:157] Top shape: 50 23 (1150)
I0410 19:16:41.963455  4325 net.cpp:157] Top shape: 50 18 (900)
I0410 19:16:41.963459  4325 net.cpp:157] Top shape: 50 19 (950)
I0410 19:16:41.963464  4325 net.cpp:157] Top shape: 50 73 (3650)
I0410 19:16:41.963469  4325 net.cpp:157] Top shape: 50 147 (7350)
I0410 19:16:41.963472  4325 net.cpp:157] Top shape: 50 46 (2300)
I0410 19:16:41.963477  4325 net.cpp:157] Top shape: 50 42 (2100)
I0410 19:16:41.963481  4325 net.cpp:157] Top shape: 50 46 (2300)
I0410 19:16:41.963485  4325 net.cpp:157] Top shape: 50 24 (1200)
I0410 19:16:41.963490  4325 net.cpp:157] Top shape: 50 18 (900)
I0410 19:16:41.963495  4325 net.cpp:157] Top shape: 50 89 (4450)
I0410 19:16:41.963498  4325 net.cpp:157] Top shape: 50 44 (2200)
I0410 19:16:41.963502  4325 net.cpp:157] Top shape: 50 9 (450)
I0410 19:16:41.963507  4325 net.cpp:157] Top shape: 50 26 (1300)
I0410 19:16:41.963511  4325 net.cpp:157] Top shape: 50 109 (5450)
I0410 19:16:41.963515  4325 net.cpp:157] Top shape: 50 25 (1250)
I0410 19:16:41.963521  4325 net.cpp:157] Top shape: 50 40 (2000)
I0410 19:16:41.963524  4325 net.cpp:157] Top shape: 50 100 (5000)
I0410 19:16:41.963528  4325 net.cpp:157] Top shape: 50 127 (6350)
I0410 19:16:41.963533  4325 net.cpp:157] Top shape: 50 85 (4250)
I0410 19:16:41.963537  4325 net.cpp:157] Top shape: 50 74 (3700)
I0410 19:16:41.963541  4325 net.cpp:157] Top shape: 50 90 (4500)
I0410 19:16:41.963546  4325 net.cpp:157] Top shape: 50 88 (4400)
I0410 19:16:41.963551  4325 net.cpp:157] Top shape: 50 32 (1600)
I0410 19:16:41.963554  4325 net.cpp:157] Top shape: 50 61 (3050)
I0410 19:16:41.963559  4325 net.cpp:157] Top shape: 50 46 (2300)
I0410 19:16:41.963563  4325 net.cpp:157] Top shape: 50 176 (8800)
I0410 19:16:41.963567  4325 net.cpp:157] Top shape: 50 57 (2850)
I0410 19:16:41.963572  4325 net.cpp:157] Top shape: 50 101 (5050)
I0410 19:16:41.963577  4325 net.cpp:157] Top shape: 50 36 (1800)
I0410 19:16:41.963580  4325 net.cpp:157] Top shape: 50 67 (3350)
I0410 19:16:41.963584  4325 net.cpp:157] Top shape: 50 215 (10750)
I0410 19:16:41.963589  4325 net.cpp:157] Top shape: 50 94 (4700)
I0410 19:16:41.963593  4325 net.cpp:157] Top shape: 50 115 (5750)
I0410 19:16:41.963598  4325 net.cpp:157] Top shape: 50 114 (5700)
I0410 19:16:41.963603  4325 net.cpp:157] Top shape: 50 121 (6050)
I0410 19:16:41.963606  4325 net.cpp:157] Top shape: 50 75 (3750)
I0410 19:16:41.963610  4325 net.cpp:157] Top shape: 50 63 (3150)
I0410 19:16:41.963615  4325 net.cpp:157] Top shape: 50 83 (4150)
I0410 19:16:41.963619  4325 net.cpp:157] Top shape: 50 47 (2350)
I0410 19:16:41.963624  4325 net.cpp:157] Top shape: 50 60 (3000)
I0410 19:16:41.963629  4325 net.cpp:157] Top shape: 50 89 (4450)
I0410 19:16:41.963632  4325 net.cpp:157] Top shape: 50 148 (7400)
I0410 19:16:41.963636  4325 net.cpp:157] Top shape: 50 134 (6700)
I0410 19:16:41.963640  4325 net.cpp:157] Top shape: 50 45 (2250)
I0410 19:16:41.963645  4325 net.cpp:157] Top shape: 50 53 (2650)
I0410 19:16:41.963649  4325 net.cpp:157] Top shape: 50 108 (5400)
I0410 19:16:41.963655  4325 net.cpp:157] Top shape: 50 114 (5700)
I0410 19:16:41.963663  4325 net.cpp:157] Top shape: 50 15 (750)
I0410 19:16:41.963667  4325 net.cpp:157] Top shape: 50 18 (900)
I0410 19:16:41.963672  4325 net.cpp:157] Top shape: 50 98 (4900)
I0410 19:16:41.963676  4325 net.cpp:157] Top shape: 50 22 (1100)
I0410 19:16:41.963681  4325 net.cpp:157] Top shape: 50 28 (1400)
I0410 19:16:41.963685  4325 net.cpp:157] Top shape: 50 31 (1550)
I0410 19:16:41.963690  4325 net.cpp:157] Top shape: 50 51 (2550)
I0410 19:16:41.963695  4325 net.cpp:157] Top shape: 50 128 (6400)
I0410 19:16:41.963698  4325 net.cpp:157] Top shape: 50 82 (4100)
I0410 19:16:41.963702  4325 net.cpp:157] Top shape: 50 259 (12950)
I0410 19:16:41.963707  4325 net.cpp:157] Top shape: 50 237 (11850)
I0410 19:16:41.963711  4325 net.cpp:157] Top shape: 50 47 (2350)
I0410 19:16:41.963716  4325 net.cpp:157] Top shape: 50 167 (8350)
I0410 19:16:41.963719  4325 net.cpp:157] Top shape: 50 94 (4700)
I0410 19:16:41.963724  4325 net.cpp:157] Top shape: 50 92 (4600)
I0410 19:16:41.963728  4325 net.cpp:157] Top shape: 50 31 (1550)
I0410 19:16:41.963732  4325 net.cpp:157] Top shape: 50 70 (3500)
I0410 19:16:41.963737  4325 net.cpp:157] Top shape: 50 26 (1300)
I0410 19:16:41.963742  4325 net.cpp:157] Top shape: 50 25 (1250)
I0410 19:16:41.963745  4325 net.cpp:157] Top shape: 50 29 (1450)
I0410 19:16:41.963750  4325 net.cpp:157] Top shape: 50 53 (2650)
I0410 19:16:41.963754  4325 net.cpp:157] Top shape: 50 40 (2000)
I0410 19:16:41.963758  4325 net.cpp:157] Top shape: 50 12 (600)
I0410 19:16:41.963763  4325 net.cpp:157] Top shape: 50 37 (1850)
I0410 19:16:41.963768  4325 net.cpp:157] Top shape: 50 70 (3500)
I0410 19:16:41.963771  4325 net.cpp:157] Top shape: 50 27 (1350)
I0410 19:16:41.963776  4325 net.cpp:157] Top shape: 50 22 (1100)
I0410 19:16:41.963780  4325 net.cpp:157] Top shape: 50 114 (5700)
I0410 19:16:41.963784  4325 net.cpp:157] Top shape: 50 93 (4650)
I0410 19:16:41.963788  4325 net.cpp:157] Top shape: 50 79 (3950)
I0410 19:16:41.963793  4325 net.cpp:157] Top shape: 50 65 (3250)
I0410 19:16:41.963798  4325 net.cpp:157] Top shape: 50 80 (4000)
I0410 19:16:41.963801  4325 net.cpp:157] Top shape: 50 57 (2850)
I0410 19:16:41.963806  4325 net.cpp:157] Top shape: 50 60 (3000)
I0410 19:16:41.963810  4325 net.cpp:157] Top shape: 50 69 (3450)
I0410 19:16:41.963814  4325 net.cpp:157] Top shape: 50 19 (950)
I0410 19:16:41.963819  4325 net.cpp:157] Top shape: 50 80 (4000)
I0410 19:16:41.963824  4325 net.cpp:157] Top shape: 50 142 (7100)
I0410 19:16:41.963827  4325 net.cpp:157] Top shape: 50 50 (2500)
I0410 19:16:41.963831  4325 net.cpp:157] Top shape: 50 18 (900)
I0410 19:16:41.963836  4325 net.cpp:157] Top shape: 50 11 (550)
I0410 19:16:41.963840  4325 net.cpp:157] Top shape: 50 20 (1000)
I0410 19:16:41.963845  4325 net.cpp:157] Top shape: 50 82 (4100)
I0410 19:16:41.963850  4325 net.cpp:157] Top shape: 50 104 (5200)
I0410 19:16:41.963853  4325 net.cpp:157] Top shape: 50 26 (1300)
I0410 19:16:41.963857  4325 net.cpp:157] Top shape: 50 60 (3000)
I0410 19:16:41.963862  4325 net.cpp:157] Top shape: 50 90 (4500)
I0410 19:16:41.963866  4325 net.cpp:157] Top shape: 50 99 (4950)
I0410 19:16:41.963871  4325 net.cpp:157] Top shape: 50 126 (6300)
I0410 19:16:41.963876  4325 net.cpp:157] Top shape: 50 21 (1050)
I0410 19:16:41.963879  4325 net.cpp:157] Top shape: 50 58 (2900)
I0410 19:16:41.963883  4325 net.cpp:157] Top shape: 50 44 (2200)
I0410 19:16:41.963887  4325 net.cpp:157] Top shape: 50 34 (1700)
I0410 19:16:41.963892  4325 net.cpp:157] Top shape: 50 48 (2400)
I0410 19:16:41.963896  4325 net.cpp:157] Top shape: 50 33 (1650)
I0410 19:16:41.963901  4325 net.cpp:157] Top shape: 50 45 (2250)
I0410 19:16:41.963906  4325 net.cpp:157] Top shape: 50 68 (3400)
I0410 19:16:41.963909  4325 net.cpp:157] Top shape: 50 35 (1750)
I0410 19:16:41.963913  4325 net.cpp:157] Top shape: 50 103 (5150)
I0410 19:16:41.963918  4325 net.cpp:157] Top shape: 50 25 (1250)
I0410 19:16:41.963922  4325 net.cpp:157] Top shape: 50 28 (1400)
I0410 19:16:41.963927  4325 net.cpp:157] Top shape: 50 22 (1100)
I0410 19:16:41.963933  4325 net.cpp:157] Top shape: 50 37 (1850)
I0410 19:16:41.963940  4325 net.cpp:157] Top shape: 50 29 (1450)
I0410 19:16:41.963945  4325 net.cpp:157] Top shape: 50 36 (1800)
I0410 19:16:41.963949  4325 net.cpp:157] Top shape: 50 46 (2300)
I0410 19:16:41.963953  4325 net.cpp:157] Top shape: 50 15 (750)
I0410 19:16:41.963958  4325 net.cpp:157] Top shape: 50 22 (1100)
I0410 19:16:41.963963  4325 net.cpp:157] Top shape: 50 46 (2300)
I0410 19:16:41.963968  4325 net.cpp:157] Top shape: 50 64 (3200)
I0410 19:16:41.963971  4325 net.cpp:157] Top shape: 50 33 (1650)
I0410 19:16:41.963975  4325 net.cpp:157] Top shape: 50 51 (2550)
I0410 19:16:41.963980  4325 net.cpp:157] Top shape: 50 86 (4300)
I0410 19:16:41.963984  4325 net.cpp:157] Top shape: 50 59 (2950)
I0410 19:16:41.963989  4325 net.cpp:157] Top shape: 50 120 (6000)
I0410 19:16:41.963994  4325 net.cpp:157] Top shape: 50 89 (4450)
I0410 19:16:41.963997  4325 net.cpp:157] Top shape: 50 94 (4700)
I0410 19:16:41.964001  4325 net.cpp:157] Top shape: 50 60 (3000)
I0410 19:16:41.964005  4325 net.cpp:157] Top shape: 50 107 (5350)
I0410 19:16:41.964010  4325 net.cpp:157] Top shape: 50 194 (9700)
I0410 19:16:41.964015  4325 net.cpp:157] Top shape: 50 69 (3450)
I0410 19:16:41.964018  4325 net.cpp:157] Top shape: 50 73 (3650)
I0410 19:16:41.964023  4325 net.cpp:157] Top shape: 50 53 (2650)
I0410 19:16:41.964027  4325 net.cpp:157] Top shape: 50 96 (4800)
I0410 19:16:41.964031  4325 net.cpp:157] Top shape: 50 65 (3250)
I0410 19:16:41.964036  4325 net.cpp:157] Top shape: 50 277 (13850)
I0410 19:16:41.964040  4325 net.cpp:157] Top shape: 50 142 (7100)
I0410 19:16:41.964045  4325 net.cpp:157] Top shape: 50 209 (10450)
I0410 19:16:41.964049  4325 net.cpp:157] Top shape: 50 29 (1450)
I0410 19:16:41.964053  4325 net.cpp:157] Top shape: 50 165 (8250)
I0410 19:16:41.964057  4325 net.cpp:157] Top shape: 50 52 (2600)
I0410 19:16:41.964062  4325 net.cpp:157] Top shape: 50 28 (1400)
I0410 19:16:41.964066  4325 net.cpp:157] Top shape: 50 96 (4800)
I0410 19:16:41.964071  4325 net.cpp:157] Top shape: 50 211 (10550)
I0410 19:16:41.964074  4325 net.cpp:157] Top shape: 50 92 (4600)
I0410 19:16:41.964079  4325 net.cpp:157] Top shape: 50 34 (1700)
I0410 19:16:41.964083  4325 net.cpp:157] Top shape: 50 52 (2600)
I0410 19:16:41.964087  4325 net.cpp:157] Top shape: 50 43 (2150)
I0410 19:16:41.964092  4325 net.cpp:157] Top shape: 50 56 (2800)
I0410 19:16:41.964097  4325 net.cpp:157] Top shape: 50 27 (1350)
I0410 19:16:41.964100  4325 net.cpp:157] Top shape: 50 219 (10950)
I0410 19:16:41.964105  4325 net.cpp:157] Top shape: 50 116 (5800)
I0410 19:16:41.964109  4325 net.cpp:157] Top shape: 50 77 (3850)
I0410 19:16:41.964113  4325 net.cpp:157] Top shape: 50 69 (3450)
I0410 19:16:41.964118  4325 net.cpp:157] Top shape: 50 160 (8000)
I0410 19:16:41.964123  4325 net.cpp:157] Top shape: 50 66 (3300)
I0410 19:16:41.964126  4325 net.cpp:157] Top shape: 50 66 (3300)
I0410 19:16:41.964131  4325 net.cpp:157] Top shape: 50 53 (2650)
I0410 19:16:41.964135  4325 net.cpp:157] Top shape: 50 62 (3100)
I0410 19:16:41.964139  4325 net.cpp:157] Top shape: 50 118 (5900)
I0410 19:16:41.964144  4325 net.cpp:157] Top shape: 50 49 (2450)
I0410 19:16:41.964148  4325 net.cpp:157] Top shape: 50 164 (8200)
I0410 19:16:41.964153  4325 net.cpp:157] Top shape: 50 36 (1800)
I0410 19:16:41.964156  4325 net.cpp:157] Top shape: 50 80 (4000)
I0410 19:16:41.964161  4325 net.cpp:157] Top shape: 50 30 (1500)
I0410 19:16:41.964165  4325 net.cpp:157] Top shape: 50 46 (2300)
I0410 19:16:41.964169  4325 net.cpp:157] Top shape: 50 15 (750)
I0410 19:16:41.964174  4325 net.cpp:157] Top shape: 50 75 (3750)
I0410 19:16:41.964179  4325 net.cpp:157] Top shape: 50 126 (6300)
I0410 19:16:41.964182  4325 net.cpp:157] Top shape: 50 44 (2200)
I0410 19:16:41.964187  4325 net.cpp:157] Top shape: 50 56 (2800)
I0410 19:16:41.964191  4325 net.cpp:157] Top shape: 50 45 (2250)
I0410 19:16:41.964195  4325 net.cpp:157] Top shape: 50 86 (4300)
I0410 19:16:41.964200  4325 net.cpp:157] Top shape: 50 24 (1200)
I0410 19:16:41.964206  4325 net.cpp:157] Top shape: 50 20 (1000)
I0410 19:16:41.964215  4325 net.cpp:157] Top shape: 50 36 (1800)
I0410 19:16:41.964220  4325 net.cpp:157] Top shape: 50 59 (2950)
I0410 19:16:41.964223  4325 net.cpp:157] Top shape: 50 140 (7000)
I0410 19:16:41.964228  4325 net.cpp:157] Top shape: 50 54 (2700)
I0410 19:16:41.964232  4325 net.cpp:157] Top shape: 50 47 (2350)
I0410 19:16:41.964236  4325 net.cpp:157] Top shape: 50 30 (1500)
I0410 19:16:41.964241  4325 net.cpp:157] Top shape: 50 70 (3500)
I0410 19:16:41.964246  4325 net.cpp:157] Top shape: 50 27 (1350)
I0410 19:16:41.964249  4325 net.cpp:157] Top shape: 50 51 (2550)
I0410 19:16:41.964253  4325 net.cpp:157] Top shape: 50 120 (6000)
I0410 19:16:41.964258  4325 net.cpp:157] Top shape: 50 106 (5300)
I0410 19:16:41.964262  4325 net.cpp:157] Top shape: 50 73 (3650)
I0410 19:16:41.964267  4325 net.cpp:157] Top shape: 50 77 (3850)
I0410 19:16:41.964272  4325 net.cpp:157] Top shape: 50 26 (1300)
I0410 19:16:41.964275  4325 net.cpp:157] Top shape: 50 63 (3150)
I0410 19:16:41.964280  4325 net.cpp:157] Top shape: 50 21 (1050)
I0410 19:16:41.964284  4325 net.cpp:157] Top shape: 50 29 (1450)
I0410 19:16:41.964288  4325 net.cpp:157] Top shape: 50 88 (4400)
I0410 19:16:41.964293  4325 net.cpp:157] Top shape: 50 77 (3850)
I0410 19:16:41.964298  4325 net.cpp:157] Top shape: 50 73 (3650)
I0410 19:16:41.964301  4325 net.cpp:157] Top shape: 50 96 (4800)
I0410 19:16:41.964305  4325 net.cpp:157] Top shape: 50 59 (2950)
I0410 19:16:41.964310  4325 net.cpp:157] Top shape: 50 31 (1550)
I0410 19:16:41.964314  4325 net.cpp:157] Top shape: 50 38 (1900)
I0410 19:16:41.964318  4325 net.cpp:157] Top shape: 50 32 (1600)
I0410 19:16:41.964323  4325 net.cpp:157] Top shape: 50 68 (3400)
I0410 19:16:41.964328  4325 net.cpp:157] Top shape: 50 187 (9350)
I0410 19:16:41.964331  4325 net.cpp:157] Top shape: 50 71 (3550)
I0410 19:16:41.964336  4325 net.cpp:157] Top shape: 50 137 (6850)
I0410 19:16:41.964340  4325 net.cpp:157] Top shape: 50 100 (5000)
I0410 19:16:41.964344  4325 net.cpp:157] Top shape: 50 112 (5600)
I0410 19:16:41.964349  4325 net.cpp:157] Top shape: 50 22 (1100)
I0410 19:16:41.964354  4325 net.cpp:157] Top shape: 50 79 (3950)
I0410 19:16:41.964357  4325 net.cpp:157] Top shape: 50 113 (5650)
I0410 19:16:41.964362  4325 net.cpp:157] Top shape: 50 165 (8250)
I0410 19:16:41.964366  4325 net.cpp:157] Top shape: 50 106 (5300)
I0410 19:16:41.964370  4325 net.cpp:157] Top shape: 50 73 (3650)
I0410 19:16:41.964375  4325 net.cpp:157] Top shape: 50 60 (3000)
I0410 19:16:41.964380  4325 net.cpp:157] Top shape: 50 93 (4650)
I0410 19:16:41.964383  4325 net.cpp:157] Top shape: 50 67 (3350)
I0410 19:16:41.964387  4325 net.cpp:157] Top shape: 50 40 (2000)
I0410 19:16:41.964392  4325 net.cpp:157] Top shape: 50 28 (1400)
I0410 19:16:41.964396  4325 net.cpp:157] Top shape: 50 53 (2650)
I0410 19:16:41.964401  4325 net.cpp:157] Top shape: 50 55 (2750)
I0410 19:16:41.964406  4325 net.cpp:157] Top shape: 50 37 (1850)
I0410 19:16:41.964409  4325 net.cpp:157] Top shape: 50 70 (3500)
I0410 19:16:41.964413  4325 net.cpp:157] Top shape: 50 150 (7500)
I0410 19:16:41.964418  4325 net.cpp:157] Top shape: 50 34 (1700)
I0410 19:16:41.964422  4325 net.cpp:157] Top shape: 50 58 (2900)
I0410 19:16:41.964426  4325 net.cpp:157] Top shape: 50 47 (2350)
I0410 19:16:41.964432  4325 net.cpp:157] Top shape: 50 44 (2200)
I0410 19:16:41.964435  4325 net.cpp:157] Top shape: 50 31 (1550)
I0410 19:16:41.964439  4325 net.cpp:157] Top shape: 50 80 (4000)
I0410 19:16:41.964443  4325 net.cpp:157] Top shape: 50 68 (3400)
I0410 19:16:41.964448  4325 net.cpp:157] Top shape: 50 47 (2350)
I0410 19:16:41.964452  4325 net.cpp:157] Top shape: 50 55 (2750)
I0410 19:16:41.964457  4325 net.cpp:157] Top shape: 50 85 (4250)
I0410 19:16:41.964462  4325 net.cpp:157] Top shape: 50 58 (2900)
I0410 19:16:41.964465  4325 net.cpp:157] Top shape: 50 19 (950)
I0410 19:16:41.964469  4325 net.cpp:157] Top shape: 50 46 (2300)
I0410 19:16:41.964474  4325 net.cpp:157] Top shape: 50 43 (2150)
I0410 19:16:41.964478  4325 net.cpp:157] Top shape: 50 26 (1300)
I0410 19:16:41.964485  4325 net.cpp:157] Top shape: 50 55 (2750)
I0410 19:16:41.964493  4325 net.cpp:157] Top shape: 50 21 (1050)
I0410 19:16:41.964498  4325 net.cpp:157] Top shape: 50 118 (5900)
I0410 19:16:41.964503  4325 net.cpp:157] Top shape: 50 40 (2000)
I0410 19:16:41.964506  4325 net.cpp:157] Top shape: 50 53 (2650)
I0410 19:16:41.964511  4325 net.cpp:157] Top shape: 50 42 (2100)
I0410 19:16:41.964515  4325 net.cpp:157] Top shape: 50 241 (12050)
I0410 19:16:41.964519  4325 net.cpp:157] Top shape: 50 70 (3500)
I0410 19:16:41.964524  4325 net.cpp:157] Top shape: 50 36 (1800)
I0410 19:16:41.964529  4325 net.cpp:157] Top shape: 50 236 (11800)
I0410 19:16:41.964534  4325 net.cpp:157] Top shape: 50 94 (4700)
I0410 19:16:41.964537  4325 net.cpp:157] Top shape: 50 42 (2100)
I0410 19:16:41.964541  4325 net.cpp:157] Top shape: 50 220 (11000)
I0410 19:16:41.964546  4325 net.cpp:157] Top shape: 50 128 (6400)
I0410 19:16:41.964550  4325 net.cpp:157] Top shape: 50 21 (1050)
I0410 19:16:41.964555  4325 net.cpp:157] Top shape: 50 62 (3100)
I0410 19:16:41.964560  4325 net.cpp:157] Top shape: 50 83 (4150)
I0410 19:16:41.964563  4325 net.cpp:157] Top shape: 50 56 (2800)
I0410 19:16:41.964568  4325 net.cpp:157] Top shape: 50 70 (3500)
I0410 19:16:41.964572  4325 net.cpp:157] Top shape: 50 164 (8200)
I0410 19:16:41.964576  4325 net.cpp:157] Top shape: 50 50 (2500)
I0410 19:16:41.964581  4325 net.cpp:157] Top shape: 50 67 (3350)
I0410 19:16:41.964586  4325 net.cpp:157] Top shape: 50 44 (2200)
I0410 19:16:41.964589  4325 net.cpp:157] Top shape: 50 43 (2150)
I0410 19:16:41.964594  4325 net.cpp:157] Top shape: 50 54 (2700)
I0410 19:16:41.964598  4325 net.cpp:157] Top shape: 50 77 (3850)
I0410 19:16:41.964602  4325 net.cpp:157] Top shape: 50 40 (2000)
I0410 19:16:41.964607  4325 net.cpp:157] Top shape: 50 26 (1300)
I0410 19:16:41.964612  4325 net.cpp:157] Top shape: 50 64 (3200)
I0410 19:16:41.964615  4325 net.cpp:157] Top shape: 50 68 (3400)
I0410 19:16:41.964620  4325 net.cpp:157] Top shape: 50 67 (3350)
I0410 19:16:41.964624  4325 net.cpp:157] Top shape: 50 31 (1550)
I0410 19:16:41.964628  4325 net.cpp:157] Top shape: 50 87 (4350)
I0410 19:16:41.964632  4325 net.cpp:157] Top shape: 50 79 (3950)
I0410 19:16:41.964637  4325 net.cpp:157] Top shape: 50 88 (4400)
I0410 19:16:41.964642  4325 net.cpp:157] Top shape: 50 75 (3750)
I0410 19:16:41.964646  4325 net.cpp:157] Top shape: 50 85 (4250)
I0410 19:16:41.964650  4325 net.cpp:157] Top shape: 50 103 (5150)
I0410 19:16:41.964654  4325 net.cpp:157] Top shape: 50 109 (5450)
I0410 19:16:41.964659  4325 net.cpp:157] Top shape: 50 81 (4050)
I0410 19:16:41.964663  4325 net.cpp:157] Top shape: 50 65 (3250)
I0410 19:16:41.964668  4325 net.cpp:157] Top shape: 50 63 (3150)
I0410 19:16:41.964671  4325 net.cpp:157] Top shape: 50 12 (600)
I0410 19:16:41.964676  4325 net.cpp:157] Top shape: 50 60 (3000)
I0410 19:16:41.964680  4325 net.cpp:157] Top shape: 50 86 (4300)
I0410 19:16:41.964684  4325 net.cpp:157] Top shape: 50 42 (2100)
I0410 19:16:41.964689  4325 net.cpp:157] Top shape: 50 38 (1900)
I0410 19:16:41.964694  4325 net.cpp:157] Top shape: 50 41 (2050)
I0410 19:16:41.964697  4325 net.cpp:157] Top shape: 50 24 (1200)
I0410 19:16:41.964702  4325 net.cpp:157] Top shape: 50 104 (5200)
I0410 19:16:41.964706  4325 net.cpp:157] Top shape: 50 75 (3750)
I0410 19:16:41.964710  4325 net.cpp:157] Top shape: 50 58 (2900)
I0410 19:16:41.964715  4325 net.cpp:157] Top shape: 50 46 (2300)
I0410 19:16:41.964720  4325 net.cpp:157] Top shape: 50 52 (2600)
I0410 19:16:41.964723  4325 net.cpp:157] Top shape: 50 44 (2200)
I0410 19:16:41.964728  4325 net.cpp:157] Top shape: 50 63 (3150)
I0410 19:16:41.964732  4325 net.cpp:157] Top shape: 50 83 (4150)
I0410 19:16:41.964736  4325 net.cpp:157] Top shape: 50 35 (1750)
I0410 19:16:41.964741  4325 net.cpp:157] Top shape: 50 45 (2250)
I0410 19:16:41.964745  4325 net.cpp:157] Top shape: 50 52 (2600)
I0410 19:16:41.964750  4325 net.cpp:157] Top shape: 50 46 (2300)
I0410 19:16:41.964754  4325 net.cpp:157] Top shape: 50 59 (2950)
I0410 19:16:41.964758  4325 net.cpp:157] Top shape: 50 31 (1550)
I0410 19:16:41.964764  4325 net.cpp:157] Top shape: 50 73 (3650)
I0410 19:16:41.964772  4325 net.cpp:157] Top shape: 50 72 (3600)
I0410 19:16:41.964776  4325 net.cpp:157] Top shape: 50 26 (1300)
I0410 19:16:41.964781  4325 net.cpp:157] Top shape: 50 39 (1950)
I0410 19:16:41.964786  4325 net.cpp:157] Top shape: 50 19 (950)
I0410 19:16:41.964789  4325 net.cpp:157] Top shape: 50 32 (1600)
I0410 19:16:41.964794  4325 net.cpp:157] Top shape: 50 71 (3550)
I0410 19:16:41.964798  4325 net.cpp:157] Top shape: 50 102 (5100)
I0410 19:16:41.964802  4325 net.cpp:157] Top shape: 50 22 (1100)
I0410 19:16:41.964807  4325 net.cpp:157] Top shape: 50 18 (900)
I0410 19:16:41.964812  4325 net.cpp:157] Top shape: 50 35 (1750)
I0410 19:16:41.964815  4325 net.cpp:157] Top shape: 50 28 (1400)
I0410 19:16:41.964820  4325 net.cpp:157] Top shape: 50 35 (1750)
I0410 19:16:41.964824  4325 net.cpp:157] Top shape: 50 89 (4450)
I0410 19:16:41.964829  4325 net.cpp:157] Top shape: 50 102 (5100)
I0410 19:16:41.964833  4325 net.cpp:157] Top shape: 50 90 (4500)
I0410 19:16:41.964838  4325 net.cpp:157] Top shape: 50 96 (4800)
I0410 19:16:41.964841  4325 net.cpp:157] Top shape: 50 74 (3700)
I0410 19:16:41.964846  4325 net.cpp:157] Top shape: 50 55 (2750)
I0410 19:16:41.964850  4325 net.cpp:157] Top shape: 50 40 (2000)
I0410 19:16:41.964854  4325 net.cpp:157] Top shape: 50 101 (5050)
I0410 19:16:41.964859  4325 net.cpp:157] Top shape: 50 44 (2200)
I0410 19:16:41.964864  4325 net.cpp:157] Top shape: 50 45 (2250)
I0410 19:16:41.964867  4325 net.cpp:157] Top shape: 50 126 (6300)
I0410 19:16:41.964872  4325 net.cpp:157] Top shape: 50 88 (4400)
I0410 19:16:41.964876  4325 net.cpp:157] Top shape: 50 66 (3300)
I0410 19:16:41.964880  4325 net.cpp:157] Top shape: 50 73 (3650)
I0410 19:16:41.964885  4325 net.cpp:157] Top shape: 50 76 (3800)
I0410 19:16:41.964890  4325 net.cpp:157] Top shape: 50 110 (5500)
I0410 19:16:41.964893  4325 net.cpp:157] Top shape: 50 50 (2500)
I0410 19:16:41.964898  4325 net.cpp:157] Top shape: 50 37 (1850)
I0410 19:16:41.964902  4325 net.cpp:157] Top shape: 50 41 (2050)
I0410 19:16:41.964906  4325 net.cpp:157] Top shape: 50 81 (4050)
I0410 19:16:41.964910  4325 net.cpp:157] Top shape: 50 211 (10550)
I0410 19:16:41.964915  4325 net.cpp:157] Top shape: 50 88 (4400)
I0410 19:16:41.964920  4325 net.cpp:157] Top shape: 50 91 (4550)
I0410 19:16:41.964923  4325 net.cpp:157] Top shape: 50 162 (8100)
I0410 19:16:41.964928  4325 net.cpp:157] Top shape: 50 63 (3150)
I0410 19:16:41.964932  4325 net.cpp:157] Top shape: 50 69 (3450)
I0410 19:16:41.964936  4325 net.cpp:157] Top shape: 50 80 (4000)
I0410 19:16:41.964941  4325 net.cpp:157] Top shape: 50 50 (2500)
I0410 19:16:41.964946  4325 net.cpp:157] Top shape: 50 84 (4200)
I0410 19:16:41.964949  4325 net.cpp:157] Top shape: 50 35 (1750)
I0410 19:16:41.964954  4325 net.cpp:157] Top shape: 50 55 (2750)
I0410 19:16:41.964958  4325 net.cpp:157] Top shape: 50 94 (4700)
I0410 19:16:41.964962  4325 net.cpp:157] Top shape: 50 197 (9850)
I0410 19:16:41.964967  4325 net.cpp:157] Top shape: 50 88 (4400)
I0410 19:16:41.964972  4325 net.cpp:157] Top shape: 50 138 (6900)
I0410 19:16:41.964975  4325 net.cpp:157] Top shape: 50 63 (3150)
I0410 19:16:41.964979  4325 net.cpp:157] Top shape: 50 47 (2350)
I0410 19:16:41.964984  4325 net.cpp:157] Top shape: 50 53 (2650)
I0410 19:16:41.964988  4325 net.cpp:157] Top shape: 50 21 (1050)
I0410 19:16:41.964993  4325 net.cpp:157] Top shape: 50 46 (2300)
I0410 19:16:41.964998  4325 net.cpp:157] Top shape: 50 151 (7550)
I0410 19:16:41.965001  4325 net.cpp:157] Top shape: 50 246 (12300)
I0410 19:16:41.965005  4325 net.cpp:157] Top shape: 50 81 (4050)
I0410 19:16:41.965010  4325 net.cpp:157] Top shape: 50 213 (10650)
I0410 19:16:41.965014  4325 net.cpp:157] Top shape: 50 56 (2800)
I0410 19:16:41.965018  4325 net.cpp:157] Top shape: 50 60 (3000)
I0410 19:16:41.965023  4325 net.cpp:157] Top shape: 50 13 (650)
I0410 19:16:41.965028  4325 net.cpp:157] Top shape: 50 14 (700)
I0410 19:16:41.965031  4325 net.cpp:157] Top shape: 50 25 (1250)
I0410 19:16:41.965036  4325 net.cpp:157] Top shape: 50 43 (2150)
I0410 19:16:41.965042  4325 net.cpp:157] Top shape: 50 49 (2450)
I0410 19:16:41.965050  4325 net.cpp:157] Top shape: 50 68 (3400)
I0410 19:16:41.965054  4325 net.cpp:157] Top shape: 50 114 (5700)
I0410 19:16:41.965059  4325 net.cpp:157] Top shape: 50 32 (1600)
I0410 19:16:41.965064  4325 net.cpp:157] Top shape: 50 56 (2800)
I0410 19:16:41.965067  4325 net.cpp:157] Top shape: 50 32 (1600)
I0410 19:16:41.965071  4325 net.cpp:157] Top shape: 50 41 (2050)
I0410 19:16:41.965083  4325 net.cpp:157] Top shape: 50 23 (1150)
I0410 19:16:41.965088  4325 net.cpp:157] Top shape: 50 52 (2600)
I0410 19:16:41.965093  4325 net.cpp:157] Top shape: 50 278 (13900)
I0410 19:16:41.965097  4325 net.cpp:157] Top shape: 50 119 (5950)
I0410 19:16:41.965102  4325 net.cpp:157] Top shape: 50 52 (2600)
I0410 19:16:41.965106  4325 net.cpp:157] Top shape: 50 78 (3900)
I0410 19:16:41.965111  4325 net.cpp:157] Top shape: 50 122 (6100)
I0410 19:16:41.965116  4325 net.cpp:157] Top shape: 50 133 (6650)
I0410 19:16:41.965119  4325 net.cpp:157] Top shape: 50 197 (9850)
I0410 19:16:41.965123  4325 net.cpp:157] Top shape: 50 51 (2550)
I0410 19:16:41.965128  4325 net.cpp:157] Top shape: 50 84 (4200)
I0410 19:16:41.965132  4325 net.cpp:157] Top shape: 50 22 (1100)
I0410 19:16:41.965137  4325 net.cpp:157] Top shape: 50 95 (4750)
I0410 19:16:41.965142  4325 net.cpp:157] Top shape: 50 24 (1200)
I0410 19:16:41.965145  4325 net.cpp:157] Top shape: 50 45 (2250)
I0410 19:16:41.965149  4325 net.cpp:157] Top shape: 50 10 (500)
I0410 19:16:41.965154  4325 net.cpp:157] Top shape: 50 19 (950)
I0410 19:16:41.965158  4325 net.cpp:157] Top shape: 50 34 (1700)
I0410 19:16:41.965163  4325 net.cpp:157] Top shape: 50 34 (1700)
I0410 19:16:41.965167  4325 net.cpp:157] Top shape: 50 33 (1650)
I0410 19:16:41.965172  4325 net.cpp:157] Top shape: 50 278 (13900)
I0410 19:16:41.965176  4325 net.cpp:157] Top shape: 50 68 (3400)
I0410 19:16:41.965180  4325 net.cpp:157] Top shape: 50 43 (2150)
I0410 19:16:41.965184  4325 net.cpp:157] Top shape: 50 79 (3950)
I0410 19:16:41.965189  4325 net.cpp:157] Top shape: 50 62 (3100)
I0410 19:16:41.965193  4325 net.cpp:157] Top shape: 50 42 (2100)
I0410 19:16:41.965198  4325 net.cpp:157] Top shape: 50 46 (2300)
I0410 19:16:41.965203  4325 net.cpp:157] Top shape: 50 40 (2000)
I0410 19:16:41.965206  4325 net.cpp:157] Top shape: 50 73 (3650)
I0410 19:16:41.965210  4325 net.cpp:157] Top shape: 50 65 (3250)
I0410 19:16:41.965215  4325 net.cpp:157] Top shape: 50 140 (7000)
I0410 19:16:41.965219  4325 net.cpp:157] Top shape: 50 47 (2350)
I0410 19:16:41.965224  4325 net.cpp:157] Top shape: 50 62 (3100)
I0410 19:16:41.965227  4325 net.cpp:157] Top shape: 50 36 (1800)
I0410 19:16:41.965232  4325 net.cpp:157] Top shape: 50 20 (1000)
I0410 19:16:41.965236  4325 net.cpp:157] Top shape: 50 13 (650)
I0410 19:16:41.965240  4325 net.cpp:157] Top shape: 50 34 (1700)
I0410 19:16:41.965245  4325 net.cpp:157] Top shape: 50 64 (3200)
I0410 19:16:41.965250  4325 net.cpp:157] Top shape: 50 31 (1550)
I0410 19:16:41.965255  4325 net.cpp:157] Top shape: 50 31 (1550)
I0410 19:16:41.965258  4325 net.cpp:157] Top shape: 50 114 (5700)
I0410 19:16:41.965262  4325 net.cpp:157] Top shape: 50 20 (1000)
I0410 19:16:41.965267  4325 net.cpp:157] Top shape: 50 68 (3400)
I0410 19:16:41.965271  4325 net.cpp:157] Top shape: 50 26 (1300)
I0410 19:16:41.965276  4325 net.cpp:157] Top shape: 50 41 (2050)
I0410 19:16:41.965281  4325 net.cpp:157] Top shape: 50 68 (3400)
I0410 19:16:41.965284  4325 net.cpp:157] Top shape: 50 19 (950)
I0410 19:16:41.965288  4325 net.cpp:157] Top shape: 50 22 (1100)
I0410 19:16:41.965292  4325 net.cpp:157] Top shape: 50 24 (1200)
I0410 19:16:41.965297  4325 net.cpp:157] Top shape: 50 28 (1400)
I0410 19:16:41.965301  4325 net.cpp:157] Top shape: 50 28 (1400)
I0410 19:16:41.965306  4325 net.cpp:157] Top shape: 50 28 (1400)
I0410 19:16:41.965311  4325 net.cpp:157] Top shape: 50 29 (1450)
I0410 19:16:41.965314  4325 net.cpp:157] Top shape: 50 24 (1200)
I0410 19:16:41.965318  4325 net.cpp:157] Top shape: 50 84 (4200)
I0410 19:16:41.965323  4325 net.cpp:157] Top shape: 50 42 (2100)
I0410 19:16:41.965329  4325 net.cpp:157] Top shape: 50 89 (4450)
I0410 19:16:41.965338  4325 net.cpp:157] Top shape: 50 25 (1250)
I0410 19:16:41.965342  4325 net.cpp:157] Top shape: 50 73 (3650)
I0410 19:16:41.965348  4325 net.cpp:157] Top shape: 50 145 (7250)
I0410 19:16:41.965351  4325 net.cpp:157] Top shape: 50 65 (3250)
I0410 19:16:41.965355  4325 net.cpp:157] Top shape: 50 93 (4650)
I0410 19:16:41.965360  4325 net.cpp:157] Top shape: 50 146 (7300)
I0410 19:16:41.965364  4325 net.cpp:157] Top shape: 50 136 (6800)
I0410 19:16:41.965368  4325 net.cpp:157] Top shape: 50 166 (8300)
I0410 19:16:41.965373  4325 net.cpp:157] Top shape: 50 81 (4050)
I0410 19:16:41.965378  4325 net.cpp:157] Top shape: 50 61 (3050)
I0410 19:16:41.965381  4325 net.cpp:157] Top shape: 50 82 (4100)
I0410 19:16:41.965386  4325 net.cpp:157] Top shape: 50 51 (2550)
I0410 19:16:41.965390  4325 net.cpp:157] Top shape: 50 57 (2850)
I0410 19:16:41.965394  4325 net.cpp:157] Top shape: 50 44 (2200)
I0410 19:16:41.965399  4325 net.cpp:157] Top shape: 50 43 (2150)
I0410 19:16:41.965404  4325 net.cpp:157] Top shape: 50 116 (5800)
I0410 19:16:41.965407  4325 net.cpp:157] Top shape: 50 28 (1400)
I0410 19:16:41.965412  4325 net.cpp:157] Top shape: 50 64 (3200)
I0410 19:16:41.965416  4325 net.cpp:157] Top shape: 50 60 (3000)
I0410 19:16:41.965420  4325 net.cpp:157] Top shape: 50 204 (10200)
I0410 19:16:41.965425  4325 net.cpp:157] Top shape: 50 62 (3100)
I0410 19:16:41.965430  4325 net.cpp:157] Top shape: 50 113 (5650)
I0410 19:16:41.965433  4325 net.cpp:157] Top shape: 50 86 (4300)
I0410 19:16:41.965438  4325 net.cpp:157] Top shape: 50 148 (7400)
I0410 19:16:41.965442  4325 net.cpp:157] Top shape: 50 139 (6950)
I0410 19:16:41.965446  4325 net.cpp:157] Top shape: 50 61 (3050)
I0410 19:16:41.965451  4325 net.cpp:157] Top shape: 50 153 (7650)
I0410 19:16:41.965456  4325 net.cpp:157] Top shape: 50 38 (1900)
I0410 19:16:41.965461  4325 net.cpp:157] Top shape: 50 59 (2950)
I0410 19:16:41.965464  4325 net.cpp:157] Top shape: 50 145 (7250)
I0410 19:16:41.965468  4325 net.cpp:157] Top shape: 50 41 (2050)
I0410 19:16:41.965473  4325 net.cpp:157] Top shape: 50 54 (2700)
I0410 19:16:41.965477  4325 net.cpp:157] Top shape: 50 33 (1650)
I0410 19:16:41.965481  4325 net.cpp:157] Top shape: 50 100 (5000)
I0410 19:16:41.965486  4325 net.cpp:157] Top shape: 50 28 (1400)
I0410 19:16:41.965490  4325 net.cpp:157] Top shape: 50 43 (2150)
I0410 19:16:41.965494  4325 net.cpp:157] Top shape: 50 26 (1300)
I0410 19:16:41.965498  4325 net.cpp:157] Top shape: 50 32 (1600)
I0410 19:16:41.965503  4325 net.cpp:157] Top shape: 50 20 (1000)
I0410 19:16:41.965507  4325 net.cpp:157] Top shape: 50 26 (1300)
I0410 19:16:41.965512  4325 net.cpp:157] Top shape: 50 10 (500)
I0410 19:16:41.965517  4325 net.cpp:157] Top shape: 50 26 (1300)
I0410 19:16:41.965520  4325 net.cpp:157] Top shape: 50 21 (1050)
I0410 19:16:41.965524  4325 net.cpp:157] Top shape: 50 57 (2850)
I0410 19:16:41.965529  4325 net.cpp:157] Top shape: 50 41 (2050)
I0410 19:16:41.965533  4325 net.cpp:157] Top shape: 50 104 (5200)
I0410 19:16:41.965538  4325 net.cpp:157] Top shape: 50 41 (2050)
I0410 19:16:41.965543  4325 net.cpp:157] Top shape: 50 44 (2200)
I0410 19:16:41.965546  4325 net.cpp:157] Top shape: 50 81 (4050)
I0410 19:16:41.965550  4325 net.cpp:157] Top shape: 50 27 (1350)
I0410 19:16:41.965555  4325 net.cpp:157] Top shape: 50 22 (1100)
I0410 19:16:41.965559  4325 net.cpp:157] Top shape: 50 164 (8200)
I0410 19:16:41.965564  4325 net.cpp:157] Top shape: 50 70 (3500)
I0410 19:16:41.965569  4325 net.cpp:157] Top shape: 50 107 (5350)
I0410 19:16:41.965572  4325 net.cpp:157] Top shape: 50 153 (7650)
I0410 19:16:41.965576  4325 net.cpp:157] Top shape: 50 17 (850)
I0410 19:16:41.965581  4325 net.cpp:157] Top shape: 50 51 (2550)
I0410 19:16:41.965585  4325 net.cpp:157] Top shape: 50 75 (3750)
I0410 19:16:41.965590  4325 net.cpp:157] Top shape: 50 55 (2750)
I0410 19:16:41.965595  4325 net.cpp:157] Top shape: 50 84 (4200)
I0410 19:16:41.965598  4325 net.cpp:157] Top shape: 50 43 (2150)
I0410 19:16:41.965603  4325 net.cpp:157] Top shape: 50 29 (1450)
I0410 19:16:41.965612  4325 net.cpp:157] Top shape: 50 26 (1300)
I0410 19:16:41.965620  4325 net.cpp:157] Top shape: 50 65 (3250)
I0410 19:16:41.965625  4325 net.cpp:157] Top shape: 50 22 (1100)
I0410 19:16:41.965628  4325 net.cpp:157] Top shape: 50 130 (6500)
I0410 19:16:41.965633  4325 net.cpp:157] Top shape: 50 77 (3850)
I0410 19:16:41.965637  4325 net.cpp:157] Top shape: 50 64 (3200)
I0410 19:16:41.965641  4325 net.cpp:157] Top shape: 50 32 (1600)
I0410 19:16:41.965646  4325 net.cpp:157] Top shape: 50 109 (5450)
I0410 19:16:41.965651  4325 net.cpp:157] Top shape: 50 21 (1050)
I0410 19:16:41.965654  4325 net.cpp:157] Top shape: 50 30 (1500)
I0410 19:16:41.965659  4325 net.cpp:157] Top shape: 50 35 (1750)
I0410 19:16:41.965663  4325 net.cpp:157] Top shape: 50 45 (2250)
I0410 19:16:41.965667  4325 net.cpp:157] Top shape: 50 55 (2750)
I0410 19:16:41.965672  4325 net.cpp:157] Top shape: 50 49 (2450)
I0410 19:16:41.965677  4325 net.cpp:157] Top shape: 50 22 (1100)
I0410 19:16:41.965680  4325 net.cpp:157] Top shape: 50 32 (1600)
I0410 19:16:41.965685  4325 net.cpp:157] Top shape: 50 63 (3150)
I0410 19:16:41.965689  4325 net.cpp:157] Top shape: 50 65 (3250)
I0410 19:16:41.965693  4325 net.cpp:157] Top shape: 50 9 (450)
I0410 19:16:41.965698  4325 net.cpp:157] Top shape: 50 28 (1400)
I0410 19:16:41.965703  4325 net.cpp:157] Top shape: 50 15 (750)
I0410 19:16:41.965706  4325 net.cpp:157] Top shape: 50 158 (7900)
I0410 19:16:41.965711  4325 net.cpp:157] Top shape: 50 28 (1400)
I0410 19:16:41.965715  4325 net.cpp:157] Top shape: 50 90 (4500)
I0410 19:16:41.965719  4325 net.cpp:157] Top shape: 50 43 (2150)
I0410 19:16:41.965724  4325 net.cpp:157] Top shape: 50 72 (3600)
I0410 19:16:41.965728  4325 net.cpp:157] Top shape: 50 39 (1950)
I0410 19:16:41.965733  4325 net.cpp:157] Top shape: 50 100 (5000)
I0410 19:16:41.965737  4325 net.cpp:157] Top shape: 50 29 (1450)
I0410 19:16:41.965741  4325 net.cpp:157] Top shape: 50 23 (1150)
I0410 19:16:41.965746  4325 net.cpp:157] Top shape: 50 26 (1300)
I0410 19:16:41.965750  4325 net.cpp:157] Top shape: 50 19 (950)
I0410 19:16:41.965754  4325 net.cpp:157] Top shape: 50 32 (1600)
I0410 19:16:41.965759  4325 net.cpp:157] Top shape: 50 100 (5000)
I0410 19:16:41.965764  4325 net.cpp:157] Top shape: 50 46 (2300)
I0410 19:16:41.965767  4325 net.cpp:157] Top shape: 50 33 (1650)
I0410 19:16:41.965771  4325 net.cpp:157] Top shape: 50 91 (4550)
I0410 19:16:41.965776  4325 net.cpp:157] Top shape: 50 94 (4700)
I0410 19:16:41.965780  4325 net.cpp:157] Top shape: 50 92 (4600)
I0410 19:16:41.965785  4325 net.cpp:157] Top shape: 50 39 (1950)
I0410 19:16:41.965790  4325 net.cpp:157] Top shape: 50 65 (3250)
I0410 19:16:41.965793  4325 net.cpp:157] Top shape: 50 17 (850)
I0410 19:16:41.965797  4325 net.cpp:157] Top shape: 50 8 (400)
I0410 19:16:41.965802  4325 net.cpp:157] Top shape: 50 19 (950)
I0410 19:16:41.965806  4325 net.cpp:157] Top shape: 50 9 (450)
I0410 19:16:41.965811  4325 net.cpp:157] Top shape: 50 251 (12550)
I0410 19:16:41.965816  4325 net.cpp:157] Top shape: 50 315 (15750)
I0410 19:16:41.965819  4325 net.cpp:157] Top shape: 50 58 (2900)
I0410 19:16:41.965823  4325 net.cpp:157] Top shape: 50 103 (5150)
I0410 19:16:41.965828  4325 net.cpp:157] Top shape: 50 22 (1100)
I0410 19:16:41.965832  4325 net.cpp:157] Top shape: 50 16 (800)
I0410 19:16:41.965837  4325 net.cpp:157] Top shape: 50 39 (1950)
I0410 19:16:41.965842  4325 net.cpp:157] Top shape: 50 48 (2400)
I0410 19:16:41.965845  4325 net.cpp:157] Top shape: 50 21 (1050)
I0410 19:16:41.965849  4325 net.cpp:157] Top shape: 50 37 (1850)
I0410 19:16:41.965854  4325 net.cpp:157] Top shape: 50 38 (1900)
I0410 19:16:41.965858  4325 net.cpp:157] Top shape: 50 22 (1100)
I0410 19:16:41.965862  4325 net.cpp:157] Top shape: 50 31 (1550)
I0410 19:16:41.965867  4325 net.cpp:157] Top shape: 50 58 (2900)
I0410 19:16:41.965872  4325 net.cpp:157] Top shape: 50 54 (2700)
I0410 19:16:41.965875  4325 net.cpp:157] Top shape: 50 53 (2650)
I0410 19:16:41.965879  4325 net.cpp:157] Top shape: 50 53 (2650)
I0410 19:16:41.965884  4325 net.cpp:157] Top shape: 50 73 (3650)
I0410 19:16:41.965890  4325 net.cpp:157] Top shape: 50 63 (3150)
I0410 19:16:41.965898  4325 net.cpp:157] Top shape: 50 48 (2400)
I0410 19:16:41.965903  4325 net.cpp:157] Top shape: 50 72 (3600)
I0410 19:16:41.965906  4325 net.cpp:157] Top shape: 50 83 (4150)
I0410 19:16:41.965911  4325 net.cpp:157] Top shape: 50 111 (5550)
I0410 19:16:41.965915  4325 net.cpp:157] Top shape: 50 169 (8450)
I0410 19:16:41.965919  4325 net.cpp:157] Top shape: 50 45 (2250)
I0410 19:16:41.965924  4325 net.cpp:157] Top shape: 50 60 (3000)
I0410 19:16:41.965929  4325 net.cpp:157] Top shape: 50 71 (3550)
I0410 19:16:41.965932  4325 net.cpp:157] Top shape: 50 68 (3400)
I0410 19:16:41.965937  4325 net.cpp:157] Top shape: 50 42 (2100)
I0410 19:16:41.965941  4325 net.cpp:157] Top shape: 50 46 (2300)
I0410 19:16:41.965945  4325 net.cpp:157] Top shape: 50 25 (1250)
I0410 19:16:41.965950  4325 net.cpp:157] Top shape: 50 34 (1700)
I0410 19:16:41.965955  4325 net.cpp:157] Top shape: 50 73 (3650)
I0410 19:16:41.965958  4325 net.cpp:157] Top shape: 50 121 (6050)
I0410 19:16:41.965962  4325 net.cpp:157] Top shape: 50 75 (3750)
I0410 19:16:41.965967  4325 net.cpp:157] Top shape: 50 38 (1900)
I0410 19:16:41.965971  4325 net.cpp:157] Top shape: 50 140 (7000)
I0410 19:16:41.965975  4325 net.cpp:157] Top shape: 50 44 (2200)
I0410 19:16:41.965981  4325 net.cpp:157] Top shape: 50 164 (8200)
I0410 19:16:41.965984  4325 net.cpp:157] Top shape: 50 88 (4400)
I0410 19:16:41.965988  4325 net.cpp:157] Top shape: 50 110 (5500)
I0410 19:16:41.965993  4325 net.cpp:157] Top shape: 50 35 (1750)
I0410 19:16:41.965997  4325 net.cpp:157] Top shape: 50 60 (3000)
I0410 19:16:41.966001  4325 net.cpp:157] Top shape: 50 100 (5000)
I0410 19:16:41.966006  4325 net.cpp:157] Top shape: 50 193 (9650)
I0410 19:16:41.966011  4325 net.cpp:157] Top shape: 50 64 (3200)
I0410 19:16:41.966014  4325 net.cpp:157] Top shape: 50 218 (10900)
I0410 19:16:41.966019  4325 net.cpp:157] Top shape: 50 44 (2200)
I0410 19:16:41.966023  4325 net.cpp:157] Top shape: 50 61 (3050)
I0410 19:16:41.966027  4325 net.cpp:157] Top shape: 50 44 (2200)
I0410 19:16:41.966032  4325 net.cpp:157] Top shape: 50 31 (1550)
I0410 19:16:41.966037  4325 net.cpp:157] Top shape: 50 39 (1950)
I0410 19:16:41.966040  4325 net.cpp:157] Top shape: 50 96 (4800)
I0410 19:16:41.966044  4325 net.cpp:157] Top shape: 50 220 (11000)
I0410 19:16:41.966049  4325 net.cpp:157] Top shape: 50 43 (2150)
I0410 19:16:41.966053  4325 net.cpp:157] Top shape: 50 68 (3400)
I0410 19:16:41.966058  4325 net.cpp:157] Top shape: 50 71 (3550)
I0410 19:16:41.966063  4325 net.cpp:157] Top shape: 50 36 (1800)
I0410 19:16:41.966066  4325 net.cpp:157] Top shape: 50 44 (2200)
I0410 19:16:41.966070  4325 net.cpp:157] Top shape: 50 19 (950)
I0410 19:16:41.966075  4325 net.cpp:157] Top shape: 50 45 (2250)
I0410 19:16:41.966079  4325 net.cpp:157] Top shape: 50 99 (4950)
I0410 19:16:41.966084  4325 net.cpp:157] Top shape: 50 187 (9350)
I0410 19:16:41.966087  4325 net.cpp:157] Top shape: 50 84 (4200)
I0410 19:16:41.966092  4325 net.cpp:157] Top shape: 50 72 (3600)
I0410 19:16:41.966096  4325 net.cpp:157] Top shape: 50 197 (9850)
I0410 19:16:41.966100  4325 net.cpp:157] Top shape: 50 15 (750)
I0410 19:16:41.966105  4325 net.cpp:157] Top shape: 50 66 (3300)
I0410 19:16:41.966109  4325 net.cpp:157] Top shape: 50 54 (2700)
I0410 19:16:41.966114  4325 net.cpp:157] Top shape: 50 37 (1850)
I0410 19:16:41.966117  4325 net.cpp:157] Top shape: 50 40 (2000)
I0410 19:16:41.966122  4325 net.cpp:157] Top shape: 50 30 (1500)
I0410 19:16:41.966126  4325 net.cpp:157] Top shape: 50 29 (1450)
I0410 19:16:41.966130  4325 net.cpp:157] Top shape: 50 21 (1050)
I0410 19:16:41.966135  4325 net.cpp:157] Top shape: 50 81 (4050)
I0410 19:16:41.966140  4325 net.cpp:157] Top shape: 50 201 (10050)
I0410 19:16:41.966143  4325 net.cpp:157] Top shape: 50 64 (3200)
I0410 19:16:41.966148  4325 net.cpp:157] Top shape: 50 181 (9050)
I0410 19:16:41.966152  4325 net.cpp:157] Top shape: 50 26 (1300)
I0410 19:16:41.966156  4325 net.cpp:157] Top shape: 50 49 (2450)
I0410 19:16:41.966163  4325 net.cpp:157] Top shape: 50 11 (550)
I0410 19:16:41.966167  4325 net.cpp:157] Top shape: 50 35 (1750)
I0410 19:16:41.966176  4325 net.cpp:157] Top shape: 50 92 (4600)
I0410 19:16:41.966179  4325 net.cpp:157] Top shape: 50 203 (10150)
I0410 19:16:41.966184  4325 net.cpp:157] Top shape: 50 100 (5000)
I0410 19:16:41.966188  4325 net.cpp:157] Top shape: 50 150 (7500)
I0410 19:16:41.966193  4325 net.cpp:157] Top shape: 50 30 (1500)
I0410 19:16:41.966197  4325 net.cpp:157] Top shape: 50 35 (1750)
I0410 19:16:41.966202  4325 net.cpp:157] Top shape: 50 32 (1600)
I0410 19:16:41.966207  4325 net.cpp:157] Top shape: 50 62 (3100)
I0410 19:16:41.966210  4325 net.cpp:157] Top shape: 50 44 (2200)
I0410 19:16:41.966214  4325 net.cpp:157] Top shape: 50 59 (2950)
I0410 19:16:41.966218  4325 net.cpp:157] Top shape: 50 45 (2250)
I0410 19:16:41.966223  4325 net.cpp:157] Top shape: 50 28 (1400)
I0410 19:16:41.966228  4325 net.cpp:157] Top shape: 50 33 (1650)
I0410 19:16:41.966231  4325 net.cpp:157] Top shape: 50 52 (2600)
I0410 19:16:41.966236  4325 net.cpp:157] Top shape: 50 19 (950)
I0410 19:16:41.966240  4325 net.cpp:157] Top shape: 50 11 (550)
I0410 19:16:41.966244  4325 net.cpp:157] Top shape: 50 18 (900)
I0410 19:16:41.966249  4325 net.cpp:157] Top shape: 50 157 (7850)
I0410 19:16:41.966253  4325 net.cpp:157] Top shape: 50 172 (8600)
I0410 19:16:41.966259  4325 net.cpp:157] Top shape: 50 52 (2600)
I0410 19:16:41.966262  4325 net.cpp:157] Top shape: 50 75 (3750)
I0410 19:16:41.966266  4325 net.cpp:157] Top shape: 50 235 (11750)
I0410 19:16:41.966271  4325 net.cpp:157] Top shape: 50 342 (17100)
I0410 19:16:41.966275  4325 net.cpp:157] Top shape: 50 73 (3650)
I0410 19:16:41.966279  4325 net.cpp:157] Top shape: 50 109 (5450)
I0410 19:16:41.966284  4325 net.cpp:157] Top shape: 50 41 (2050)
I0410 19:16:41.966289  4325 net.cpp:157] Top shape: 50 110 (5500)
I0410 19:16:41.966292  4325 net.cpp:157] Top shape: 50 77 (3850)
I0410 19:16:41.966296  4325 net.cpp:157] Top shape: 50 60 (3000)
I0410 19:16:41.966301  4325 net.cpp:157] Top shape: 50 18 (900)
I0410 19:16:41.966305  4325 net.cpp:157] Top shape: 50 15 (750)
I0410 19:16:41.966310  4325 net.cpp:157] Top shape: 50 100 (5000)
I0410 19:16:41.966315  4325 net.cpp:157] Top shape: 50 46 (2300)
I0410 19:16:41.966318  4325 net.cpp:157] Top shape: 50 58 (2900)
I0410 19:16:41.966323  4325 net.cpp:157] Top shape: 50 31 (1550)
I0410 19:16:41.966327  4325 net.cpp:157] Top shape: 50 56 (2800)
I0410 19:16:41.966331  4325 net.cpp:157] Top shape: 50 37 (1850)
I0410 19:16:41.966336  4325 net.cpp:157] Top shape: 50 104 (5200)
I0410 19:16:41.966341  4325 net.cpp:157] Top shape: 50 69 (3450)
I0410 19:16:41.966344  4325 net.cpp:157] Top shape: 50 78 (3900)
I0410 19:16:41.966348  4325 net.cpp:157] Top shape: 50 73 (3650)
I0410 19:16:41.966353  4325 net.cpp:157] Top shape: 50 83 (4150)
I0410 19:16:41.966357  4325 net.cpp:157] Top shape: 50 68 (3400)
I0410 19:16:41.966361  4325 net.cpp:157] Top shape: 50 65 (3250)
I0410 19:16:41.966367  4325 net.cpp:157] Top shape: 50 17 (850)
I0410 19:16:41.966370  4325 net.cpp:157] Top shape: 50 64 (3200)
I0410 19:16:41.966374  4325 net.cpp:157] Top shape: 50 66 (3300)
I0410 19:16:41.966379  4325 net.cpp:157] Top shape: 50 50 (2500)
I0410 19:16:41.966383  4325 net.cpp:157] Top shape: 50 54 (2700)
I0410 19:16:41.966387  4325 net.cpp:157] Top shape: 50 98 (4900)
I0410 19:16:41.966392  4325 net.cpp:157] Top shape: 50 52 (2600)
I0410 19:16:41.966397  4325 net.cpp:157] Top shape: 50 65 (3250)
I0410 19:16:41.966400  4325 net.cpp:157] Top shape: 50 59 (2950)
I0410 19:16:41.966405  4325 net.cpp:157] Top shape: 50 40 (2000)
I0410 19:16:41.966409  4325 net.cpp:157] Top shape: 50 41 (2050)
I0410 19:16:41.966413  4325 net.cpp:157] Top shape: 50 36 (1800)
I0410 19:16:41.966418  4325 net.cpp:157] Top shape: 50 68 (3400)
I0410 19:16:41.966423  4325 net.cpp:157] Top shape: 50 58 (2900)
I0410 19:16:41.966426  4325 net.cpp:157] Top shape: 50 70 (3500)
I0410 19:16:41.966430  4325 net.cpp:157] Top shape: 50 50 (2500)
I0410 19:16:41.966435  4325 net.cpp:157] Top shape: 50 77 (3850)
I0410 19:16:41.966441  4325 net.cpp:157] Top shape: 50 72 (3600)
I0410 19:16:41.966449  4325 net.cpp:157] Top shape: 50 41 (2050)
I0410 19:16:41.966454  4325 net.cpp:157] Top shape: 50 218 (10900)
I0410 19:16:41.966459  4325 net.cpp:157] Top shape: 50 219 (10950)
I0410 19:16:41.966462  4325 net.cpp:157] Top shape: 50 158 (7900)
I0410 19:16:41.966466  4325 net.cpp:157] Top shape: 50 78 (3900)
I0410 19:16:41.966471  4325 net.cpp:157] Top shape: 50 42 (2100)
I0410 19:16:41.966475  4325 net.cpp:157] Top shape: 50 98 (4900)
I0410 19:16:41.966480  4325 net.cpp:157] Top shape: 50 52 (2600)
I0410 19:16:41.966485  4325 net.cpp:157] Top shape: 50 92 (4600)
I0410 19:16:41.966488  4325 net.cpp:157] Top shape: 50 159 (7950)
I0410 19:16:41.966492  4325 net.cpp:157] Top shape: 50 61 (3050)
I0410 19:16:41.966497  4325 net.cpp:157] Top shape: 50 83 (4150)
I0410 19:16:41.966501  4325 net.cpp:157] Top shape: 50 65 (3250)
I0410 19:16:41.966506  4325 net.cpp:157] Top shape: 50 83 (4150)
I0410 19:16:41.966511  4325 net.cpp:157] Top shape: 50 72 (3600)
I0410 19:16:41.966514  4325 net.cpp:157] Top shape: 50 26 (1300)
I0410 19:16:41.966518  4325 net.cpp:157] Top shape: 50 53 (2650)
I0410 19:16:41.966523  4325 net.cpp:157] Top shape: 50 80 (4000)
I0410 19:16:41.966527  4325 net.cpp:157] Top shape: 50 156 (7800)
I0410 19:16:41.966531  4325 net.cpp:157] Top shape: 50 102 (5100)
I0410 19:16:41.966536  4325 net.cpp:157] Top shape: 50 173 (8650)
I0410 19:16:41.966541  4325 net.cpp:157] Top shape: 50 52 (2600)
I0410 19:16:41.966544  4325 net.cpp:157] Top shape: 50 30 (1500)
I0410 19:16:41.966548  4325 net.cpp:157] Top shape: 50 35 (1750)
I0410 19:16:41.966553  4325 net.cpp:157] Top shape: 50 31 (1550)
I0410 19:16:41.966557  4325 net.cpp:157] Top shape: 50 46 (2300)
I0410 19:16:41.966562  4325 net.cpp:157] Top shape: 50 32 (1600)
I0410 19:16:41.966567  4325 net.cpp:157] Top shape: 50 25 (1250)
I0410 19:16:41.966570  4325 net.cpp:157] Top shape: 50 140 (7000)
I0410 19:16:41.966574  4325 net.cpp:157] Top shape: 50 90 (4500)
I0410 19:16:41.966579  4325 net.cpp:157] Top shape: 50 170 (8500)
I0410 19:16:41.966583  4325 net.cpp:157] Top shape: 50 20 (1000)
I0410 19:16:41.966588  4325 net.cpp:157] Top shape: 50 23 (1150)
I0410 19:16:41.966593  4325 net.cpp:157] Top shape: 50 21 (1050)
I0410 19:16:41.966596  4325 net.cpp:157] Top shape: 50 59 (2950)
I0410 19:16:41.966600  4325 net.cpp:157] Top shape: 50 130 (6500)
I0410 19:16:41.966605  4325 net.cpp:157] Top shape: 50 57 (2850)
I0410 19:16:41.966609  4325 net.cpp:157] Top shape: 50 53 (2650)
I0410 19:16:41.966614  4325 net.cpp:157] Top shape: 50 38 (1900)
I0410 19:16:41.966619  4325 net.cpp:157] Top shape: 50 78 (3900)
I0410 19:16:41.966622  4325 net.cpp:157] Top shape: 50 43 (2150)
I0410 19:16:41.966626  4325 net.cpp:157] Top shape: 50 54 (2700)
I0410 19:16:41.966630  4325 net.cpp:157] Top shape: 50 74 (3700)
I0410 19:16:41.966635  4325 net.cpp:157] Top shape: 50 75 (3750)
I0410 19:16:41.966639  4325 net.cpp:157] Top shape: 50 97 (4850)
I0410 19:16:41.966644  4325 net.cpp:157] Top shape: 50 95 (4750)
I0410 19:16:41.966648  4325 net.cpp:157] Top shape: 50 30 (1500)
I0410 19:16:41.966652  4325 net.cpp:157] Top shape: 50 38 (1900)
I0410 19:16:41.966656  4325 net.cpp:157] Top shape: 50 35 (1750)
I0410 19:16:41.966661  4325 net.cpp:157] Top shape: 50 75 (3750)
I0410 19:16:41.966665  4325 net.cpp:157] Top shape: 50 186 (9300)
I0410 19:16:41.966670  4325 net.cpp:157] Top shape: 50 35 (1750)
I0410 19:16:41.966675  4325 net.cpp:157] Top shape: 50 97 (4850)
I0410 19:16:41.966678  4325 net.cpp:157] Top shape: 50 160 (8000)
I0410 19:16:41.966682  4325 net.cpp:157] Top shape: 50 25 (1250)
I0410 19:16:41.966687  4325 net.cpp:157] Top shape: 50 33 (1650)
I0410 19:16:41.966691  4325 net.cpp:157] Top shape: 50 77 (3850)
I0410 19:16:41.966696  4325 net.cpp:157] Top shape: 50 174 (8700)
I0410 19:16:41.966701  4325 net.cpp:157] Top shape: 50 36 (1800)
I0410 19:16:41.966704  4325 net.cpp:157] Top shape: 50 88 (4400)
I0410 19:16:41.966708  4325 net.cpp:157] Top shape: 50 80 (4000)
I0410 19:16:41.966713  4325 net.cpp:157] Top shape: 50 43 (2150)
I0410 19:16:41.966719  4325 net.cpp:157] Top shape: 50 65 (3250)
I0410 19:16:41.966727  4325 net.cpp:157] Top shape: 50 46 (2300)
I0410 19:16:41.966732  4325 net.cpp:157] Top shape: 50 78 (3900)
I0410 19:16:41.966737  4325 net.cpp:157] Top shape: 50 166 (8300)
I0410 19:16:41.966742  4325 net.cpp:157] Top shape: 50 43 (2150)
I0410 19:16:41.966745  4325 net.cpp:157] Top shape: 50 91 (4550)
I0410 19:16:41.966749  4325 net.cpp:157] Top shape: 50 51 (2550)
I0410 19:16:41.966754  4325 net.cpp:157] Top shape: 50 163 (8150)
I0410 19:16:41.966758  4325 net.cpp:157] Top shape: 50 98 (4900)
I0410 19:16:41.966763  4325 net.cpp:157] Top shape: 50 32 (1600)
I0410 19:16:41.966768  4325 net.cpp:157] Top shape: 50 219 (10950)
I0410 19:16:41.966771  4325 net.cpp:157] Top shape: 50 35 (1750)
I0410 19:16:41.966775  4325 net.cpp:157] Top shape: 50 58 (2900)
I0410 19:16:41.966780  4325 net.cpp:157] Top shape: 50 78 (3900)
I0410 19:16:41.966784  4325 net.cpp:157] Top shape: 50 78 (3900)
I0410 19:16:41.966789  4325 net.cpp:157] Top shape: 50 94 (4700)
I0410 19:16:41.966794  4325 net.cpp:157] Top shape: 50 75 (3750)
I0410 19:16:41.966797  4325 net.cpp:157] Top shape: 50 51 (2550)
I0410 19:16:41.966801  4325 net.cpp:157] Top shape: 50 20 (1000)
I0410 19:16:41.966806  4325 net.cpp:157] Top shape: 50 70 (3500)
I0410 19:16:41.966810  4325 net.cpp:157] Top shape: 50 29 (1450)
I0410 19:16:41.966814  4325 net.cpp:157] Top shape: 50 41 (2050)
I0410 19:16:41.966820  4325 net.cpp:157] Top shape: 50 16 (800)
I0410 19:16:41.966823  4325 net.cpp:157] Top shape: 50 42 (2100)
I0410 19:16:41.966827  4325 net.cpp:157] Top shape: 50 52 (2600)
I0410 19:16:41.966831  4325 net.cpp:157] Top shape: 50 56 (2800)
I0410 19:16:41.966836  4325 net.cpp:157] Top shape: 50 48 (2400)
I0410 19:16:41.966840  4325 net.cpp:157] Top shape: 50 63 (3150)
I0410 19:16:41.966845  4325 net.cpp:157] Top shape: 50 25 (1250)
I0410 19:16:41.966850  4325 net.cpp:157] Top shape: 50 38 (1900)
I0410 19:16:41.966853  4325 net.cpp:157] Top shape: 50 26 (1300)
I0410 19:16:41.966857  4325 net.cpp:157] Top shape: 50 11 (550)
I0410 19:16:41.966862  4325 net.cpp:157] Top shape: 50 26 (1300)
I0410 19:16:41.966866  4325 net.cpp:157] Top shape: 50 26 (1300)
I0410 19:16:41.966871  4325 net.cpp:157] Top shape: 50 21 (1050)
I0410 19:16:41.966876  4325 net.cpp:157] Top shape: 50 26 (1300)
I0410 19:16:41.966879  4325 net.cpp:157] Top shape: 50 50 (2500)
I0410 19:16:41.966883  4325 net.cpp:157] Top shape: 50 12 (600)
I0410 19:16:41.966887  4325 net.cpp:157] Top shape: 50 16 (800)
I0410 19:16:41.966892  4325 net.cpp:157] Top shape: 50 28 (1400)
I0410 19:16:41.966897  4325 net.cpp:157] Top shape: 50 59 (2950)
I0410 19:16:41.966900  4325 net.cpp:157] Top shape: 50 75 (3750)
I0410 19:16:41.966904  4325 net.cpp:157] Top shape: 50 30 (1500)
I0410 19:16:41.966909  4325 net.cpp:157] Top shape: 50 35 (1750)
I0410 19:16:41.966913  4325 net.cpp:157] Top shape: 50 116 (5800)
I0410 19:16:41.966917  4325 net.cpp:157] Top shape: 50 34 (1700)
I0410 19:16:41.966922  4325 net.cpp:157] Top shape: 50 45 (2250)
I0410 19:16:41.966927  4325 net.cpp:157] Top shape: 50 39 (1950)
I0410 19:16:41.966930  4325 net.cpp:157] Top shape: 50 62 (3100)
I0410 19:16:41.966935  4325 net.cpp:157] Top shape: 50 31 (1550)
I0410 19:16:41.966939  4325 net.cpp:157] Top shape: 50 35 (1750)
I0410 19:16:41.966943  4325 net.cpp:157] Top shape: 50 19 (950)
I0410 19:16:41.966948  4325 net.cpp:157] Top shape: 50 39 (1950)
I0410 19:16:41.966953  4325 net.cpp:157] Top shape: 50 45 (2250)
I0410 19:16:41.966956  4325 net.cpp:157] Top shape: 50 168 (8400)
I0410 19:16:41.966960  4325 net.cpp:157] Top shape: 50 32 (1600)
I0410 19:16:41.966965  4325 net.cpp:157] Top shape: 50 76 (3800)
I0410 19:16:41.966969  4325 net.cpp:157] Top shape: 50 71 (3550)
I0410 19:16:41.966974  4325 net.cpp:157] Top shape: 50 70 (3500)
I0410 19:16:41.966979  4325 net.cpp:157] Top shape: 50 82 (4100)
I0410 19:16:41.966982  4325 net.cpp:157] Top shape: 50 47 (2350)
I0410 19:16:41.966986  4325 net.cpp:157] Top shape: 50 68 (3400)
I0410 19:16:41.966990  4325 net.cpp:157] Top shape: 50 41 (2050)
I0410 19:16:41.966997  4325 net.cpp:157] Top shape: 50 48 (2400)
I0410 19:16:41.967005  4325 net.cpp:157] Top shape: 50 94 (4700)
I0410 19:16:41.967010  4325 net.cpp:157] Top shape: 50 29 (1450)
I0410 19:16:41.967015  4325 net.cpp:157] Top shape: 50 48 (2400)
I0410 19:16:41.967018  4325 net.cpp:157] Top shape: 50 25 (1250)
I0410 19:16:41.967022  4325 net.cpp:157] Top shape: 50 31 (1550)
I0410 19:16:41.967027  4325 net.cpp:157] Top shape: 50 33 (1650)
I0410 19:16:41.967031  4325 net.cpp:157] Top shape: 50 68 (3400)
I0410 19:16:41.967036  4325 net.cpp:157] Top shape: 50 51 (2550)
I0410 19:16:41.967041  4325 net.cpp:157] Top shape: 50 138 (6900)
I0410 19:16:41.967044  4325 net.cpp:157] Top shape: 50 95 (4750)
I0410 19:16:41.967048  4325 net.cpp:157] Top shape: 50 49 (2450)
I0410 19:16:41.967053  4325 net.cpp:157] Top shape: 50 68 (3400)
I0410 19:16:41.967057  4325 net.cpp:157] Top shape: 50 65 (3250)
I0410 19:16:41.967061  4325 net.cpp:157] Top shape: 50 42 (2100)
I0410 19:16:41.967067  4325 net.cpp:157] Top shape: 50 16 (800)
I0410 19:16:41.967070  4325 net.cpp:157] Top shape: 50 67 (3350)
I0410 19:16:41.967075  4325 net.cpp:157] Top shape: 50 42 (2100)
I0410 19:16:41.967079  4325 net.cpp:157] Top shape: 50 40 (2000)
I0410 19:16:41.967083  4325 net.cpp:157] Top shape: 50 51 (2550)
I0410 19:16:41.967088  4325 net.cpp:157] Top shape: 50 105 (5250)
I0410 19:16:41.967092  4325 net.cpp:157] Top shape: 50 114 (5700)
I0410 19:16:41.967097  4325 net.cpp:157] Top shape: 50 62 (3100)
I0410 19:16:41.967100  4325 net.cpp:157] Top shape: 50 36 (1800)
I0410 19:16:41.967105  4325 net.cpp:157] Top shape: 50 61 (3050)
I0410 19:16:41.967109  4325 net.cpp:157] Top shape: 50 18 (900)
I0410 19:16:41.967113  4325 net.cpp:157] Top shape: 50 47 (2350)
I0410 19:16:41.967118  4325 net.cpp:157] Top shape: 50 220 (11000)
I0410 19:16:41.967123  4325 net.cpp:157] Top shape: 50 34 (1700)
I0410 19:16:41.967126  4325 net.cpp:157] Top shape: 50 56 (2800)
I0410 19:16:41.967131  4325 net.cpp:157] Top shape: 50 30 (1500)
I0410 19:16:41.967135  4325 net.cpp:157] Top shape: 50 45 (2250)
I0410 19:16:41.967139  4325 net.cpp:157] Top shape: 50 64 (3200)
I0410 19:16:41.967144  4325 net.cpp:157] Top shape: 50 18 (900)
I0410 19:16:41.967149  4325 net.cpp:157] Top shape: 50 39 (1950)
I0410 19:16:41.967152  4325 net.cpp:157] Top shape: 50 66 (3300)
I0410 19:16:41.967156  4325 net.cpp:157] Top shape: 50 29 (1450)
I0410 19:16:41.967161  4325 net.cpp:157] Top shape: 50 42 (2100)
I0410 19:16:41.967165  4325 net.cpp:157] Top shape: 50 63 (3150)
I0410 19:16:41.967170  4325 net.cpp:157] Top shape: 50 10 (500)
I0410 19:16:41.967175  4325 net.cpp:157] Top shape: 50 53 (2650)
I0410 19:16:41.967178  4325 net.cpp:157] Top shape: 50 43 (2150)
I0410 19:16:41.967182  4325 net.cpp:157] Top shape: 50 22 (1100)
I0410 19:16:41.967187  4325 net.cpp:157] Top shape: 50 66 (3300)
I0410 19:16:41.967191  4325 net.cpp:157] Top shape: 50 125 (6250)
I0410 19:16:41.967195  4325 net.cpp:157] Top shape: 50 23 (1150)
I0410 19:16:41.967200  4325 net.cpp:157] Top shape: 50 109 (5450)
I0410 19:16:41.967205  4325 net.cpp:157] Top shape: 50 16 (800)
I0410 19:16:41.967208  4325 net.cpp:157] Top shape: 50 29 (1450)
I0410 19:16:41.967213  4325 net.cpp:157] Top shape: 50 59 (2950)
I0410 19:16:41.967217  4325 net.cpp:157] Top shape: 50 64 (3200)
I0410 19:16:41.967221  4325 net.cpp:157] Top shape: 50 70 (3500)
I0410 19:16:41.967226  4325 net.cpp:157] Top shape: 50 60 (3000)
I0410 19:16:41.967231  4325 net.cpp:157] Top shape: 50 46 (2300)
I0410 19:16:41.967234  4325 net.cpp:157] Top shape: 50 61 (3050)
I0410 19:16:41.967238  4325 net.cpp:157] Top shape: 50 46 (2300)
I0410 19:16:41.967243  4325 net.cpp:157] Top shape: 50 36 (1800)
I0410 19:16:41.967247  4325 net.cpp:157] Top shape: 50 23 (1150)
I0410 19:16:41.967252  4325 net.cpp:157] Top shape: 50 88 (4400)
I0410 19:16:41.967257  4325 net.cpp:157] Top shape: 50 51 (2550)
I0410 19:16:41.967260  4325 net.cpp:157] Top shape: 50 58 (2900)
I0410 19:16:41.967264  4325 net.cpp:157] Top shape: 50 35 (1750)
I0410 19:16:41.967269  4325 net.cpp:157] Top shape: 50 85 (4250)
I0410 19:16:41.967275  4325 net.cpp:157] Top shape: 50 143 (7150)
I0410 19:16:41.967283  4325 net.cpp:157] Top shape: 50 94 (4700)
I0410 19:16:41.967288  4325 net.cpp:157] Top shape: 50 85 (4250)
I0410 19:16:41.967291  4325 net.cpp:157] Top shape: 50 58 (2900)
I0410 19:16:41.967296  4325 net.cpp:157] Top shape: 50 56 (2800)
I0410 19:16:41.967300  4325 net.cpp:157] Top shape: 50 100 (5000)
I0410 19:16:41.967304  4325 net.cpp:157] Top shape: 50 117 (5850)
I0410 19:16:41.967309  4325 net.cpp:157] Top shape: 50 64 (3200)
I0410 19:16:41.967314  4325 net.cpp:157] Top shape: 50 31 (1550)
I0410 19:16:41.967317  4325 net.cpp:157] Top shape: 50 69 (3450)
I0410 19:16:41.967322  4325 net.cpp:157] Top shape: 50 176 (8800)
I0410 19:16:41.967326  4325 net.cpp:157] Top shape: 50 43 (2150)
I0410 19:16:41.967330  4325 net.cpp:157] Top shape: 50 71 (3550)
I0410 19:16:41.967335  4325 net.cpp:157] Top shape: 50 63 (3150)
I0410 19:16:41.967339  4325 net.cpp:157] Top shape: 50 18 (900)
I0410 19:16:41.967344  4325 net.cpp:157] Top shape: 50 33 (1650)
I0410 19:16:41.967349  4325 net.cpp:157] Top shape: 50 95 (4750)
I0410 19:16:41.967352  4325 net.cpp:157] Top shape: 50 234 (11700)
I0410 19:16:41.967356  4325 net.cpp:157] Top shape: 50 83 (4150)
I0410 19:16:41.967361  4325 net.cpp:157] Top shape: 50 86 (4300)
I0410 19:16:41.967365  4325 net.cpp:157] Top shape: 50 57 (2850)
I0410 19:16:41.967370  4325 net.cpp:157] Top shape: 50 76 (3800)
I0410 19:16:41.967373  4325 net.cpp:157] Top shape: 50 59 (2950)
I0410 19:16:41.967378  4325 net.cpp:157] Top shape: 50 46 (2300)
I0410 19:16:41.967382  4325 net.cpp:157] Top shape: 50 66 (3300)
I0410 19:16:41.967386  4325 net.cpp:157] Top shape: 50 48 (2400)
I0410 19:16:41.967391  4325 net.cpp:157] Top shape: 50 34 (1700)
I0410 19:16:41.967396  4325 net.cpp:157] Top shape: 50 31 (1550)
I0410 19:16:41.967399  4325 net.cpp:157] Top shape: 50 45 (2250)
I0410 19:16:41.967404  4325 net.cpp:157] Top shape: 50 21 (1050)
I0410 19:16:41.967408  4325 net.cpp:157] Top shape: 50 117 (5850)
I0410 19:16:41.967412  4325 net.cpp:157] Top shape: 50 51 (2550)
I0410 19:16:41.967417  4325 net.cpp:157] Top shape: 50 50 (2500)
I0410 19:16:41.967422  4325 net.cpp:157] Top shape: 50 22 (1100)
I0410 19:16:41.967425  4325 net.cpp:157] Top shape: 50 31 (1550)
I0410 19:16:41.967429  4325 net.cpp:157] Top shape: 50 20 (1000)
I0410 19:16:41.967434  4325 net.cpp:157] Top shape: 50 55 (2750)
I0410 19:16:41.967438  4325 net.cpp:157] Top shape: 50 33 (1650)
I0410 19:16:41.967442  4325 net.cpp:157] Top shape: 50 44 (2200)
I0410 19:16:41.967447  4325 net.cpp:157] Top shape: 50 43 (2150)
I0410 19:16:41.967452  4325 net.cpp:157] Top shape: 50 70 (3500)
I0410 19:16:41.967455  4325 net.cpp:157] Top shape: 50 54 (2700)
I0410 19:16:41.967460  4325 net.cpp:157] Top shape: 50 45 (2250)
I0410 19:16:41.967464  4325 net.cpp:157] Top shape: 50 64 (3200)
I0410 19:16:41.967468  4325 net.cpp:157] Top shape: 50 64 (3200)
I0410 19:16:41.967473  4325 net.cpp:157] Top shape: 50 42 (2100)
I0410 19:16:41.967478  4325 net.cpp:157] Top shape: 50 96 (4800)
I0410 19:16:41.967481  4325 net.cpp:157] Top shape: 50 98 (4900)
I0410 19:16:41.967485  4325 net.cpp:157] Top shape: 50 46 (2300)
I0410 19:16:41.967490  4325 net.cpp:157] Top shape: 50 125 (6250)
I0410 19:16:41.967494  4325 net.cpp:157] Top shape: 50 56 (2800)
I0410 19:16:41.967499  4325 net.cpp:157] Top shape: 50 29 (1450)
I0410 19:16:41.967504  4325 net.cpp:157] Top shape: 50 27 (1350)
I0410 19:16:41.967507  4325 net.cpp:157] Top shape: 50 32 (1600)
I0410 19:16:41.967511  4325 net.cpp:157] Top shape: 50 38 (1900)
I0410 19:16:41.967516  4325 net.cpp:157] Top shape: 50 61 (3050)
I0410 19:16:41.967520  4325 net.cpp:157] Top shape: 50 41 (2050)
I0410 19:16:41.967525  4325 net.cpp:157] Top shape: 50 42 (2100)
I0410 19:16:41.967528  4325 net.cpp:157] Top shape: 50 59 (2950)
I0410 19:16:41.967533  4325 net.cpp:157] Top shape: 50 86 (4300)
I0410 19:16:41.967537  4325 net.cpp:157] Top shape: 50 54 (2700)
I0410 19:16:41.967541  4325 net.cpp:157] Top shape: 50 21 (1050)
I0410 19:16:41.967546  4325 net.cpp:157] Top shape: 50 79 (3950)
I0410 19:16:41.967552  4325 net.cpp:157] Top shape: 50 65 (3250)
I0410 19:16:41.967561  4325 net.cpp:157] Top shape: 50 71 (3550)
I0410 19:16:41.967564  4325 net.cpp:157] Top shape: 50 65 (3250)
I0410 19:16:41.967569  4325 net.cpp:157] Top shape: 50 59 (2950)
I0410 19:16:41.967573  4325 net.cpp:157] Top shape: 50 177 (8850)
I0410 19:16:41.967577  4325 net.cpp:157] Top shape: 50 89 (4450)
I0410 19:16:41.967582  4325 net.cpp:157] Top shape: 50 81 (4050)
I0410 19:16:41.967586  4325 net.cpp:157] Top shape: 50 67 (3350)
I0410 19:16:41.967592  4325 net.cpp:157] Top shape: 50 84 (4200)
I0410 19:16:41.967595  4325 net.cpp:157] Top shape: 50 43 (2150)
I0410 19:16:41.967599  4325 net.cpp:157] Top shape: 50 83 (4150)
I0410 19:16:41.967603  4325 net.cpp:157] Top shape: 50 44 (2200)
I0410 19:16:41.967608  4325 net.cpp:157] Top shape: 50 36 (1800)
I0410 19:16:41.967612  4325 net.cpp:157] Top shape: 50 138 (6900)
I0410 19:16:41.967617  4325 net.cpp:157] Top shape: 50 75 (3750)
I0410 19:16:41.967622  4325 net.cpp:157] Top shape: 50 41 (2050)
I0410 19:16:41.967625  4325 net.cpp:157] Top shape: 50 57 (2850)
I0410 19:16:41.967629  4325 net.cpp:157] Top shape: 50 76 (3800)
I0410 19:16:41.967634  4325 net.cpp:157] Top shape: 50 25 (1250)
I0410 19:16:41.967638  4325 net.cpp:157] Top shape: 50 51 (2550)
I0410 19:16:41.967643  4325 net.cpp:157] Top shape: 50 73 (3650)
I0410 19:16:41.967648  4325 net.cpp:157] Top shape: 50 42 (2100)
I0410 19:16:41.967651  4325 net.cpp:157] Top shape: 50 64 (3200)
I0410 19:16:41.967655  4325 net.cpp:157] Top shape: 50 48 (2400)
I0410 19:16:41.967660  4325 net.cpp:157] Top shape: 50 28 (1400)
I0410 19:16:41.967664  4325 net.cpp:157] Top shape: 50 34 (1700)
I0410 19:16:41.967669  4325 net.cpp:157] Top shape: 50 17 (850)
I0410 19:16:41.967672  4325 net.cpp:157] Top shape: 50 105 (5250)
I0410 19:16:41.967677  4325 net.cpp:157] Top shape: 50 22 (1100)
I0410 19:16:41.967681  4325 net.cpp:157] Top shape: 50 52 (2600)
I0410 19:16:41.967685  4325 net.cpp:157] Top shape: 50 76 (3800)
I0410 19:16:41.967690  4325 net.cpp:157] Top shape: 50 58 (2900)
I0410 19:16:41.967694  4325 net.cpp:157] Top shape: 50 52 (2600)
I0410 19:16:41.967699  4325 net.cpp:157] Top shape: 50 88 (4400)
I0410 19:16:41.967702  4325 net.cpp:157] Top shape: 50 119 (5950)
I0410 19:16:41.967707  4325 net.cpp:157] Top shape: 50 143 (7150)
I0410 19:16:41.967711  4325 net.cpp:157] Top shape: 50 51 (2550)
I0410 19:16:41.967715  4325 net.cpp:157] Top shape: 50 43 (2150)
I0410 19:16:41.967720  4325 net.cpp:157] Top shape: 50 60 (3000)
I0410 19:16:41.967725  4325 net.cpp:157] Top shape: 50 69 (3450)
I0410 19:16:41.967728  4325 net.cpp:157] Top shape: 50 140 (7000)
I0410 19:16:41.967733  4325 net.cpp:157] Top shape: 50 7 (350)
I0410 19:16:41.967737  4325 net.cpp:157] Top shape: 50 85 (4250)
I0410 19:16:41.967741  4325 net.cpp:157] Top shape: 50 93 (4650)
I0410 19:16:41.967746  4325 net.cpp:157] Top shape: 50 37 (1850)
I0410 19:16:41.967751  4325 net.cpp:157] Top shape: 50 15 (750)
I0410 19:16:41.967754  4325 net.cpp:157] Top shape: 50 140 (7000)
I0410 19:16:41.967758  4325 net.cpp:157] Top shape: 50 170 (8500)
I0410 19:16:41.967763  4325 net.cpp:157] Top shape: 50 85 (4250)
I0410 19:16:41.967767  4325 net.cpp:157] Top shape: 50 49 (2450)
I0410 19:16:41.967772  4325 net.cpp:157] Top shape: 50 29 (1450)
I0410 19:16:41.967775  4325 net.cpp:157] Top shape: 50 40 (2000)
I0410 19:16:41.967780  4325 net.cpp:157] Top shape: 50 34 (1700)
I0410 19:16:41.967784  4325 net.cpp:157] Top shape: 50 35 (1750)
I0410 19:16:41.967788  4325 net.cpp:157] Top shape: 50 23 (1150)
I0410 19:16:41.967793  4325 net.cpp:157] Top shape: 50 39 (1950)
I0410 19:16:41.967797  4325 net.cpp:157] Top shape: 50 28 (1400)
I0410 19:16:41.967802  4325 net.cpp:157] Top shape: 50 45 (2250)
I0410 19:16:41.967806  4325 net.cpp:157] Top shape: 50 95 (4750)
I0410 19:16:41.967810  4325 net.cpp:157] Top shape: 50 45 (2250)
I0410 19:16:41.967814  4325 net.cpp:157] Top shape: 50 49 (2450)
I0410 19:16:41.967819  4325 net.cpp:157] Top shape: 50 31 (1550)
I0410 19:16:41.967823  4325 net.cpp:157] Top shape: 50 27 (1350)
I0410 19:16:41.967829  4325 net.cpp:157] Top shape: 50 35 (1750)
I0410 19:16:41.967838  4325 net.cpp:157] Top shape: 50 24 (1200)
I0410 19:16:41.967841  4325 net.cpp:157] Top shape: 50 25 (1250)
I0410 19:16:41.967846  4325 net.cpp:157] Top shape: 50 76 (3800)
I0410 19:16:41.967850  4325 net.cpp:157] Top shape: 50 157 (7850)
I0410 19:16:41.967854  4325 net.cpp:157] Top shape: 50 78 (3900)
I0410 19:16:41.967859  4325 net.cpp:157] Top shape: 50 107 (5350)
I0410 19:16:41.967864  4325 net.cpp:157] Top shape: 50 111 (5550)
I0410 19:16:41.967867  4325 net.cpp:157] Top shape: 50 59 (2950)
I0410 19:16:41.967872  4325 net.cpp:157] Top shape: 50 73 (3650)
I0410 19:16:41.967876  4325 net.cpp:157] Top shape: 50 59 (2950)
I0410 19:16:41.967880  4325 net.cpp:157] Top shape: 50 60 (3000)
I0410 19:16:41.967885  4325 net.cpp:157] Top shape: 50 61 (3050)
I0410 19:16:41.967890  4325 net.cpp:157] Top shape: 50 59 (2950)
I0410 19:16:41.967893  4325 net.cpp:157] Top shape: 50 74 (3700)
I0410 19:16:41.967898  4325 net.cpp:157] Top shape: 50 75 (3750)
I0410 19:16:41.967902  4325 net.cpp:157] Top shape: 50 47 (2350)
I0410 19:16:41.967906  4325 net.cpp:157] Top shape: 50 54 (2700)
I0410 19:16:41.967911  4325 net.cpp:157] Top shape: 50 41 (2050)
I0410 19:16:41.967916  4325 net.cpp:157] Top shape: 50 124 (6200)
I0410 19:16:41.967919  4325 net.cpp:157] Top shape: 50 132 (6600)
I0410 19:16:41.967923  4325 net.cpp:157] Top shape: 50 95 (4750)
I0410 19:16:41.967928  4325 net.cpp:157] Top shape: 50 75 (3750)
I0410 19:16:41.967932  4325 net.cpp:157] Top shape: 50 47 (2350)
I0410 19:16:41.967936  4325 net.cpp:157] Top shape: 50 80 (4000)
I0410 19:16:41.967941  4325 net.cpp:157] Top shape: 50 84 (4200)
I0410 19:16:41.967946  4325 net.cpp:157] Top shape: 50 34 (1700)
I0410 19:16:41.967949  4325 net.cpp:157] Top shape: 50 64 (3200)
I0410 19:16:41.967953  4325 net.cpp:157] Top shape: 50 32 (1600)
I0410 19:16:41.967958  4325 net.cpp:157] Top shape: 50 61 (3050)
I0410 19:16:41.967962  4325 net.cpp:157] Top shape: 50 117 (5850)
I0410 19:16:41.967967  4325 net.cpp:157] Top shape: 50 178 (8900)
I0410 19:16:41.967972  4325 net.cpp:157] Top shape: 50 51 (2550)
I0410 19:16:41.967975  4325 net.cpp:157] Top shape: 50 104 (5200)
I0410 19:16:41.967979  4325 net.cpp:157] Top shape: 50 95 (4750)
I0410 19:16:41.967984  4325 net.cpp:157] Top shape: 50 70 (3500)
I0410 19:16:41.967988  4325 net.cpp:157] Top shape: 50 60 (3000)
I0410 19:16:41.967993  4325 net.cpp:157] Top shape: 50 61 (3050)
I0410 19:16:41.967998  4325 net.cpp:157] Top shape: 50 82 (4100)
I0410 19:16:41.968001  4325 net.cpp:157] Top shape: 50 42 (2100)
I0410 19:16:41.968005  4325 net.cpp:157] Top shape: 50 86 (4300)
I0410 19:16:41.968009  4325 net.cpp:157] Top shape: 50 45 (2250)
I0410 19:16:41.968014  4325 net.cpp:157] Top shape: 50 78 (3900)
I0410 19:16:41.968019  4325 net.cpp:157] Top shape: 50 7 (350)
I0410 19:16:41.968022  4325 net.cpp:157] Top shape: 50 64 (3200)
I0410 19:16:41.968027  4325 net.cpp:157] Top shape: 50 67 (3350)
I0410 19:16:41.968031  4325 net.cpp:157] Top shape: 50 52 (2600)
I0410 19:16:41.968035  4325 net.cpp:157] Top shape: 50 17 (850)
I0410 19:16:41.968040  4325 net.cpp:157] Top shape: 50 18 (900)
I0410 19:16:41.968044  4325 net.cpp:157] Top shape: 50 15 (750)
I0410 19:16:41.968049  4325 net.cpp:157] Top shape: 50 19 (950)
I0410 19:16:41.968053  4325 net.cpp:157] Top shape: 50 108 (5400)
I0410 19:16:41.968057  4325 net.cpp:157] Top shape: 50 42 (2100)
I0410 19:16:41.968061  4325 net.cpp:157] Top shape: 50 59 (2950)
I0410 19:16:41.968065  4325 net.cpp:157] Top shape: 50 74 (3700)
I0410 19:16:41.968070  4325 net.cpp:157] Top shape: 50 21 (1050)
I0410 19:16:41.968075  4325 net.cpp:157] Top shape: 50 43 (2150)
I0410 19:16:41.968078  4325 net.cpp:157] Top shape: 50 61 (3050)
I0410 19:16:41.968083  4325 net.cpp:157] Top shape: 50 21 (1050)
I0410 19:16:41.968087  4325 net.cpp:157] Top shape: 50 63 (3150)
I0410 19:16:41.968091  4325 net.cpp:157] Top shape: 50 57 (2850)
I0410 19:16:41.968096  4325 net.cpp:157] Top shape: 50 47 (2350)
I0410 19:16:41.968101  4325 net.cpp:157] Top shape: 50 40 (2000)
I0410 19:16:41.968107  4325 net.cpp:157] Top shape: 50 77 (3850)
I0410 19:16:41.968116  4325 net.cpp:157] Top shape: 50 35 (1750)
I0410 19:16:41.968119  4325 net.cpp:157] Top shape: 50 35 (1750)
I0410 19:16:41.968123  4325 net.cpp:157] Top shape: 50 26 (1300)
I0410 19:16:41.968128  4325 net.cpp:157] Top shape: 50 88 (4400)
I0410 19:16:41.968132  4325 net.cpp:157] Top shape: 50 93 (4650)
I0410 19:16:41.968137  4325 net.cpp:157] Top shape: 50 77 (3850)
I0410 19:16:41.968142  4325 net.cpp:157] Top shape: 50 113 (5650)
I0410 19:16:41.968145  4325 net.cpp:157] Top shape: 50 136 (6800)
I0410 19:16:41.968149  4325 net.cpp:157] Top shape: 50 33 (1650)
I0410 19:16:41.968154  4325 net.cpp:157] Top shape: 50 45 (2250)
I0410 19:16:41.968158  4325 net.cpp:157] Top shape: 50 50 (2500)
I0410 19:16:41.968163  4325 net.cpp:157] Top shape: 50 115 (5750)
I0410 19:16:41.968168  4325 net.cpp:157] Top shape: 50 29 (1450)
I0410 19:16:41.968171  4325 net.cpp:157] Top shape: 50 54 (2700)
I0410 19:16:41.968175  4325 net.cpp:157] Top shape: 50 25 (1250)
I0410 19:16:41.968179  4325 net.cpp:157] Top shape: 50 19 (950)
I0410 19:16:41.968184  4325 net.cpp:157] Top shape: 50 21 (1050)
I0410 19:16:41.968189  4325 net.cpp:157] Top shape: 50 46 (2300)
I0410 19:16:41.968194  4325 net.cpp:157] Top shape: 50 17 (850)
I0410 19:16:41.968197  4325 net.cpp:157] Top shape: 50 16 (800)
I0410 19:16:41.968201  4325 net.cpp:157] Top shape: 50 15 (750)
I0410 19:16:41.968206  4325 net.cpp:157] Top shape: 50 50 (2500)
I0410 19:16:41.968210  4325 net.cpp:157] Top shape: 50 63 (3150)
I0410 19:16:41.968214  4325 net.cpp:157] Top shape: 50 48 (2400)
I0410 19:16:41.968219  4325 net.cpp:157] Top shape: 50 40 (2000)
I0410 19:16:41.968224  4325 net.cpp:157] Top shape: 50 115 (5750)
I0410 19:16:41.968227  4325 net.cpp:157] Top shape: 50 45 (2250)
I0410 19:16:41.968231  4325 net.cpp:157] Top shape: 50 48 (2400)
I0410 19:16:41.968236  4325 net.cpp:157] Top shape: 50 37 (1850)
I0410 19:16:41.968240  4325 net.cpp:157] Top shape: 50 63 (3150)
I0410 19:16:41.968245  4325 net.cpp:157] Top shape: 50 125 (6250)
I0410 19:16:41.968248  4325 net.cpp:157] Top shape: 50 153 (7650)
I0410 19:16:41.968253  4325 net.cpp:157] Top shape: 50 92 (4600)
I0410 19:16:41.968257  4325 net.cpp:157] Top shape: 50 149 (7450)
I0410 19:16:41.968261  4325 net.cpp:157] Top shape: 50 26 (1300)
I0410 19:16:41.968266  4325 net.cpp:157] Top shape: 50 59 (2950)
I0410 19:16:41.968271  4325 net.cpp:157] Top shape: 50 55 (2750)
I0410 19:16:41.968274  4325 net.cpp:157] Top shape: 50 80 (4000)
I0410 19:16:41.968279  4325 net.cpp:157] Top shape: 50 36 (1800)
I0410 19:16:41.968283  4325 net.cpp:157] Top shape: 50 42 (2100)
I0410 19:16:41.968287  4325 net.cpp:157] Top shape: 50 28 (1400)
I0410 19:16:41.968292  4325 net.cpp:157] Top shape: 50 110 (5500)
I0410 19:16:41.968297  4325 net.cpp:157] Top shape: 50 106 (5300)
I0410 19:16:41.968300  4325 net.cpp:157] Top shape: 50 55 (2750)
I0410 19:16:41.968305  4325 net.cpp:157] Top shape: 50 99 (4950)
I0410 19:16:41.968309  4325 net.cpp:157] Top shape: 50 87 (4350)
I0410 19:16:41.968313  4325 net.cpp:157] Top shape: 50 104 (5200)
I0410 19:16:41.968318  4325 net.cpp:157] Top shape: 50 97 (4850)
I0410 19:16:41.968322  4325 net.cpp:157] Top shape: 50 82 (4100)
I0410 19:16:41.968327  4325 net.cpp:157] Top shape: 50 42 (2100)
I0410 19:16:41.968332  4325 net.cpp:157] Top shape: 50 59 (2950)
I0410 19:16:41.968335  4325 net.cpp:157] Top shape: 50 33 (1650)
I0410 19:16:41.968339  4325 net.cpp:157] Top shape: 50 79 (3950)
I0410 19:16:41.968344  4325 net.cpp:157] Top shape: 50 81 (4050)
I0410 19:16:41.968348  4325 net.cpp:157] Top shape: 50 72 (3600)
I0410 19:16:41.968353  4325 net.cpp:157] Top shape: 50 53 (2650)
I0410 19:16:41.968358  4325 net.cpp:157] Top shape: 50 127 (6350)
I0410 19:16:41.968361  4325 net.cpp:157] Top shape: 50 94 (4700)
I0410 19:16:41.968365  4325 net.cpp:157] Top shape: 50 54 (2700)
I0410 19:16:41.968370  4325 net.cpp:157] Top shape: 50 42 (2100)
I0410 19:16:41.968374  4325 net.cpp:157] Top shape: 50 99 (4950)
I0410 19:16:41.968379  4325 net.cpp:157] Top shape: 50 116 (5800)
I0410 19:16:41.968385  4325 net.cpp:157] Top shape: 50 62 (3100)
I0410 19:16:41.968392  4325 net.cpp:157] Top shape: 50 113 (5650)
I0410 19:16:41.968397  4325 net.cpp:157] Top shape: 50 132 (6600)
I0410 19:16:41.968401  4325 net.cpp:157] Top shape: 50 77 (3850)
I0410 19:16:41.968405  4325 net.cpp:157] Top shape: 50 59 (2950)
I0410 19:16:41.968410  4325 net.cpp:157] Top shape: 50 52 (2600)
I0410 19:16:41.968415  4325 net.cpp:157] Top shape: 50 30 (1500)
I0410 19:16:41.968418  4325 net.cpp:157] Top shape: 50 33 (1650)
I0410 19:16:41.968423  4325 net.cpp:157] Top shape: 50 70 (3500)
I0410 19:16:41.968427  4325 net.cpp:157] Top shape: 50 92 (4600)
I0410 19:16:41.968431  4325 net.cpp:157] Top shape: 50 62 (3100)
I0410 19:16:41.968436  4325 net.cpp:157] Top shape: 50 80 (4000)
I0410 19:16:41.968441  4325 net.cpp:157] Top shape: 50 104 (5200)
I0410 19:16:41.968444  4325 net.cpp:157] Top shape: 50 39 (1950)
I0410 19:16:41.968449  4325 net.cpp:157] Top shape: 50 61 (3050)
I0410 19:16:41.968453  4325 net.cpp:157] Top shape: 50 57 (2850)
I0410 19:16:41.968457  4325 net.cpp:157] Top shape: 50 23 (1150)
I0410 19:16:41.968462  4325 net.cpp:157] Top shape: 50 115 (5750)
I0410 19:16:41.968466  4325 net.cpp:157] Top shape: 50 53 (2650)
I0410 19:16:41.968471  4325 net.cpp:157] Top shape: 50 72 (3600)
I0410 19:16:41.968475  4325 net.cpp:157] Top shape: 50 91 (4550)
I0410 19:16:41.968479  4325 net.cpp:157] Top shape: 50 38 (1900)
I0410 19:16:41.968483  4325 net.cpp:157] Top shape: 50 36 (1800)
I0410 19:16:41.968488  4325 net.cpp:157] Top shape: 50 22 (1100)
I0410 19:16:41.968492  4325 net.cpp:157] Top shape: 50 35 (1750)
I0410 19:16:41.968497  4325 net.cpp:157] Top shape: 50 33 (1650)
I0410 19:16:41.968502  4325 net.cpp:157] Top shape: 50 31 (1550)
I0410 19:16:41.968505  4325 net.cpp:157] Top shape: 50 21 (1050)
I0410 19:16:41.968509  4325 net.cpp:157] Top shape: 50 11 (550)
I0410 19:16:41.968514  4325 net.cpp:157] Top shape: 50 92 (4600)
I0410 19:16:41.968518  4325 net.cpp:157] Top shape: 50 187 (9350)
I0410 19:16:41.968523  4325 net.cpp:157] Top shape: 50 71 (3550)
I0410 19:16:41.968528  4325 net.cpp:157] Top shape: 50 89 (4450)
I0410 19:16:41.968531  4325 net.cpp:157] Top shape: 50 107 (5350)
I0410 19:16:41.968535  4325 net.cpp:157] Top shape: 50 39 (1950)
I0410 19:16:41.968540  4325 net.cpp:157] Top shape: 50 31 (1550)
I0410 19:16:41.968544  4325 net.cpp:157] Top shape: 50 43 (2150)
I0410 19:16:41.968549  4325 net.cpp:157] Top shape: 50 43 (2150)
I0410 19:16:41.968554  4325 net.cpp:157] Top shape: 50 26 (1300)
I0410 19:16:41.968557  4325 net.cpp:157] Top shape: 50 48 (2400)
I0410 19:16:41.968562  4325 net.cpp:157] Top shape: 50 109 (5450)
I0410 19:16:41.968566  4325 net.cpp:157] Top shape: 50 31 (1550)
I0410 19:16:41.968570  4325 net.cpp:157] Top shape: 50 39 (1950)
I0410 19:16:41.968575  4325 net.cpp:157] Top shape: 50 56 (2800)
I0410 19:16:41.968580  4325 net.cpp:157] Top shape: 50 40 (2000)
I0410 19:16:41.968583  4325 net.cpp:157] Top shape: 50 11 (550)
I0410 19:16:41.968587  4325 net.cpp:157] Top shape: 50 55 (2750)
I0410 19:16:41.968592  4325 net.cpp:157] Top shape: 50 86 (4300)
I0410 19:16:41.968596  4325 net.cpp:157] Top shape: 50 23 (1150)
I0410 19:16:41.968600  4325 net.cpp:157] Top shape: 50 111 (5550)
I0410 19:16:41.968605  4325 net.cpp:157] Top shape: 50 72 (3600)
I0410 19:16:41.968610  4325 net.cpp:157] Top shape: 50 55 (2750)
I0410 19:16:41.968613  4325 net.cpp:157] Top shape: 50 60 (3000)
I0410 19:16:41.968618  4325 net.cpp:157] Top shape: 50 9 (450)
I0410 19:16:41.968622  4325 net.cpp:157] Top shape: 50 34 (1700)
I0410 19:16:41.968626  4325 net.cpp:157] Top shape: 50 96 (4800)
I0410 19:16:41.968631  4325 net.cpp:157] Top shape: 50 21 (1050)
I0410 19:16:41.968636  4325 net.cpp:157] Top shape: 50 29 (1450)
I0410 19:16:41.968639  4325 net.cpp:157] Top shape: 50 30 (1500)
I0410 19:16:41.968644  4325 net.cpp:157] Top shape: 50 32 (1600)
I0410 19:16:41.968648  4325 net.cpp:157] Top shape: 50 45 (2250)
I0410 19:16:41.968652  4325 net.cpp:157] Top shape: 50 54 (2700)
I0410 19:16:41.968657  4325 net.cpp:157] Top shape: 50 100 (5000)
I0410 19:16:41.968663  4325 net.cpp:157] Top shape: 50 135 (6750)
I0410 19:16:41.968672  4325 net.cpp:157] Top shape: 50 34 (1700)
I0410 19:16:41.968677  4325 net.cpp:157] Top shape: 50 26 (1300)
I0410 19:16:41.968682  4325 net.cpp:157] Top shape: 50 35 (1750)
I0410 19:16:41.968685  4325 net.cpp:157] Top shape: 50 36 (1800)
I0410 19:16:41.968690  4325 net.cpp:157] Top shape: 50 72 (3600)
I0410 19:16:41.968694  4325 net.cpp:157] Top shape: 50 60 (3000)
I0410 19:16:41.968698  4325 net.cpp:157] Top shape: 50 22 (1100)
I0410 19:16:41.968703  4325 net.cpp:157] Top shape: 50 67 (3350)
I0410 19:16:41.968708  4325 net.cpp:157] Top shape: 50 40 (2000)
I0410 19:16:41.968711  4325 net.cpp:157] Top shape: 50 11 (550)
I0410 19:16:41.968716  4325 net.cpp:157] Top shape: 50 33 (1650)
I0410 19:16:41.968720  4325 net.cpp:157] Top shape: 50 59 (2950)
I0410 19:16:41.968724  4325 net.cpp:157] Top shape: 50 36 (1800)
I0410 19:16:41.968729  4325 net.cpp:157] Top shape: 50 110 (5500)
I0410 19:16:41.968734  4325 net.cpp:157] Top shape: 50 52 (2600)
I0410 19:16:41.968737  4325 net.cpp:157] Top shape: 50 89 (4450)
I0410 19:16:41.968742  4325 net.cpp:157] Top shape: 50 79 (3950)
I0410 19:16:41.968746  4325 net.cpp:157] Top shape: 50 142 (7100)
I0410 19:16:41.968750  4325 net.cpp:157] Top shape: 50 54 (2700)
I0410 19:16:41.968755  4325 net.cpp:157] Top shape: 50 74 (3700)
I0410 19:16:41.968760  4325 net.cpp:157] Top shape: 50 36 (1800)
I0410 19:16:41.968763  4325 net.cpp:157] Top shape: 50 31 (1550)
I0410 19:16:41.968768  4325 net.cpp:157] Top shape: 50 45 (2250)
I0410 19:16:41.968772  4325 net.cpp:157] Top shape: 50 33 (1650)
I0410 19:16:41.968776  4325 net.cpp:157] Top shape: 50 65 (3250)
I0410 19:16:41.968781  4325 net.cpp:157] Top shape: 50 134 (6700)
I0410 19:16:41.968786  4325 net.cpp:157] Top shape: 50 25 (1250)
I0410 19:16:41.968789  4325 net.cpp:157] Top shape: 50 84 (4200)
I0410 19:16:41.968793  4325 net.cpp:157] Top shape: 50 25 (1250)
I0410 19:16:41.968798  4325 net.cpp:157] Top shape: 50 20 (1000)
I0410 19:16:41.968802  4325 net.cpp:157] Top shape: 50 13 (650)
I0410 19:16:41.968806  4325 net.cpp:157] Top shape: 50 22 (1100)
I0410 19:16:41.968811  4325 net.cpp:157] Top shape: 50 46 (2300)
I0410 19:16:41.968816  4325 net.cpp:157] Top shape: 50 40 (2000)
I0410 19:16:41.968819  4325 net.cpp:157] Top shape: 50 27 (1350)
I0410 19:16:41.968823  4325 net.cpp:157] Top shape: 50 45 (2250)
I0410 19:16:41.968828  4325 net.cpp:157] Top shape: 50 76 (3800)
I0410 19:16:41.968832  4325 net.cpp:157] Top shape: 50 15 (750)
I0410 19:16:41.968837  4325 net.cpp:157] Top shape: 50 60 (3000)
I0410 19:16:41.968842  4325 net.cpp:157] Top shape: 50 38 (1900)
I0410 19:16:41.968845  4325 net.cpp:157] Top shape: 50 115 (5750)
I0410 19:16:41.968849  4325 net.cpp:157] Top shape: 50 16 (800)
I0410 19:16:41.968854  4325 net.cpp:157] Top shape: 50 29 (1450)
I0410 19:16:41.968858  4325 net.cpp:157] Top shape: 50 54 (2700)
I0410 19:16:41.968863  4325 net.cpp:157] Top shape: 50 31 (1550)
I0410 19:16:41.968866  4325 net.cpp:157] Top shape: 50 22 (1100)
I0410 19:16:41.968871  4325 net.cpp:157] Top shape: 50 158 (7900)
I0410 19:16:41.968875  4325 net.cpp:157] Top shape: 50 103 (5150)
I0410 19:16:41.968879  4325 net.cpp:157] Top shape: 50 29 (1450)
I0410 19:16:41.968884  4325 net.cpp:157] Top shape: 50 85 (4250)
I0410 19:16:41.968888  4325 net.cpp:157] Top shape: 50 56 (2800)
I0410 19:16:41.968893  4325 net.cpp:157] Top shape: 50 71 (3550)
I0410 19:16:41.968896  4325 net.cpp:157] Top shape: 50 127 (6350)
I0410 19:16:41.968901  4325 net.cpp:157] Top shape: 50 57 (2850)
I0410 19:16:41.968905  4325 net.cpp:157] Top shape: 50 88 (4400)
I0410 19:16:41.968909  4325 net.cpp:157] Top shape: 50 25 (1250)
I0410 19:16:41.968914  4325 net.cpp:157] Top shape: 50 49 (2450)
I0410 19:16:41.968919  4325 net.cpp:157] Top shape: 50 37 (1850)
I0410 19:16:41.968922  4325 net.cpp:157] Top shape: 50 59 (2950)
I0410 19:16:41.968927  4325 net.cpp:157] Top shape: 50 54 (2700)
I0410 19:16:41.968931  4325 net.cpp:157] Top shape: 50 66 (3300)
I0410 19:16:41.968935  4325 net.cpp:157] Top shape: 50 24 (1200)
I0410 19:16:41.968942  4325 net.cpp:157] Top shape: 50 54 (2700)
I0410 19:16:41.968950  4325 net.cpp:157] Top shape: 50 34 (1700)
I0410 19:16:41.968955  4325 net.cpp:157] Top shape: 50 24 (1200)
I0410 19:16:41.968958  4325 net.cpp:157] Top shape: 50 46 (2300)
I0410 19:16:41.968962  4325 net.cpp:157] Top shape: 50 20 (1000)
I0410 19:16:41.968967  4325 net.cpp:157] Top shape: 50 38 (1900)
I0410 19:16:41.968971  4325 net.cpp:157] Top shape: 50 50 (2500)
I0410 19:16:41.968976  4325 net.cpp:157] Top shape: 50 45 (2250)
I0410 19:16:41.968981  4325 net.cpp:157] Top shape: 50 50 (2500)
I0410 19:16:41.968984  4325 net.cpp:157] Top shape: 50 23 (1150)
I0410 19:16:41.968988  4325 net.cpp:157] Top shape: 50 45 (2250)
I0410 19:16:41.968992  4325 net.cpp:157] Top shape: 50 45 (2250)
I0410 19:16:41.968997  4325 net.cpp:157] Top shape: 50 89 (4450)
I0410 19:16:41.969002  4325 net.cpp:157] Top shape: 50 49 (2450)
I0410 19:16:41.969005  4325 net.cpp:157] Top shape: 50 72 (3600)
I0410 19:16:41.969010  4325 net.cpp:157] Top shape: 50 46 (2300)
I0410 19:16:41.969014  4325 net.cpp:157] Top shape: 50 207 (10350)
I0410 19:16:41.969018  4325 net.cpp:157] Top shape: 50 82 (4100)
I0410 19:16:41.969023  4325 net.cpp:157] Top shape: 50 59 (2950)
I0410 19:16:41.969027  4325 net.cpp:157] Top shape: 50 48 (2400)
I0410 19:16:41.969032  4325 net.cpp:157] Top shape: 50 133 (6650)
I0410 19:16:41.969036  4325 net.cpp:157] Top shape: 50 32 (1600)
I0410 19:16:41.969040  4325 net.cpp:157] Top shape: 50 100 (5000)
I0410 19:16:41.969045  4325 net.cpp:157] Top shape: 50 60 (3000)
I0410 19:16:41.969049  4325 net.cpp:157] Top shape: 50 66 (3300)
I0410 19:16:41.969053  4325 net.cpp:157] Top shape: 50 26 (1300)
I0410 19:16:41.969058  4325 net.cpp:157] Top shape: 50 32 (1600)
I0410 19:16:41.969063  4325 net.cpp:157] Top shape: 50 16 (800)
I0410 19:16:41.969066  4325 net.cpp:157] Top shape: 50 32 (1600)
I0410 19:16:41.969070  4325 net.cpp:157] Top shape: 50 30 (1500)
I0410 19:16:41.969075  4325 net.cpp:157] Top shape: 50 22 (1100)
I0410 19:16:41.969084  4325 net.cpp:157] Top shape: 50 23 (1150)
I0410 19:16:41.969089  4325 net.cpp:157] Top shape: 50 55 (2750)
I0410 19:16:41.969094  4325 net.cpp:157] Top shape: 50 118 (5900)
I0410 19:16:41.969099  4325 net.cpp:157] Top shape: 50 80 (4000)
I0410 19:16:41.969102  4325 net.cpp:157] Top shape: 50 114 (5700)
I0410 19:16:41.969107  4325 net.cpp:157] Top shape: 50 62 (3100)
I0410 19:16:41.969111  4325 net.cpp:157] Top shape: 50 88 (4400)
I0410 19:16:41.969115  4325 net.cpp:157] Top shape: 50 91 (4550)
I0410 19:16:41.969120  4325 net.cpp:165] Memory required for data: 5805392600
I0410 19:16:41.969127  4325 layer_factory.hpp:76] Creating layer value-frame
I0410 19:16:41.969136  4325 net.cpp:106] Creating Layer value-frame
I0410 19:16:41.969142  4325 net.cpp:454] value-frame <- fc7_drop7_0_split_1
I0410 19:16:41.969149  4325 net.cpp:411] value-frame -> value-frame
I0410 19:16:41.970044  4325 net.cpp:150] Setting up value-frame
I0410 19:16:41.970057  4325 net.cpp:157] Top shape: 50 504 (25200)
I0410 19:16:41.970062  4325 net.cpp:165] Memory required for data: 5805493400
I0410 19:16:41.970077  4325 layer_factory.hpp:76] Creating layer crf-log-loss
I0410 19:16:41.970198  4325 net.cpp:106] Creating Layer crf-log-loss
I0410 19:16:41.970206  4325 net.cpp:454] crf-log-loss <- value-adjusting-Item
I0410 19:16:41.970212  4325 net.cpp:454] crf-log-loss <- value-adjusting-Tool
I0410 19:16:41.970217  4325 net.cpp:454] crf-log-loss <- value-adjusting-Place
…
