name: "VGG_ILSVRC_16_layers"
layer {
  name: "data"
  type: "MultiLabelImageData"
  include {
    phase: TRAIN
  }
  transform_param {
    crop_size: 224
    mean_value: 104
    mean_value: 117
    mean_value: 123
    mirror: true
  }
  multilabel_image_data_param {
    new_width : 224
    new_height : 224
    shuffle : 1
    source: "of500/of500_train.tab.trimmed"
    batch_size: 32
    references: 3
    max_labels: 7 
    root_folder: "of500/resized_256/"
    bounding_box_folder: "of500/output_224/"
    n_bounding_boxes: 1
  }
  top: "data"
  top: "label"
  top: "rois"
}
layer {
  name: "data"
  type: "MultiLabelImageData"
  include {
    phase: TEST
  }
  transform_param {
    crop_size: 224
    mean_value: 104
    mean_value: 117
    mean_value: 123
    mirror: false
  }
  multilabel_image_data_param {
    new_width: 224
    new_height: 224
    shuffle : 1
    source: "of500/of500_dev.tab.trimmed"
    batch_size: 150
    references: 3
    max_labels: 7 
    root_folder: "of500/resized_256/"
    bounding_box_folder: "of500/output_224/"
    n_bounding_boxes: 1
  }
  top: "data"
  top: "label"
  top: "rois"
}

layer {
  bottom: "data"
  top: "conv1_1"
  name: "conv1_1"
  type: "Convolution"
  convolution_param {
    num_output: 64
    pad: 1
    kernel_size: 3
  }
  param{ lr_mult: 1 decay_mult: 0}
  param{ lr_mult: 1 decay_mult: 0}
}
layer {
  bottom: "conv1_1"
  top: "conv1_1"
  name: "relu1_1"
  type: "ReLU"
}
layer {
  bottom: "conv1_1"
  top: "conv1_2"
  name: "conv1_2"
  type: "Convolution"
  convolution_param {
    num_output: 64
    pad: 1
    kernel_size: 3
  }
  param{ lr_mult: 1 decay_mult: 0}
  param{ lr_mult: 1 decay_mult: 0}
}
layer {
  bottom: "conv1_2"
  top: "conv1_2"
  name: "relu1_2"
  type: "ReLU"
}
layer {
  bottom: "conv1_2"
  top: "pool1"
  name: "pool1"
  type: "Pooling"
  pooling_param {
    pool: MAX
    kernel_size: 2
    stride: 2
  }
}
layer {
  bottom: "pool1"
  top: "conv2_1"
  name: "conv2_1"
  type: "Convolution"
  convolution_param {
    num_output: 128
    pad: 1
    kernel_size: 3
  }
  param{ lr_mult: 1 decay_mult: 0}
  param{ lr_mult: 1 decay_mult: 0}
}
layer {
  bottom: "conv2_1"
  top: "conv2_1"
  name: "relu2_1"
  type: "ReLU"
}
layer {
  bottom: "conv2_1"
  top: "conv2_2"
  name: "conv2_2"
  type: "Convolution"
  convolution_param {
    num_output: 128
    pad: 1
    kernel_size: 3
  }
  param{ lr_mult: 1 decay_mult: 0}
  param{ lr_mult: 1 decay_mult: 0}
}
layer {
  bottom: "conv2_2"
  top: "conv2_2"
  name: "relu2_2"
  type: "ReLU"
}
layer {
  bottom: "conv2_2"
  top: "pool2"
  name: "pool2"
  type: "Pooling"
  pooling_param {
    pool: MAX
    kernel_size: 2
    stride: 2
  }
}
layer {
  bottom: "pool2"
  top: "conv3_1"
  name: "conv3_1"
  type: "Convolution"
  convolution_param {
    num_output: 256
    pad: 1
    kernel_size: 3
  }
  param{ lr_mult: 1 decay_mult: 0}
  param{ lr_mult: 1 decay_mult: 0}
}
layer {
  bottom: "conv3_1"
  top: "conv3_1"
  name: "relu3_1"
  type: "ReLU"
}
layer {
  bottom: "conv3_1"
  top: "conv3_2"
  name: "conv3_2"
  type: "Convolution"
  convolution_param {
    num_output: 256
    pad: 1
    kernel_size: 3
  }
  param{ lr_mult: 1 decay_mult: 0}
  param{ lr_mult: 1 decay_mult: 0}
}
layer {
  bottom: "conv3_2"
  top: "conv3_2"
  name: "relu3_2"
  type: "ReLU"
}
layer {
  bottom: "conv3_2"
  top: "conv3_3"
  name: "conv3_3"
  type: "Convolution"
  convolution_param {
    num_output: 256
    pad: 1
    kernel_size: 3
  }
  param{ lr_mult: 1 decay_mult: 0}
  param{ lr_mult: 1 decay_mult: 0}
}
layer {
  bottom: "conv3_3"
  top: "conv3_3"
  name: "relu3_3"
  type: "ReLU"
}
layer {
  bottom: "conv3_3"
  top: "pool3"
  name: "pool3"
  type: "Pooling"
  pooling_param {
    pool: MAX
    kernel_size: 2
    stride: 2
  }
}
layer {
  bottom: "pool3"
  top: "conv4_1"
  name: "conv4_1"
  type: "Convolution"
  convolution_param {
    num_output: 512
    pad: 1
    kernel_size: 3
  }
  param{ lr_mult: 1 decay_mult: 0}
  param{ lr_mult: 1 decay_mult: 0}
}
layer {
  bottom: "conv4_1"
  top: "conv4_1"
  name: "relu4_1"
  type: "ReLU"
}
layer {
  bottom: "conv4_1"
  top: "conv4_2"
  name: "conv4_2"
  type: "Convolution"
  convolution_param {
    num_output: 512
    pad: 1
    kernel_size: 3
  }
  param{ lr_mult: 1 decay_mult: 0}
  param{ lr_mult: 1 decay_mult: 0}
}
layer {
  bottom: "conv4_2"
  top: "conv4_2"
  name: "relu4_2"
  type: "ReLU"
}
layer {
  bottom: "conv4_2"
  top: "conv4_3"
  name: "conv4_3"
  type: "Convolution"
  convolution_param {
    num_output: 512
    pad: 1
    kernel_size: 3
  }
  param{ lr_mult: 1 decay_mult: 0}
  param{ lr_mult: 1 decay_mult: 0}
}
layer {
  bottom: "conv4_3"
  top: "conv4_3"
  name: "relu4_3"
  type: "ReLU"
}
layer {
  bottom: "conv4_3"
  top: "pool4"
  name: "pool4"
  type: "Pooling"
  pooling_param {
    pool: MAX
    kernel_size: 2
    stride: 2
  }
}
layer {
  bottom: "pool4"
  top: "conv5_1"
  name: "conv5_1"
  type: "Convolution"
  convolution_param {
    num_output: 512
    pad: 1
    kernel_size: 3
  }
  param{ lr_mult: 1 decay_mult: 0}
  param{ lr_mult: 1 decay_mult: 0}
}
layer {
  bottom: "conv5_1"
  top: "conv5_1"
  name: "relu5_1"
  type: "ReLU"
}
layer {
  bottom: "conv5_1"
  top: "conv5_2"
  name: "conv5_2"
  type: "Convolution"
  convolution_param {
    num_output: 512
    pad: 1
    kernel_size: 3
  }
  param{ lr_mult: 1 decay_mult: 0}
  param{ lr_mult: 1 decay_mult: 0}
}
layer {
  bottom: "conv5_2"
  top: "conv5_2"
  name: "relu5_2"
  type: "ReLU"
}
layer {
  bottom: "conv5_2"
  top: "conv5_3"
  name: "conv5_3"
  type: "Convolution"
  convolution_param {
    num_output: 512
    pad: 1
    kernel_size: 3
  }
  param{ lr_mult: 1 decay_mult: 0}
  param{ lr_mult: 1 decay_mult: 0}
}
layer {
  bottom: "conv5_3"
  top: "conv5_3"
  name: "relu5_3"
  type: "ReLU"
}

layer {
  name: "roi_pool5"
  type: "ROIPooling"
  bottom: "conv5_3"
  bottom: "rois"
  top: "pool5"
  roi_pooling_param {
    pooled_w: 7
    pooled_h: 7
    spatial_scale: 0.0625 # 1/16
  }
}

layer {
  bottom: "pool5"
  top: "fc6"
  name: "fc6"
  type: "InnerProduct"
  inner_product_param {
    num_output: 4096
  }
  param{ lr_mult: 1 decay_mult: 0}
  param{ lr_mult: 1 decay_mult: 0}
}
layer {
  bottom: "fc6"
  top: "fc6"
  name: "relu6"
  type: "ReLU"
}
layer {
  bottom: "fc6"
  top: "fc6"
  name: "drop6"
  type: "Dropout"
  dropout_param {
    dropout_ratio: 0.5
  }
}
layer {
  bottom: "fc6"
  top: "fc7"
  name: "fc7"
  type: "InnerProduct"
  inner_product_param {
    num_output: 4096
  }
  param{ lr_mult: 1 decay_mult: 0}
  param{ lr_mult: 1 decay_mult: 0}
}
layer {
  bottom: "fc7"
  top: "fc7"
  name: "relu7"
  type: "ReLU"
}
layer {
  bottom: "fc7"
  top: "fc7"
  name: "drop7"
  type: "Dropout"
  dropout_param {
    dropout_ratio: 0.5
  }
}

layer {
  bottom: "fc7"
  top: "s-attention"
  name: "s-attention"
  type: "InnerProduct"
  inner_product_param {
    num_output: 87612
    weight_filler {
      type: "xavier"
    }
    bias_filler {
      type: "constant"
    }
  }
  param{ lr_mult: 1 decay_mult: 0}
  param{ lr_mult: 1 decay_mult: 0}
}

layer {
  bottom: "pool5"
  bottom: "s-attention"
  top: "attended"
  name:"attended"
  type: "Attention"
  attention_param{
    args: 1788
    map: 49
  }
}

layer {
  bottom: "fc7"
top:"value-global"
 name: "value-global"
  type: "InnerProduct"
  inner_product_param {
    num_output: 121381
  }
  param{ lr_mult: 1 decay_mult: 0}
  param{ lr_mult: 1 decay_mult: 0}
}

layer {
  name: "slicer"
  type: "Slice"
    bottom:"attended"
  
  top : "rep-adjusting-Tool"
  top : "rep-adjusting-Item"
  top : "rep-adjusting-Feature"
  top : "rep-adjusting-Place"
  top : "rep-adjusting-Agent"
  top : "rep-admiring-Place"
  top : "rep-admiring-Admired"
  top : "rep-admiring-Agent"
  top : "rep-ailing-Cause"
  top : "rep-ailing-Place"
  top : "rep-ailing-Victim"
  top : "rep-ailing-VictimPart"
  top : "rep-aiming-Place"
  top : "rep-aiming-Item"
  top : "rep-aiming-Agent"
  top : "rep-aiming-Target"
  top : "rep-applauding-Place"
  top : "rep-applauding-Addressee"
  top : "rep-applauding-Agent"
  top : "rep-applying-Tool"
  top : "rep-applying-Destination"
  top : "rep-applying-Place"
  top : "rep-applying-Substance"
  top : "rep-applying-Agent"
  top : "rep-apprehending-Victim"
  top : "rep-apprehending-Place"
  top : "rep-apprehending-Agent"
  top : "rep-arching-Place"
  top : "rep-arching-BODYPART"
  top : "rep-arching-Agent"
  top : "rep-arranging-Tool"
  top : "rep-arranging-Item"
  top : "rep-arranging-Agent"
  top : "rep-arranging-Place"
  top : "rep-arresting-Suspect"
  top : "rep-arresting-Place"
  top : "rep-arresting-Agent"
  top : "rep-ascending-Agent"
  top : "rep-ascending-Place"
  top : "rep-asking-Place"
  top : "rep-asking-Addressee"
  top : "rep-asking-Agent"
  top : "rep-assembling-Tool"
  top : "rep-assembling-Component"
  top : "rep-assembling-Place"
  top : "rep-assembling-GoalItem"
  top : "rep-assembling-Agent"
  top : "rep-attaching-Destination"
  top : "rep-attaching-Tool"
  top : "rep-attaching-Item"
  top : "rep-attaching-Agent"
  top : "rep-attaching-Glue"
  top : "rep-attaching-Place"
  top : "rep-attacking-Place"
  top : "rep-attacking-Weapon"
  top : "rep-attacking-Agent"
  top : "rep-attacking-Victim"
  top : "rep-autographing-Place"
  top : "rep-autographing-Item"
  top : "rep-autographing-Receiver"
  top : "rep-autographing-Agent"
  top : "rep-baking-Place"
  top : "rep-baking-Food"
  top : "rep-baking-Agent"
  top : "rep-baking-FoodContainer"
  top : "rep-baking-HeatSource"
  top : "rep-ballooning-Agent"
  top : "rep-ballooning-Place"
  top : "rep-bandaging-VICTIM"
  top : "rep-bandaging-Place"
  top : "rep-bandaging-Agent"
  top : "rep-baptizing-BAPTIZED"
  top : "rep-baptizing-Place"
  top : "rep-baptizing-Agent"
  top : "rep-barbecuing-Place"
  top : "rep-barbecuing-Food"
  top : "rep-barbecuing-Agent"
  top : "rep-bathing-Substance"
  top : "rep-bathing-CoAgent"
  top : "rep-bathing-Tool"
  top : "rep-bathing-Place"
  top : "rep-bathing-Agent"
  top : "rep-begging-Place"
  top : "rep-begging-ITEM"
  top : "rep-begging-Agent"
  top : "rep-begging-GIVER"
  top : "rep-betting-Agent"
  top : "rep-betting-Place"
  top : "rep-biking-Agent"
  top : "rep-biking-Place"
  top : "rep-biting-Place"
  top : "rep-biting-Item"
  top : "rep-biting-Agent"
  top : "rep-blocking-Tool"
  top : "rep-blocking-Blocker"
  top : "rep-blocking-Blocked"
  top : "rep-blocking-Place"
  top : "rep-blossoming-Agent"
  top : "rep-blossoming-Place"
  top : "rep-boarding-Agent"
  top : "rep-boarding-Place"
  top : "rep-boarding-Vehicle"
  top : "rep-boating-Boaters"
  top : "rep-boating-Place"
  top : "rep-boating-Vehicle"
  top : "rep-bothering-Victim"
  top : "rep-bothering-Action"
  top : "rep-bothering-Agent"
  top : "rep-bouncing-Place"
  top : "rep-bouncing-Item"
  top : "rep-bouncing-Agent"
  top : "rep-bouncing-Surface"
  top : "rep-bowing-Agent"
  top : "rep-bowing-Place"
  top : "rep-braiding-Place"
  top : "rep-braiding-Item"
  top : "rep-braiding-Agent"
  top : "rep-branching-Brancher"
  top : "rep-branching-Place"
  top : "rep-brawling-Agent"
  top : "rep-brawling-Place"
  top : "rep-breaking-Tool"
  top : "rep-breaking-Item"
  top : "rep-breaking-Agent"
  top : "rep-breaking-Against"
  top : "rep-brewing-Target"
  top : "rep-brewing-Place"
  top : "rep-brewing-Agent"
  top : "rep-browsing-GoalItem"
  top : "rep-browsing-Place"
  top : "rep-browsing-Agent"
  top : "rep-brushing-Substance"
  top : "rep-brushing-TOOL"
  top : "rep-brushing-Target"
  top : "rep-brushing-Place"
  top : "rep-brushing-Agent"
  top : "rep-bubbling-Agent"
  top : "rep-bubbling-Place"
  top : "rep-buckling-Fastener"
  top : "rep-buckling-Item"
  top : "rep-buckling-Place"
  top : "rep-buckling-Container"
  top : "rep-buckling-Agent"
  top : "rep-building-Tool"
  top : "rep-building-Place"
  top : "rep-building-Components"
  top : "rep-building-GoalItem"
  top : "rep-building-Agent"
  top : "rep-bulldozing-Place"
  top : "rep-bulldozing-Object"
  top : "rep-bulldozing-Agent"
  top : "rep-burning-Target"
  top : "rep-burning-Place"
  top : "rep-burning-Agent"
  top : "rep-burying-Tool"
  top : "rep-burying-Item"
  top : "rep-burying-Place"
  top : "rep-burying-Destination"
  top : "rep-burying-Agent"
  top : "rep-buttering-Tool"
  top : "rep-buttering-Item"
  top : "rep-buttering-Agent"
  top : "rep-buttering-Place"
  top : "rep-butting-Target"
  top : "rep-butting-Place"
  top : "rep-butting-Agent"
  top : "rep-buttoning-Place"
  top : "rep-buttoning-Item"
  top : "rep-buttoning-Agent"
  top : "rep-buying-Place"
  top : "rep-buying-Goods"
  top : "rep-buying-Agent"
  top : "rep-buying-Payment"
  top : "rep-buying-Seller"
  top : "rep-calling-Place"
  top : "rep-calling-Tool"
  top : "rep-calling-Agent"
  top : "rep-calming-Experiencer"
  top : "rep-calming-Place"
  top : "rep-calming-Agent"
  top : "rep-camouflaging-HidingItem"
  top : "rep-camouflaging-Place"
  top : "rep-camouflaging-Agent"
  top : "rep-camping-Place"
  top : "rep-camping-Shelter"
  top : "rep-camping-Agent"
  top : "rep-caressing-RecipientPart"
  top : "rep-caressing-Place"
  top : "rep-caressing-Agent"
  top : "rep-caressing-Recipient"
  top : "rep-carrying-Place"
  top : "rep-carrying-Item"
  top : "rep-carrying-AgentPart"
  top : "rep-carrying-Agent"
  top : "rep-carting-Tool"
  top : "rep-carting-Item"
  top : "rep-carting-Agent"
  top : "rep-carting-Place"
  top : "rep-carving-SUBSTANCE"
  top : "rep-carving-Tool"
  top : "rep-carving-Agent"
  top : "rep-carving-Place"
  top : "rep-catching-CaughtItem"
  top : "rep-catching-Tool"
  top : "rep-catching-Agent"
  top : "rep-catching-Place"
  top : "rep-celebrating-Place"
  top : "rep-celebrating-Occasion"
  top : "rep-celebrating-Agent"
  top : "rep-chasing-Chasee"
  top : "rep-chasing-Place"
  top : "rep-chasing-Agent"
  top : "rep-checking-Tool"
  top : "rep-checking-Place"
  top : "rep-checking-Aspect"
  top : "rep-checking-Patient"
  top : "rep-checking-Agent"
  top : "rep-cheering-Agent"
  top : "rep-cheering-Place"
  top : "rep-cheerleading-Place"
  top : "rep-cheerleading-Supported"
  top : "rep-cheerleading-Agent"
  top : "rep-chewing-Place"
  top : "rep-chewing-Item"
  top : "rep-chewing-Agent"
  top : "rep-chiseling-Place"
  top : "rep-chiseling-Item"
  top : "rep-chiseling-Agent"
  top : "rep-chopping-Tool"
  top : "rep-chopping-Item"
  top : "rep-chopping-Agent"
  top : "rep-chopping-Place"
  top : "rep-circling-Center"
  top : "rep-circling-Place"
  top : "rep-circling-Agent"
  top : "rep-clapping-Place"
  top : "rep-clapping-AgentPart"
  top : "rep-clapping-Agent"
  top : "rep-clawing-Victim"
  top : "rep-clawing-Place"
  top : "rep-clawing-Agent"
  top : "rep-cleaning-Tool"
  top : "rep-cleaning-Source"
  top : "rep-cleaning-Agent"
  top : "rep-cleaning-Place"
  top : "rep-clearing-Tool"
  top : "rep-clearing-Item"
  top : "rep-clearing-Agent"
  top : "rep-clearing-Place"
  top : "rep-clearing-Source"
  top : "rep-clenching-Place"
  top : "rep-clenching-Item"
  top : "rep-clenching-AgentPart"
  top : "rep-clenching-Agent"
  top : "rep-climbing-Obstacle"
  top : "rep-climbing-Tool"
  top : "rep-climbing-Agent"
  top : "rep-climbing-Place"
  top : "rep-clinging-Place"
  top : "rep-clinging-ClungTo"
  top : "rep-clinging-Agent"
  top : "rep-clipping-Tool"
  top : "rep-clipping-Item"
  top : "rep-clipping-Agent"
  top : "rep-clipping-Place"
  top : "rep-clipping-Source"
  top : "rep-coaching-Place"
  top : "rep-coaching-Skill"
  top : "rep-coaching-Agent"
  top : "rep-coaching-Student"
  top : "rep-colliding-Place"
  top : "rep-colliding-Item"
  top : "rep-colliding-Agent"
  top : "rep-coloring-Tool"
  top : "rep-coloring-Item"
  top : "rep-coloring-Agent"
  top : "rep-coloring-Place"
  top : "rep-combing-Place"
  top : "rep-combing-Tool"
  top : "rep-combing-Agent"
  top : "rep-combing-Target"
  top : "rep-communicating-Adressee"
  top : "rep-communicating-Place"
  top : "rep-communicating-Agent"
  top : "rep-commuting-Place"
  top : "rep-commuting-Traveler"
  top : "rep-commuting-Vehicle"
  top : "rep-competing-Competition"
  top : "rep-competing-Place"
  top : "rep-competing-Agent"
  top : "rep-complaining-Place"
  top : "rep-complaining-Listener"
  top : "rep-complaining-Agent"
  top : "rep-confronting-Confronted"
  top : "rep-confronting-Place"
  top : "rep-confronting-Agent"
  top : "rep-congregating-Place"
  top : "rep-congregating-Individuals"
  top : "rep-constructing-Tool"
  top : "rep-constructing-Place"
  top : "rep-constructing-CreatedItem"
  top : "rep-constructing-Components"
  top : "rep-constructing-Agent"
  top : "rep-cooking-Food"
  top : "rep-cooking-Container"
  top : "rep-cooking-Agent"
  top : "rep-cooking-Tool"
  top : "rep-cooking-HeatSource"
  top : "rep-cooking-Place"
  top : "rep-coughing-Agent"
  top : "rep-coughing-Place"
  top : "rep-counting-ItemType"
  top : "rep-counting-Place"
  top : "rep-counting-Agent"
  top : "rep-covering-Place"
  top : "rep-covering-Item"
  top : "rep-covering-Agent"
  top : "rep-covering-Cover"
  top : "rep-crafting-Place"
  top : "rep-crafting-Instrument"
  top : "rep-crafting-Created"
  top : "rep-crafting-Agent"
  top : "rep-cramming-Theme"
  top : "rep-cramming-Place"
  top : "rep-cramming-Agent"
  top : "rep-cramming-Container"
  top : "rep-crashing-Place"
  top : "rep-crashing-Item"
  top : "rep-crashing-Agent"
  top : "rep-crashing-Against"
  top : "rep-crawling-Agent"
  top : "rep-crawling-Place"
  top : "rep-cresting-Agent"
  top : "rep-cresting-Place"
  top : "rep-crouching-Agent"
  top : "rep-crouching-Place"
  top : "rep-crowning-Crown"
  top : "rep-crowning-Place"
  top : "rep-crowning-Agent"
  top : "rep-crowning-CrownedEntity"
  top : "rep-crushing-Tool"
  top : "rep-crushing-Place"
  top : "rep-crushing-Agent"
  top : "rep-crushing-CrushedItem"
  top : "rep-crying-Agent"
  top : "rep-crying-Place"
  top : "rep-curling-Place"
  top : "rep-curling-Tool"
  top : "rep-curling-Agent"
  top : "rep-curling-Target"
  top : "rep-curtsying-Agent"
  top : "rep-curtsying-Place"
  top : "rep-dancing-Agent"
  top : "rep-dancing-Place"
  top : "rep-decomposing-Decomposer"
  top : "rep-decomposing-Place"
  top : "rep-decorating-Decorated"
  top : "rep-decorating-Item"
  top : "rep-decorating-Agent"
  top : "rep-decorating-Place"
  top : "rep-deflecting-Place"
  top : "rep-deflecting-Destination"
  top : "rep-deflecting-Agent"
  top : "rep-deflecting-DeflectedItem"
  top : "rep-descending-tool"
  top : "rep-descending-source"
  top : "rep-descending-Agent"
  top : "rep-descending-Place"
  top : "rep-destroying-Tool"
  top : "rep-destroying-DestroyedItem"
  top : "rep-destroying-Agent"
  top : "rep-destroying-Place"
  top : "rep-detaining-Victim"
  top : "rep-detaining-Place"
  top : "rep-detaining-Agent"
  top : "rep-dialing-Place"
  top : "rep-dialing-Item"
  top : "rep-dialing-Agent"
  top : "rep-dining-Place"
  top : "rep-dining-Food"
  top : "rep-dining-Agent"
  top : "rep-dipping-Substance"
  top : "rep-dipping-Item"
  top : "rep-dipping-Agent"
  top : "rep-dipping-Place"
  top : "rep-disciplining-Place"
  top : "rep-disciplining-Tool"
  top : "rep-disciplining-Agent"
  top : "rep-disciplining-Victim"
  top : "rep-discussing-Agents"
  top : "rep-discussing-Place"
  top : "rep-disembarking-Agent"
  top : "rep-disembarking-Place"
  top : "rep-disembarking-Vehicle"
  top : "rep-displaying-Place"
  top : "rep-displaying-Item"
  top : "rep-displaying-Agent"
  top : "rep-displaying-Target"
  top : "rep-dissecting-Tool"
  top : "rep-dissecting-Item"
  top : "rep-dissecting-Agent"
  top : "rep-dissecting-Place"
  top : "rep-distracting-Victim"
  top : "rep-distracting-Place"
  top : "rep-distracting-Agent"
  top : "rep-distributing-Tool"
  top : "rep-distributing-Place"
  top : "rep-distributing-Recipients"
  top : "rep-distributing-Distributed"
  top : "rep-distributing-Agent"
  top : "rep-diving-Agent"
  top : "rep-diving-Place"
  top : "rep-docking-Place"
  top : "rep-docking-Connector"
  top : "rep-docking-Vehicle"
  top : "rep-docking-Agent"
  top : "rep-dousing-Place"
  top : "rep-dousing-Undergoer"
  top : "rep-dousing-Agent"
  top : "rep-dousing-Liquid"
  top : "rep-dragging-Tool"
  top : "rep-dragging-Item"
  top : "rep-dragging-Place"
  top : "rep-dragging-Contact"
  top : "rep-dragging-Agent"
  top : "rep-drawing-Place"
  top : "rep-drawing-Tool"
  top : "rep-drawing-Agent"
  top : "rep-drawing-Reference"
  top : "rep-drenching-Tool"
  top : "rep-drenching-DrenchedItem"
  top : "rep-drenching-Liquid"
  top : "rep-drenching-Place"
  top : "rep-drenching-Agent"
  top : "rep-drinking-Container"
  top : "rep-drinking-Place"
  top : "rep-drinking-Agent"
  top : "rep-drinking-Liquid"
  top : "rep-dripping-Destination"
  top : "rep-dripping-Source"
  top : "rep-dripping-Fluid"
  top : "rep-dripping-Place"
  top : "rep-dripping-Agent"
  top : "rep-driving-Place"
  top : "rep-driving-Item"
  top : "rep-driving-Agent"
  top : "rep-drooling-End"
  top : "rep-drooling-Place"
  top : "rep-drooling-Agent"
  top : "rep-dropping-Place"
  top : "rep-dropping-Item"
  top : "rep-dropping-Agent"
  top : "rep-dropping-End"
  top : "rep-dropping-Start"
  top : "rep-drumming-Tool"
  top : "rep-drumming-ITEM"
  top : "rep-drumming-Agent"
  top : "rep-drumming-Place"
  top : "rep-drying-Tool"
  top : "rep-drying-Item"
  top : "rep-drying-Agent"
  top : "rep-drying-Place"
  top : "rep-ducking-Place"
  top : "rep-ducking-Blow"
  top : "rep-ducking-Agent"
  top : "rep-dusting-Tool"
  top : "rep-dusting-Source"
  top : "rep-dusting-Agent"
  top : "rep-dusting-Place"
  top : "rep-dyeing-Material"
  top : "rep-dyeing-Dye"
  top : "rep-dyeing-Agent"
  top : "rep-dyeing-Place"
  top : "rep-eating-Place"
  top : "rep-eating-Food"
  top : "rep-eating-Container"
  top : "rep-eating-Tool"
  top : "rep-eating-Agent"
  top : "rep-educating-Teacher"
  top : "rep-educating-Place"
  top : "rep-educating-Subject"
  top : "rep-educating-Student"
  top : "rep-ejecting-Destination"
  top : "rep-ejecting-Item"
  top : "rep-ejecting-Agent"
  top : "rep-ejecting-Place"
  top : "rep-ejecting-Source"
  top : "rep-embracing-Place"
  top : "rep-embracing-Coagent"
  top : "rep-embracing-Agent"
  top : "rep-emerging-Destination"
  top : "rep-emerging-Source"
  top : "rep-emerging-Agent"
  top : "rep-emerging-Place"
  top : "rep-emptying-Tool"
  top : "rep-emptying-Container"
  top : "rep-emptying-Agent"
  top : "rep-emptying-Destination"
  top : "rep-emptying-Place"
  top : "rep-emptying-Item"
  top : "rep-encouraging-Agent"
  top : "rep-encouraging-Place"
  top : "rep-encouraging-Reciever"
  top : "rep-erasing-Source"
  top : "rep-erasing-Erased"
  top : "rep-erasing-Agent"
  top : "rep-erasing-Place"
  top : "rep-erupting-Place"
  top : "rep-erupting-Substance"
  top : "rep-erupting-Agent"
  top : "rep-examining-Tool"
  top : "rep-examining-Item"
  top : "rep-examining-Agent"
  top : "rep-examining-Place"
  top : "rep-exercising-Place"
  top : "rep-exercising-AgentPart"
  top : "rep-exercising-Agent"
  top : "rep-exterminating-Place"
  top : "rep-exterminating-Instrument"
  top : "rep-exterminating-Agent"
  top : "rep-extinguishing-Tool"
  top : "rep-extinguishing-Item"
  top : "rep-extinguishing-Agent"
  top : "rep-extinguishing-Place"
  top : "rep-falling-Place"
  top : "rep-falling-Source"
  top : "rep-falling-Agent"
  top : "rep-falling-Goal"
  top : "rep-farming-Tool"
  top : "rep-farming-Item"
  top : "rep-farming-Place"
  top : "rep-farming-Ground"
  top : "rep-farming-Farmer"
  top : "rep-fastening-Destination"
  top : "rep-fastening-Tool"
  top : "rep-fastening-Connector"
  top : "rep-fastening-Agent"
  top : "rep-fastening-Place"
  top : "rep-fastening-Item"
  top : "rep-feeding-Source"
  top : "rep-feeding-Food"
  top : "rep-feeding-Place"
  top : "rep-feeding-Eater"
  top : "rep-feeding-Agent"
  top : "rep-fetching-Destination"
  top : "rep-fetching-Item"
  top : "rep-fetching-Agent"
  top : "rep-fetching-Place"
  top : "rep-fetching-Source"
  top : "rep-filling-Destination"
  top : "rep-filling-Item"
  top : "rep-filling-Agent"
  top : "rep-filling-Place"
  top : "rep-filling-Source"
  top : "rep-filming-Performer"
  top : "rep-filming-Tool"
  top : "rep-filming-Agent"
  top : "rep-filming-Place"
  top : "rep-fishing-Tool"
  top : "rep-fishing-SOURCE"
  top : "rep-fishing-Agent"
  top : "rep-fishing-Place"
  top : "rep-fixing-Tool"
  top : "rep-fixing-Place"
  top : "rep-fixing-ObjectPart"
  top : "rep-fixing-Object"
  top : "rep-fixing-Agent"
  top : "rep-flaming-Agent"
  top : "rep-flaming-Place"
  top : "rep-flapping-Place"
  top : "rep-flapping-BodyPart"
  top : "rep-flapping-Agent"
  top : "rep-flexing-Addressee"
  top : "rep-flexing-AgentPart"
  top : "rep-flexing-Agent"
  top : "rep-flexing-Place"
  top : "rep-flicking-Place"
  top : "rep-flicking-AgentPart"
  top : "rep-flicking-ObjectPart"
  top : "rep-flicking-Object"
  top : "rep-flicking-Agent"
  top : "rep-flinging-Tool"
  top : "rep-flinging-Item"
  top : "rep-flinging-Goal"
  top : "rep-flinging-Place"
  top : "rep-flinging-Agent"
  top : "rep-flipping-Place"
  top : "rep-flipping-Tool"
  top : "rep-flipping-Flipped"
  top : "rep-flipping-Agent"
  top : "rep-floating-Medium"
  top : "rep-floating-Tool"
  top : "rep-floating-Agent"
  top : "rep-floating-Place"
  top : "rep-flossing-Place"
  top : "rep-flossing-CoAgent"
  top : "rep-flossing-Agent"
  top : "rep-folding-Shape"
  top : "rep-folding-Cloth"
  top : "rep-folding-Agent"
  top : "rep-folding-Place"
  top : "rep-foraging-Place"
  top : "rep-foraging-Item"
  top : "rep-foraging-Agent"
  top : "rep-fording-Place"
  top : "rep-fording-Tool"
  top : "rep-fording-Agent"
  top : "rep-frisking-Victim"
  top : "rep-frisking-Place"
  top : "rep-frisking-Agent"
  top : "rep-frowning-Agent"
  top : "rep-frowning-Place"
  top : "rep-frying-Place"
  top : "rep-frying-Food"
  top : "rep-frying-Agent"
  top : "rep-frying-Container"
  top : "rep-fueling-Tool"
  top : "rep-fueling-Place"
  top : "rep-fueling-Agent"
  top : "rep-fueling-Recipient"
  top : "rep-gambling-Place"
  top : "rep-gambling-Stake"
  top : "rep-gambling-Agent"
  top : "rep-gardening-Place"
  top : "rep-gardening-Tool"
  top : "rep-gardening-Agent"
  top : "rep-gasping-Agent"
  top : "rep-gasping-Place"
  top : "rep-gathering-Gatherers"
  top : "rep-gathering-Place"
  top : "rep-giggling-Target"
  top : "rep-giggling-Place"
  top : "rep-giggling-Agent"
  top : "rep-giving-Place"
  top : "rep-giving-Item"
  top : "rep-giving-Agent"
  top : "rep-giving-Recipient"
  top : "rep-glaring-Perceiver"
  top : "rep-glaring-Place"
  top : "rep-glaring-Agent"
  top : "rep-glowing-Agent"
  top : "rep-glowing-Place"
  top : "rep-gluing-Item"
  top : "rep-gluing-Connector"
  top : "rep-gluing-Goal"
  top : "rep-gluing-Place"
  top : "rep-gluing-Agent"
  top : "rep-gnawing-Place"
  top : "rep-gnawing-Item"
  top : "rep-gnawing-Agent"
  top : "rep-grieving-Agent"
  top : "rep-grieving-Place"
  top : "rep-grilling-Place"
  top : "rep-grilling-Food"
  top : "rep-grilling-Agent"
  top : "rep-grimacing-Cause"
  top : "rep-grimacing-Place"
  top : "rep-grimacing-Agent"
  top : "rep-grinding-Tool"
  top : "rep-grinding-Item"
  top : "rep-grinding-Surface"
  top : "rep-grinding-Place"
  top : "rep-grinding-Agent"
  top : "rep-grinning-Agent"
  top : "rep-grinning-Place"
  top : "rep-guarding-Weapon"
  top : "rep-guarding-Item"
  top : "rep-guarding-Agent"
  top : "rep-guarding-Place"
  top : "rep-handcuffing-Victim"
  top : "rep-handcuffing-Place"
  top : "rep-handcuffing-Agent"
  top : "rep-hanging-Scaffold"
  top : "rep-hanging-Item"
  top : "rep-hanging-Agent"
  top : "rep-hanging-Place"
  top : "rep-harvesting-Tool"
  top : "rep-harvesting-HarvestedItem"
  top : "rep-harvesting-Agent"
  top : "rep-harvesting-Place"
  top : "rep-harvesting-Ground"
  top : "rep-hauling-Tool"
  top : "rep-hauling-Item"
  top : "rep-hauling-Place"
  top : "rep-hauling-Carrier"
  top : "rep-heaving-Tool"
  top : "rep-heaving-HeavedItem"
  top : "rep-heaving-Agent"
  top : "rep-heaving-Place"
  top : "rep-helping-Place"
  top : "rep-helping-Tool"
  top : "rep-helping-EntityHelped"
  top : "rep-helping-Agent"
  top : "rep-hiking-Agent"
  top : "rep-hiking-Place"
  top : "rep-hitchhiking-Agent"
  top : "rep-hitchhiking-Place"
  top : "rep-hitting-Place"
  top : "rep-hitting-Tool"
  top : "rep-hitting-Agent"
  top : "rep-hitting-Victim"
  top : "rep-hitting-VictimPart"
  top : "rep-hoeing-Agent"
  top : "rep-hoeing-Place"
  top : "rep-hoeing-Ground"
  top : "rep-hoisting-Tool"
  top : "rep-hoisting-Item"
  top : "rep-hoisting-Agent"
  top : "rep-hoisting-Place"
  top : "rep-hoisting-Source"
  top : "rep-hugging-Hugged"
  top : "rep-hugging-AgentPart"
  top : "rep-hugging-Agent"
  top : "rep-hugging-Place"
  top : "rep-hunching-Surface"
  top : "rep-hunching-Place"
  top : "rep-hunching-Agent"
  top : "rep-hunting-Place"
  top : "rep-hunting-Hunted"
  top : "rep-hunting-Agent"
  top : "rep-hurling-Place"
  top : "rep-hurling-Start"
  top : "rep-hurling-End"
  top : "rep-hurling-Object"
  top : "rep-hurling-Agent"
  top : "rep-igniting-Tool"
  top : "rep-igniting-Item"
  top : "rep-igniting-Agent"
  top : "rep-igniting-Place"
  top : "rep-ignoring-BoringThing"
  top : "rep-ignoring-Place"
  top : "rep-ignoring-Agent"
  top : "rep-imitating-Place"
  top : "rep-imitating-Model"
  top : "rep-imitating-Agent"
  top : "rep-immersing-Place"
  top : "rep-immersing-Item"
  top : "rep-immersing-Agent"
  top : "rep-immersing-Liquid"
  top : "rep-inflating-Object"
  top : "rep-inflating-Tool"
  top : "rep-inflating-Agent"
  top : "rep-inflating-Place"
  top : "rep-injecting-Source"
  top : "rep-injecting-Destination"
  top : "rep-injecting-Place"
  top : "rep-injecting-Substance"
  top : "rep-injecting-Agent"
  top : "rep-inserting-Object"
  top : "rep-inserting-Place"
  top : "rep-inserting-Agent"
  top : "rep-inserting-Container"
  top : "rep-installing-Tool"
  top : "rep-installing-Place"
  top : "rep-installing-Component"
  top : "rep-installing-Destination"
  top : "rep-installing-Agent"
  top : "rep-instructing-Student"
  top : "rep-instructing-Place"
  top : "rep-instructing-Agent"
  top : "rep-intermingling-Agents"
  top : "rep-intermingling-Place"
  top : "rep-interrogating-Addressee"
  top : "rep-interrogating-Tool"
  top : "rep-interrogating-Agent"
  top : "rep-interrogating-Place"
  top : "rep-interviewing-Interviewee"
  top : "rep-interviewing-Place"
  top : "rep-interviewing-Agent"
  top : "rep-jogging-Agent"
  top : "rep-jogging-Place"
  top : "rep-juggling-Place"
  top : "rep-juggling-Items"
  top : "rep-juggling-Agent"
  top : "rep-jumping-Source"
  top : "rep-jumping-Destination"
  top : "rep-jumping-Place"
  top : "rep-jumping-Obstacle"
  top : "rep-jumping-Agent"
  top : "rep-kicking-Victim"
  top : "rep-kicking-Place"
  top : "rep-kicking-VictimPart"
  top : "rep-kicking-Agent"
  top : "rep-kissing-CoAgent"
  top : "rep-kissing-AgentPart"
  top : "rep-kissing-CoAgentPart"
  top : "rep-kissing-Place"
  top : "rep-kissing-Agent"
  top : "rep-kneading-Place"
  top : "rep-kneading-Item"
  top : "rep-kneading-Agent"
  top : "rep-kneeling-Place"
  top : "rep-kneeling-Contact"
  top : "rep-kneeling-Agent"
  top : "rep-knocking-Place"
  top : "rep-knocking-Item"
  top : "rep-knocking-Agent"
  top : "rep-lacing-Place"
  top : "rep-lacing-Item"
  top : "rep-lacing-Agent"
  top : "rep-landing-Place"
  top : "rep-landing-Destination"
  top : "rep-landing-Agent"
  top : "rep-lapping-Place"
  top : "rep-lapping-Food"
  top : "rep-lapping-Agent"
  top : "rep-lapping-Container"
  top : "rep-lathering-Substance"
  top : "rep-lathering-Destination"
  top : "rep-lathering-Agent"
  top : "rep-lathering-Place"
  top : "rep-laughing-Agent"
  top : "rep-laughing-Place"
  top : "rep-launching-Destination"
  top : "rep-launching-Item"
  top : "rep-launching-Agent"
  top : "rep-launching-Place"
  top : "rep-launching-Source"
  top : "rep-leading-Place"
  top : "rep-leading-Follower"
  top : "rep-leading-Agent"
  top : "rep-leaking-Source"
  top : "rep-leaking-Destination"
  top : "rep-leaking-Place"
  top : "rep-leaking-Substance"
  top : "rep-leaning-Place"
  top : "rep-leaning-Item"
  top : "rep-leaning-Agent"
  top : "rep-leaning-Against"
  top : "rep-leaping-Source"
  top : "rep-leaping-Destination"
  top : "rep-leaping-Place"
  top : "rep-leaping-Obstacle"
  top : "rep-leaping-Agent"
  top : "rep-lecturing-Place"
  top : "rep-lecturing-Audience"
  top : "rep-lecturing-Agent"
  top : "rep-licking-Place"
  top : "rep-licking-Item"
  top : "rep-licking-Agent"
  top : "rep-lifting-Place"
  top : "rep-lifting-Item"
  top : "rep-lifting-Agent"
  top : "rep-lifting-End"
  top : "rep-lifting-Start"
  top : "rep-lighting-Tool"
  top : "rep-lighting-Item"
  top : "rep-lighting-Agent"
  top : "rep-lighting-Place"
  top : "rep-loading-Tool"
  top : "rep-loading-Item"
  top : "rep-loading-Place"
  top : "rep-loading-Destination"
  top : "rep-loading-Agent"
  top : "rep-locking-Tool"
  top : "rep-locking-Item"
  top : "rep-locking-Agent"
  top : "rep-locking-Place"
  top : "rep-making-Tool"
  top : "rep-making-Component"
  top : "rep-making-Place"
  top : "rep-making-GoalItem"
  top : "rep-making-Agent"
  top : "rep-manicuring-Tool"
  top : "rep-manicuring-Item"
  top : "rep-manicuring-Agent"
  top : "rep-manicuring-Place"
  top : "rep-marching-Agent"
  top : "rep-marching-Place"
  top : "rep-mashing-Tool"
  top : "rep-mashing-Item"
  top : "rep-mashing-Agent"
  top : "rep-mashing-Place"
  top : "rep-massaging-Place"
  top : "rep-massaging-CoAgent"
  top : "rep-massaging-Agent"
  top : "rep-massaging-CoAgentPart"
  top : "rep-measuring-Object"
  top : "rep-measuring-Tool"
  top : "rep-measuring-Agent"
  top : "rep-measuring-Place"
  top : "rep-measuring-Quantity"
  top : "rep-mending-Tool"
  top : "rep-mending-Item"
  top : "rep-mending-Agent"
  top : "rep-mending-Place"
  top : "rep-microwaving-Place"
  top : "rep-microwaving-Food"
  top : "rep-microwaving-Agent"
  top : "rep-microwaving-Container"
  top : "rep-milking-Tool"
  top : "rep-milking-Source"
  top : "rep-milking-Place"
  top : "rep-milking-Destination"
  top : "rep-milking-Agent"
  top : "rep-miming-Imitation"
  top : "rep-miming-Place"
  top : "rep-miming-Agent"
  top : "rep-mining-Tool"
  top : "rep-mining-Place"
  top : "rep-mining-Agent"
  top : "rep-mining-Resource"
  top : "rep-misbehaving-Agent"
  top : "rep-misbehaving-Place"
  top : "rep-moistening-Place"
  top : "rep-moistening-Item"
  top : "rep-moistening-Agent"
  top : "rep-moistening-Liquid"
  top : "rep-moisturizing-Tool"
  top : "rep-moisturizing-Place"
  top : "rep-moisturizing-Agent"
  top : "rep-moisturizing-Moisturized"
  top : "rep-molding-Substance"
  top : "rep-molding-Place"
  top : "rep-molding-Agent"
  top : "rep-molding-GoalItem"
  top : "rep-mopping-Surface"
  top : "rep-mopping-Place"
  top : "rep-mopping-Agent"
  top : "rep-mourning-Mourner"
  top : "rep-mourning-Place"
  top : "rep-mowing-Tool"
  top : "rep-mowing-Item"
  top : "rep-mowing-Agent"
  top : "rep-mowing-Place"
  top : "rep-nagging-NaggedPerson"
  top : "rep-nagging-Place"
  top : "rep-nagging-Agent"
  top : "rep-nailing-Tool"
  top : "rep-nailing-Item2"
  top : "rep-nailing-Place"
  top : "rep-nailing-Item1"
  top : "rep-nailing-Agent"
  top : "rep-nipping-Place"
  top : "rep-nipping-Item"
  top : "rep-nipping-Agent"
  top : "rep-nuzzling-Place"
  top : "rep-nuzzling-Item"
  top : "rep-nuzzling-Agent"
  top : "rep-offering-Item"
  top : "rep-offering-Beneficiary"
  top : "rep-offering-Agent"
  top : "rep-offering-Place"
  top : "rep-officiating-Event"
  top : "rep-officiating-Place"
  top : "rep-officiating-Agent"
  top : "rep-opening-Tool"
  top : "rep-opening-Item"
  top : "rep-opening-Agent"
  top : "rep-opening-Place"
  top : "rep-operating-Tool"
  top : "rep-operating-Item"
  top : "rep-operating-Agent"
  top : "rep-operating-Place"
  top : "rep-overflowing-Place"
  top : "rep-overflowing-Source"
  top : "rep-overflowing-Agent"
  top : "rep-packaging-Place"
  top : "rep-packaging-Item"
  top : "rep-packaging-Agent"
  top : "rep-packing-Place"
  top : "rep-packing-Item"
  top : "rep-packing-Agent"
  top : "rep-packing-Container"
  top : "rep-painting-Tool"
  top : "rep-painting-Item"
  top : "rep-painting-Agent"
  top : "rep-painting-Place"
  top : "rep-panhandling-Target"
  top : "rep-panhandling-Place"
  top : "rep-panhandling-Agent"
  top : "rep-parachuting-Destination"
  top : "rep-parachuting-Parachute"
  top : "rep-parachuting-Agent"
  top : "rep-parachuting-Place"
  top : "rep-parading-Agent"
  top : "rep-parading-Place"
  top : "rep-pasting-Item"
  top : "rep-pasting-Connector"
  top : "rep-pasting-Place"
  top : "rep-pasting-Object"
  top : "rep-pasting-Agent"
  top : "rep-patting-Tool"
  top : "rep-patting-Item"
  top : "rep-patting-Agent"
  top : "rep-patting-Place"
  top : "rep-pawing-PawedItem"
  top : "rep-pawing-AgentPart"
  top : "rep-pawing-Agent"
  top : "rep-pawing-Place"
  top : "rep-paying-Place"
  top : "rep-paying-Good"
  top : "rep-paying-Seller"
  top : "rep-paying-Agent"
  top : "rep-pedaling-Agent"
  top : "rep-pedaling-Place"
  top : "rep-pedaling-Vehicle"
  top : "rep-peeing-Target"
  top : "rep-peeing-Place"
  top : "rep-peeing-Agent"
  top : "rep-peeling-Tool"
  top : "rep-peeling-Item"
  top : "rep-peeling-Agent"
  top : "rep-peeling-Place"
  top : "rep-performing-Place"
  top : "rep-performing-Tool"
  top : "rep-performing-Agent"
  top : "rep-performing-Event"
  top : "rep-performing-Stage"
  top : "rep-perspiring-Agent"
  top : "rep-perspiring-Place"
  top : "rep-phoning-Place"
  top : "rep-phoning-Tool"
  top : "rep-phoning-Agent"
  top : "rep-photographing-Tool"
  top : "rep-photographing-Item"
  top : "rep-photographing-Agent"
  top : "rep-photographing-Place"
  top : "rep-picking-Place"
  top : "rep-picking-Source"
  top : "rep-picking-Agent"
  top : "rep-picking-Crop"
  top : "rep-piloting-Place"
  top : "rep-piloting-Start"
  top : "rep-piloting-Agent"
  top : "rep-piloting-End"
  top : "rep-piloting-Vehicle"
  top : "rep-pinching-Object"
  top : "rep-pinching-Place"
  top : "rep-pinching-Agent"
  top : "rep-pinching-ObjectPart"
  top : "rep-pinning-Destination"
  top : "rep-pinning-Pinned"
  top : "rep-pinning-Agent"
  top : "rep-pinning-Place"
  top : "rep-pitching-Place"
  top : "rep-pitching-Tool"
  top : "rep-pitching-Agent"
  top : "rep-pitching-Pitched"
  top : "rep-placing-Destination"
  top : "rep-placing-PlacedItem"
  top : "rep-placing-Agent"
  top : "rep-placing-Place"
  top : "rep-planting-Tool"
  top : "rep-planting-CoParticipant"
  top : "rep-planting-Place"
  top : "rep-planting-Planted"
  top : "rep-planting-Agent"
  top : "rep-plowing-Place"
  top : "rep-plowing-Instrument"
  top : "rep-plowing-Agent"
  top : "rep-plummeting-Destination"
  top : "rep-plummeting-Start"
  top : "rep-plummeting-Agent"
  top : "rep-plummeting-Place"
  top : "rep-plunging-Destination"
  top : "rep-plunging-Place"
  top : "rep-plunging-Agent"
  top : "rep-plunging-Plunged"
  top : "rep-poking-Tool"
  top : "rep-poking-Place"
  top : "rep-poking-ObjectPart"
  top : "rep-poking-Object"
  top : "rep-poking-Agent"
  top : "rep-pooing-Place"
  top : "rep-pooing-Destination"
  top : "rep-pooing-Agent"
  top : "rep-potting-Place"
  top : "rep-potting-Item"
  top : "rep-potting-Agent"
  top : "rep-potting-Container"
  top : "rep-pouncing-Place"
  top : "rep-pouncing-Destination"
  top : "rep-pouncing-Agent"
  top : "rep-pouring-Tool"
  top : "rep-pouring-Substance"
  top : "rep-pouring-Agent"
  top : "rep-pouring-Destination"
  top : "rep-pouring-Place"
  top : "rep-pouring-Source"
  top : "rep-pouting-Agent"
  top : "rep-pouting-Place"
  top : "rep-practicing-Place"
  top : "rep-practicing-Skill"
  top : "rep-practicing-Agent"
  top : "rep-practicing-Tool"
  top : "rep-praying-Agent"
  top : "rep-praying-Place"
  top : "rep-preaching-Place"
  top : "rep-preaching-Addressee"
  top : "rep-preaching-Agent"
  top : "rep-pressing-Place"
  top : "rep-pressing-Item"
  top : "rep-pressing-Agent"
  top : "rep-pricking-Tool"
  top : "rep-pricking-Pricked"
  top : "rep-pricking-Agent"
  top : "rep-pricking-Place"
  top : "rep-protesting-Agent"
  top : "rep-protesting-Place"
  top : "rep-providing-Place"
  top : "rep-providing-Item"
  top : "rep-providing-Agent"
  top : "rep-providing-Recipient"
  top : "rep-providing-Source"
  top : "rep-prowling-Target"
  top : "rep-prowling-Place"
  top : "rep-prowling-Agent"
  top : "rep-pruning-RemovedItem"
  top : "rep-pruning-Source"
  top : "rep-pruning-Tool"
  top : "rep-pruning-Place"
  top : "rep-pruning-Agent"
  top : "rep-prying-Tool"
  top : "rep-prying-Item"
  top : "rep-prying-Place"
  top : "rep-prying-From"
  top : "rep-prying-Agent"
  top : "rep-puckering-Place"
  top : "rep-puckering-AgentPart"
  top : "rep-puckering-Agent"
  top : "rep-pulling-Tool"
  top : "rep-pulling-Item"
  top : "rep-pulling-Agent"
  top : "rep-pulling-Place"
  top : "rep-pumping-Tool"
  top : "rep-pumping-Substance"
  top : "rep-pumping-Agent"
  top : "rep-pumping-Destination"
  top : "rep-pumping-Place"
  top : "rep-pumping-Source"
  top : "rep-punching-Place"
  top : "rep-punching-BodyPart"
  top : "rep-punching-Agent"
  top : "rep-punching-Victim"
  top : "rep-punting-Place"
  top : "rep-punting-Item"
  top : "rep-punting-Agent"
  top : "rep-pushing-Place"
  top : "rep-pushing-Item"
  top : "rep-pushing-AgentPart"
  top : "rep-pushing-Agent"
  top : "rep-putting-Destination"
  top : "rep-putting-Item"
  top : "rep-putting-Agent"
  top : "rep-putting-Place"
  top : "rep-queuing-Agent"
  top : "rep-queuing-Place"
  top : "rep-racing-Agent"
  top : "rep-racing-Place"
  top : "rep-rafting-Agent"
  top : "rep-rafting-Place"
  top : "rep-raining-Place"
  top : "rep-raking-Destination"
  top : "rep-raking-Item"
  top : "rep-raking-Agent"
  top : "rep-raking-Place"
  top : "rep-raking-Source"
  top : "rep-ramming-Victim"
  top : "rep-ramming-Place"
  top : "rep-ramming-RammingItem"
  top : "rep-ramming-Agent"
  top : "rep-reading-Place"
  top : "rep-reading-Item"
  top : "rep-reading-Agent"
  top : "rep-rearing-Agent"
  top : "rep-rearing-Place"
  top : "rep-reassuring-Place"
  top : "rep-reassuring-Reassured"
  top : "rep-reassuring-Agent"
  top : "rep-recording-Phenomenon"
  top : "rep-recording-Place"
  top : "rep-recording-Agent"
  top : "rep-recovering-Ailment"
  top : "rep-recovering-Place"
  top : "rep-recovering-Agent"
  top : "rep-recuperating-Agent"
  top : "rep-recuperating-Place"
  top : "rep-rehabilitating-Place"
  top : "rep-rehabilitating-Item"
  top : "rep-rehabilitating-Agent"
  top : "rep-releasing-Place"
  top : "rep-releasing-ReleasedItem"
  top : "rep-releasing-Agent"
  top : "rep-repairing-Problem"
  top : "rep-repairing-Item"
  top : "rep-repairing-Tool"
  top : "rep-repairing-Place"
  top : "rep-repairing-Agent"
  top : "rep-resting-Place"
  top : "rep-resting-Item"
  top : "rep-resting-Agent"
  top : "rep-resting-Goal"
  top : "rep-restraining-Restrained"
  top : "rep-restraining-Place"
  top : "rep-restraining-Agent"
  top : "rep-retrieving-Object"
  top : "rep-retrieving-Start"
  top : "rep-retrieving-Agent"
  top : "rep-retrieving-Place"
  top : "rep-riding-Agent"
  top : "rep-riding-Place"
  top : "rep-riding-Vehicle"
  top : "rep-rinsing-Object"
  top : "rep-rinsing-Tool"
  top : "rep-rinsing-Agent"
  top : "rep-rinsing-Place"
  top : "rep-rocking-Container"
  top : "rep-rocking-Place"
  top : "rep-rocking-Agent"
  top : "rep-rocking-Rocked"
  top : "rep-rotting-Container"
  top : "rep-rotting-Place"
  top : "rep-rotting-Agent"
  top : "rep-rowing-Agent"
  top : "rep-rowing-Place"
  top : "rep-rowing-Vehicle"
  top : "rep-rubbing-Place"
  top : "rep-rubbing-Item"
  top : "rep-rubbing-AgentPart"
  top : "rep-rubbing-Agent"
  top : "rep-running-Agent"
  top : "rep-running-Place"
  top : "rep-saluting-Target"
  top : "rep-saluting-Place"
  top : "rep-saluting-Agent"
  top : "rep-saying-Adressee"
  top : "rep-saying-Place"
  top : "rep-saying-Agent"
  top : "rep-scolding-Victim"
  top : "rep-scolding-Place"
  top : "rep-scolding-Agent"
  top : "rep-scooping-Tool"
  top : "rep-scooping-Item"
  top : "rep-scooping-Agent"
  top : "rep-scooping-Place"
  top : "rep-scooping-Source"
  top : "rep-scoring-Agent"
  top : "rep-scoring-Place"
  top : "rep-scraping-Place"
  top : "rep-scraping-ScrapedItem"
  top : "rep-scraping-Agent"
  top : "rep-scraping-Tool"
  top : "rep-scratching-Object"
  top : "rep-scratching-Tool"
  top : "rep-scratching-Agent"
  top : "rep-scratching-Place"
  top : "rep-scrubbing-Tool"
  top : "rep-scrubbing-Item"
  top : "rep-scrubbing-Agent"
  top : "rep-scrubbing-Place"
  top : "rep-sealing-Place"
  top : "rep-sealing-Item"
  top : "rep-sealing-Sealant"
  top : "rep-sealing-Agent"
  top : "rep-selling-Item"
  top : "rep-selling-Buyer"
  top : "rep-selling-Seller"
  top : "rep-selling-Place"
  top : "rep-serving-Place"
  top : "rep-serving-Item"
  top : "rep-serving-Served"
  top : "rep-serving-Agent"
  top : "rep-sewing-Tool"
  top : "rep-sewing-Item"
  top : "rep-sewing-Agent"
  top : "rep-sewing-Place"
  top : "rep-shaking-Tool"
  top : "rep-shaking-Item"
  top : "rep-shaking-Agent"
  top : "rep-shaking-Place"
  top : "rep-sharpening-Tool"
  top : "rep-sharpening-Item"
  top : "rep-sharpening-Agent"
  top : "rep-sharpening-Place"
  top : "rep-shaving-CoAgent"
  top : "rep-shaving-Substance"
  top : "rep-shaving-Place"
  top : "rep-shaving-Agent"
  top : "rep-shaving-Tool"
  top : "rep-shaving-BodyPart"
  top : "rep-shearing-Place"
  top : "rep-shearing-Item"
  top : "rep-shearing-Source"
  top : "rep-shearing-Agent"
  top : "rep-shelling-Place"
  top : "rep-shelling-Object"
  top : "rep-shelling-Agent"
  top : "rep-shelving-Destination"
  top : "rep-shelving-Item"
  top : "rep-shelving-Agent"
  top : "rep-shelving-Place"
  top : "rep-shivering-Agent"
  top : "rep-shivering-Place"
  top : "rep-shooting-Firearm"
  top : "rep-shooting-Target"
  top : "rep-shooting-Projectile"
  top : "rep-shooting-Agent"
  top : "rep-shopping-Place"
  top : "rep-shopping-Goods"
  top : "rep-shopping-Agent"
  top : "rep-shouting-Place"
  top : "rep-shouting-Addressee"
  top : "rep-shouting-Agent"
  top : "rep-shoveling-Place"
  top : "rep-shoveling-Item"
  top : "rep-shoveling-Source"
  top : "rep-shoveling-Agent"
  top : "rep-shredding-Tool"
  top : "rep-shredding-Item"
  top : "rep-shredding-Agent"
  top : "rep-shredding-Place"
  top : "rep-shrugging-Agent"
  top : "rep-shrugging-Place"
  top : "rep-shushing-Target"
  top : "rep-shushing-Place"
  top : "rep-shushing-Agent"
  top : "rep-signaling-Message"
  top : "rep-signaling-Place"
  top : "rep-signaling-Tool"
  top : "rep-signaling-Recipient"
  top : "rep-signaling-Agent"
  top : "rep-signing-Place"
  top : "rep-signing-Tool"
  top : "rep-signing-SignedItem"
  top : "rep-signing-Agent"
  top : "rep-singing-Agent"
  top : "rep-singing-Place"
  top : "rep-sitting-Place"
  top : "rep-sitting-Contact"
  top : "rep-sitting-Agent"
  top : "rep-skating-Agent"
  top : "rep-skating-Place"
  top : "rep-skating-Vehicle"
  top : "rep-sketching-Material"
  top : "rep-sketching-Image"
  top : "rep-sketching-Tool"
  top : "rep-sketching-Place"
  top : "rep-sketching-Agent"
  top : "rep-skidding-Agent"
  top : "rep-skidding-Place"
  top : "rep-skiing-Agent"
  top : "rep-skiing-Place"
  top : "rep-skipping-Place"
  top : "rep-skipping-Obstacle"
  top : "rep-skipping-Agent"
  top : "rep-slapping-Place"
  top : "rep-slapping-Tool"
  top : "rep-slapping-Agent"
  top : "rep-slapping-Victim"
  top : "rep-slapping-VictimPart"
  top : "rep-sleeping-Agent"
  top : "rep-sleeping-Place"
  top : "rep-slicing-Tool"
  top : "rep-slicing-SlicedItem"
  top : "rep-slicing-Agent"
  top : "rep-slicing-Place"
  top : "rep-sliding-Destination"
  top : "rep-sliding-Slider"
  top : "rep-sliding-Surface"
  top : "rep-sliding-Place"
  top : "rep-sliding-Agent"
  top : "rep-slipping-Place"
  top : "rep-slipping-Destination"
  top : "rep-slipping-Agent"
  top : "rep-slithering-Agent"
  top : "rep-slithering-Place"
  top : "rep-slouching-Place"
  top : "rep-slouching-Contact"
  top : "rep-slouching-Agent"
  top : "rep-smashing-Tool"
  top : "rep-smashing-Smashed"
  top : "rep-smashing-Against"
  top : "rep-smashing-Place"
  top : "rep-smashing-Agent"
  top : "rep-smearing-Tool"
  top : "rep-smearing-Item"
  top : "rep-smearing-Surface"
  top : "rep-smearing-Place"
  top : "rep-smearing-Agent"
  top : "rep-smelling-Place"
  top : "rep-smelling-Item"
  top : "rep-smelling-Agent"
  top : "rep-smiling-Agent"
  top : "rep-smiling-Place"
  top : "rep-sneezing-Agent"
  top : "rep-sneezing-Place"
  top : "rep-sniffing-Place"
  top : "rep-sniffing-Item"
  top : "rep-sniffing-Agent"
  top : "rep-snowing-Place"
  top : "rep-snuggling-Place"
  top : "rep-snuggling-CoAgent"
  top : "rep-snuggling-Agent"
  top : "rep-soaking-Place"
  top : "rep-soaking-Item"
  top : "rep-soaking-Container"
  top : "rep-soaking-Substance"
  top : "rep-soaking-Agent"
  top : "rep-soaring-Agent"
  top : "rep-soaring-Place"
  top : "rep-socializing-Place"
  top : "rep-socializing-CoAgent"
  top : "rep-socializing-Agent"
  top : "rep-sowing-Place"
  top : "rep-sowing-Tool"
  top : "rep-sowing-Agent"
  top : "rep-spanking-Place"
  top : "rep-spanking-Tool"
  top : "rep-spanking-Agent"
  top : "rep-spanking-Victim"
  top : "rep-speaking-Place"
  top : "rep-speaking-CoAgent"
  top : "rep-speaking-Agent"
  top : "rep-spearing-Victim"
  top : "rep-spearing-Place"
  top : "rep-spearing-Agent"
  top : "rep-spilling-Source"
  top : "rep-spilling-Destination"
  top : "rep-spilling-Place"
  top : "rep-spilling-Substance"
  top : "rep-spilling-Agent"
  top : "rep-spinning-Material"
  top : "rep-spinning-Tool"
  top : "rep-spinning-Agent"
  top : "rep-spinning-Place"
  top : "rep-spitting-Place"
  top : "rep-spitting-Item"
  top : "rep-spitting-Agent"
  top : "rep-spitting-Target"
  top : "rep-splashing-Tool"
  top : "rep-splashing-Place"
  top : "rep-splashing-Substance"
  top : "rep-splashing-Destination"
  top : "rep-splashing-Agent"
  top : "rep-spoiling-Agent"
  top : "rep-spoiling-Place"
  top : "rep-spraying-Source"
  top : "rep-spraying-Destination"
  top : "rep-spraying-Place"
  top : "rep-spraying-Substance"
  top : "rep-spraying-Agent"
  top : "rep-spreading-Substance"
  top : "rep-spreading-Tool"
  top : "rep-spreading-Surface"
  top : "rep-spreading-Place"
  top : "rep-spreading-Agent"
  top : "rep-sprinkling-Destination"
  top : "rep-sprinkling-Item"
  top : "rep-sprinkling-Agent"
  top : "rep-sprinkling-Place"
  top : "rep-sprinkling-Source"
  top : "rep-sprinting-Agent"
  top : "rep-sprinting-Place"
  top : "rep-sprouting-Place"
  top : "rep-sprouting-Sprouter"
  top : "rep-spying-Place"
  top : "rep-spying-Tool"
  top : "rep-spying-Agent"
  top : "rep-spying-Target"
  top : "rep-squeezing-Tool"
  top : "rep-squeezing-Item"
  top : "rep-squeezing-Agent"
  top : "rep-squeezing-Place"
  top : "rep-squinting-Place"
  top : "rep-squinting-Item"
  top : "rep-squinting-Agent"
  top : "rep-stacking-Place"
  top : "rep-stacking-Top"
  top : "rep-stacking-Bottom"
  top : "rep-stacking-Agent"
  top : "rep-stampeding-Agent"
  top : "rep-stampeding-Place"
  top : "rep-standing-Agent"
  top : "rep-standing-Place"
  top : "rep-stapling-Tool"
  top : "rep-stapling-Item"
  top : "rep-stapling-Surface"
  top : "rep-stapling-Place"
  top : "rep-stapling-Agent"
  top : "rep-staring-Place"
  top : "rep-staring-Item"
  top : "rep-staring-Agent"
  top : "rep-steering-Place"
  top : "rep-steering-Tool"
  top : "rep-steering-Vehicle"
  top : "rep-steering-Agent"
  top : "rep-stinging-Victim"
  top : "rep-stinging-Place"
  top : "rep-stinging-VictimPart"
  top : "rep-stinging-Agent"
  top : "rep-stirring-Tool"
  top : "rep-stirring-Item"
  top : "rep-stirring-Place"
  top : "rep-stirring-Container"
  top : "rep-stirring-Agent"
  top : "rep-stitching-Place"
  top : "rep-stitching-Tool"
  top : "rep-stitching-Agent"
  top : "rep-stitching-Fastener"
  top : "rep-stooping-Agent"
  top : "rep-stooping-Place"
  top : "rep-storming-Place"
  top : "rep-strapping-Destination"
  top : "rep-strapping-Strapped"
  top : "rep-strapping-Agent"
  top : "rep-strapping-Place"
  top : "rep-strapping-Strap"
  top : "rep-stretching-Place"
  top : "rep-stretching-Item"
  top : "rep-stretching-Agent"
  top : "rep-striking-CoAgent"
  top : "rep-striking-AgentPart"
  top : "rep-striking-Tool"
  top : "rep-striking-Place"
  top : "rep-striking-Agent"
  top : "rep-stripping-RemovedItem"
  top : "rep-stripping-Source"
  top : "rep-stripping-Tool"
  top : "rep-stripping-Place"
  top : "rep-stripping-Agent"
  top : "rep-stroking-Place"
  top : "rep-stroking-Object"
  top : "rep-stroking-Agent"
  top : "rep-stroking-Part"
  top : "rep-studying-Agent"
  top : "rep-studying-Place"
  top : "rep-stuffing-Destination"
  top : "rep-stuffing-Item"
  top : "rep-stuffing-Agent"
  top : "rep-stuffing-Place"
  top : "rep-stumbling-Place"
  top : "rep-stumbling-Destination"
  top : "rep-stumbling-Agent"
  top : "rep-subduing-Target"
  top : "rep-subduing-Place"
  top : "rep-subduing-Agent"
  top : "rep-submerging-Object"
  top : "rep-submerging-Place"
  top : "rep-submerging-Agent"
  top : "rep-submerging-Substance"
  top : "rep-sucking-Place"
  top : "rep-sucking-Item"
  top : "rep-sucking-Agent"
  top : "rep-surfing-Tool"
  top : "rep-surfing-Path"
  top : "rep-surfing-Agent"
  top : "rep-surfing-Place"
  top : "rep-swarming-Place"
  top : "rep-swarming-AgentType"
  top : "rep-sweeping-Surface"
  top : "rep-sweeping-Place"
  top : "rep-sweeping-Brush"
  top : "rep-sweeping-Agent"
  top : "rep-swimming-Agent"
  top : "rep-swimming-Place"
  top : "rep-swinging-Place"
  top : "rep-swinging-Carrier"
  top : "rep-swinging-Agent"
  top : "rep-swooping-Agent"
  top : "rep-swooping-Place"
  top : "rep-tackling-Victim"
  top : "rep-tackling-Place"
  top : "rep-tackling-Agent"
  top : "rep-talking-Place"
  top : "rep-talking-Listener"
  top : "rep-talking-Agent"
  top : "rep-taping-Destination"
  top : "rep-taping-Item"
  top : "rep-taping-Agent"
  top : "rep-taping-Place"
  top : "rep-tasting-Tool"
  top : "rep-tasting-Item"
  top : "rep-tasting-Agent"
  top : "rep-tasting-Place"
  top : "rep-tattooing-Place"
  top : "rep-tattooing-Tool"
  top : "rep-tattooing-Agent"
  top : "rep-tattooing-Target"
  top : "rep-taxiing-Agent"
  top : "rep-taxiing-Place"
  top : "rep-taxiing-Ground"
  top : "rep-teaching-Teacher"
  top : "rep-teaching-Place"
  top : "rep-teaching-Student"
  top : "rep-tearing-Tool"
  top : "rep-tearing-Item"
  top : "rep-tearing-Agent"
  top : "rep-tearing-Place"
  top : "rep-telephoning-Agent"
  top : "rep-telephoning-Place"
  top : "rep-throwing-Destination"
  top : "rep-throwing-Item"
  top : "rep-throwing-Agent"
  top : "rep-throwing-Place"
  top : "rep-tickling-Object"
  top : "rep-tickling-Tickled"
  top : "rep-tickling-Agent"
  top : "rep-tickling-Place"
  top : "rep-tilling-Place"
  top : "rep-tilling-Tool"
  top : "rep-tilling-Agent"
  top : "rep-tilting-Place"
  top : "rep-tilting-Item"
  top : "rep-tilting-AgentPart"
  top : "rep-tilting-Agent"
  top : "rep-tipping-Place"
  top : "rep-tipping-Item"
  top : "rep-tipping-AgentPart"
  top : "rep-tipping-Agent"
  top : "rep-towing-Place"
  top : "rep-towing-Item"
  top : "rep-towing-Agent"
  top : "rep-training-Student"
  top : "rep-training-Place"
  top : "rep-training-Agent"
  top : "rep-trimming-Tool"
  top : "rep-trimming-Item"
  top : "rep-trimming-ItemPart"
  top : "rep-trimming-Place"
  top : "rep-trimming-Agent"
  top : "rep-tripping-Place"
  top : "rep-tripping-Item"
  top : "rep-tripping-Agent"
  top : "rep-tugging-Place"
  top : "rep-tugging-Item"
  top : "rep-tugging-Agent"
  top : "rep-tuning-Object"
  top : "rep-tuning-Tool"
  top : "rep-tuning-Agent"
  top : "rep-tuning-Place"
  top : "rep-turning-TurnedItem"
  top : "rep-turning-Place"
  top : "rep-turning-Agent"
  top : "rep-twirling-Place"
  top : "rep-twirling-CoAgent"
  top : "rep-twirling-Agent"
  top : "rep-twisting-Place"
  top : "rep-twisting-AgentPart"
  top : "rep-twisting-Agent"
  top : "rep-tying-Item"
  top : "rep-tying-Connector"
  top : "rep-tying-Place"
  top : "rep-tying-Destination"
  top : "rep-tying-Agent"
  top : "rep-typing-Place"
  top : "rep-typing-Tool"
  top : "rep-typing-Agent"
  top : "rep-uncorking-Tool"
  top : "rep-uncorking-Place"
  top : "rep-uncorking-Agent"
  top : "rep-uncorking-Container"
  top : "rep-unloading-Tool"
  top : "rep-unloading-Item"
  top : "rep-unloading-Agent"
  top : "rep-unloading-Place"
  top : "rep-unloading-Source"
  top : "rep-unlocking-Tool"
  top : "rep-unlocking-Lock"
  top : "rep-unlocking-Place"
  top : "rep-unlocking-Container"
  top : "rep-unlocking-Agent"
  top : "rep-unpacking-Place"
  top : "rep-unpacking-Item"
  top : "rep-unpacking-Agent"
  top : "rep-unpacking-Container"
  top : "rep-unplugging-Unplugged"
  top : "rep-unplugging-Place"
  top : "rep-unplugging-Agent"
  top : "rep-unveiling-Place"
  top : "rep-unveiling-Object"
  top : "rep-unveiling-Agent"
  top : "rep-urinating-Target"
  top : "rep-urinating-Place"
  top : "rep-urinating-Agent"
  top : "rep-vacuuming-Place"
  top : "rep-vacuuming-Tool"
  top : "rep-vacuuming-Agent"
  top : "rep-vacuuming-Surface"
  top : "rep-vaulting-Tool"
  top : "rep-vaulting-End"
  top : "rep-vaulting-Start"
  top : "rep-vaulting-Agent"
  top : "rep-vaulting-Place"
  top : "rep-vaulting-Obstacle"
  top : "rep-videotaping-Place"
  top : "rep-videotaping-Depicted"
  top : "rep-videotaping-Agent"
  top : "rep-voting-Agent"
  top : "rep-voting-Place"
  top : "rep-waddling-Agent"
  top : "rep-waddling-Place"
  top : "rep-wading-Place"
  top : "rep-wading-Substance"
  top : "rep-wading-Agent"
  top : "rep-wagging-Addressee"
  top : "rep-wagging-AgentPart"
  top : "rep-wagging-Agent"
  top : "rep-wagging-Place"
  top : "rep-waiting-Agent"
  top : "rep-waiting-Place"
  top : "rep-walking-Agent"
  top : "rep-walking-Place"
  top : "rep-washing-Tool"
  top : "rep-washing-Item"
  top : "rep-washing-Agent"
  top : "rep-washing-Place"
  top : "rep-washing-Dirt"
  top : "rep-watering-Tool"
  top : "rep-watering-Place"
  top : "rep-watering-Agent"
  top : "rep-watering-Recipient"
  top : "rep-waving-Place"
  top : "rep-waving-Agentpart"
  top : "rep-waving-Agent"
  top : "rep-waxing-BodyPart"
  top : "rep-waxing-CoAgent"
  top : "rep-waxing-Agent"
  top : "rep-waxing-Place"
  top : "rep-weeding-Place"
  top : "rep-weeding-Tool"
  top : "rep-weeding-Agent"
  top : "rep-weeping-Agent"
  top : "rep-weeping-Place"
  top : "rep-weighing-Tool"
  top : "rep-weighing-Place"
  top : "rep-weighing-Agent"
  top : "rep-weighing-Mass"
  top : "rep-welding-Tool"
  top : "rep-welding-Item"
  top : "rep-welding-Surface"
  top : "rep-welding-Place"
  top : "rep-welding-Agent"
  top : "rep-wetting-Object"
  top : "rep-wetting-Tool"
  top : "rep-wetting-Liquid"
  top : "rep-wetting-Place"
  top : "rep-wetting-Agent"
  top : "rep-wheeling-Carrier"
  top : "rep-wheeling-Item"
  top : "rep-wheeling-Agent"
  top : "rep-wheeling-Place"
  top : "rep-whipping-Tool"
  top : "rep-whipping-Item"
  top : "rep-whipping-Agent"
  top : "rep-whipping-Place"
  top : "rep-whirling-Agent"
  top : "rep-whirling-Place"
  top : "rep-whisking-Place"
  top : "rep-whisking-Item"
  top : "rep-whisking-Agent"
  top : "rep-whisking-Container"
  top : "rep-whistling-Place"
  top : "rep-whistling-Tool"
  top : "rep-whistling-Agent"
  top : "rep-wilting-Agent"
  top : "rep-wilting-Place"
  top : "rep-winking-Place"
  top : "rep-winking-Addressee"
  top : "rep-winking-Agent"
  top : "rep-wiping-Tool"
  top : "rep-wiping-Source"
  top : "rep-wiping-Place"
  top : "rep-wiping-Substance"
  top : "rep-wiping-Agent"
  top : "rep-working-Focus"
  top : "rep-working-Place"
  top : "rep-working-Agent"
  top : "rep-wrapping-Place"
  top : "rep-wrapping-WrappedItem"
  top : "rep-wrapping-Agent"
  top : "rep-wrapping-WrappingItem"
  top : "rep-wringing-Place"
  top : "rep-wringing-Item"
  top : "rep-wringing-Agent"
  top : "rep-wrinkling-Place"
  top : "rep-wrinkling-AgentPart"
  top : "rep-wrinkling-Agent"
  top : "rep-writing-Place"
  top : "rep-writing-Tool"
  top : "rep-writing-Agent"
  top : "rep-writing-Target"
  top : "rep-yanking-Yanked"
  top : "rep-yanking-Place"
  top : "rep-yanking-YankedPart"
  top : "rep-yanking-Agent"
  top : "rep-yawning-Agent"
  top : "rep-yawning-Place"
  slice_param {
    axis: 1
        slice_point: 512
    slice_point: 1024
    slice_point: 1536
    slice_point: 2048
    slice_point: 2560
    slice_point: 3072
    slice_point: 3584
    slice_point: 4096
    slice_point: 4608
    slice_point: 5120
    slice_point: 5632
    slice_point: 6144
    slice_point: 6656
    slice_point: 7168
    slice_point: 7680
    slice_point: 8192
    slice_point: 8704
    slice_point: 9216
    slice_point: 9728
    slice_point: 10240
    slice_point: 10752
    slice_point: 11264
    slice_point: 11776
    slice_point: 12288
    slice_point: 12800
    slice_point: 13312
    slice_point: 13824
    slice_point: 14336
    slice_point: 14848
    slice_point: 15360
    slice_point: 15872
    slice_point: 16384
    slice_point: 16896
    slice_point: 17408
    slice_point: 17920
    slice_point: 18432
    slice_point: 18944
    slice_point: 19456
    slice_point: 19968
    slice_point: 20480
    slice_point: 20992
    slice_point: 21504
    slice_point: 22016
    slice_point: 22528
    slice_point: 23040
    slice_point: 23552
    slice_point: 24064
    slice_point: 24576
    slice_point: 25088
    slice_point: 25600
    slice_point: 26112
    slice_point: 26624
    slice_point: 27136
    slice_point: 27648
    slice_point: 28160
    slice_point: 28672
    slice_point: 29184
    slice_point: 29696
    slice_point: 30208
    slice_point: 30720
    slice_point: 31232
    slice_point: 31744
    slice_point: 32256
    slice_point: 32768
    slice_point: 33280
    slice_point: 33792
    slice_point: 34304
    slice_point: 34816
    slice_point: 35328
    slice_point: 35840
    slice_point: 36352
    slice_point: 36864
    slice_point: 37376
    slice_point: 37888
    slice_point: 38400
    slice_point: 38912
    slice_point: 39424
    slice_point: 39936
    slice_point: 40448
    slice_point: 40960
    slice_point: 41472
    slice_point: 41984
    slice_point: 42496
    slice_point: 43008
    slice_point: 43520
    slice_point: 44032
    slice_point: 44544
    slice_point: 45056
    slice_point: 45568
    slice_point: 46080
    slice_point: 46592
    slice_point: 47104
    slice_point: 47616
    slice_point: 48128
    slice_point: 48640
    slice_point: 49152
    slice_point: 49664
    slice_point: 50176
    slice_point: 50688
    slice_point: 51200
    slice_point: 51712
    slice_point: 52224
    slice_point: 52736
    slice_point: 53248
    slice_point: 53760
    slice_point: 54272
    slice_point: 54784
    slice_point: 55296
    slice_point: 55808
    slice_point: 56320
    slice_point: 56832
    slice_point: 57344
    slice_point: 57856
    slice_point: 58368
    slice_point: 58880
    slice_point: 59392
    slice_point: 59904
    slice_point: 60416
    slice_point: 60928
    slice_point: 61440
    slice_point: 61952
    slice_point: 62464
    slice_point: 62976
    slice_point: 63488
    slice_point: 64000
    slice_point: 64512
    slice_point: 65024
    slice_point: 65536
    slice_point: 66048
    slice_point: 66560
    slice_point: 67072
    slice_point: 67584
    slice_point: 68096
    slice_point: 68608
    slice_point: 69120
    slice_point: 69632
    slice_point: 70144
    slice_point: 70656
    slice_point: 71168
    slice_point: 71680
    slice_point: 72192
    slice_point: 72704
    slice_point: 73216
    slice_point: 73728
    slice_point: 74240
    slice_point: 74752
    slice_point: 75264
    slice_point: 75776
    slice_point: 76288
    slice_point: 76800
    slice_point: 77312
    slice_point: 77824
    slice_point: 78336
    slice_point: 78848
    slice_point: 79360
    slice_point: 79872
    slice_point: 80384
    slice_point: 80896
    slice_point: 81408
    slice_point: 81920
    slice_point: 82432
    slice_point: 82944
    slice_point: 83456
    slice_point: 83968
    slice_point: 84480
    slice_point: 84992
    slice_point: 85504
    slice_point: 86016
    slice_point: 86528
    slice_point: 87040
    slice_point: 87552
    slice_point: 88064
    slice_point: 88576
    slice_point: 89088
    slice_point: 89600
    slice_point: 90112
    slice_point: 90624
    slice_point: 91136
    slice_point: 91648
    slice_point: 92160
    slice_point: 92672
    slice_point: 93184
    slice_point: 93696
    slice_point: 94208
    slice_point: 94720
    slice_point: 95232
    slice_point: 95744
    slice_point: 96256
    slice_point: 96768
    slice_point: 97280
    slice_point: 97792
    slice_point: 98304
    slice_point: 98816
    slice_point: 99328
    slice_point: 99840
    slice_point: 100352
    slice_point: 100864
    slice_point: 101376
    slice_point: 101888
    slice_point: 102400
    slice_point: 102912
    slice_point: 103424
    slice_point: 103936
    slice_point: 104448
    slice_point: 104960
    slice_point: 105472
    slice_point: 105984
    slice_point: 106496
    slice_point: 107008
    slice_point: 107520
    slice_point: 108032
    slice_point: 108544
    slice_point: 109056
    slice_point: 109568
    slice_point: 110080
    slice_point: 110592
    slice_point: 111104
    slice_point: 111616
    slice_point: 112128
    slice_point: 112640
    slice_point: 113152
    slice_point: 113664
    slice_point: 114176
    slice_point: 114688
    slice_point: 115200
    slice_point: 115712
    slice_point: 116224
    slice_point: 116736
    slice_point: 117248
    slice_point: 117760
    slice_point: 118272
    slice_point: 118784
    slice_point: 119296
    slice_point: 119808
    slice_point: 120320
    slice_point: 120832
    slice_point: 121344
    slice_point: 121856
    slice_point: 122368
    slice_point: 122880
    slice_point: 123392
    slice_point: 123904
    slice_point: 124416
    slice_point: 124928
    slice_point: 125440
    slice_point: 125952
    slice_point: 126464
    slice_point: 126976
    slice_point: 127488
    slice_point: 128000
    slice_point: 128512
    slice_point: 129024
    slice_point: 129536
    slice_point: 130048
    slice_point: 130560
    slice_point: 131072
    slice_point: 131584
    slice_point: 132096
    slice_point: 132608
    slice_point: 133120
    slice_point: 133632
    slice_point: 134144
    slice_point: 134656
    slice_point: 135168
    slice_point: 135680
    slice_point: 136192
    slice_point: 136704
    slice_point: 137216
    slice_point: 137728
    slice_point: 138240
    slice_point: 138752
    slice_point: 139264
    slice_point: 139776
    slice_point: 140288
    slice_point: 140800
    slice_point: 141312
    slice_point: 141824
    slice_point: 142336
    slice_point: 142848
    slice_point: 143360
    slice_point: 143872
    slice_point: 144384
    slice_point: 144896
    slice_point: 145408
    slice_point: 145920
    slice_point: 146432
    slice_point: 146944
    slice_point: 147456
    slice_point: 147968
    slice_point: 148480
    slice_point: 148992
    slice_point: 149504
    slice_point: 150016
    slice_point: 150528
    slice_point: 151040
    slice_point: 151552
    slice_point: 152064
    slice_point: 152576
    slice_point: 153088
    slice_point: 153600
    slice_point: 154112
    slice_point: 154624
    slice_point: 155136
    slice_point: 155648
    slice_point: 156160
    slice_point: 156672
    slice_point: 157184
    slice_point: 157696
    slice_point: 158208
    slice_point: 158720
    slice_point: 159232
    slice_point: 159744
    slice_point: 160256
    slice_point: 160768
    slice_point: 161280
    slice_point: 161792
    slice_point: 162304
    slice_point: 162816
    slice_point: 163328
    slice_point: 163840
    slice_point: 164352
    slice_point: 164864
    slice_point: 165376
    slice_point: 165888
    slice_point: 166400
    slice_point: 166912
    slice_point: 167424
    slice_point: 167936
    slice_point: 168448
    slice_point: 168960
    slice_point: 169472
    slice_point: 169984
    slice_point: 170496
    slice_point: 171008
    slice_point: 171520
    slice_point: 172032
    slice_point: 172544
    slice_point: 173056
    slice_point: 173568
    slice_point: 174080
    slice_point: 174592
    slice_point: 175104
    slice_point: 175616
    slice_point: 176128
    slice_point: 176640
    slice_point: 177152
    slice_point: 177664
    slice_point: 178176
    slice_point: 178688
    slice_point: 179200
    slice_point: 179712
    slice_point: 180224
    slice_point: 180736
    slice_point: 181248
    slice_point: 181760
    slice_point: 182272
    slice_point: 182784
    slice_point: 183296
    slice_point: 183808
    slice_point: 184320
    slice_point: 184832
    slice_point: 185344
    slice_point: 185856
    slice_point: 186368
    slice_point: 186880
    slice_point: 187392
    slice_point: 187904
    slice_point: 188416
    slice_point: 188928
    slice_point: 189440
    slice_point: 189952
    slice_point: 190464
    slice_point: 190976
    slice_point: 191488
    slice_point: 192000
    slice_point: 192512
    slice_point: 193024
    slice_point: 193536
    slice_point: 194048
    slice_point: 194560
    slice_point: 195072
    slice_point: 195584
    slice_point: 196096
    slice_point: 196608
    slice_point: 197120
    slice_point: 197632
    slice_point: 198144
    slice_point: 198656
    slice_point: 199168
    slice_point: 199680
    slice_point: 200192
    slice_point: 200704
    slice_point: 201216
    slice_point: 201728
    slice_point: 202240
    slice_point: 202752
    slice_point: 203264
    slice_point: 203776
    slice_point: 204288
    slice_point: 204800
    slice_point: 205312
    slice_point: 205824
    slice_point: 206336
    slice_point: 206848
    slice_point: 207360
    slice_point: 207872
    slice_point: 208384
    slice_point: 208896
    slice_point: 209408
    slice_point: 209920
    slice_point: 210432
    slice_point: 210944
    slice_point: 211456
    slice_point: 211968
    slice_point: 212480
    slice_point: 212992
    slice_point: 213504
    slice_point: 214016
    slice_point: 214528
    slice_point: 215040
    slice_point: 215552
    slice_point: 216064
    slice_point: 216576
    slice_point: 217088
    slice_point: 217600
    slice_point: 218112
    slice_point: 218624
    slice_point: 219136
    slice_point: 219648
    slice_point: 220160
    slice_point: 220672
    slice_point: 221184
    slice_point: 221696
    slice_point: 222208
    slice_point: 222720
    slice_point: 223232
    slice_point: 223744
    slice_point: 224256
    slice_point: 224768
    slice_point: 225280
    slice_point: 225792
    slice_point: 226304
    slice_point: 226816
    slice_point: 227328
    slice_point: 227840
    slice_point: 228352
    slice_point: 228864
    slice_point: 229376
    slice_point: 229888
    slice_point: 230400
    slice_point: 230912
    slice_point: 231424
    slice_point: 231936
    slice_point: 232448
    slice_point: 232960
    slice_point: 233472
    slice_point: 233984
    slice_point: 234496
    slice_point: 235008
    slice_point: 235520
    slice_point: 236032
    slice_point: 236544
    slice_point: 237056
    slice_point: 237568
    slice_point: 238080
    slice_point: 238592
    slice_point: 239104
    slice_point: 239616
    slice_point: 240128
    slice_point: 240640
    slice_point: 241152
    slice_point: 241664
    slice_point: 242176
    slice_point: 242688
    slice_point: 243200
    slice_point: 243712
    slice_point: 244224
    slice_point: 244736
    slice_point: 245248
    slice_point: 245760
    slice_point: 246272
    slice_point: 246784
    slice_point: 247296
    slice_point: 247808
    slice_point: 248320
    slice_point: 248832
    slice_point: 249344
    slice_point: 249856
    slice_point: 250368
    slice_point: 250880
    slice_point: 251392
    slice_point: 251904
    slice_point: 252416
    slice_point: 252928
    slice_point: 253440
    slice_point: 253952
    slice_point: 254464
    slice_point: 254976
    slice_point: 255488
    slice_point: 256000
    slice_point: 256512
    slice_point: 257024
    slice_point: 257536
    slice_point: 258048
    slice_point: 258560
    slice_point: 259072
    slice_point: 259584
    slice_point: 260096
    slice_point: 260608
    slice_point: 261120
    slice_point: 261632
    slice_point: 262144
    slice_point: 262656
    slice_point: 263168
    slice_point: 263680
    slice_point: 264192
    slice_point: 264704
    slice_point: 265216
    slice_point: 265728
    slice_point: 266240
    slice_point: 266752
    slice_point: 267264
    slice_point: 267776
    slice_point: 268288
    slice_point: 268800
    slice_point: 269312
    slice_point: 269824
    slice_point: 270336
    slice_point: 270848
    slice_point: 271360
    slice_point: 271872
    slice_point: 272384
    slice_point: 272896
    slice_point: 273408
    slice_point: 273920
    slice_point: 274432
    slice_point: 274944
    slice_point: 275456
    slice_point: 275968
    slice_point: 276480
    slice_point: 276992
    slice_point: 277504
    slice_point: 278016
    slice_point: 278528
    slice_point: 279040
    slice_point: 279552
    slice_point: 280064
    slice_point: 280576
    slice_point: 281088
    slice_point: 281600
    slice_point: 282112
    slice_point: 282624
    slice_point: 283136
    slice_point: 283648
    slice_point: 284160
    slice_point: 284672
    slice_point: 285184
    slice_point: 285696
    slice_point: 286208
    slice_point: 286720
    slice_point: 287232
    slice_point: 287744
    slice_point: 288256
    slice_point: 288768
    slice_point: 289280
    slice_point: 289792
    slice_point: 290304
    slice_point: 290816
    slice_point: 291328
    slice_point: 291840
    slice_point: 292352
    slice_point: 292864
    slice_point: 293376
    slice_point: 293888
    slice_point: 294400
    slice_point: 294912
    slice_point: 295424
    slice_point: 295936
    slice_point: 296448
    slice_point: 296960
    slice_point: 297472
    slice_point: 297984
    slice_point: 298496
    slice_point: 299008
    slice_point: 299520
    slice_point: 300032
    slice_point: 300544
    slice_point: 301056
    slice_point: 301568
    slice_point: 302080
    slice_point: 302592
    slice_point: 303104
    slice_point: 303616
    slice_point: 304128
    slice_point: 304640
    slice_point: 305152
    slice_point: 305664
    slice_point: 306176
    slice_point: 306688
    slice_point: 307200
    slice_point: 307712
    slice_point: 308224
    slice_point: 308736
    slice_point: 309248
    slice_point: 309760
    slice_point: 310272
    slice_point: 310784
    slice_point: 311296
    slice_point: 311808
    slice_point: 312320
    slice_point: 312832
    slice_point: 313344
    slice_point: 313856
    slice_point: 314368
    slice_point: 314880
    slice_point: 315392
    slice_point: 315904
    slice_point: 316416
    slice_point: 316928
    slice_point: 317440
    slice_point: 317952
    slice_point: 318464
    slice_point: 318976
    slice_point: 319488
    slice_point: 320000
    slice_point: 320512
    slice_point: 321024
    slice_point: 321536
    slice_point: 322048
    slice_point: 322560
    slice_point: 323072
    slice_point: 323584
    slice_point: 324096
    slice_point: 324608
    slice_point: 325120
    slice_point: 325632
    slice_point: 326144
    slice_point: 326656
    slice_point: 327168
    slice_point: 327680
    slice_point: 328192
    slice_point: 328704
    slice_point: 329216
    slice_point: 329728
    slice_point: 330240
    slice_point: 330752
    slice_point: 331264
    slice_point: 331776
    slice_point: 332288
    slice_point: 332800
    slice_point: 333312
    slice_point: 333824
    slice_point: 334336
    slice_point: 334848
    slice_point: 335360
    slice_point: 335872
    slice_point: 336384
    slice_point: 336896
    slice_point: 337408
    slice_point: 337920
    slice_point: 338432
    slice_point: 338944
    slice_point: 339456
    slice_point: 339968
    slice_point: 340480
    slice_point: 340992
    slice_point: 341504
    slice_point: 342016
    slice_point: 342528
    slice_point: 343040
    slice_point: 343552
    slice_point: 344064
    slice_point: 344576
    slice_point: 345088
    slice_point: 345600
    slice_point: 346112
    slice_point: 346624
    slice_point: 347136
    slice_point: 347648
    slice_point: 348160
    slice_point: 348672
    slice_point: 349184
    slice_point: 349696
    slice_point: 350208
    slice_point: 350720
    slice_point: 351232
    slice_point: 351744
    slice_point: 352256
    slice_point: 352768
    slice_point: 353280
    slice_point: 353792
    slice_point: 354304
    slice_point: 354816
    slice_point: 355328
    slice_point: 355840
    slice_point: 356352
    slice_point: 356864
    slice_point: 357376
    slice_point: 357888
    slice_point: 358400
    slice_point: 358912
    slice_point: 359424
    slice_point: 359936
    slice_point: 360448
    slice_point: 360960
    slice_point: 361472
    slice_point: 361984
    slice_point: 362496
    slice_point: 363008
    slice_point: 363520
    slice_point: 364032
    slice_point: 364544
    slice_point: 365056
    slice_point: 365568
    slice_point: 366080
    slice_point: 366592
    slice_point: 367104
    slice_point: 367616
    slice_point: 368128
    slice_point: 368640
    slice_point: 369152
    slice_point: 369664
    slice_point: 370176
    slice_point: 370688
    slice_point: 371200
    slice_point: 371712
    slice_point: 372224
    slice_point: 372736
    slice_point: 373248
    slice_point: 373760
    slice_point: 374272
    slice_point: 374784
    slice_point: 375296
    slice_point: 375808
    slice_point: 376320
    slice_point: 376832
    slice_point: 377344
    slice_point: 377856
    slice_point: 378368
    slice_point: 378880
    slice_point: 379392
    slice_point: 379904
    slice_point: 380416
    slice_point: 380928
    slice_point: 381440
    slice_point: 381952
    slice_point: 382464
    slice_point: 382976
    slice_point: 383488
    slice_point: 384000
    slice_point: 384512
    slice_point: 385024
    slice_point: 385536
    slice_point: 386048
    slice_point: 386560
    slice_point: 387072
    slice_point: 387584
    slice_point: 388096
    slice_point: 388608
    slice_point: 389120
    slice_point: 389632
    slice_point: 390144
    slice_point: 390656
    slice_point: 391168
    slice_point: 391680
    slice_point: 392192
    slice_point: 392704
    slice_point: 393216
    slice_point: 393728
    slice_point: 394240
    slice_point: 394752
    slice_point: 395264
    slice_point: 395776
    slice_point: 396288
    slice_point: 396800
    slice_point: 397312
    slice_point: 397824
    slice_point: 398336
    slice_point: 398848
    slice_point: 399360
    slice_point: 399872
    slice_point: 400384
    slice_point: 400896
    slice_point: 401408
    slice_point: 401920
    slice_point: 402432
    slice_point: 402944
    slice_point: 403456
    slice_point: 403968
    slice_point: 404480
    slice_point: 404992
    slice_point: 405504
    slice_point: 406016
    slice_point: 406528
    slice_point: 407040
    slice_point: 407552
    slice_point: 408064
    slice_point: 408576
    slice_point: 409088
    slice_point: 409600
    slice_point: 410112
    slice_point: 410624
    slice_point: 411136
    slice_point: 411648
    slice_point: 412160
    slice_point: 412672
    slice_point: 413184
    slice_point: 413696
    slice_point: 414208
    slice_point: 414720
    slice_point: 415232
    slice_point: 415744
    slice_point: 416256
    slice_point: 416768
    slice_point: 417280
    slice_point: 417792
    slice_point: 418304
    slice_point: 418816
    slice_point: 419328
    slice_point: 419840
    slice_point: 420352
    slice_point: 420864
    slice_point: 421376
    slice_point: 421888
    slice_point: 422400
    slice_point: 422912
    slice_point: 423424
    slice_point: 423936
    slice_point: 424448
    slice_point: 424960
    slice_point: 425472
    slice_point: 425984
    slice_point: 426496
    slice_point: 427008
    slice_point: 427520
    slice_point: 428032
    slice_point: 428544
    slice_point: 429056
    slice_point: 429568
    slice_point: 430080
    slice_point: 430592
    slice_point: 431104
    slice_point: 431616
    slice_point: 432128
    slice_point: 432640
    slice_point: 433152
    slice_point: 433664
    slice_point: 434176
    slice_point: 434688
    slice_point: 435200
    slice_point: 435712
    slice_point: 436224
    slice_point: 436736
    slice_point: 437248
    slice_point: 437760
    slice_point: 438272
    slice_point: 438784
    slice_point: 439296
    slice_point: 439808
    slice_point: 440320
    slice_point: 440832
    slice_point: 441344
    slice_point: 441856
    slice_point: 442368
    slice_point: 442880
    slice_point: 443392
    slice_point: 443904
    slice_point: 444416
    slice_point: 444928
    slice_point: 445440
    slice_point: 445952
    slice_point: 446464
    slice_point: 446976
    slice_point: 447488
    slice_point: 448000
    slice_point: 448512
    slice_point: 449024
    slice_point: 449536
    slice_point: 450048
    slice_point: 450560
    slice_point: 451072
    slice_point: 451584
    slice_point: 452096
    slice_point: 452608
    slice_point: 453120
    slice_point: 453632
    slice_point: 454144
    slice_point: 454656
    slice_point: 455168
    slice_point: 455680
    slice_point: 456192
    slice_point: 456704
    slice_point: 457216
    slice_point: 457728
    slice_point: 458240
    slice_point: 458752
    slice_point: 459264
    slice_point: 459776
    slice_point: 460288
    slice_point: 460800
    slice_point: 461312
    slice_point: 461824
    slice_point: 462336
    slice_point: 462848
    slice_point: 463360
    slice_point: 463872
    slice_point: 464384
    slice_point: 464896
    slice_point: 465408
    slice_point: 465920
    slice_point: 466432
    slice_point: 466944
    slice_point: 467456
    slice_point: 467968
    slice_point: 468480
    slice_point: 468992
    slice_point: 469504
    slice_point: 470016
    slice_point: 470528
    slice_point: 471040
    slice_point: 471552
    slice_point: 472064
    slice_point: 472576
    slice_point: 473088
    slice_point: 473600
    slice_point: 474112
    slice_point: 474624
    slice_point: 475136
    slice_point: 475648
    slice_point: 476160
    slice_point: 476672
    slice_point: 477184
    slice_point: 477696
    slice_point: 478208
    slice_point: 478720
    slice_point: 479232
    slice_point: 479744
    slice_point: 480256
    slice_point: 480768
    slice_point: 481280
    slice_point: 481792
    slice_point: 482304
    slice_point: 482816
    slice_point: 483328
    slice_point: 483840
    slice_point: 484352
    slice_point: 484864
    slice_point: 485376
    slice_point: 485888
    slice_point: 486400
    slice_point: 486912
    slice_point: 487424
    slice_point: 487936
    slice_point: 488448
    slice_point: 488960
    slice_point: 489472
    slice_point: 489984
    slice_point: 490496
    slice_point: 491008
    slice_point: 491520
    slice_point: 492032
    slice_point: 492544
    slice_point: 493056
    slice_point: 493568
    slice_point: 494080
    slice_point: 494592
    slice_point: 495104
    slice_point: 495616
    slice_point: 496128
    slice_point: 496640
    slice_point: 497152
    slice_point: 497664
    slice_point: 498176
    slice_point: 498688
    slice_point: 499200
    slice_point: 499712
    slice_point: 500224
    slice_point: 500736
    slice_point: 501248
    slice_point: 501760
    slice_point: 502272
    slice_point: 502784
    slice_point: 503296
    slice_point: 503808
    slice_point: 504320
    slice_point: 504832
    slice_point: 505344
    slice_point: 505856
    slice_point: 506368
    slice_point: 506880
    slice_point: 507392
    slice_point: 507904
    slice_point: 508416
    slice_point: 508928
    slice_point: 509440
    slice_point: 509952
    slice_point: 510464
    slice_point: 510976
    slice_point: 511488
    slice_point: 512000
    slice_point: 512512
    slice_point: 513024
    slice_point: 513536
    slice_point: 514048
    slice_point: 514560
    slice_point: 515072
    slice_point: 515584
    slice_point: 516096
    slice_point: 516608
    slice_point: 517120
    slice_point: 517632
    slice_point: 518144
    slice_point: 518656
    slice_point: 519168
    slice_point: 519680
    slice_point: 520192
    slice_point: 520704
    slice_point: 521216
    slice_point: 521728
    slice_point: 522240
    slice_point: 522752
    slice_point: 523264
    slice_point: 523776
    slice_point: 524288
    slice_point: 524800
    slice_point: 525312
    slice_point: 525824
    slice_point: 526336
    slice_point: 526848
    slice_point: 527360
    slice_point: 527872
    slice_point: 528384
    slice_point: 528896
    slice_point: 529408
    slice_point: 529920
    slice_point: 530432
    slice_point: 530944
    slice_point: 531456
    slice_point: 531968
    slice_point: 532480
    slice_point: 532992
    slice_point: 533504
    slice_point: 534016
    slice_point: 534528
    slice_point: 535040
    slice_point: 535552
    slice_point: 536064
    slice_point: 536576
    slice_point: 537088
    slice_point: 537600
    slice_point: 538112
    slice_point: 538624
    slice_point: 539136
    slice_point: 539648
    slice_point: 540160
    slice_point: 540672
    slice_point: 541184
    slice_point: 541696
    slice_point: 542208
    slice_point: 542720
    slice_point: 543232
    slice_point: 543744
    slice_point: 544256
    slice_point: 544768
    slice_point: 545280
    slice_point: 545792
    slice_point: 546304
    slice_point: 546816
    slice_point: 547328
    slice_point: 547840
    slice_point: 548352
    slice_point: 548864
    slice_point: 549376
    slice_point: 549888
    slice_point: 550400
    slice_point: 550912
    slice_point: 551424
    slice_point: 551936
    slice_point: 552448
    slice_point: 552960
    slice_point: 553472
    slice_point: 553984
    slice_point: 554496
    slice_point: 555008
    slice_point: 555520
    slice_point: 556032
    slice_point: 556544
    slice_point: 557056
    slice_point: 557568
    slice_point: 558080
    slice_point: 558592
    slice_point: 559104
    slice_point: 559616
    slice_point: 560128
    slice_point: 560640
    slice_point: 561152
    slice_point: 561664
    slice_point: 562176
    slice_point: 562688
    slice_point: 563200
    slice_point: 563712
    slice_point: 564224
    slice_point: 564736
    slice_point: 565248
    slice_point: 565760
    slice_point: 566272
    slice_point: 566784
    slice_point: 567296
    slice_point: 567808
    slice_point: 568320
    slice_point: 568832
    slice_point: 569344
    slice_point: 569856
    slice_point: 570368
    slice_point: 570880
    slice_point: 571392
    slice_point: 571904
    slice_point: 572416
    slice_point: 572928
    slice_point: 573440
    slice_point: 573952
    slice_point: 574464
    slice_point: 574976
    slice_point: 575488
    slice_point: 576000
    slice_point: 576512
    slice_point: 577024
    slice_point: 577536
    slice_point: 578048
    slice_point: 578560
    slice_point: 579072
    slice_point: 579584
    slice_point: 580096
    slice_point: 580608
    slice_point: 581120
    slice_point: 581632
    slice_point: 582144
    slice_point: 582656
    slice_point: 583168
    slice_point: 583680
    slice_point: 584192
    slice_point: 584704
    slice_point: 585216
    slice_point: 585728
    slice_point: 586240
    slice_point: 586752
    slice_point: 587264
    slice_point: 587776
    slice_point: 588288
    slice_point: 588800
    slice_point: 589312
    slice_point: 589824
    slice_point: 590336
    slice_point: 590848
    slice_point: 591360
    slice_point: 591872
    slice_point: 592384
    slice_point: 592896
    slice_point: 593408
    slice_point: 593920
    slice_point: 594432
    slice_point: 594944
    slice_point: 595456
    slice_point: 595968
    slice_point: 596480
    slice_point: 596992
    slice_point: 597504
    slice_point: 598016
    slice_point: 598528
    slice_point: 599040
    slice_point: 599552
    slice_point: 600064
    slice_point: 600576
    slice_point: 601088
    slice_point: 601600
    slice_point: 602112
    slice_point: 602624
    slice_point: 603136
    slice_point: 603648
    slice_point: 604160
    slice_point: 604672
    slice_point: 605184
    slice_point: 605696
    slice_point: 606208
    slice_point: 606720
    slice_point: 607232
    slice_point: 607744
    slice_point: 608256
    slice_point: 608768
    slice_point: 609280
    slice_point: 609792
    slice_point: 610304
    slice_point: 610816
    slice_point: 611328
    slice_point: 611840
    slice_point: 612352
    slice_point: 612864
    slice_point: 613376
    slice_point: 613888
    slice_point: 614400
    slice_point: 614912
    slice_point: 615424
    slice_point: 615936
    slice_point: 616448
    slice_point: 616960
    slice_point: 617472
    slice_point: 617984
    slice_point: 618496
    slice_point: 619008
    slice_point: 619520
    slice_point: 620032
    slice_point: 620544
    slice_point: 621056
    slice_point: 621568
    slice_point: 622080
    slice_point: 622592
    slice_point: 623104
    slice_point: 623616
    slice_point: 624128
    slice_point: 624640
    slice_point: 625152
    slice_point: 625664
    slice_point: 626176
    slice_point: 626688
    slice_point: 627200
    slice_point: 627712
    slice_point: 628224
    slice_point: 628736
    slice_point: 629248
    slice_point: 629760
    slice_point: 630272
    slice_point: 630784
    slice_point: 631296
    slice_point: 631808
    slice_point: 632320
    slice_point: 632832
    slice_point: 633344
    slice_point: 633856
    slice_point: 634368
    slice_point: 634880
    slice_point: 635392
    slice_point: 635904
    slice_point: 636416
    slice_point: 636928
    slice_point: 637440
    slice_point: 637952
    slice_point: 638464
    slice_point: 638976
    slice_point: 639488
    slice_point: 640000
    slice_point: 640512
    slice_point: 641024
    slice_point: 641536
    slice_point: 642048
    slice_point: 642560
    slice_point: 643072
    slice_point: 643584
    slice_point: 644096
    slice_point: 644608
    slice_point: 645120
    slice_point: 645632
    slice_point: 646144
    slice_point: 646656
    slice_point: 647168
    slice_point: 647680
    slice_point: 648192
    slice_point: 648704
    slice_point: 649216
    slice_point: 649728
    slice_point: 650240
    slice_point: 650752
    slice_point: 651264
    slice_point: 651776
    slice_point: 652288
    slice_point: 652800
    slice_point: 653312
    slice_point: 653824
    slice_point: 654336
    slice_point: 654848
    slice_point: 655360
    slice_point: 655872
    slice_point: 656384
    slice_point: 656896
    slice_point: 657408
    slice_point: 657920
    slice_point: 658432
    slice_point: 658944
    slice_point: 659456
    slice_point: 659968
    slice_point: 660480
    slice_point: 660992
    slice_point: 661504
    slice_point: 662016
    slice_point: 662528
    slice_point: 663040
    slice_point: 663552
    slice_point: 664064
    slice_point: 664576
    slice_point: 665088
    slice_point: 665600
    slice_point: 666112
    slice_point: 666624
    slice_point: 667136
    slice_point: 667648
    slice_point: 668160
    slice_point: 668672
    slice_point: 669184
    slice_point: 669696
    slice_point: 670208
    slice_point: 670720
    slice_point: 671232
    slice_point: 671744
    slice_point: 672256
    slice_point: 672768
    slice_point: 673280
    slice_point: 673792
    slice_point: 674304
    slice_point: 674816
    slice_point: 675328
    slice_point: 675840
    slice_point: 676352
    slice_point: 676864
    slice_point: 677376
    slice_point: 677888
    slice_point: 678400
    slice_point: 678912
    slice_point: 679424
    slice_point: 679936
    slice_point: 680448
    slice_point: 680960
    slice_point: 681472
    slice_point: 681984
    slice_point: 682496
    slice_point: 683008
    slice_point: 683520
    slice_point: 684032
    slice_point: 684544
    slice_point: 685056
    slice_point: 685568
    slice_point: 686080
    slice_point: 686592
    slice_point: 687104
    slice_point: 687616
    slice_point: 688128
    slice_point: 688640
    slice_point: 689152
    slice_point: 689664
    slice_point: 690176
    slice_point: 690688
    slice_point: 691200
    slice_point: 691712
    slice_point: 692224
    slice_point: 692736
    slice_point: 693248
    slice_point: 693760
    slice_point: 694272
    slice_point: 694784
    slice_point: 695296
    slice_point: 695808
    slice_point: 696320
    slice_point: 696832
    slice_point: 697344
    slice_point: 697856
    slice_point: 698368
    slice_point: 698880
    slice_point: 699392
    slice_point: 699904
    slice_point: 700416
    slice_point: 700928
    slice_point: 701440
    slice_point: 701952
    slice_point: 702464
    slice_point: 702976
    slice_point: 703488
    slice_point: 704000
    slice_point: 704512
    slice_point: 705024
    slice_point: 705536
    slice_point: 706048
    slice_point: 706560
    slice_point: 707072
    slice_point: 707584
    slice_point: 708096
    slice_point: 708608
    slice_point: 709120
    slice_point: 709632
    slice_point: 710144
    slice_point: 710656
    slice_point: 711168
    slice_point: 711680
    slice_point: 712192
    slice_point: 712704
    slice_point: 713216
    slice_point: 713728
    slice_point: 714240
    slice_point: 714752
    slice_point: 715264
    slice_point: 715776
    slice_point: 716288
    slice_point: 716800
    slice_point: 717312
    slice_point: 717824
    slice_point: 718336
    slice_point: 718848
    slice_point: 719360
    slice_point: 719872
    slice_point: 720384
    slice_point: 720896
    slice_point: 721408
    slice_point: 721920
    slice_point: 722432
    slice_point: 722944
    slice_point: 723456
    slice_point: 723968
    slice_point: 724480
    slice_point: 724992
    slice_point: 725504
    slice_point: 726016
    slice_point: 726528
    slice_point: 727040
    slice_point: 727552
    slice_point: 728064
    slice_point: 728576
    slice_point: 729088
    slice_point: 729600
    slice_point: 730112
    slice_point: 730624
    slice_point: 731136
    slice_point: 731648
    slice_point: 732160
    slice_point: 732672
    slice_point: 733184
    slice_point: 733696
    slice_point: 734208
    slice_point: 734720
    slice_point: 735232
    slice_point: 735744
    slice_point: 736256
    slice_point: 736768
    slice_point: 737280
    slice_point: 737792
    slice_point: 738304
    slice_point: 738816
    slice_point: 739328
    slice_point: 739840
    slice_point: 740352
    slice_point: 740864
    slice_point: 741376
    slice_point: 741888
    slice_point: 742400
    slice_point: 742912
    slice_point: 743424
    slice_point: 743936
    slice_point: 744448
    slice_point: 744960
    slice_point: 745472
    slice_point: 745984
    slice_point: 746496
    slice_point: 747008
    slice_point: 747520
    slice_point: 748032
    slice_point: 748544
    slice_point: 749056
    slice_point: 749568
    slice_point: 750080
    slice_point: 750592
    slice_point: 751104
    slice_point: 751616
    slice_point: 752128
    slice_point: 752640
    slice_point: 753152
    slice_point: 753664
    slice_point: 754176
    slice_point: 754688
    slice_point: 755200
    slice_point: 755712
    slice_point: 756224
    slice_point: 756736
    slice_point: 757248
    slice_point: 757760
    slice_point: 758272
    slice_point: 758784
    slice_point: 759296
    slice_point: 759808
    slice_point: 760320
    slice_point: 760832
    slice_point: 761344
    slice_point: 761856
    slice_point: 762368
    slice_point: 762880
    slice_point: 763392
    slice_point: 763904
    slice_point: 764416
    slice_point: 764928
    slice_point: 765440
    slice_point: 765952
    slice_point: 766464
    slice_point: 766976
    slice_point: 767488
    slice_point: 768000
    slice_point: 768512
    slice_point: 769024
    slice_point: 769536
    slice_point: 770048
    slice_point: 770560
    slice_point: 771072
    slice_point: 771584
    slice_point: 772096
    slice_point: 772608
    slice_point: 773120
    slice_point: 773632
    slice_point: 774144
    slice_point: 774656
    slice_point: 775168
    slice_point: 775680
    slice_point: 776192
    slice_point: 776704
    slice_point: 777216
    slice_point: 777728
    slice_point: 778240
    slice_point: 778752
    slice_point: 779264
    slice_point: 779776
    slice_point: 780288
    slice_point: 780800
    slice_point: 781312
    slice_point: 781824
    slice_point: 782336
    slice_point: 782848
    slice_point: 783360
    slice_point: 783872
    slice_point: 784384
    slice_point: 784896
    slice_point: 785408
    slice_point: 785920
    slice_point: 786432
    slice_point: 786944
    slice_point: 787456
    slice_point: 787968
    slice_point: 788480
    slice_point: 788992
    slice_point: 789504
    slice_point: 790016
    slice_point: 790528
    slice_point: 791040
    slice_point: 791552
    slice_point: 792064
    slice_point: 792576
    slice_point: 793088
    slice_point: 793600
    slice_point: 794112
    slice_point: 794624
    slice_point: 795136
    slice_point: 795648
    slice_point: 796160
    slice_point: 796672
    slice_point: 797184
    slice_point: 797696
    slice_point: 798208
    slice_point: 798720
    slice_point: 799232
    slice_point: 799744
    slice_point: 800256
    slice_point: 800768
    slice_point: 801280
    slice_point: 801792
    slice_point: 802304
    slice_point: 802816
    slice_point: 803328
    slice_point: 803840
    slice_point: 804352
    slice_point: 804864
    slice_point: 805376
    slice_point: 805888
    slice_point: 806400
    slice_point: 806912
    slice_point: 807424
    slice_point: 807936
    slice_point: 808448
    slice_point: 808960
    slice_point: 809472
    slice_point: 809984
    slice_point: 810496
    slice_point: 811008
    slice_point: 811520
    slice_point: 812032
    slice_point: 812544
    slice_point: 813056
    slice_point: 813568
    slice_point: 814080
    slice_point: 814592
    slice_point: 815104
    slice_point: 815616
    slice_point: 816128
    slice_point: 816640
    slice_point: 817152
    slice_point: 817664
    slice_point: 818176
    slice_point: 818688
    slice_point: 819200
    slice_point: 819712
    slice_point: 820224
    slice_point: 820736
    slice_point: 821248
    slice_point: 821760
    slice_point: 822272
    slice_point: 822784
    slice_point: 823296
    slice_point: 823808
    slice_point: 824320
    slice_point: 824832
    slice_point: 825344
    slice_point: 825856
    slice_point: 826368
    slice_point: 826880
    slice_point: 827392
    slice_point: 827904
    slice_point: 828416
    slice_point: 828928
    slice_point: 829440
    slice_point: 829952
    slice_point: 830464
    slice_point: 830976
    slice_point: 831488
    slice_point: 832000
    slice_point: 832512
    slice_point: 833024
    slice_point: 833536
    slice_point: 834048
    slice_point: 834560
    slice_point: 835072
    slice_point: 835584
    slice_point: 836096
    slice_point: 836608
    slice_point: 837120
    slice_point: 837632
    slice_point: 838144
    slice_point: 838656
    slice_point: 839168
    slice_point: 839680
    slice_point: 840192
    slice_point: 840704
    slice_point: 841216
    slice_point: 841728
    slice_point: 842240
    slice_point: 842752
    slice_point: 843264
    slice_point: 843776
    slice_point: 844288
    slice_point: 844800
    slice_point: 845312
    slice_point: 845824
    slice_point: 846336
    slice_point: 846848
    slice_point: 847360
    slice_point: 847872
    slice_point: 848384
    slice_point: 848896
    slice_point: 849408
    slice_point: 849920
    slice_point: 850432
    slice_point: 850944
    slice_point: 851456
    slice_point: 851968
    slice_point: 852480
    slice_point: 852992
    slice_point: 853504
    slice_point: 854016
    slice_point: 854528
    slice_point: 855040
    slice_point: 855552
    slice_point: 856064
    slice_point: 856576
    slice_point: 857088
    slice_point: 857600
    slice_point: 858112
    slice_point: 858624
    slice_point: 859136
    slice_point: 859648
    slice_point: 860160
    slice_point: 860672
    slice_point: 861184
    slice_point: 861696
    slice_point: 862208
    slice_point: 862720
    slice_point: 863232
    slice_point: 863744
    slice_point: 864256
    slice_point: 864768
    slice_point: 865280
    slice_point: 865792
    slice_point: 866304
    slice_point: 866816
    slice_point: 867328
    slice_point: 867840
    slice_point: 868352
    slice_point: 868864
    slice_point: 869376
    slice_point: 869888
    slice_point: 870400
    slice_point: 870912
    slice_point: 871424
    slice_point: 871936
    slice_point: 872448
    slice_point: 872960
    slice_point: 873472
    slice_point: 873984
    slice_point: 874496
    slice_point: 875008
    slice_point: 875520
    slice_point: 876032
    slice_point: 876544
    slice_point: 877056
    slice_point: 877568
    slice_point: 878080
    slice_point: 878592
    slice_point: 879104
    slice_point: 879616
    slice_point: 880128
    slice_point: 880640
    slice_point: 881152
    slice_point: 881664
    slice_point: 882176
    slice_point: 882688
    slice_point: 883200
    slice_point: 883712
    slice_point: 884224
    slice_point: 884736
    slice_point: 885248
    slice_point: 885760
    slice_point: 886272
    slice_point: 886784
    slice_point: 887296
    slice_point: 887808
    slice_point: 888320
    slice_point: 888832
    slice_point: 889344
    slice_point: 889856
    slice_point: 890368
    slice_point: 890880
    slice_point: 891392
    slice_point: 891904
    slice_point: 892416
    slice_point: 892928
    slice_point: 893440
    slice_point: 893952
    slice_point: 894464
    slice_point: 894976
    slice_point: 895488
    slice_point: 896000
    slice_point: 896512
    slice_point: 897024
    slice_point: 897536
    slice_point: 898048
    slice_point: 898560
    slice_point: 899072
    slice_point: 899584
    slice_point: 900096
    slice_point: 900608
    slice_point: 901120
    slice_point: 901632
    slice_point: 902144
    slice_point: 902656
    slice_point: 903168
    slice_point: 903680
    slice_point: 904192
    slice_point: 904704
    slice_point: 905216
    slice_point: 905728
    slice_point: 906240
    slice_point: 906752
    slice_point: 907264
    slice_point: 907776
    slice_point: 908288
    slice_point: 908800
    slice_point: 909312
    slice_point: 909824
    slice_point: 910336
    slice_point: 910848
    slice_point: 911360
    slice_point: 911872
    slice_point: 912384
    slice_point: 912896
    slice_point: 913408
    slice_point: 913920
    slice_point: 914432
    slice_point: 914944

  }
}

layer {
  name: "slicer"
  type: "Slice"
    bottom:"value-global"
  
 top: "global-adjusting-Tool"
 top: "global-adjusting-Item"
 top: "global-adjusting-Feature"
 top: "global-adjusting-Place"
 top: "global-adjusting-Agent"
 top: "global-admiring-Place"
 top: "global-admiring-Admired"
 top: "global-admiring-Agent"
 top: "global-ailing-Cause"
 top: "global-ailing-Place"
 top: "global-ailing-Victim"
 top: "global-ailing-VictimPart"
 top: "global-aiming-Place"
 top: "global-aiming-Item"
 top: "global-aiming-Agent"
 top: "global-aiming-Target"
 top: "global-applauding-Place"
 top: "global-applauding-Addressee"
 top: "global-applauding-Agent"
 top: "global-applying-Tool"
 top: "global-applying-Destination"
 top: "global-applying-Place"
 top: "global-applying-Substance"
 top: "global-applying-Agent"
 top: "global-apprehending-Victim"
 top: "global-apprehending-Place"
 top: "global-apprehending-Agent"
 top: "global-arching-Place"
 top: "global-arching-BODYPART"
 top: "global-arching-Agent"
 top: "global-arranging-Tool"
 top: "global-arranging-Item"
 top: "global-arranging-Agent"
 top: "global-arranging-Place"
 top: "global-arresting-Suspect"
 top: "global-arresting-Place"
 top: "global-arresting-Agent"
 top: "global-ascending-Agent"
 top: "global-ascending-Place"
 top: "global-asking-Place"
 top: "global-asking-Addressee"
 top: "global-asking-Agent"
 top: "global-assembling-Tool"
 top: "global-assembling-Component"
 top: "global-assembling-Place"
 top: "global-assembling-GoalItem"
 top: "global-assembling-Agent"
 top: "global-attaching-Destination"
 top: "global-attaching-Tool"
 top: "global-attaching-Item"
 top: "global-attaching-Agent"
 top: "global-attaching-Glue"
 top: "global-attaching-Place"
 top: "global-attacking-Place"
 top: "global-attacking-Weapon"
 top: "global-attacking-Agent"
 top: "global-attacking-Victim"
 top: "global-autographing-Place"
 top: "global-autographing-Item"
 top: "global-autographing-Receiver"
 top: "global-autographing-Agent"
 top: "global-baking-Place"
 top: "global-baking-Food"
 top: "global-baking-Agent"
 top: "global-baking-FoodContainer"
 top: "global-baking-HeatSource"
 top: "global-ballooning-Agent"
 top: "global-ballooning-Place"
 top: "global-bandaging-VICTIM"
 top: "global-bandaging-Place"
 top: "global-bandaging-Agent"
 top: "global-baptizing-BAPTIZED"
 top: "global-baptizing-Place"
 top: "global-baptizing-Agent"
 top: "global-barbecuing-Place"
 top: "global-barbecuing-Food"
 top: "global-barbecuing-Agent"
 top: "global-bathing-Substance"
 top: "global-bathing-CoAgent"
 top: "global-bathing-Tool"
 top: "global-bathing-Place"
 top: "global-bathing-Agent"
 top: "global-begging-Place"
 top: "global-begging-ITEM"
 top: "global-begging-Agent"
 top: "global-begging-GIVER"
 top: "global-betting-Agent"
 top: "global-betting-Place"
 top: "global-biking-Agent"
 top: "global-biking-Place"
 top: "global-biting-Place"
 top: "global-biting-Item"
 top: "global-biting-Agent"
 top: "global-blocking-Tool"
 top: "global-blocking-Blocker"
 top: "global-blocking-Blocked"
 top: "global-blocking-Place"
 top: "global-blossoming-Agent"
 top: "global-blossoming-Place"
 top: "global-boarding-Agent"
 top: "global-boarding-Place"
 top: "global-boarding-Vehicle"
 top: "global-boating-Boaters"
 top: "global-boating-Place"
 top: "global-boating-Vehicle"
 top: "global-bothering-Victim"
 top: "global-bothering-Action"
 top: "global-bothering-Agent"
 top: "global-bouncing-Place"
 top: "global-bouncing-Item"
 top: "global-bouncing-Agent"
 top: "global-bouncing-Surface"
 top: "global-bowing-Agent"
 top: "global-bowing-Place"
 top: "global-braiding-Place"
 top: "global-braiding-Item"
 top: "global-braiding-Agent"
 top: "global-branching-Brancher"
 top: "global-branching-Place"
 top: "global-brawling-Agent"
 top: "global-brawling-Place"
 top: "global-breaking-Tool"
 top: "global-breaking-Item"
 top: "global-breaking-Agent"
 top: "global-breaking-Against"
 top: "global-brewing-Target"
 top: "global-brewing-Place"
 top: "global-brewing-Agent"
 top: "global-browsing-GoalItem"
 top: "global-browsing-Place"
 top: "global-browsing-Agent"
 top: "global-brushing-Substance"
 top: "global-brushing-TOOL"
 top: "global-brushing-Target"
 top: "global-brushing-Place"
 top: "global-brushing-Agent"
 top: "global-bubbling-Agent"
 top: "global-bubbling-Place"
 top: "global-buckling-Fastener"
 top: "global-buckling-Item"
 top: "global-buckling-Place"
 top: "global-buckling-Container"
 top: "global-buckling-Agent"
 top: "global-building-Tool"
 top: "global-building-Place"
 top: "global-building-Components"
 top: "global-building-GoalItem"
 top: "global-building-Agent"
 top: "global-bulldozing-Place"
 top: "global-bulldozing-Object"
 top: "global-bulldozing-Agent"
 top: "global-burning-Target"
 top: "global-burning-Place"
 top: "global-burning-Agent"
 top: "global-burying-Tool"
 top: "global-burying-Item"
 top: "global-burying-Place"
 top: "global-burying-Destination"
 top: "global-burying-Agent"
 top: "global-buttering-Tool"
 top: "global-buttering-Item"
 top: "global-buttering-Agent"
 top: "global-buttering-Place"
 top: "global-butting-Target"
 top: "global-butting-Place"
 top: "global-butting-Agent"
 top: "global-buttoning-Place"
 top: "global-buttoning-Item"
 top: "global-buttoning-Agent"
 top: "global-buying-Place"
 top: "global-buying-Goods"
 top: "global-buying-Agent"
 top: "global-buying-Payment"
 top: "global-buying-Seller"
 top: "global-calling-Place"
 top: "global-calling-Tool"
 top: "global-calling-Agent"
 top: "global-calming-Experiencer"
 top: "global-calming-Place"
 top: "global-calming-Agent"
 top: "global-camouflaging-HidingItem"
 top: "global-camouflaging-Place"
 top: "global-camouflaging-Agent"
 top: "global-camping-Place"
 top: "global-camping-Shelter"
 top: "global-camping-Agent"
 top: "global-caressing-RecipientPart"
 top: "global-caressing-Place"
 top: "global-caressing-Agent"
 top: "global-caressing-Recipient"
 top: "global-carrying-Place"
 top: "global-carrying-Item"
 top: "global-carrying-AgentPart"
 top: "global-carrying-Agent"
 top: "global-carting-Tool"
 top: "global-carting-Item"
 top: "global-carting-Agent"
 top: "global-carting-Place"
 top: "global-carving-SUBSTANCE"
 top: "global-carving-Tool"
 top: "global-carving-Agent"
 top: "global-carving-Place"
 top: "global-catching-CaughtItem"
 top: "global-catching-Tool"
 top: "global-catching-Agent"
 top: "global-catching-Place"
 top: "global-celebrating-Place"
 top: "global-celebrating-Occasion"
 top: "global-celebrating-Agent"
 top: "global-chasing-Chasee"
 top: "global-chasing-Place"
 top: "global-chasing-Agent"
 top: "global-checking-Tool"
 top: "global-checking-Place"
 top: "global-checking-Aspect"
 top: "global-checking-Patient"
 top: "global-checking-Agent"
 top: "global-cheering-Agent"
 top: "global-cheering-Place"
 top: "global-cheerleading-Place"
 top: "global-cheerleading-Supported"
 top: "global-cheerleading-Agent"
 top: "global-chewing-Place"
 top: "global-chewing-Item"
 top: "global-chewing-Agent"
 top: "global-chiseling-Place"
 top: "global-chiseling-Item"
 top: "global-chiseling-Agent"
 top: "global-chopping-Tool"
 top: "global-chopping-Item"
 top: "global-chopping-Agent"
 top: "global-chopping-Place"
 top: "global-circling-Center"
 top: "global-circling-Place"
 top: "global-circling-Agent"
 top: "global-clapping-Place"
 top: "global-clapping-AgentPart"
 top: "global-clapping-Agent"
 top: "global-clawing-Victim"
 top: "global-clawing-Place"
 top: "global-clawing-Agent"
 top: "global-cleaning-Tool"
 top: "global-cleaning-Source"
 top: "global-cleaning-Agent"
 top: "global-cleaning-Place"
 top: "global-clearing-Tool"
 top: "global-clearing-Item"
 top: "global-clearing-Agent"
 top: "global-clearing-Place"
 top: "global-clearing-Source"
 top: "global-clenching-Place"
 top: "global-clenching-Item"
 top: "global-clenching-AgentPart"
 top: "global-clenching-Agent"
 top: "global-climbing-Obstacle"
 top: "global-climbing-Tool"
 top: "global-climbing-Agent"
 top: "global-climbing-Place"
 top: "global-clinging-Place"
 top: "global-clinging-ClungTo"
 top: "global-clinging-Agent"
 top: "global-clipping-Tool"
 top: "global-clipping-Item"
 top: "global-clipping-Agent"
 top: "global-clipping-Place"
 top: "global-clipping-Source"
 top: "global-coaching-Place"
 top: "global-coaching-Skill"
 top: "global-coaching-Agent"
 top: "global-coaching-Student"
 top: "global-colliding-Place"
 top: "global-colliding-Item"
 top: "global-colliding-Agent"
 top: "global-coloring-Tool"
 top: "global-coloring-Item"
 top: "global-coloring-Agent"
 top: "global-coloring-Place"
 top: "global-combing-Place"
 top: "global-combing-Tool"
 top: "global-combing-Agent"
 top: "global-combing-Target"
 top: "global-communicating-Adressee"
 top: "global-communicating-Place"
 top: "global-communicating-Agent"
 top: "global-commuting-Place"
 top: "global-commuting-Traveler"
 top: "global-commuting-Vehicle"
 top: "global-competing-Competition"
 top: "global-competing-Place"
 top: "global-competing-Agent"
 top: "global-complaining-Place"
 top: "global-complaining-Listener"
 top: "global-complaining-Agent"
 top: "global-confronting-Confronted"
 top: "global-confronting-Place"
 top: "global-confronting-Agent"
 top: "global-congregating-Place"
 top: "global-congregating-Individuals"
 top: "global-constructing-Tool"
 top: "global-constructing-Place"
 top: "global-constructing-CreatedItem"
 top: "global-constructing-Components"
 top: "global-constructing-Agent"
 top: "global-cooking-Food"
 top: "global-cooking-Container"
 top: "global-cooking-Agent"
 top: "global-cooking-Tool"
 top: "global-cooking-HeatSource"
 top: "global-cooking-Place"
 top: "global-coughing-Agent"
 top: "global-coughing-Place"
 top: "global-counting-ItemType"
 top: "global-counting-Place"
 top: "global-counting-Agent"
 top: "global-covering-Place"
 top: "global-covering-Item"
 top: "global-covering-Agent"
 top: "global-covering-Cover"
 top: "global-crafting-Place"
 top: "global-crafting-Instrument"
 top: "global-crafting-Created"
 top: "global-crafting-Agent"
 top: "global-cramming-Theme"
 top: "global-cramming-Place"
 top: "global-cramming-Agent"
 top: "global-cramming-Container"
 top: "global-crashing-Place"
 top: "global-crashing-Item"
 top: "global-crashing-Agent"
 top: "global-crashing-Against"
 top: "global-crawling-Agent"
 top: "global-crawling-Place"
 top: "global-cresting-Agent"
 top: "global-cresting-Place"
 top: "global-crouching-Agent"
 top: "global-crouching-Place"
 top: "global-crowning-Crown"
 top: "global-crowning-Place"
 top: "global-crowning-Agent"
 top: "global-crowning-CrownedEntity"
 top: "global-crushing-Tool"
 top: "global-crushing-Place"
 top: "global-crushing-Agent"
 top: "global-crushing-CrushedItem"
 top: "global-crying-Agent"
 top: "global-crying-Place"
 top: "global-curling-Place"
 top: "global-curling-Tool"
 top: "global-curling-Agent"
 top: "global-curling-Target"
 top: "global-curtsying-Agent"
 top: "global-curtsying-Place"
 top: "global-dancing-Agent"
 top: "global-dancing-Place"
 top: "global-decomposing-Decomposer"
 top: "global-decomposing-Place"
 top: "global-decorating-Decorated"
 top: "global-decorating-Item"
 top: "global-decorating-Agent"
 top: "global-decorating-Place"
 top: "global-deflecting-Place"
 top: "global-deflecting-Destination"
 top: "global-deflecting-Agent"
 top: "global-deflecting-DeflectedItem"
 top: "global-descending-tool"
 top: "global-descending-source"
 top: "global-descending-Agent"
 top: "global-descending-Place"
 top: "global-destroying-Tool"
 top: "global-destroying-DestroyedItem"
 top: "global-destroying-Agent"
 top: "global-destroying-Place"
 top: "global-detaining-Victim"
 top: "global-detaining-Place"
 top: "global-detaining-Agent"
 top: "global-dialing-Place"
 top: "global-dialing-Item"
 top: "global-dialing-Agent"
 top: "global-dining-Place"
 top: "global-dining-Food"
 top: "global-dining-Agent"
 top: "global-dipping-Substance"
 top: "global-dipping-Item"
 top: "global-dipping-Agent"
 top: "global-dipping-Place"
 top: "global-disciplining-Place"
 top: "global-disciplining-Tool"
 top: "global-disciplining-Agent"
 top: "global-disciplining-Victim"
 top: "global-discussing-Agents"
 top: "global-discussing-Place"
 top: "global-disembarking-Agent"
 top: "global-disembarking-Place"
 top: "global-disembarking-Vehicle"
 top: "global-displaying-Place"
 top: "global-displaying-Item"
 top: "global-displaying-Agent"
 top: "global-displaying-Target"
 top: "global-dissecting-Tool"
 top: "global-dissecting-Item"
 top: "global-dissecting-Agent"
 top: "global-dissecting-Place"
 top: "global-distracting-Victim"
 top: "global-distracting-Place"
 top: "global-distracting-Agent"
 top: "global-distributing-Tool"
 top: "global-distributing-Place"
 top: "global-distributing-Recipients"
 top: "global-distributing-Distributed"
 top: "global-distributing-Agent"
 top: "global-diving-Agent"
 top: "global-diving-Place"
 top: "global-docking-Place"
 top: "global-docking-Connector"
 top: "global-docking-Vehicle"
 top: "global-docking-Agent"
 top: "global-dousing-Place"
 top: "global-dousing-Undergoer"
 top: "global-dousing-Agent"
 top: "global-dousing-Liquid"
 top: "global-dragging-Tool"
 top: "global-dragging-Item"
 top: "global-dragging-Place"
 top: "global-dragging-Contact"
 top: "global-dragging-Agent"
 top: "global-drawing-Place"
 top: "global-drawing-Tool"
 top: "global-drawing-Agent"
 top: "global-drawing-Reference"
 top: "global-drenching-Tool"
 top: "global-drenching-DrenchedItem"
 top: "global-drenching-Liquid"
 top: "global-drenching-Place"
 top: "global-drenching-Agent"
 top: "global-drinking-Container"
 top: "global-drinking-Place"
 top: "global-drinking-Agent"
 top: "global-drinking-Liquid"
 top: "global-dripping-Destination"
 top: "global-dripping-Source"
 top: "global-dripping-Fluid"
 top: "global-dripping-Place"
 top: "global-dripping-Agent"
 top: "global-driving-Place"
 top: "global-driving-Item"
 top: "global-driving-Agent"
 top: "global-drooling-End"
 top: "global-drooling-Place"
 top: "global-drooling-Agent"
 top: "global-dropping-Place"
 top: "global-dropping-Item"
 top: "global-dropping-Agent"
 top: "global-dropping-End"
 top: "global-dropping-Start"
 top: "global-drumming-Tool"
 top: "global-drumming-ITEM"
 top: "global-drumming-Agent"
 top: "global-drumming-Place"
 top: "global-drying-Tool"
 top: "global-drying-Item"
 top: "global-drying-Agent"
 top: "global-drying-Place"
 top: "global-ducking-Place"
 top: "global-ducking-Blow"
 top: "global-ducking-Agent"
 top: "global-dusting-Tool"
 top: "global-dusting-Source"
 top: "global-dusting-Agent"
 top: "global-dusting-Place"
 top: "global-dyeing-Material"
 top: "global-dyeing-Dye"
 top: "global-dyeing-Agent"
 top: "global-dyeing-Place"
 top: "global-eating-Place"
 top: "global-eating-Food"
 top: "global-eating-Container"
 top: "global-eating-Tool"
 top: "global-eating-Agent"
 top: "global-educating-Teacher"
 top: "global-educating-Place"
 top: "global-educating-Subject"
 top: "global-educating-Student"
 top: "global-ejecting-Destination"
 top: "global-ejecting-Item"
 top: "global-ejecting-Agent"
 top: "global-ejecting-Place"
 top: "global-ejecting-Source"
 top: "global-embracing-Place"
 top: "global-embracing-Coagent"
 top: "global-embracing-Agent"
 top: "global-emerging-Destination"
 top: "global-emerging-Source"
 top: "global-emerging-Agent"
 top: "global-emerging-Place"
 top: "global-emptying-Tool"
 top: "global-emptying-Container"
 top: "global-emptying-Agent"
 top: "global-emptying-Destination"
 top: "global-emptying-Place"
 top: "global-emptying-Item"
 top: "global-encouraging-Agent"
 top: "global-encouraging-Place"
 top: "global-encouraging-Reciever"
 top: "global-erasing-Source"
 top: "global-erasing-Erased"
 top: "global-erasing-Agent"
 top: "global-erasing-Place"
 top: "global-erupting-Place"
 top: "global-erupting-Substance"
 top: "global-erupting-Agent"
 top: "global-examining-Tool"
 top: "global-examining-Item"
 top: "global-examining-Agent"
 top: "global-examining-Place"
 top: "global-exercising-Place"
 top: "global-exercising-AgentPart"
 top: "global-exercising-Agent"
 top: "global-exterminating-Place"
 top: "global-exterminating-Instrument"
 top: "global-exterminating-Agent"
 top: "global-extinguishing-Tool"
 top: "global-extinguishing-Item"
 top: "global-extinguishing-Agent"
 top: "global-extinguishing-Place"
 top: "global-falling-Place"
 top: "global-falling-Source"
 top: "global-falling-Agent"
 top: "global-falling-Goal"
 top: "global-farming-Tool"
 top: "global-farming-Item"
 top: "global-farming-Place"
 top: "global-farming-Ground"
 top: "global-farming-Farmer"
 top: "global-fastening-Destination"
 top: "global-fastening-Tool"
 top: "global-fastening-Connector"
 top: "global-fastening-Agent"
 top: "global-fastening-Place"
 top: "global-fastening-Item"
 top: "global-feeding-Source"
 top: "global-feeding-Food"
 top: "global-feeding-Place"
 top: "global-feeding-Eater"
 top: "global-feeding-Agent"
 top: "global-fetching-Destination"
 top: "global-fetching-Item"
 top: "global-fetching-Agent"
 top: "global-fetching-Place"
 top: "global-fetching-Source"
 top: "global-filling-Destination"
 top: "global-filling-Item"
 top: "global-filling-Agent"
 top: "global-filling-Place"
 top: "global-filling-Source"
 top: "global-filming-Performer"
 top: "global-filming-Tool"
 top: "global-filming-Agent"
 top: "global-filming-Place"
 top: "global-fishing-Tool"
 top: "global-fishing-SOURCE"
 top: "global-fishing-Agent"
 top: "global-fishing-Place"
 top: "global-fixing-Tool"
 top: "global-fixing-Place"
 top: "global-fixing-ObjectPart"
 top: "global-fixing-Object"
 top: "global-fixing-Agent"
 top: "global-flaming-Agent"
 top: "global-flaming-Place"
 top: "global-flapping-Place"
 top: "global-flapping-BodyPart"
 top: "global-flapping-Agent"
 top: "global-flexing-Addressee"
 top: "global-flexing-AgentPart"
 top: "global-flexing-Agent"
 top: "global-flexing-Place"
 top: "global-flicking-Place"
 top: "global-flicking-AgentPart"
 top: "global-flicking-ObjectPart"
 top: "global-flicking-Object"
 top: "global-flicking-Agent"
 top: "global-flinging-Tool"
 top: "global-flinging-Item"
 top: "global-flinging-Goal"
 top: "global-flinging-Place"
 top: "global-flinging-Agent"
 top: "global-flipping-Place"
 top: "global-flipping-Tool"
 top: "global-flipping-Flipped"
 top: "global-flipping-Agent"
 top: "global-floating-Medium"
 top: "global-floating-Tool"
 top: "global-floating-Agent"
 top: "global-floating-Place"
 top: "global-flossing-Place"
 top: "global-flossing-CoAgent"
 top: "global-flossing-Agent"
 top: "global-folding-Shape"
 top: "global-folding-Cloth"
 top: "global-folding-Agent"
 top: "global-folding-Place"
 top: "global-foraging-Place"
 top: "global-foraging-Item"
 top: "global-foraging-Agent"
 top: "global-fording-Place"
 top: "global-fording-Tool"
 top: "global-fording-Agent"
 top: "global-frisking-Victim"
 top: "global-frisking-Place"
 top: "global-frisking-Agent"
 top: "global-frowning-Agent"
 top: "global-frowning-Place"
 top: "global-frying-Place"
 top: "global-frying-Food"
 top: "global-frying-Agent"
 top: "global-frying-Container"
 top: "global-fueling-Tool"
 top: "global-fueling-Place"
 top: "global-fueling-Agent"
 top: "global-fueling-Recipient"
 top: "global-gambling-Place"
 top: "global-gambling-Stake"
 top: "global-gambling-Agent"
 top: "global-gardening-Place"
 top: "global-gardening-Tool"
 top: "global-gardening-Agent"
 top: "global-gasping-Agent"
 top: "global-gasping-Place"
 top: "global-gathering-Gatherers"
 top: "global-gathering-Place"
 top: "global-giggling-Target"
 top: "global-giggling-Place"
 top: "global-giggling-Agent"
 top: "global-giving-Place"
 top: "global-giving-Item"
 top: "global-giving-Agent"
 top: "global-giving-Recipient"
 top: "global-glaring-Perceiver"
 top: "global-glaring-Place"
 top: "global-glaring-Agent"
 top: "global-glowing-Agent"
 top: "global-glowing-Place"
 top: "global-gluing-Item"
 top: "global-gluing-Connector"
 top: "global-gluing-Goal"
 top: "global-gluing-Place"
 top: "global-gluing-Agent"
 top: "global-gnawing-Place"
 top: "global-gnawing-Item"
 top: "global-gnawing-Agent"
 top: "global-grieving-Agent"
 top: "global-grieving-Place"
 top: "global-grilling-Place"
 top: "global-grilling-Food"
 top: "global-grilling-Agent"
 top: "global-grimacing-Cause"
 top: "global-grimacing-Place"
 top: "global-grimacing-Agent"
 top: "global-grinding-Tool"
 top: "global-grinding-Item"
 top: "global-grinding-Surface"
 top: "global-grinding-Place"
 top: "global-grinding-Agent"
 top: "global-grinning-Agent"
 top: "global-grinning-Place"
 top: "global-guarding-Weapon"
 top: "global-guarding-Item"
 top: "global-guarding-Agent"
 top: "global-guarding-Place"
 top: "global-handcuffing-Victim"
 top: "global-handcuffing-Place"
 top: "global-handcuffing-Agent"
 top: "global-hanging-Scaffold"
 top: "global-hanging-Item"
 top: "global-hanging-Agent"
 top: "global-hanging-Place"
 top: "global-harvesting-Tool"
 top: "global-harvesting-HarvestedItem"
 top: "global-harvesting-Agent"
 top: "global-harvesting-Place"
 top: "global-harvesting-Ground"
 top: "global-hauling-Tool"
 top: "global-hauling-Item"
 top: "global-hauling-Place"
 top: "global-hauling-Carrier"
 top: "global-heaving-Tool"
 top: "global-heaving-HeavedItem"
 top: "global-heaving-Agent"
 top: "global-heaving-Place"
 top: "global-helping-Place"
 top: "global-helping-Tool"
 top: "global-helping-EntityHelped"
 top: "global-helping-Agent"
 top: "global-hiking-Agent"
 top: "global-hiking-Place"
 top: "global-hitchhiking-Agent"
 top: "global-hitchhiking-Place"
 top: "global-hitting-Place"
 top: "global-hitting-Tool"
 top: "global-hitting-Agent"
 top: "global-hitting-Victim"
 top: "global-hitting-VictimPart"
 top: "global-hoeing-Agent"
 top: "global-hoeing-Place"
 top: "global-hoeing-Ground"
 top: "global-hoisting-Tool"
 top: "global-hoisting-Item"
 top: "global-hoisting-Agent"
 top: "global-hoisting-Place"
 top: "global-hoisting-Source"
 top: "global-hugging-Hugged"
 top: "global-hugging-AgentPart"
 top: "global-hugging-Agent"
 top: "global-hugging-Place"
 top: "global-hunching-Surface"
 top: "global-hunching-Place"
 top: "global-hunching-Agent"
 top: "global-hunting-Place"
 top: "global-hunting-Hunted"
 top: "global-hunting-Agent"
 top: "global-hurling-Place"
 top: "global-hurling-Start"
 top: "global-hurling-End"
 top: "global-hurling-Object"
 top: "global-hurling-Agent"
 top: "global-igniting-Tool"
 top: "global-igniting-Item"
 top: "global-igniting-Agent"
 top: "global-igniting-Place"
 top: "global-ignoring-BoringThing"
 top: "global-ignoring-Place"
 top: "global-ignoring-Agent"
 top: "global-imitating-Place"
 top: "global-imitating-Model"
 top: "global-imitating-Agent"
 top: "global-immersing-Place"
 top: "global-immersing-Item"
 top: "global-immersing-Agent"
 top: "global-immersing-Liquid"
 top: "global-inflating-Object"
 top: "global-inflating-Tool"
 top: "global-inflating-Agent"
 top: "global-inflating-Place"
 top: "global-injecting-Source"
 top: "global-injecting-Destination"
 top: "global-injecting-Place"
 top: "global-injecting-Substance"
 top: "global-injecting-Agent"
 top: "global-inserting-Object"
 top: "global-inserting-Place"
 top: "global-inserting-Agent"
 top: "global-inserting-Container"
 top: "global-installing-Tool"
 top: "global-installing-Place"
 top: "global-installing-Component"
 top: "global-installing-Destination"
 top: "global-installing-Agent"
 top: "global-instructing-Student"
 top: "global-instructing-Place"
 top: "global-instructing-Agent"
 top: "global-intermingling-Agents"
 top: "global-intermingling-Place"
 top: "global-interrogating-Addressee"
 top: "global-interrogating-Tool"
 top: "global-interrogating-Agent"
 top: "global-interrogating-Place"
 top: "global-interviewing-Interviewee"
 top: "global-interviewing-Place"
 top: "global-interviewing-Agent"
 top: "global-jogging-Agent"
 top: "global-jogging-Place"
 top: "global-juggling-Place"
 top: "global-juggling-Items"
 top: "global-juggling-Agent"
 top: "global-jumping-Source"
 top: "global-jumping-Destination"
 top: "global-jumping-Place"
 top: "global-jumping-Obstacle"
 top: "global-jumping-Agent"
 top: "global-kicking-Victim"
 top: "global-kicking-Place"
 top: "global-kicking-VictimPart"
 top: "global-kicking-Agent"
 top: "global-kissing-CoAgent"
 top: "global-kissing-AgentPart"
 top: "global-kissing-CoAgentPart"
 top: "global-kissing-Place"
 top: "global-kissing-Agent"
 top: "global-kneading-Place"
 top: "global-kneading-Item"
 top: "global-kneading-Agent"
 top: "global-kneeling-Place"
 top: "global-kneeling-Contact"
 top: "global-kneeling-Agent"
 top: "global-knocking-Place"
 top: "global-knocking-Item"
 top: "global-knocking-Agent"
 top: "global-lacing-Place"
 top: "global-lacing-Item"
 top: "global-lacing-Agent"
 top: "global-landing-Place"
 top: "global-landing-Destination"
 top: "global-landing-Agent"
 top: "global-lapping-Place"
 top: "global-lapping-Food"
 top: "global-lapping-Agent"
 top: "global-lapping-Container"
 top: "global-lathering-Substance"
 top: "global-lathering-Destination"
 top: "global-lathering-Agent"
 top: "global-lathering-Place"
 top: "global-laughing-Agent"
 top: "global-laughing-Place"
 top: "global-launching-Destination"
 top: "global-launching-Item"
 top: "global-launching-Agent"
 top: "global-launching-Place"
 top: "global-launching-Source"
 top: "global-leading-Place"
 top: "global-leading-Follower"
 top: "global-leading-Agent"
 top: "global-leaking-Source"
 top: "global-leaking-Destination"
 top: "global-leaking-Place"
 top: "global-leaking-Substance"
 top: "global-leaning-Place"
 top: "global-leaning-Item"
 top: "global-leaning-Agent"
 top: "global-leaning-Against"
 top: "global-leaping-Source"
 top: "global-leaping-Destination"
 top: "global-leaping-Place"
 top: "global-leaping-Obstacle"
 top: "global-leaping-Agent"
 top: "global-lecturing-Place"
 top: "global-lecturing-Audience"
 top: "global-lecturing-Agent"
 top: "global-licking-Place"
 top: "global-licking-Item"
 top: "global-licking-Agent"
 top: "global-lifting-Place"
 top: "global-lifting-Item"
 top: "global-lifting-Agent"
 top: "global-lifting-End"
 top: "global-lifting-Start"
 top: "global-lighting-Tool"
 top: "global-lighting-Item"
 top: "global-lighting-Agent"
 top: "global-lighting-Place"
 top: "global-loading-Tool"
 top: "global-loading-Item"
 top: "global-loading-Place"
 top: "global-loading-Destination"
 top: "global-loading-Agent"
 top: "global-locking-Tool"
 top: "global-locking-Item"
 top: "global-locking-Agent"
 top: "global-locking-Place"
 top: "global-making-Tool"
 top: "global-making-Component"
 top: "global-making-Place"
 top: "global-making-GoalItem"
 top: "global-making-Agent"
 top: "global-manicuring-Tool"
 top: "global-manicuring-Item"
 top: "global-manicuring-Agent"
 top: "global-manicuring-Place"
 top: "global-marching-Agent"
 top: "global-marching-Place"
 top: "global-mashing-Tool"
 top: "global-mashing-Item"
 top: "global-mashing-Agent"
 top: "global-mashing-Place"
 top: "global-massaging-Place"
 top: "global-massaging-CoAgent"
 top: "global-massaging-Agent"
 top: "global-massaging-CoAgentPart"
 top: "global-measuring-Object"
 top: "global-measuring-Tool"
 top: "global-measuring-Agent"
 top: "global-measuring-Place"
 top: "global-measuring-Quantity"
 top: "global-mending-Tool"
 top: "global-mending-Item"
 top: "global-mending-Agent"
 top: "global-mending-Place"
 top: "global-microwaving-Place"
 top: "global-microwaving-Food"
 top: "global-microwaving-Agent"
 top: "global-microwaving-Container"
 top: "global-milking-Tool"
 top: "global-milking-Source"
 top: "global-milking-Place"
 top: "global-milking-Destination"
 top: "global-milking-Agent"
 top: "global-miming-Imitation"
 top: "global-miming-Place"
 top: "global-miming-Agent"
 top: "global-mining-Tool"
 top: "global-mining-Place"
 top: "global-mining-Agent"
 top: "global-mining-Resource"
 top: "global-misbehaving-Agent"
 top: "global-misbehaving-Place"
 top: "global-moistening-Place"
 top: "global-moistening-Item"
 top: "global-moistening-Agent"
 top: "global-moistening-Liquid"
 top: "global-moisturizing-Tool"
 top: "global-moisturizing-Place"
 top: "global-moisturizing-Agent"
 top: "global-moisturizing-Moisturized"
 top: "global-molding-Substance"
 top: "global-molding-Place"
 top: "global-molding-Agent"
 top: "global-molding-GoalItem"
 top: "global-mopping-Surface"
 top: "global-mopping-Place"
 top: "global-mopping-Agent"
 top: "global-mourning-Mourner"
 top: "global-mourning-Place"
 top: "global-mowing-Tool"
 top: "global-mowing-Item"
 top: "global-mowing-Agent"
 top: "global-mowing-Place"
 top: "global-nagging-NaggedPerson"
 top: "global-nagging-Place"
 top: "global-nagging-Agent"
 top: "global-nailing-Tool"
 top: "global-nailing-Item2"
 top: "global-nailing-Place"
 top: "global-nailing-Item1"
 top: "global-nailing-Agent"
 top: "global-nipping-Place"
 top: "global-nipping-Item"
 top: "global-nipping-Agent"
 top: "global-nuzzling-Place"
 top: "global-nuzzling-Item"
 top: "global-nuzzling-Agent"
 top: "global-offering-Item"
 top: "global-offering-Beneficiary"
 top: "global-offering-Agent"
 top: "global-offering-Place"
 top: "global-officiating-Event"
 top: "global-officiating-Place"
 top: "global-officiating-Agent"
 top: "global-opening-Tool"
 top: "global-opening-Item"
 top: "global-opening-Agent"
 top: "global-opening-Place"
 top: "global-operating-Tool"
 top: "global-operating-Item"
 top: "global-operating-Agent"
 top: "global-operating-Place"
 top: "global-overflowing-Place"
 top: "global-overflowing-Source"
 top: "global-overflowing-Agent"
 top: "global-packaging-Place"
 top: "global-packaging-Item"
 top: "global-packaging-Agent"
 top: "global-packing-Place"
 top: "global-packing-Item"
 top: "global-packing-Agent"
 top: "global-packing-Container"
 top: "global-painting-Tool"
 top: "global-painting-Item"
 top: "global-painting-Agent"
 top: "global-painting-Place"
 top: "global-panhandling-Target"
 top: "global-panhandling-Place"
 top: "global-panhandling-Agent"
 top: "global-parachuting-Destination"
 top: "global-parachuting-Parachute"
 top: "global-parachuting-Agent"
 top: "global-parachuting-Place"
 top: "global-parading-Agent"
 top: "global-parading-Place"
 top: "global-pasting-Item"
 top: "global-pasting-Connector"
 top: "global-pasting-Place"
 top: "global-pasting-Object"
 top: "global-pasting-Agent"
 top: "global-patting-Tool"
 top: "global-patting-Item"
 top: "global-patting-Agent"
 top: "global-patting-Place"
 top: "global-pawing-PawedItem"
 top: "global-pawing-AgentPart"
 top: "global-pawing-Agent"
 top: "global-pawing-Place"
 top: "global-paying-Place"
 top: "global-paying-Good"
 top: "global-paying-Seller"
 top: "global-paying-Agent"
 top: "global-pedaling-Agent"
 top: "global-pedaling-Place"
 top: "global-pedaling-Vehicle"
 top: "global-peeing-Target"
 top: "global-peeing-Place"
 top: "global-peeing-Agent"
 top: "global-peeling-Tool"
 top: "global-peeling-Item"
 top: "global-peeling-Agent"
 top: "global-peeling-Place"
 top: "global-performing-Place"
 top: "global-performing-Tool"
 top: "global-performing-Agent"
 top: "global-performing-Event"
 top: "global-performing-Stage"
 top: "global-perspiring-Agent"
 top: "global-perspiring-Place"
 top: "global-phoning-Place"
 top: "global-phoning-Tool"
 top: "global-phoning-Agent"
 top: "global-photographing-Tool"
 top: "global-photographing-Item"
 top: "global-photographing-Agent"
 top: "global-photographing-Place"
 top: "global-picking-Place"
 top: "global-picking-Source"
 top: "global-picking-Agent"
 top: "global-picking-Crop"
 top: "global-piloting-Place"
 top: "global-piloting-Start"
 top: "global-piloting-Agent"
 top: "global-piloting-End"
 top: "global-piloting-Vehicle"
 top: "global-pinching-Object"
 top: "global-pinching-Place"
 top: "global-pinching-Agent"
 top: "global-pinching-ObjectPart"
 top: "global-pinning-Destination"
 top: "global-pinning-Pinned"
 top: "global-pinning-Agent"
 top: "global-pinning-Place"
 top: "global-pitching-Place"
 top: "global-pitching-Tool"
 top: "global-pitching-Agent"
 top: "global-pitching-Pitched"
 top: "global-placing-Destination"
 top: "global-placing-PlacedItem"
 top: "global-placing-Agent"
 top: "global-placing-Place"
 top: "global-planting-Tool"
 top: "global-planting-CoParticipant"
 top: "global-planting-Place"
 top: "global-planting-Planted"
 top: "global-planting-Agent"
 top: "global-plowing-Place"
 top: "global-plowing-Instrument"
 top: "global-plowing-Agent"
 top: "global-plummeting-Destination"
 top: "global-plummeting-Start"
 top: "global-plummeting-Agent"
 top: "global-plummeting-Place"
 top: "global-plunging-Destination"
 top: "global-plunging-Place"
 top: "global-plunging-Agent"
 top: "global-plunging-Plunged"
 top: "global-poking-Tool"
 top: "global-poking-Place"
 top: "global-poking-ObjectPart"
 top: "global-poking-Object"
 top: "global-poking-Agent"
 top: "global-pooing-Place"
 top: "global-pooing-Destination"
 top: "global-pooing-Agent"
 top: "global-potting-Place"
 top: "global-potting-Item"
 top: "global-potting-Agent"
 top: "global-potting-Container"
 top: "global-pouncing-Place"
 top: "global-pouncing-Destination"
 top: "global-pouncing-Agent"
 top: "global-pouring-Tool"
 top: "global-pouring-Substance"
 top: "global-pouring-Agent"
 top: "global-pouring-Destination"
 top: "global-pouring-Place"
 top: "global-pouring-Source"
 top: "global-pouting-Agent"
 top: "global-pouting-Place"
 top: "global-practicing-Place"
 top: "global-practicing-Skill"
 top: "global-practicing-Agent"
 top: "global-practicing-Tool"
 top: "global-praying-Agent"
 top: "global-praying-Place"
 top: "global-preaching-Place"
 top: "global-preaching-Addressee"
 top: "global-preaching-Agent"
 top: "global-pressing-Place"
 top: "global-pressing-Item"
 top: "global-pressing-Agent"
 top: "global-pricking-Tool"
 top: "global-pricking-Pricked"
 top: "global-pricking-Agent"
 top: "global-pricking-Place"
 top: "global-protesting-Agent"
 top: "global-protesting-Place"
 top: "global-providing-Place"
 top: "global-providing-Item"
 top: "global-providing-Agent"
 top: "global-providing-Recipient"
 top: "global-providing-Source"
 top: "global-prowling-Target"
 top: "global-prowling-Place"
 top: "global-prowling-Agent"
 top: "global-pruning-RemovedItem"
 top: "global-pruning-Source"
 top: "global-pruning-Tool"
 top: "global-pruning-Place"
 top: "global-pruning-Agent"
 top: "global-prying-Tool"
 top: "global-prying-Item"
 top: "global-prying-Place"
 top: "global-prying-From"
 top: "global-prying-Agent"
 top: "global-puckering-Place"
 top: "global-puckering-AgentPart"
 top: "global-puckering-Agent"
 top: "global-pulling-Tool"
 top: "global-pulling-Item"
 top: "global-pulling-Agent"
 top: "global-pulling-Place"
 top: "global-pumping-Tool"
 top: "global-pumping-Substance"
 top: "global-pumping-Agent"
 top: "global-pumping-Destination"
 top: "global-pumping-Place"
 top: "global-pumping-Source"
 top: "global-punching-Place"
 top: "global-punching-BodyPart"
 top: "global-punching-Agent"
 top: "global-punching-Victim"
 top: "global-punting-Place"
 top: "global-punting-Item"
 top: "global-punting-Agent"
 top: "global-pushing-Place"
 top: "global-pushing-Item"
 top: "global-pushing-AgentPart"
 top: "global-pushing-Agent"
 top: "global-putting-Destination"
 top: "global-putting-Item"
 top: "global-putting-Agent"
 top: "global-putting-Place"
 top: "global-queuing-Agent"
 top: "global-queuing-Place"
 top: "global-racing-Agent"
 top: "global-racing-Place"
 top: "global-rafting-Agent"
 top: "global-rafting-Place"
 top: "global-raining-Place"
 top: "global-raking-Destination"
 top: "global-raking-Item"
 top: "global-raking-Agent"
 top: "global-raking-Place"
 top: "global-raking-Source"
 top: "global-ramming-Victim"
 top: "global-ramming-Place"
 top: "global-ramming-RammingItem"
 top: "global-ramming-Agent"
 top: "global-reading-Place"
 top: "global-reading-Item"
 top: "global-reading-Agent"
 top: "global-rearing-Agent"
 top: "global-rearing-Place"
 top: "global-reassuring-Place"
 top: "global-reassuring-Reassured"
 top: "global-reassuring-Agent"
 top: "global-recording-Phenomenon"
 top: "global-recording-Place"
 top: "global-recording-Agent"
 top: "global-recovering-Ailment"
 top: "global-recovering-Place"
 top: "global-recovering-Agent"
 top: "global-recuperating-Agent"
 top: "global-recuperating-Place"
 top: "global-rehabilitating-Place"
 top: "global-rehabilitating-Item"
 top: "global-rehabilitating-Agent"
 top: "global-releasing-Place"
 top: "global-releasing-ReleasedItem"
 top: "global-releasing-Agent"
 top: "global-repairing-Problem"
 top: "global-repairing-Item"
 top: "global-repairing-Tool"
 top: "global-repairing-Place"
 top: "global-repairing-Agent"
 top: "global-resting-Place"
 top: "global-resting-Item"
 top: "global-resting-Agent"
 top: "global-resting-Goal"
 top: "global-restraining-Restrained"
 top: "global-restraining-Place"
 top: "global-restraining-Agent"
 top: "global-retrieving-Object"
 top: "global-retrieving-Start"
 top: "global-retrieving-Agent"
 top: "global-retrieving-Place"
 top: "global-riding-Agent"
 top: "global-riding-Place"
 top: "global-riding-Vehicle"
 top: "global-rinsing-Object"
 top: "global-rinsing-Tool"
 top: "global-rinsing-Agent"
 top: "global-rinsing-Place"
 top: "global-rocking-Container"
 top: "global-rocking-Place"
 top: "global-rocking-Agent"
 top: "global-rocking-Rocked"
 top: "global-rotting-Container"
 top: "global-rotting-Place"
 top: "global-rotting-Agent"
 top: "global-rowing-Agent"
 top: "global-rowing-Place"
 top: "global-rowing-Vehicle"
 top: "global-rubbing-Place"
 top: "global-rubbing-Item"
 top: "global-rubbing-AgentPart"
 top: "global-rubbing-Agent"
 top: "global-running-Agent"
 top: "global-running-Place"
 top: "global-saluting-Target"
 top: "global-saluting-Place"
 top: "global-saluting-Agent"
 top: "global-saying-Adressee"
 top: "global-saying-Place"
 top: "global-saying-Agent"
 top: "global-scolding-Victim"
 top: "global-scolding-Place"
 top: "global-scolding-Agent"
 top: "global-scooping-Tool"
 top: "global-scooping-Item"
 top: "global-scooping-Agent"
 top: "global-scooping-Place"
 top: "global-scooping-Source"
 top: "global-scoring-Agent"
 top: "global-scoring-Place"
 top: "global-scraping-Place"
 top: "global-scraping-ScrapedItem"
 top: "global-scraping-Agent"
 top: "global-scraping-Tool"
 top: "global-scratching-Object"
 top: "global-scratching-Tool"
 top: "global-scratching-Agent"
 top: "global-scratching-Place"
 top: "global-scrubbing-Tool"
 top: "global-scrubbing-Item"
 top: "global-scrubbing-Agent"
 top: "global-scrubbing-Place"
 top: "global-sealing-Place"
 top: "global-sealing-Item"
 top: "global-sealing-Sealant"
 top: "global-sealing-Agent"
 top: "global-selling-Item"
 top: "global-selling-Buyer"
 top: "global-selling-Seller"
 top: "global-selling-Place"
 top: "global-serving-Place"
 top: "global-serving-Item"
 top: "global-serving-Served"
 top: "global-serving-Agent"
 top: "global-sewing-Tool"
 top: "global-sewing-Item"
 top: "global-sewing-Agent"
 top: "global-sewing-Place"
 top: "global-shaking-Tool"
 top: "global-shaking-Item"
 top: "global-shaking-Agent"
 top: "global-shaking-Place"
 top: "global-sharpening-Tool"
 top: "global-sharpening-Item"
 top: "global-sharpening-Agent"
 top: "global-sharpening-Place"
 top: "global-shaving-CoAgent"
 top: "global-shaving-Substance"
 top: "global-shaving-Place"
 top: "global-shaving-Agent"
 top: "global-shaving-Tool"
 top: "global-shaving-BodyPart"
 top: "global-shearing-Place"
 top: "global-shearing-Item"
 top: "global-shearing-Source"
 top: "global-shearing-Agent"
 top: "global-shelling-Place"
 top: "global-shelling-Object"
 top: "global-shelling-Agent"
 top: "global-shelving-Destination"
 top: "global-shelving-Item"
 top: "global-shelving-Agent"
 top: "global-shelving-Place"
 top: "global-shivering-Agent"
 top: "global-shivering-Place"
 top: "global-shooting-Firearm"
 top: "global-shooting-Target"
 top: "global-shooting-Projectile"
 top: "global-shooting-Agent"
 top: "global-shopping-Place"
 top: "global-shopping-Goods"
 top: "global-shopping-Agent"
 top: "global-shouting-Place"
 top: "global-shouting-Addressee"
 top: "global-shouting-Agent"
 top: "global-shoveling-Place"
 top: "global-shoveling-Item"
 top: "global-shoveling-Source"
 top: "global-shoveling-Agent"
 top: "global-shredding-Tool"
 top: "global-shredding-Item"
 top: "global-shredding-Agent"
 top: "global-shredding-Place"
 top: "global-shrugging-Agent"
 top: "global-shrugging-Place"
 top: "global-shushing-Target"
 top: "global-shushing-Place"
 top: "global-shushing-Agent"
 top: "global-signaling-Message"
 top: "global-signaling-Place"
 top: "global-signaling-Tool"
 top: "global-signaling-Recipient"
 top: "global-signaling-Agent"
 top: "global-signing-Place"
 top: "global-signing-Tool"
 top: "global-signing-SignedItem"
 top: "global-signing-Agent"
 top: "global-singing-Agent"
 top: "global-singing-Place"
 top: "global-sitting-Place"
 top: "global-sitting-Contact"
 top: "global-sitting-Agent"
 top: "global-skating-Agent"
 top: "global-skating-Place"
 top: "global-skating-Vehicle"
 top: "global-sketching-Material"
 top: "global-sketching-Image"
 top: "global-sketching-Tool"
 top: "global-sketching-Place"
 top: "global-sketching-Agent"
 top: "global-skidding-Agent"
 top: "global-skidding-Place"
 top: "global-skiing-Agent"
 top: "global-skiing-Place"
 top: "global-skipping-Place"
 top: "global-skipping-Obstacle"
 top: "global-skipping-Agent"
 top: "global-slapping-Place"
 top: "global-slapping-Tool"
 top: "global-slapping-Agent"
 top: "global-slapping-Victim"
 top: "global-slapping-VictimPart"
 top: "global-sleeping-Agent"
 top: "global-sleeping-Place"
 top: "global-slicing-Tool"
 top: "global-slicing-SlicedItem"
 top: "global-slicing-Agent"
 top: "global-slicing-Place"
 top: "global-sliding-Destination"
 top: "global-sliding-Slider"
 top: "global-sliding-Surface"
 top: "global-sliding-Place"
 top: "global-sliding-Agent"
 top: "global-slipping-Place"
 top: "global-slipping-Destination"
 top: "global-slipping-Agent"
 top: "global-slithering-Agent"
 top: "global-slithering-Place"
 top: "global-slouching-Place"
 top: "global-slouching-Contact"
 top: "global-slouching-Agent"
 top: "global-smashing-Tool"
 top: "global-smashing-Smashed"
 top: "global-smashing-Against"
 top: "global-smashing-Place"
 top: "global-smashing-Agent"
 top: "global-smearing-Tool"
 top: "global-smearing-Item"
 top: "global-smearing-Surface"
 top: "global-smearing-Place"
 top: "global-smearing-Agent"
 top: "global-smelling-Place"
 top: "global-smelling-Item"
 top: "global-smelling-Agent"
 top: "global-smiling-Agent"
 top: "global-smiling-Place"
 top: "global-sneezing-Agent"
 top: "global-sneezing-Place"
 top: "global-sniffing-Place"
 top: "global-sniffing-Item"
 top: "global-sniffing-Agent"
 top: "global-snowing-Place"
 top: "global-snuggling-Place"
 top: "global-snuggling-CoAgent"
 top: "global-snuggling-Agent"
 top: "global-soaking-Place"
 top: "global-soaking-Item"
 top: "global-soaking-Container"
 top: "global-soaking-Substance"
 top: "global-soaking-Agent"
 top: "global-soaring-Agent"
 top: "global-soaring-Place"
 top: "global-socializing-Place"
 top: "global-socializing-CoAgent"
 top: "global-socializing-Agent"
 top: "global-sowing-Place"
 top: "global-sowing-Tool"
 top: "global-sowing-Agent"
 top: "global-spanking-Place"
 top: "global-spanking-Tool"
 top: "global-spanking-Agent"
 top: "global-spanking-Victim"
 top: "global-speaking-Place"
 top: "global-speaking-CoAgent"
 top: "global-speaking-Agent"
 top: "global-spearing-Victim"
 top: "global-spearing-Place"
 top: "global-spearing-Agent"
 top: "global-spilling-Source"
 top: "global-spilling-Destination"
 top: "global-spilling-Place"
 top: "global-spilling-Substance"
 top: "global-spilling-Agent"
 top: "global-spinning-Material"
 top: "global-spinning-Tool"
 top: "global-spinning-Agent"
 top: "global-spinning-Place"
 top: "global-spitting-Place"
 top: "global-spitting-Item"
 top: "global-spitting-Agent"
 top: "global-spitting-Target"
 top: "global-splashing-Tool"
 top: "global-splashing-Place"
 top: "global-splashing-Substance"
 top: "global-splashing-Destination"
 top: "global-splashing-Agent"
 top: "global-spoiling-Agent"
 top: "global-spoiling-Place"
 top: "global-spraying-Source"
 top: "global-spraying-Destination"
 top: "global-spraying-Place"
 top: "global-spraying-Substance"
 top: "global-spraying-Agent"
 top: "global-spreading-Substance"
 top: "global-spreading-Tool"
 top: "global-spreading-Surface"
 top: "global-spreading-Place"
 top: "global-spreading-Agent"
 top: "global-sprinkling-Destination"
 top: "global-sprinkling-Item"
 top: "global-sprinkling-Agent"
 top: "global-sprinkling-Place"
 top: "global-sprinkling-Source"
 top: "global-sprinting-Agent"
 top: "global-sprinting-Place"
 top: "global-sprouting-Place"
 top: "global-sprouting-Sprouter"
 top: "global-spying-Place"
 top: "global-spying-Tool"
 top: "global-spying-Agent"
 top: "global-spying-Target"
 top: "global-squeezing-Tool"
 top: "global-squeezing-Item"
 top: "global-squeezing-Agent"
 top: "global-squeezing-Place"
 top: "global-squinting-Place"
 top: "global-squinting-Item"
 top: "global-squinting-Agent"
 top: "global-stacking-Place"
 top: "global-stacking-Top"
 top: "global-stacking-Bottom"
 top: "global-stacking-Agent"
 top: "global-stampeding-Agent"
 top: "global-stampeding-Place"
 top: "global-standing-Agent"
 top: "global-standing-Place"
 top: "global-stapling-Tool"
 top: "global-stapling-Item"
 top: "global-stapling-Surface"
 top: "global-stapling-Place"
 top: "global-stapling-Agent"
 top: "global-staring-Place"
 top: "global-staring-Item"
 top: "global-staring-Agent"
 top: "global-steering-Place"
 top: "global-steering-Tool"
 top: "global-steering-Vehicle"
 top: "global-steering-Agent"
 top: "global-stinging-Victim"
 top: "global-stinging-Place"
 top: "global-stinging-VictimPart"
 top: "global-stinging-Agent"
 top: "global-stirring-Tool"
 top: "global-stirring-Item"
 top: "global-stirring-Place"
 top: "global-stirring-Container"
 top: "global-stirring-Agent"
 top: "global-stitching-Place"
 top: "global-stitching-Tool"
 top: "global-stitching-Agent"
 top: "global-stitching-Fastener"
 top: "global-stooping-Agent"
 top: "global-stooping-Place"
 top: "global-storming-Place"
 top: "global-strapping-Destination"
 top: "global-strapping-Strapped"
 top: "global-strapping-Agent"
 top: "global-strapping-Place"
 top: "global-strapping-Strap"
 top: "global-stretching-Place"
 top: "global-stretching-Item"
 top: "global-stretching-Agent"
 top: "global-striking-CoAgent"
 top: "global-striking-AgentPart"
 top: "global-striking-Tool"
 top: "global-striking-Place"
 top: "global-striking-Agent"
 top: "global-stripping-RemovedItem"
 top: "global-stripping-Source"
 top: "global-stripping-Tool"
 top: "global-stripping-Place"
 top: "global-stripping-Agent"
 top: "global-stroking-Place"
…
  bottom: "value-cresting-Agent"
  bottom: "value-crouching-Place"
  bottom: "value-crouching-Agent"
  bottom: "value-crowning-Place"
  bottom: "value-crowning-Crown"
  bottom: "value-crowning-CrownedEntity"
  bottom: "value-crowning-Agent"
  bottom: "value-crushing-Place"
  bottom: "value-crushing-Tool"
  bottom: "value-crushing-CrushedItem"
  bottom: "value-crushing-Agent"
  bottom: "value-crying-Place"
  bottom: "value-crying-Agent"
  bottom: "value-curling-Tool"
  bottom: "value-curling-Place"
  bottom: "value-curling-Target"
  bottom: "value-curling-Agent"
  bottom: "value-curtsying-Place"
  bottom: "value-curtsying-Agent"
  bottom: "value-dancing-Place"
  bottom: "value-dancing-Agent"
  bottom: "value-decomposing-Place"
  bottom: "value-decomposing-Decomposer"
  bottom: "value-decorating-Item"
  bottom: "value-decorating-Decorated"
  bottom: "value-decorating-Place"
  bottom: "value-decorating-Agent"
  bottom: "value-deflecting-Destination"
  bottom: "value-deflecting-Place"
  bottom: "value-deflecting-DeflectedItem"
  bottom: "value-deflecting-Agent"
  bottom: "value-descending-source"
  bottom: "value-descending-tool"
  bottom: "value-descending-Place"
  bottom: "value-descending-Agent"
  bottom: "value-destroying-DestroyedItem"
  bottom: "value-destroying-Tool"
  bottom: "value-destroying-Place"
  bottom: "value-destroying-Agent"
  bottom: "value-detaining-Place"
  bottom: "value-detaining-Victim"
  bottom: "value-detaining-Agent"
  bottom: "value-dialing-Item"
  bottom: "value-dialing-Place"
  bottom: "value-dialing-Agent"
  bottom: "value-dining-Food"
  bottom: "value-dining-Place"
  bottom: "value-dining-Agent"
  bottom: "value-dipping-Item"
  bottom: "value-dipping-Substance"
  bottom: "value-dipping-Place"
  bottom: "value-dipping-Agent"
  bottom: "value-disciplining-Tool"
  bottom: "value-disciplining-Place"
  bottom: "value-disciplining-Victim"
  bottom: "value-disciplining-Agent"
  bottom: "value-discussing-Place"
  bottom: "value-discussing-Agents"
  bottom: "value-disembarking-Place"
  bottom: "value-disembarking-Agent"
  bottom: "value-disembarking-Vehicle"
  bottom: "value-displaying-Item"
  bottom: "value-displaying-Place"
  bottom: "value-displaying-Target"
  bottom: "value-displaying-Agent"
  bottom: "value-dissecting-Item"
  bottom: "value-dissecting-Tool"
  bottom: "value-dissecting-Place"
  bottom: "value-dissecting-Agent"
  bottom: "value-distracting-Place"
  bottom: "value-distracting-Victim"
  bottom: "value-distracting-Agent"
  bottom: "value-distributing-Place"
  bottom: "value-distributing-Tool"
  bottom: "value-distributing-Distributed"
  bottom: "value-distributing-Recipients"
  bottom: "value-distributing-Agent"
  bottom: "value-diving-Place"
  bottom: "value-diving-Agent"
  bottom: "value-docking-Connector"
  bottom: "value-docking-Place"
  bottom: "value-docking-Agent"
  bottom: "value-docking-Vehicle"
  bottom: "value-dousing-Undergoer"
  bottom: "value-dousing-Place"
  bottom: "value-dousing-Liquid"
  bottom: "value-dousing-Agent"
  bottom: "value-dragging-Item"
  bottom: "value-dragging-Tool"
  bottom: "value-dragging-Contact"
  bottom: "value-dragging-Place"
  bottom: "value-dragging-Agent"
  bottom: "value-drawing-Tool"
  bottom: "value-drawing-Place"
  bottom: "value-drawing-Reference"
  bottom: "value-drawing-Agent"
  bottom: "value-drenching-DrenchedItem"
  bottom: "value-drenching-Tool"
  bottom: "value-drenching-Place"
  bottom: "value-drenching-Liquid"
  bottom: "value-drenching-Agent"
  bottom: "value-drinking-Place"
  bottom: "value-drinking-Container"
  bottom: "value-drinking-Liquid"
  bottom: "value-drinking-Agent"
  bottom: "value-dripping-Source"
  bottom: "value-dripping-Destination"
  bottom: "value-dripping-Place"
  bottom: "value-dripping-Fluid"
  bottom: "value-dripping-Agent"
  bottom: "value-driving-Item"
  bottom: "value-driving-Place"
  bottom: "value-driving-Agent"
  bottom: "value-drooling-Place"
  bottom: "value-drooling-End"
  bottom: "value-drooling-Agent"
  bottom: "value-dropping-Item"
  bottom: "value-dropping-Place"
  bottom: "value-dropping-End"
  bottom: "value-dropping-Agent"
  bottom: "value-dropping-Start"
  bottom: "value-drumming-ITEM"
  bottom: "value-drumming-Tool"
  bottom: "value-drumming-Place"
  bottom: "value-drumming-Agent"
  bottom: "value-drying-Item"
  bottom: "value-drying-Tool"
  bottom: "value-drying-Place"
  bottom: "value-drying-Agent"
  bottom: "value-ducking-Blow"
  bottom: "value-ducking-Place"
  bottom: "value-ducking-Agent"
  bottom: "value-dusting-Source"
  bottom: "value-dusting-Tool"
  bottom: "value-dusting-Place"
  bottom: "value-dusting-Agent"
  bottom: "value-dyeing-Dye"
  bottom: "value-dyeing-Material"
  bottom: "value-dyeing-Place"
  bottom: "value-dyeing-Agent"
  bottom: "value-eating-Food"
  bottom: "value-eating-Place"
  bottom: "value-eating-Tool"
  bottom: "value-eating-Container"
  bottom: "value-eating-Agent"
  bottom: "value-educating-Place"
  bottom: "value-educating-Teacher"
  bottom: "value-educating-Student"
  bottom: "value-educating-Subject"
  bottom: "value-ejecting-Item"
  bottom: "value-ejecting-Destination"
  bottom: "value-ejecting-Place"
  bottom: "value-ejecting-Agent"
  bottom: "value-ejecting-Source"
  bottom: "value-embracing-Coagent"
  bottom: "value-embracing-Place"
  bottom: "value-embracing-Agent"
  bottom: "value-emerging-Source"
  bottom: "value-emerging-Destination"
  bottom: "value-emerging-Place"
  bottom: "value-emerging-Agent"
  bottom: "value-emptying-Container"
  bottom: "value-emptying-Tool"
  bottom: "value-emptying-Destination"
  bottom: "value-emptying-Agent"
  bottom: "value-emptying-Item"
  bottom: "value-emptying-Place"
  bottom: "value-encouraging-Place"
  bottom: "value-encouraging-Agent"
  bottom: "value-encouraging-Reciever"
  bottom: "value-erasing-Erased"
  bottom: "value-erasing-Source"
  bottom: "value-erasing-Place"
  bottom: "value-erasing-Agent"
  bottom: "value-erupting-Substance"
  bottom: "value-erupting-Place"
  bottom: "value-erupting-Agent"
  bottom: "value-examining-Item"
  bottom: "value-examining-Tool"
  bottom: "value-examining-Place"
  bottom: "value-examining-Agent"
  bottom: "value-exercising-AgentPart"
  bottom: "value-exercising-Place"
  bottom: "value-exercising-Agent"
  bottom: "value-exterminating-Instrument"
  bottom: "value-exterminating-Place"
  bottom: "value-exterminating-Agent"
  bottom: "value-extinguishing-Item"
  bottom: "value-extinguishing-Tool"
  bottom: "value-extinguishing-Place"
  bottom: "value-extinguishing-Agent"
  bottom: "value-falling-Source"
  bottom: "value-falling-Place"
  bottom: "value-falling-Goal"
  bottom: "value-falling-Agent"
  bottom: "value-farming-Item"
  bottom: "value-farming-Tool"
  bottom: "value-farming-Ground"
  bottom: "value-farming-Place"
  bottom: "value-farming-Farmer"
  bottom: "value-fastening-Tool"
  bottom: "value-fastening-Destination"
  bottom: "value-fastening-Agent"
  bottom: "value-fastening-Connector"
  bottom: "value-fastening-Item"
  bottom: "value-fastening-Place"
  bottom: "value-feeding-Food"
  bottom: "value-feeding-Source"
  bottom: "value-feeding-Eater"
  bottom: "value-feeding-Place"
  bottom: "value-feeding-Agent"
  bottom: "value-fetching-Item"
  bottom: "value-fetching-Destination"
  bottom: "value-fetching-Place"
  bottom: "value-fetching-Agent"
  bottom: "value-fetching-Source"
  bottom: "value-filling-Item"
  bottom: "value-filling-Destination"
  bottom: "value-filling-Place"
  bottom: "value-filling-Agent"
  bottom: "value-filling-Source"
  bottom: "value-filming-Tool"
  bottom: "value-filming-Performer"
  bottom: "value-filming-Place"
  bottom: "value-filming-Agent"
  bottom: "value-fishing-SOURCE"
  bottom: "value-fishing-Tool"
  bottom: "value-fishing-Place"
  bottom: "value-fishing-Agent"
  bottom: "value-fixing-Place"
  bottom: "value-fixing-Tool"
  bottom: "value-fixing-Object"
  bottom: "value-fixing-ObjectPart"
  bottom: "value-fixing-Agent"
  bottom: "value-flaming-Place"
  bottom: "value-flaming-Agent"
  bottom: "value-flapping-BodyPart"
  bottom: "value-flapping-Place"
  bottom: "value-flapping-Agent"
  bottom: "value-flexing-AgentPart"
  bottom: "value-flexing-Addressee"
  bottom: "value-flexing-Place"
  bottom: "value-flexing-Agent"
  bottom: "value-flicking-AgentPart"
  bottom: "value-flicking-Place"
  bottom: "value-flicking-Object"
  bottom: "value-flicking-ObjectPart"
  bottom: "value-flicking-Agent"
  bottom: "value-flinging-Item"
  bottom: "value-flinging-Tool"
  bottom: "value-flinging-Place"
  bottom: "value-flinging-Goal"
  bottom: "value-flinging-Agent"
  bottom: "value-flipping-Tool"
  bottom: "value-flipping-Place"
  bottom: "value-flipping-Agent"
  bottom: "value-flipping-Flipped"
  bottom: "value-floating-Tool"
  bottom: "value-floating-Medium"
  bottom: "value-floating-Place"
  bottom: "value-floating-Agent"
  bottom: "value-flossing-CoAgent"
  bottom: "value-flossing-Place"
  bottom: "value-flossing-Agent"
  bottom: "value-folding-Cloth"
  bottom: "value-folding-Shape"
  bottom: "value-folding-Place"
  bottom: "value-folding-Agent"
  bottom: "value-foraging-Item"
  bottom: "value-foraging-Place"
  bottom: "value-foraging-Agent"
  bottom: "value-fording-Tool"
  bottom: "value-fording-Place"
  bottom: "value-fording-Agent"
  bottom: "value-frisking-Place"
  bottom: "value-frisking-Victim"
  bottom: "value-frisking-Agent"
  bottom: "value-frowning-Place"
  bottom: "value-frowning-Agent"
  bottom: "value-frying-Food"
  bottom: "value-frying-Place"
  bottom: "value-frying-Container"
  bottom: "value-frying-Agent"
  bottom: "value-fueling-Place"
  bottom: "value-fueling-Tool"
  bottom: "value-fueling-Recipient"
  bottom: "value-fueling-Agent"
  bottom: "value-gambling-Stake"
  bottom: "value-gambling-Place"
  bottom: "value-gambling-Agent"
  bottom: "value-gardening-Tool"
  bottom: "value-gardening-Place"
  bottom: "value-gardening-Agent"
  bottom: "value-gasping-Place"
  bottom: "value-gasping-Agent"
  bottom: "value-gathering-Place"
  bottom: "value-gathering-Gatherers"
  bottom: "value-giggling-Place"
  bottom: "value-giggling-Target"
  bottom: "value-giggling-Agent"
  bottom: "value-giving-Item"
  bottom: "value-giving-Place"
  bottom: "value-giving-Recipient"
  bottom: "value-giving-Agent"
  bottom: "value-glaring-Place"
  bottom: "value-glaring-Perceiver"
  bottom: "value-glaring-Agent"
  bottom: "value-glowing-Place"
  bottom: "value-glowing-Agent"
  bottom: "value-gluing-Connector"
  bottom: "value-gluing-Item"
  bottom: "value-gluing-Place"
  bottom: "value-gluing-Goal"
  bottom: "value-gluing-Agent"
  bottom: "value-gnawing-Item"
  bottom: "value-gnawing-Place"
  bottom: "value-gnawing-Agent"
  bottom: "value-grieving-Place"
  bottom: "value-grieving-Agent"
  bottom: "value-grilling-Food"
  bottom: "value-grilling-Place"
  bottom: "value-grilling-Agent"
  bottom: "value-grimacing-Place"
  bottom: "value-grimacing-Cause"
  bottom: "value-grimacing-Agent"
  bottom: "value-grinding-Item"
  bottom: "value-grinding-Tool"
  bottom: "value-grinding-Place"
  bottom: "value-grinding-Surface"
  bottom: "value-grinding-Agent"
  bottom: "value-grinning-Place"
  bottom: "value-grinning-Agent"
  bottom: "value-guarding-Item"
  bottom: "value-guarding-Weapon"
  bottom: "value-guarding-Place"
  bottom: "value-guarding-Agent"
  bottom: "value-handcuffing-Place"
  bottom: "value-handcuffing-Victim"
  bottom: "value-handcuffing-Agent"
  bottom: "value-hanging-Item"
  bottom: "value-hanging-Scaffold"
  bottom: "value-hanging-Place"
  bottom: "value-hanging-Agent"
  bottom: "value-harvesting-HarvestedItem"
  bottom: "value-harvesting-Tool"
  bottom: "value-harvesting-Place"
  bottom: "value-harvesting-Agent"
  bottom: "value-harvesting-Ground"
  bottom: "value-hauling-Item"
  bottom: "value-hauling-Tool"
  bottom: "value-hauling-Carrier"
  bottom: "value-hauling-Place"
  bottom: "value-heaving-HeavedItem"
  bottom: "value-heaving-Tool"
  bottom: "value-heaving-Place"
  bottom: "value-heaving-Agent"
  bottom: "value-helping-Tool"
  bottom: "value-helping-Place"
  bottom: "value-helping-Agent"
  bottom: "value-helping-EntityHelped"
  bottom: "value-hiking-Place"
  bottom: "value-hiking-Agent"
  bottom: "value-hitchhiking-Place"
  bottom: "value-hitchhiking-Agent"
  bottom: "value-hitting-Tool"
  bottom: "value-hitting-Place"
  bottom: "value-hitting-Victim"
  bottom: "value-hitting-Agent"
  bottom: "value-hitting-VictimPart"
  bottom: "value-hoeing-Place"
  bottom: "value-hoeing-Agent"
  bottom: "value-hoeing-Ground"
  bottom: "value-hoisting-Item"
  bottom: "value-hoisting-Tool"
  bottom: "value-hoisting-Place"
  bottom: "value-hoisting-Agent"
  bottom: "value-hoisting-Source"
  bottom: "value-hugging-AgentPart"
  bottom: "value-hugging-Hugged"
  bottom: "value-hugging-Place"
  bottom: "value-hugging-Agent"
  bottom: "value-hunching-Place"
  bottom: "value-hunching-Surface"
  bottom: "value-hunching-Agent"
  bottom: "value-hunting-Hunted"
  bottom: "value-hunting-Place"
  bottom: "value-hunting-Agent"
  bottom: "value-hurling-Start"
  bottom: "value-hurling-Place"
  bottom: "value-hurling-Object"
  bottom: "value-hurling-End"
  bottom: "value-hurling-Agent"
  bottom: "value-igniting-Item"
  bottom: "value-igniting-Tool"
  bottom: "value-igniting-Place"
  bottom: "value-igniting-Agent"
  bottom: "value-ignoring-Place"
  bottom: "value-ignoring-BoringThing"
  bottom: "value-ignoring-Agent"
  bottom: "value-imitating-Model"
  bottom: "value-imitating-Place"
  bottom: "value-imitating-Agent"
  bottom: "value-immersing-Item"
  bottom: "value-immersing-Place"
  bottom: "value-immersing-Liquid"
  bottom: "value-immersing-Agent"
  bottom: "value-inflating-Tool"
  bottom: "value-inflating-Object"
  bottom: "value-inflating-Place"
  bottom: "value-inflating-Agent"
  bottom: "value-injecting-Destination"
  bottom: "value-injecting-Source"
  bottom: "value-injecting-Substance"
  bottom: "value-injecting-Place"
  bottom: "value-injecting-Agent"
  bottom: "value-inserting-Place"
  bottom: "value-inserting-Object"
  bottom: "value-inserting-Container"
  bottom: "value-inserting-Agent"
  bottom: "value-installing-Place"
  bottom: "value-installing-Tool"
  bottom: "value-installing-Destination"
  bottom: "value-installing-Component"
  bottom: "value-installing-Agent"
  bottom: "value-instructing-Place"
  bottom: "value-instructing-Student"
  bottom: "value-instructing-Agent"
  bottom: "value-intermingling-Place"
  bottom: "value-intermingling-Agents"
  bottom: "value-interrogating-Tool"
  bottom: "value-interrogating-Addressee"
  bottom: "value-interrogating-Place"
  bottom: "value-interrogating-Agent"
  bottom: "value-interviewing-Place"
  bottom: "value-interviewing-Interviewee"
  bottom: "value-interviewing-Agent"
  bottom: "value-jogging-Place"
  bottom: "value-jogging-Agent"
  bottom: "value-juggling-Items"
  bottom: "value-juggling-Place"
  bottom: "value-juggling-Agent"
  bottom: "value-jumping-Destination"
  bottom: "value-jumping-Source"
  bottom: "value-jumping-Obstacle"
  bottom: "value-jumping-Place"
  bottom: "value-jumping-Agent"
  bottom: "value-kicking-Place"
  bottom: "value-kicking-Victim"
  bottom: "value-kicking-Agent"
  bottom: "value-kicking-VictimPart"
  bottom: "value-kissing-AgentPart"
  bottom: "value-kissing-CoAgent"
  bottom: "value-kissing-Place"
  bottom: "value-kissing-CoAgentPart"
  bottom: "value-kissing-Agent"
  bottom: "value-kneading-Item"
  bottom: "value-kneading-Place"
  bottom: "value-kneading-Agent"
  bottom: "value-kneeling-Contact"
  bottom: "value-kneeling-Place"
  bottom: "value-kneeling-Agent"
  bottom: "value-knocking-Item"
  bottom: "value-knocking-Place"
  bottom: "value-knocking-Agent"
  bottom: "value-lacing-Item"
  bottom: "value-lacing-Place"
  bottom: "value-lacing-Agent"
  bottom: "value-landing-Destination"
  bottom: "value-landing-Place"
  bottom: "value-landing-Agent"
  bottom: "value-lapping-Food"
  bottom: "value-lapping-Place"
  bottom: "value-lapping-Container"
  bottom: "value-lapping-Agent"
  bottom: "value-lathering-Destination"
  bottom: "value-lathering-Substance"
  bottom: "value-lathering-Place"
  bottom: "value-lathering-Agent"
  bottom: "value-laughing-Place"
  bottom: "value-laughing-Agent"
  bottom: "value-launching-Item"
  bottom: "value-launching-Destination"
  bottom: "value-launching-Place"
  bottom: "value-launching-Agent"
  bottom: "value-launching-Source"
  bottom: "value-leading-Follower"
  bottom: "value-leading-Place"
  bottom: "value-leading-Agent"
  bottom: "value-leaking-Destination"
  bottom: "value-leaking-Source"
  bottom: "value-leaking-Substance"
  bottom: "value-leaking-Place"
  bottom: "value-leaning-Item"
  bottom: "value-leaning-Place"
  bottom: "value-leaning-Against"
  bottom: "value-leaning-Agent"
  bottom: "value-leaping-Destination"
  bottom: "value-leaping-Source"
  bottom: "value-leaping-Obstacle"
  bottom: "value-leaping-Place"
  bottom: "value-leaping-Agent"
  bottom: "value-lecturing-Audience"
  bottom: "value-lecturing-Place"
  bottom: "value-lecturing-Agent"
  bottom: "value-licking-Item"
  bottom: "value-licking-Place"
  bottom: "value-licking-Agent"
  bottom: "value-lifting-Item"
  bottom: "value-lifting-Place"
  bottom: "value-lifting-End"
  bottom: "value-lifting-Agent"
  bottom: "value-lifting-Start"
  bottom: "value-lighting-Item"
  bottom: "value-lighting-Tool"
  bottom: "value-lighting-Place"
  bottom: "value-lighting-Agent"
  bottom: "value-loading-Item"
  bottom: "value-loading-Tool"
  bottom: "value-loading-Destination"
  bottom: "value-loading-Place"
  bottom: "value-loading-Agent"
  bottom: "value-locking-Item"
  bottom: "value-locking-Tool"
  bottom: "value-locking-Place"
  bottom: "value-locking-Agent"
  bottom: "value-making-Component"
  bottom: "value-making-Tool"
  bottom: "value-making-GoalItem"
  bottom: "value-making-Place"
  bottom: "value-making-Agent"
  bottom: "value-manicuring-Item"
  bottom: "value-manicuring-Tool"
  bottom: "value-manicuring-Place"
  bottom: "value-manicuring-Agent"
  bottom: "value-marching-Place"
  bottom: "value-marching-Agent"
  bottom: "value-mashing-Item"
  bottom: "value-mashing-Tool"
  bottom: "value-mashing-Place"
  bottom: "value-mashing-Agent"
  bottom: "value-massaging-CoAgent"
  bottom: "value-massaging-Place"
  bottom: "value-massaging-CoAgentPart"
  bottom: "value-massaging-Agent"
  bottom: "value-measuring-Tool"
  bottom: "value-measuring-Object"
  bottom: "value-measuring-Place"
  bottom: "value-measuring-Agent"
  bottom: "value-measuring-Quantity"
  bottom: "value-mending-Item"
  bottom: "value-mending-Tool"
  bottom: "value-mending-Place"
  bottom: "value-mending-Agent"
  bottom: "value-microwaving-Food"
  bottom: "value-microwaving-Place"
  bottom: "value-microwaving-Container"
  bottom: "value-microwaving-Agent"
  bottom: "value-milking-Source"
  bottom: "value-milking-Tool"
  bottom: "value-milking-Destination"
  bottom: "value-milking-Place"
  bottom: "value-milking-Agent"
  bottom: "value-miming-Place"
  bottom: "value-miming-Imitation"
  bottom: "value-miming-Agent"
  bottom: "value-mining-Place"
  bottom: "value-mining-Tool"
  bottom: "value-mining-Resource"
  bottom: "value-mining-Agent"
  bottom: "value-misbehaving-Place"
  bottom: "value-misbehaving-Agent"
  bottom: "value-moistening-Item"
  bottom: "value-moistening-Place"
  bottom: "value-moistening-Liquid"
  bottom: "value-moistening-Agent"
  bottom: "value-moisturizing-Place"
  bottom: "value-moisturizing-Tool"
  bottom: "value-moisturizing-Moisturized"
  bottom: "value-moisturizing-Agent"
  bottom: "value-molding-Place"
  bottom: "value-molding-Substance"
  bottom: "value-molding-GoalItem"
  bottom: "value-molding-Agent"
  bottom: "value-mopping-Place"
  bottom: "value-mopping-Surface"
  bottom: "value-mopping-Agent"
  bottom: "value-mourning-Place"
  bottom: "value-mourning-Mourner"
  bottom: "value-mowing-Item"
  bottom: "value-mowing-Tool"
  bottom: "value-mowing-Place"
  bottom: "value-mowing-Agent"
  bottom: "value-nagging-Place"
  bottom: "value-nagging-NaggedPerson"
  bottom: "value-nagging-Agent"
  bottom: "value-nailing-Item2"
  bottom: "value-nailing-Tool"
  bottom: "value-nailing-Item1"
  bottom: "value-nailing-Place"
  bottom: "value-nailing-Agent"
  bottom: "value-nipping-Item"
  bottom: "value-nipping-Place"
  bottom: "value-nipping-Agent"
  bottom: "value-nuzzling-Item"
  bottom: "value-nuzzling-Place"
  bottom: "value-nuzzling-Agent"
  bottom: "value-offering-Beneficiary"
  bottom: "value-offering-Item"
  bottom: "value-offering-Place"
  bottom: "value-offering-Agent"
  bottom: "value-officiating-Place"
  bottom: "value-officiating-Event"
  bottom: "value-officiating-Agent"
  bottom: "value-opening-Item"
  bottom: "value-opening-Tool"
  bottom: "value-opening-Place"
  bottom: "value-opening-Agent"
  bottom: "value-operating-Item"
  bottom: "value-operating-Tool"
  bottom: "value-operating-Place"
  bottom: "value-operating-Agent"
  bottom: "value-overflowing-Source"
  bottom: "value-overflowing-Place"
  bottom: "value-overflowing-Agent"
  bottom: "value-packaging-Item"
  bottom: "value-packaging-Place"
  bottom: "value-packaging-Agent"
  bottom: "value-packing-Item"
  bottom: "value-packing-Place"
  bottom: "value-packing-Container"
  bottom: "value-packing-Agent"
  bottom: "value-painting-Item"
  bottom: "value-painting-Tool"
  bottom: "value-painting-Place"
  bottom: "value-painting-Agent"
  bottom: "value-panhandling-Place"
  bottom: "value-panhandling-Target"
  bottom: "value-panhandling-Agent"
  bottom: "value-parachuting-Parachute"
  bottom: "value-parachuting-Destination"
  bottom: "value-parachuting-Place"
  bottom: "value-parachuting-Agent"
  bottom: "value-parading-Place"
  bottom: "value-parading-Agent"
  bottom: "value-pasting-Connector"
  bottom: "value-pasting-Item"
  bottom: "value-pasting-Object"
  bottom: "value-pasting-Place"
  bottom: "value-pasting-Agent"
  bottom: "value-patting-Item"
  bottom: "value-patting-Tool"
  bottom: "value-patting-Place"
  bottom: "value-patting-Agent"
  bottom: "value-pawing-AgentPart"
  bottom: "value-pawing-PawedItem"
  bottom: "value-pawing-Place"
  bottom: "value-pawing-Agent"
  bottom: "value-paying-Good"
  bottom: "value-paying-Place"
  bottom: "value-paying-Agent"
  bottom: "value-paying-Seller"
  bottom: "value-pedaling-Place"
  bottom: "value-pedaling-Agent"
  bottom: "value-pedaling-Vehicle"
  bottom: "value-peeing-Place"
  bottom: "value-peeing-Target"
  bottom: "value-peeing-Agent"
  bottom: "value-peeling-Item"
  bottom: "value-peeling-Tool"
  bottom: "value-peeling-Place"
  bottom: "value-peeling-Agent"
  bottom: "value-performing-Tool"
  bottom: "value-performing-Place"
  bottom: "value-performing-Event"
  bottom: "value-performing-Agent"
  bottom: "value-performing-Stage"
  bottom: "value-perspiring-Place"
  bottom: "value-perspiring-Agent"
  bottom: "value-phoning-Tool"
  bottom: "value-phoning-Place"
  bottom: "value-phoning-Agent"
  bottom: "value-photographing-Item"
  bottom: "value-photographing-Tool"
  bottom: "value-photographing-Place"
  bottom: "value-photographing-Agent"
  bottom: "value-picking-Source"
  bottom: "value-picking-Place"
  bottom: "value-picking-Crop"
  bottom: "value-picking-Agent"
  bottom: "value-piloting-Start"
  bottom: "value-piloting-Place"
  bottom: "value-piloting-End"
  bottom: "value-piloting-Agent"
  bottom: "value-piloting-Vehicle"
  bottom: "value-pinching-Place"
  bottom: "value-pinching-Object"
  bottom: "value-pinching-ObjectPart"
  bottom: "value-pinching-Agent"
  bottom: "value-pinning-Pinned"
  bottom: "value-pinning-Destination"
  bottom: "value-pinning-Place"
  bottom: "value-pinning-Agent"
  bottom: "value-pitching-Tool"
  bottom: "value-pitching-Place"
  bottom: "value-pitching-Pitched"
  bottom: "value-pitching-Agent"
  bottom: "value-placing-PlacedItem"
  bottom: "value-placing-Destination"
  bottom: "value-placing-Place"
  bottom: "value-placing-Agent"
  bottom: "value-planting-CoParticipant"
  bottom: "value-planting-Tool"
  bottom: "value-planting-Planted"
  bottom: "value-planting-Place"
  bottom: "value-planting-Agent"
  bottom: "value-plowing-Instrument"
  bottom: "value-plowing-Place"
  bottom: "value-plowing-Agent"
  bottom: "value-plummeting-Start"
  bottom: "value-plummeting-Destination"
  bottom: "value-plummeting-Place"
  bottom: "value-plummeting-Agent"
  bottom: "value-plunging-Place"
  bottom: "value-plunging-Destination"
  bottom: "value-plunging-Plunged"
  bottom: "value-plunging-Agent"
  bottom: "value-poking-Place"
  bottom: "value-poking-Tool"
  bottom: "value-poking-Object"
  bottom: "value-poking-ObjectPart"
  bottom: "value-poking-Agent"
  bottom: "value-pooing-Destination"
  bottom: "value-pooing-Place"
  bottom: "value-pooing-Agent"
  bottom: "value-potting-Item"
  bottom: "value-potting-Place"
  bottom: "value-potting-Container"
  bottom: "value-potting-Agent"
  bottom: "value-pouncing-Destination"
  bottom: "value-pouncing-Place"
  bottom: "value-pouncing-Agent"
  bottom: "value-pouring-Substance"
  bottom: "value-pouring-Tool"
  bottom: "value-pouring-Destination"
  bottom: "value-pouring-Agent"
  bottom: "value-pouring-Source"
  bottom: "value-pouring-Place"
  bottom: "value-pouting-Place"
  bottom: "value-pouting-Agent"
  bottom: "value-practicing-Skill"
  bottom: "value-practicing-Place"
  bottom: "value-practicing-Tool"
  bottom: "value-practicing-Agent"
  bottom: "value-praying-Place"
  bottom: "value-praying-Agent"
  bottom: "value-preaching-Addressee"
  bottom: "value-preaching-Place"
  bottom: "value-preaching-Agent"
  bottom: "value-pressing-Item"
  bottom: "value-pressing-Place"
  bottom: "value-pressing-Agent"
  bottom: "value-pricking-Pricked"
  bottom: "value-pricking-Tool"
  bottom: "value-pricking-Place"
  bottom: "value-pricking-Agent"
  bottom: "value-protesting-Place"
  bottom: "value-protesting-Agent"
  bottom: "value-providing-Item"
  bottom: "value-providing-Place"
  bottom: "value-providing-Recipient"
  bottom: "value-providing-Agent"
  bottom: "value-providing-Source"
  bottom: "value-prowling-Place"
  bottom: "value-prowling-Target"
  bottom: "value-prowling-Agent"
  bottom: "value-pruning-Source"
  bottom: "value-pruning-RemovedItem"
  bottom: "value-pruning-Place"
  bottom: "value-pruning-Tool"
  bottom: "value-pruning-Agent"
  bottom: "value-prying-Item"
  bottom: "value-prying-Tool"
  bottom: "value-prying-From"
  bottom: "value-prying-Place"
  bottom: "value-prying-Agent"
  bottom: "value-puckering-AgentPart"
  bottom: "value-puckering-Place"
  bottom: "value-puckering-Agent"
  bottom: "value-pulling-Item"
  bottom: "value-pulling-Tool"
  bottom: "value-pulling-Place"
  bottom: "value-pulling-Agent"
  bottom: "value-pumping-Substance"
  bottom: "value-pumping-Tool"
  bottom: "value-pumping-Destination"
  bottom: "value-pumping-Agent"
  bottom: "value-pumping-Source"
  bottom: "value-pumping-Place"
  bottom: "value-punching-BodyPart"
  bottom: "value-punching-Place"
  bottom: "value-punching-Victim"
  bottom: "value-punching-Agent"
  bottom: "value-punting-Item"
  bottom: "value-punting-Place"
  bottom: "value-punting-Agent"
  bottom: "value-pushing-Item"
  bottom: "value-pushing-Place"
  bottom: "value-pushing-Agent"
  bottom: "value-pushing-AgentPart"
  bottom: "value-putting-Item"
  bottom: "value-putting-Destination"
  bottom: "value-putting-Place"
  bottom: "value-putting-Agent"
  bottom: "value-queuing-Place"
  bottom: "value-queuing-Agent"
  bottom: "value-racing-Place"
  bottom: "value-racing-Agent"
  bottom: "value-rafting-Place"
  bottom: "value-rafting-Agent"
  bottom: "value-raining-Place"
  bottom: "value-raking-Item"
  bottom: "value-raking-Destination"
  bottom: "value-raking-Place"
  bottom: "value-raking-Agent"
  bottom: "value-raking-Source"
  bottom: "value-ramming-Place"
  bottom: "value-ramming-Victim"
  bottom: "value-ramming-Agent"
  bottom: "value-ramming-RammingItem"
  bottom: "value-reading-Item"
  bottom: "value-reading-Place"
  bottom: "value-reading-Agent"
  bottom: "value-rearing-Place"
  bottom: "value-rearing-Agent"
  bottom: "value-reassuring-Reassured"
  bottom: "value-reassuring-Place"
  bottom: "value-reassuring-Agent"
  bottom: "value-recording-Place"
  bottom: "value-recording-Phenomenon"
  bottom: "value-recording-Agent"
  bottom: "value-recovering-Place"
  bottom: "value-recovering-Ailment"
  bottom: "value-recovering-Agent"
  bottom: "value-recuperating-Place"
  bottom: "value-recuperating-Agent"
  bottom: "value-rehabilitating-Item"
  bottom: "value-rehabilitating-Place"
  bottom: "value-rehabilitating-Agent"
  bottom: "value-releasing-ReleasedItem"
  bottom: "value-releasing-Place"
  bottom: "value-releasing-Agent"
  bottom: "value-repairing-Item"
  bottom: "value-repairing-Problem"
  bottom: "value-repairing-Place"
  bottom: "value-repairing-Tool"
  bottom: "value-repairing-Agent"
  bottom: "value-resting-Item"
  bottom: "value-resting-Place"
  bottom: "value-resting-Goal"
  bottom: "value-resting-Agent"
  bottom: "value-restraining-Place"
  bottom: "value-restraining-Restrained"
  bottom: "value-restraining-Agent"
  bottom: "value-retrieving-Start"
  bottom: "value-retrieving-Object"
  bottom: "value-retrieving-Place"
  bottom: "value-retrieving-Agent"
  bottom: "value-riding-Place"
  bottom: "value-riding-Agent"
  bottom: "value-riding-Vehicle"
  bottom: "value-rinsing-Tool"
  bottom: "value-rinsing-Object"
  bottom: "value-rinsing-Place"
  bottom: "value-rinsing-Agent"
  bottom: "value-rocking-Place"
  bottom: "value-rocking-Container"
  bottom: "value-rocking-Rocked"
  bottom: "value-rocking-Agent"
  bottom: "value-rotting-Place"
  bottom: "value-rotting-Container"
  bottom: "value-rotting-Agent"
  bottom: "value-rowing-Place"
  bottom: "value-rowing-Agent"
  bottom: "value-rowing-Vehicle"
  bottom: "value-rubbing-Item"
  bottom: "value-rubbing-Place"
  bottom: "value-rubbing-Agent"
  bottom: "value-rubbing-AgentPart"
  bottom: "value-running-Place"
  bottom: "value-running-Agent"
  bottom: "value-saluting-Place"
  bottom: "value-saluting-Target"
  bottom: "value-saluting-Agent"
  bottom: "value-saying-Place"
  bottom: "value-saying-Adressee"
  bottom: "value-saying-Agent"
  bottom: "value-scolding-Place"
  bottom: "value-scolding-Victim"
  bottom: "value-scolding-Agent"
  bottom: "value-scooping-Item"
  bottom: "value-scooping-Tool"
  bottom: "value-scooping-Place"
  bottom: "value-scooping-Agent"
  bottom: "value-scooping-Source"
  bottom: "value-scoring-Place"
  bottom: "value-scoring-Agent"
  bottom: "value-scraping-ScrapedItem"
  bottom: "value-scraping-Place"
  bottom: "value-scraping-Tool"
  bottom: "value-scraping-Agent"
  bottom: "value-scratching-Tool"
  bottom: "value-scratching-Object"
  bottom: "value-scratching-Place"
  bottom: "value-scratching-Agent"
  bottom: "value-scrubbing-Item"
  bottom: "value-scrubbing-Tool"
  bottom: "value-scrubbing-Place"
  bottom: "value-scrubbing-Agent"
  bottom: "value-sealing-Item"
  bottom: "value-sealing-Place"
  bottom: "value-sealing-Agent"
  bottom: "value-sealing-Sealant"
  bottom: "value-selling-Buyer"
  bottom: "value-selling-Item"
  bottom: "value-selling-Place"
  bottom: "value-selling-Seller"
  bottom: "value-serving-Item"
  bottom: "value-serving-Place"
  bottom: "value-serving-Agent"
  bottom: "value-serving-Served"
  bottom: "value-sewing-Item"
  bottom: "value-sewing-Tool"
  bottom: "value-sewing-Place"
  bottom: "value-sewing-Agent"
  bottom: "value-shaking-Item"
  bottom: "value-shaking-Tool"
  bottom: "value-shaking-Place"
  bottom: "value-shaking-Agent"
  bottom: "value-sharpening-Item"
  bottom: "value-sharpening-Tool"
  bottom: "value-sharpening-Place"
  bottom: "value-sharpening-Agent"
  bottom: "value-shaving-Substance"
  bottom: "value-shaving-CoAgent"
  bottom: "value-shaving-Agent"
  bottom: "value-shaving-Place"
  bottom: "value-shaving-BodyPart"
  bottom: "value-shaving-Tool"
  bottom: "value-shearing-Item"
  bottom: "value-shearing-Place"
  bottom: "value-shearing-Agent"
  bottom: "value-shearing-Source"
  bottom: "value-shelling-Object"
  bottom: "value-shelling-Place"
  bottom: "value-shelling-Agent"
  bottom: "value-shelving-Item"
  bottom: "value-shelving-Destination"
  bottom: "value-shelving-Place"
  bottom: "value-shelving-Agent"
  bottom: "value-shivering-Place"
  bottom: "value-shivering-Agent"
  bottom: "value-shooting-Target"
  bottom: "value-shooting-Firearm"
  bottom: "value-shooting-Agent"
  bottom: "value-shooting-Projectile"
  bottom: "value-shopping-Goods"
  bottom: "value-shopping-Place"
  bottom: "value-shopping-Agent"
  bottom: "value-shouting-Addressee"
  bottom: "value-shouting-Place"
  bottom: "value-shouting-Agent"
  bottom: "value-shoveling-Item"
  bottom: "value-shoveling-Place"
  bottom: "value-shoveling-Agent"
  bottom: "value-shoveling-Source"
  bottom: "value-shredding-Item"
  bottom: "value-shredding-Tool"
  bottom: "value-shredding-Place"
  bottom: "value-shredding-Agent"
  bottom: "value-shrugging-Place"
  bottom: "value-shrugging-Agent"
  bottom: "value-shushing-Place"
  bottom: "value-shushing-Target"
  bottom: "value-shushing-Agent"
  bottom: "value-signaling-Place"
  bottom: "value-signaling-Message"
  bottom: "value-signaling-Recipient"
  bottom: "value-signaling-Tool"
  bottom: "value-signaling-Agent"
  bottom: "value-signing-Tool"
  bottom: "value-signing-Place"
  bottom: "value-signing-Agent"
  bottom: "value-signing-SignedItem"
  bottom: "value-singing-Place"
  bottom: "value-singing-Agent"
  bottom: "value-sitting-Contact"
  bottom: "value-sitting-Place"
  bottom: "value-sitting-Agent"
  bottom: "value-skating-Place"
  bottom: "value-skating-Agent"
  bottom: "value-skating-Vehicle"
  bottom: "value-sketching-Image"
  bottom: "value-sketching-Material"
  bottom: "value-sketching-Place"
  bottom: "value-sketching-Tool"
  bottom: "value-sketching-Agent"
  bottom: "value-skidding-Place"
  bottom: "value-skidding-Agent"
  bottom: "value-skiing-Place"
  bottom: "value-skiing-Agent"
  bottom: "value-skipping-Obstacle"
  bottom: "value-skipping-Place"
  bottom: "value-skipping-Agent"
  bottom: "value-slapping-Tool"
  bottom: "value-slapping-Place"
  bottom: "value-slapping-Victim"
  bottom: "value-slapping-Agent"
  bottom: "value-slapping-VictimPart"
  bottom: "value-sleeping-Place"
  bottom: "value-sleeping-Agent"
  bottom: "value-slicing-SlicedItem"
  bottom: "value-slicing-Tool"
  bottom: "value-slicing-Place"
  bottom: "value-slicing-Agent"
  bottom: "value-sliding-Slider"
  bottom: "value-sliding-Destination"
  bottom: "value-sliding-Place"
  bottom: "value-sliding-Surface"
  bottom: "value-sliding-Agent"
  bottom: "value-slipping-Destination"
  bottom: "value-slipping-Place"
  bottom: "value-slipping-Agent"
  bottom: "value-slithering-Place"
  bottom: "value-slithering-Agent"
  bottom: "value-slouching-Contact"
  bottom: "value-slouching-Place"
  bottom: "value-slouching-Agent"
  bottom: "value-smashing-Smashed"
  bottom: "value-smashing-Tool"
  bottom: "value-smashing-Place"
  bottom: "value-smashing-Against"
  bottom: "value-smashing-Agent"
  bottom: "value-smearing-Item"
  bottom: "value-smearing-Tool"
  bottom: "value-smearing-Place"
  bottom: "value-smearing-Surface"
  bottom: "value-smearing-Agent"
  bottom: "value-smelling-Item"
  bottom: "value-smelling-Place"
  bottom: "value-smelling-Agent"
  bottom: "value-smiling-Place"
  bottom: "value-smiling-Agent"
  bottom: "value-sneezing-Place"
  bottom: "value-sneezing-Agent"
  bottom: "value-sniffing-Item"
  bottom: "value-sniffing-Place"
  bottom: "value-sniffing-Agent"
  bottom: "value-snowing-Place"
  bottom: "value-snuggling-CoAgent"
  bottom: "value-snuggling-Place"
  bottom: "value-snuggling-Agent"
  bottom: "value-soaking-Item"
  bottom: "value-soaking-Place"
  bottom: "value-soaking-Substance"
  bottom: "value-soaking-Container"
  bottom: "value-soaking-Agent"
  bottom: "value-soaring-Place"
  bottom: "value-soaring-Agent"
  bottom: "value-socializing-CoAgent"
  bottom: "value-socializing-Place"
  bottom: "value-socializing-Agent"
  bottom: "value-sowing-Tool"
  bottom: "value-sowing-Place"
  bottom: "value-sowing-Agent"
  bottom: "value-spanking-Tool"
  bottom: "value-spanking-Place"
  bottom: "value-spanking-Victim"
  bottom: "value-spanking-Agent"
  bottom: "value-speaking-CoAgent"
  bottom: "value-speaking-Place"
  bottom: "value-speaking-Agent"
  bottom: "value-spearing-Place"
  bottom: "value-spearing-Victim"
  bottom: "value-spearing-Agent"
  bottom: "value-spilling-Destination"
  bottom: "value-spilling-Source"
  bottom: "value-spilling-Substance"
  bottom: "value-spilling-Place"
  bottom: "value-spilling-Agent"
  bottom: "value-spinning-Tool"
  bottom: "value-spinning-Material"
  bottom: "value-spinning-Place"
  bottom: "value-spinning-Agent"
  bottom: "value-spitting-Item"
  bottom: "value-spitting-Place"
  bottom: "value-spitting-Target"
  bottom: "value-spitting-Agent"
  bottom: "value-splashing-Place"
  bottom: "value-splashing-Tool"
  bottom: "value-splashing-Destination"
  bottom: "value-splashing-Substance"
  bottom: "value-splashing-Agent"
  bottom: "value-spoiling-Place"
  bottom: "value-spoiling-Agent"
  bottom: "value-spraying-Destination"
  bottom: "value-spraying-Source"
  bottom: "value-spraying-Substance"
  bottom: "value-spraying-Place"
  bottom: "value-spraying-Agent"
  bottom: "value-spreading-Tool"
  bottom: "value-spreading-Substance"
  bottom: "value-spreading-Place"
  bottom: "value-spreading-Surface"
  bottom: "value-spreading-Agent"
  bottom: "value-sprinkling-Item"
  bottom: "value-sprinkling-Destination"
  bottom: "value-sprinkling-Place"
  bottom: "value-sprinkling-Agent"
  bottom: "value-sprinkling-Source"
  bottom: "value-sprinting-Place"
  bottom: "value-sprinting-Agent"
  bottom: "value-sprouting-Sprouter"
  bottom: "value-sprouting-Place"
  bottom: "value-spying-Tool"
  bottom: "value-spying-Place"
  bottom: "value-spying-Target"
  bottom: "value-spying-Agent"
  bottom: "value-squeezing-Item"
  bottom: "value-squeezing-Tool"
  bottom: "value-squeezing-Place"
  bottom: "value-squeezing-Agent"
  bottom: "value-squinting-Item"
  bottom: "value-squinting-Place"
  bottom: "value-squinting-Agent"
  bottom: "value-stacking-Top"
  bottom: "value-stacking-Place"
  bottom: "value-stacking-Agent"
  bottom: "value-stacking-Bottom"
  bottom: "value-stampeding-Place"
  bottom: "value-stampeding-Agent"
  bottom: "value-standing-Place"
  bottom: "value-standing-Agent"
  bottom: "value-stapling-Item"
  bottom: "value-stapling-Tool"
  bottom: "value-stapling-Place"
  bottom: "value-stapling-Surface"
  bottom: "value-stapling-Agent"
  bottom: "value-staring-Item"
  bottom: "value-staring-Place"
  bottom: "value-staring-Agent"
  bottom: "value-steering-Tool"
  bottom: "value-steering-Place"
  bottom: "value-steering-Agent"
  bottom: "value-steering-Vehicle"
  bottom: "value-stinging-Place"
  bottom: "value-stinging-Victim"
  bottom: "value-stinging-Agent"
  bottom: "value-stinging-VictimPart"
  bottom: "value-stirring-Item"
  bottom: "value-stirring-Tool"
  bottom: "value-stirring-Container"
  bottom: "value-stirring-Place"
  bottom: "value-stirring-Agent"
  bottom: "value-stitching-Tool"
  bottom: "value-stitching-Place"
  bottom: "value-stitching-Fastener"
  bottom: "value-stitching-Agent"
  bottom: "value-stooping-Place"
  bottom: "value-stooping-Agent"
  bottom: "value-storming-Place"
  bottom: "value-strapping-Strapped"
  bottom: "value-strapping-Destination"
  bottom: "value-strapping-Place"
  bottom: "value-strapping-Agent"
  bottom: "value-strapping-Strap"
  bottom: "value-stretching-Item"
  bottom: "value-stretching-Place"
  bottom: "value-stretching-Agent"
  bottom: "value-striking-AgentPart"
  bottom: "value-striking-CoAgent"
  bottom: "value-striking-Place"
  bottom: "value-striking-Tool"
  bottom: "value-striking-Agent"
  bottom: "value-stripping-Source"
  bottom: "value-stripping-RemovedItem"
  bottom: "value-stripping-Place"
  bottom: "value-stripping-Tool"
  bottom: "value-stripping-Agent"
  bottom: "value-stroking-Object"
  bottom: "value-stroking-Place"
  bottom: "value-stroking-Part"
  bottom: "value-stroking-Agent"
  bottom: "value-studying-Place"
  bottom: "value-studying-Agent"
  bottom: "value-stuffing-Item"
  bottom: "value-stuffing-Destination"
  bottom: "value-stuffing-Place"
  bottom: "value-stuffing-Agent"
  bottom: "value-stumbling-Destination"
  bottom: "value-stumbling-Place"
  bottom: "value-stumbling-Agent"
  bottom: "value-subduing-Place"
  bottom: "value-subduing-Target"
  bottom: "value-subduing-Agent"
  bottom: "value-submerging-Place"
  bottom: "value-submerging-Object"
  bottom: "value-submerging-Substance"
  bottom: "value-submerging-Agent"
  bottom: "value-sucking-Item"
  bottom: "value-sucking-Place"
  bottom: "value-sucking-Agent"
  bottom: "value-surfing-Path"
  bottom: "value-surfing-Tool"
  bottom: "value-surfing-Place"
  bottom: "value-surfing-Agent"
  bottom: "value-swarming-AgentType"
  bottom: "value-swarming-Place"
  bottom: "value-sweeping-Place"
  bottom: "value-sweeping-Surface"
  bottom: "value-sweeping-Agent"
  bottom: "value-sweeping-Brush"
  bottom: "value-swimming-Place"
  bottom: "value-swimming-Agent"
  bottom: "value-swinging-Carrier"
  bottom: "value-swinging-Place"
  bottom: "value-swinging-Agent"
  bottom: "value-swooping-Place"
  bottom: "value-swooping-Agent"
  bottom: "value-tackling-Place"
  bottom: "value-tackling-Victim"
  bottom: "value-tackling-Agent"
  bottom: "value-talking-Listener"
  bottom: "value-talking-Place"
  bottom: "value-talking-Agent"
  bottom: "value-taping-Item"
  bottom: "value-taping-Destination"
  bottom: "value-taping-Place"
  bottom: "value-taping-Agent"
  bottom: "value-tasting-Item"
  bottom: "value-tasting-Tool"
  bottom: "value-tasting-Place"
  bottom: "value-tasting-Agent"
  bottom: "value-tattooing-Tool"
  bottom: "value-tattooing-Place"
  bottom: "value-tattooing-Target"
  bottom: "value-tattooing-Agent"
  bottom: "value-taxiing-Place"
  bottom: "value-taxiing-Agent"
  bottom: "value-taxiing-Ground"
  bottom: "value-teaching-Place"
  bottom: "value-teaching-Teacher"
  bottom: "value-teaching-Student"
  bottom: "value-tearing-Item"
  bottom: "value-tearing-Tool"
  bottom: "value-tearing-Place"
  bottom: "value-tearing-Agent"
  bottom: "value-telephoning-Place"
  bottom: "value-telephoning-Agent"
  bottom: "value-throwing-Item"
  bottom: "value-throwing-Destination"
  bottom: "value-throwing-Place"
  bottom: "value-throwing-Agent"
  bottom: "value-tickling-Tickled"
  bottom: "value-tickling-Object"
  bottom: "value-tickling-Place"
  bottom: "value-tickling-Agent"
  bottom: "value-tilling-Tool"
  bottom: "value-tilling-Place"
  bottom: "value-tilling-Agent"
  bottom: "value-tilting-Item"
  bottom: "value-tilting-Place"
  bottom: "value-tilting-Agent"
  bottom: "value-tilting-AgentPart"
  bottom: "value-tipping-Item"
  bottom: "value-tipping-Place"
  bottom: "value-tipping-Agent"
  bottom: "value-tipping-AgentPart"
  bottom: "value-towing-Item"
  bottom: "value-towing-Place"
  bottom: "value-towing-Agent"
  bottom: "value-training-Place"
  bottom: "value-training-Student"
  bottom: "value-training-Agent"
  bottom: "value-trimming-Item"
  bottom: "value-trimming-Tool"
  bottom: "value-trimming-Place"
  bottom: "value-trimming-ItemPart"
  bottom: "value-trimming-Agent"
  bottom: "value-tripping-Item"
  bottom: "value-tripping-Place"
  bottom: "value-tripping-Agent"
  bottom: "value-tugging-Item"
  bottom: "value-tugging-Place"
  bottom: "value-tugging-Agent"
  bottom: "value-tuning-Tool"
  bottom: "value-tuning-Object"
  bottom: "value-tuning-Place"
  bottom: "value-tuning-Agent"
  bottom: "value-turning-Place"
  bottom: "value-turning-TurnedItem"
  bottom: "value-turning-Agent"
  bottom: "value-twirling-CoAgent"
  bottom: "value-twirling-Place"
  bottom: "value-twirling-Agent"
  bottom: "value-twisting-AgentPart"
  bottom: "value-twisting-Place"
  bottom: "value-twisting-Agent"
  bottom: "value-tying-Connector"
  bottom: "value-tying-Item"
  bottom: "value-tying-Destination"
  bottom: "value-tying-Place"
  bottom: "value-tying-Agent"
  bottom: "value-typing-Tool"
  bottom: "value-typing-Place"
  bottom: "value-typing-Agent"
  bottom: "value-uncorking-Place"
  bottom: "value-uncorking-Tool"
  bottom: "value-uncorking-Container"
  bottom: "value-uncorking-Agent"
  bottom: "value-unloading-Item"
  bottom: "value-unloading-Tool"
  bottom: "value-unloading-Place"
  bottom: "value-unloading-Agent"
  bottom: "value-unloading-Source"
  bottom: "value-unlocking-Lock"
  bottom: "value-unlocking-Tool"
  bottom: "value-unlocking-Container"
  bottom: "value-unlocking-Place"
  bottom: "value-unlocking-Agent"
  bottom: "value-unpacking-Item"
  bottom: "value-unpacking-Place"
  bottom: "value-unpacking-Container"
  bottom: "value-unpacking-Agent"
  bottom: "value-unplugging-Place"
  bottom: "value-unplugging-Unplugged"
  bottom: "value-unplugging-Agent"
  bottom: "value-unveiling-Object"
  bottom: "value-unveiling-Place"
  bottom: "value-unveiling-Agent"
  bottom: "value-urinating-Place"
  bottom: "value-urinating-Target"
  bottom: "value-urinating-Agent"
  bottom: "value-vacuuming-Tool"
  bottom: "value-vacuuming-Place"
  bottom: "value-vacuuming-Surface"
  bottom: "value-vacuuming-Agent"
  bottom: "value-vaulting-End"
  bottom: "value-vaulting-Tool"
  bottom: "value-vaulting-Agent"
  bottom: "value-vaulting-Start"
  bottom: "value-vaulting-Obstacle"
  bottom: "value-vaulting-Place"
  bottom: "value-videotaping-Depicted"
  bottom: "value-videotaping-Place"
  bottom: "value-videotaping-Agent"
  bottom: "value-voting-Place"
  bottom: "value-voting-Agent"
  bottom: "value-waddling-Place"
  bottom: "value-waddling-Agent"
  bottom: "value-wading-Substance"
  bottom: "value-wading-Place"
  bottom: "value-wading-Agent"
  bottom: "value-wagging-AgentPart"
  bottom: "value-wagging-Addressee"
  bottom: "value-wagging-Place"
  bottom: "value-wagging-Agent"
  bottom: "value-waiting-Place"
  bottom: "value-waiting-Agent"
  bottom: "value-walking-Place"
  bottom: "value-walking-Agent"
  bottom: "value-washing-Item"
  bottom: "value-washing-Tool"
  bottom: "value-washing-Place"
  bottom: "value-washing-Agent"
  bottom: "value-washing-Dirt"
  bottom: "value-watering-Place"
  bottom: "value-watering-Tool"
  bottom: "value-watering-Recipient"
  bottom: "value-watering-Agent"
  bottom: "value-waving-Agentpart"
  bottom: "value-waving-Place"
  bottom: "value-waving-Agent"
  bottom: "value-waxing-CoAgent"
  bottom: "value-waxing-BodyPart"
  bottom: "value-waxing-Place"
  bottom: "value-waxing-Agent"
  bottom: "value-weeding-Tool"
  bottom: "value-weeding-Place"
  bottom: "value-weeding-Agent"
  bottom: "value-weeping-Place"
  bottom: "value-weeping-Agent"
  bottom: "value-weighing-Place"
  bottom: "value-weighing-Tool"
  bottom: "value-weighing-Mass"
  bottom: "value-weighing-Agent"
  bottom: "value-welding-Item"
  bottom: "value-welding-Tool"
  bottom: "value-welding-Place"
  bottom: "value-welding-Surface"
  bottom: "value-welding-Agent"
  bottom: "value-wetting-Tool"
  bottom: "value-wetting-Object"
  bottom: "value-wetting-Place"
  bottom: "value-wetting-Liquid"
  bottom: "value-wetting-Agent"
  bottom: "value-wheeling-Item"
  bottom: "value-wheeling-Carrier"
  bottom: "value-wheeling-Place"
  bottom: "value-wheeling-Agent"
  bottom: "value-whipping-Item"
  bottom: "value-whipping-Tool"
  bottom: "value-whipping-Place"
  bottom: "value-whipping-Agent"
  bottom: "value-whirling-Place"
  bottom: "value-whirling-Agent"
  bottom: "value-whisking-Item"
  bottom: "value-whisking-Place"
  bottom: "value-whisking-Container"
  bottom: "value-whisking-Agent"
  bottom: "value-whistling-Tool"
  bottom: "value-whistling-Place"
  bottom: "value-whistling-Agent"
  bottom: "value-wilting-Place"
  bottom: "value-wilting-Agent"
  bottom: "value-winking-Addressee"
  bottom: "value-winking-Place"
  bottom: "value-winking-Agent"
  bottom: "value-wiping-Source"
  bottom: "value-wiping-Tool"
  bottom: "value-wiping-Substance"
  bottom: "value-wiping-Place"
  bottom: "value-wiping-Agent"
  bottom: "value-working-Place"
  bottom: "value-working-Focus"
  bottom: "value-working-Agent"
  bottom: "value-wrapping-WrappedItem"
  bottom: "value-wrapping-Place"
  bottom: "value-wrapping-WrappingItem"
  bottom: "value-wrapping-Agent"
  bottom: "value-wringing-Item"
  bottom: "value-wringing-Place"
  bottom: "value-wringing-Agent"
  bottom: "value-wrinkling-AgentPart"
  bottom: "value-wrinkling-Place"
  bottom: "value-wrinkling-Agent"
  bottom: "value-writing-Tool"
  bottom: "value-writing-Place"
  bottom: "value-writing-Target"
  bottom: "value-writing-Agent"
  bottom: "value-yanking-Place"
  bottom: "value-yanking-Yanked"
  bottom: "value-yanking-Agent"
  bottom: "value-yanking-YankedPart"
  bottom: "value-yawning-Place"
  bottom: "value-yawning-Agent"
  bottom: "value-frame"
  bottom: "label"
  name: "crf-log-loss"
  top: "crf-log-loss"
  top: "frame-structure"
  top: "frame-score"
  type: "MILFrameLoss"
  frame_loss_param{
    lambda : 0
    references : 3
    maxlabels : 7
    structure : "of500/of500_structure.tab"
    mode: 0
    syns: "of500/object/object_value.tabs"
    total_syns : 11789
    bounding_boxes: 1
  }
}
layer {
  bottom: "label"
  bottom: "frame-structure"
  bottom: "frame-score"
  top: "top1-verb-acc"
  top: "top1-arg-acc"
  top: "top1-any-acc"
  top: "top1-full-acc"
  top: "top1-*arg-acc"
  top: "top1-*any-acc"
  top: "top1-*full-acc"
  name: "top1-evaluation"
  type: "StructureFrameAccuracy"
  structure_frame_accuracy_param{
    references: 3
    maxlabels: 7
    topk: 1
    total_verbs: 504
  }
}
layer {
  bottom: "label"
  bottom: "frame-structure"
  bottom: "frame-score"
  top: "top5-verb-acc"
  top: "top5-arg-acc"
  top: "top5-any-acc"
  top: "top5-full-acc"
  top: "top5-*arg-acc"
  top: "top5-*any-acc"
  top: "top5-*full-acc"
  name: "top5-evaluation"
  type: "StructureFrameAccuracy"
  structure_frame_accuracy_param{
    references: 3
    maxlabels: 7
    topk: 5
    total_verbs: 504
  }
}

