name: "VGG_ILSVRC_16_layers"
layer {
  name: "data"
  type: "MultiLabelImageData"
  include {
    phase: TRAIN
  }
  transform_param {
    crop_size: 224
    mean_value: 104
    mean_value: 117
    mean_value: 123
    mirror: true
  }
  multilabel_image_data_param {
    new_width : 224
    new_height : 224
    shuffle : 1
    source: "of500/of500_train.tab.trimmed"
    batch_size: 32
    references: 3
    max_labels: 7 
    root_folder: "of500/resized_256/"
    bounding_box_folder: "of500/output_224/"
    n_bounding_boxes: 1
  }
  top: "data"
  top: "label"
  top: "rois"
}
layer {
  name: "data"
  type: "MultiLabelImageData"
  include {
    phase: TEST
  }
  transform_param {
    crop_size: 224
    mean_value: 104
    mean_value: 117
    mean_value: 123
    mirror: false
  }
  multilabel_image_data_param {
    new_width: 224
    new_height: 224
    shuffle : 1
    source: "of500/of500_dev.tab.trimmed"
    batch_size: 150
    references: 3
    max_labels: 7 
    root_folder: "of500/resized_256/"
    bounding_box_folder: "of500/output_224/"
    n_bounding_boxes: 1
  }
  top: "data"
  top: "label"
  top: "rois"
}

layer {
  bottom: "data"
  top: "conv1_1"
  name: "conv1_1"
  type: "Convolution"
  convolution_param {
    num_output: 64
    pad: 1
    kernel_size: 3
  }
  param{ lr_mult: 1 decay_mult: 0}
  param{ lr_mult: 1 decay_mult: 0}
}
layer {
  bottom: "conv1_1"
  top: "conv1_1"
  name: "relu1_1"
  type: "ReLU"
}
layer {
  bottom: "conv1_1"
  top: "conv1_2"
  name: "conv1_2"
  type: "Convolution"
  convolution_param {
    num_output: 64
    pad: 1
    kernel_size: 3
  }
  param{ lr_mult: 1 decay_mult: 0}
  param{ lr_mult: 1 decay_mult: 0}
}
layer {
  bottom: "conv1_2"
  top: "conv1_2"
  name: "relu1_2"
  type: "ReLU"
}
layer {
  bottom: "conv1_2"
  top: "pool1"
  name: "pool1"
  type: "Pooling"
  pooling_param {
    pool: MAX
    kernel_size: 2
    stride: 2
  }
}
layer {
  bottom: "pool1"
  top: "conv2_1"
  name: "conv2_1"
  type: "Convolution"
  convolution_param {
    num_output: 128
    pad: 1
    kernel_size: 3
  }
  param{ lr_mult: 1 decay_mult: 0}
  param{ lr_mult: 1 decay_mult: 0}
}
layer {
  bottom: "conv2_1"
  top: "conv2_1"
  name: "relu2_1"
  type: "ReLU"
}
layer {
  bottom: "conv2_1"
  top: "conv2_2"
  name: "conv2_2"
  type: "Convolution"
  convolution_param {
    num_output: 128
    pad: 1
    kernel_size: 3
  }
  param{ lr_mult: 1 decay_mult: 0}
  param{ lr_mult: 1 decay_mult: 0}
}
layer {
  bottom: "conv2_2"
  top: "conv2_2"
  name: "relu2_2"
  type: "ReLU"
}
layer {
  bottom: "conv2_2"
  top: "pool2"
  name: "pool2"
  type: "Pooling"
  pooling_param {
    pool: MAX
    kernel_size: 2
    stride: 2
  }
}
layer {
  bottom: "pool2"
  top: "conv3_1"
  name: "conv3_1"
  type: "Convolution"
  convolution_param {
    num_output: 256
    pad: 1
    kernel_size: 3
  }
  param{ lr_mult: 1 decay_mult: 0}
  param{ lr_mult: 1 decay_mult: 0}
}
layer {
  bottom: "conv3_1"
  top: "conv3_1"
  name: "relu3_1"
  type: "ReLU"
}
layer {
  bottom: "conv3_1"
  top: "conv3_2"
  name: "conv3_2"
  type: "Convolution"
  convolution_param {
    num_output: 256
    pad: 1
    kernel_size: 3
  }
  param{ lr_mult: 1 decay_mult: 0}
  param{ lr_mult: 1 decay_mult: 0}
}
layer {
  bottom: "conv3_2"
  top: "conv3_2"
  name: "relu3_2"
  type: "ReLU"
}
layer {
  bottom: "conv3_2"
  top: "conv3_3"
  name: "conv3_3"
  type: "Convolution"
  convolution_param {
    num_output: 256
    pad: 1
    kernel_size: 3
  }
  param{ lr_mult: 1 decay_mult: 0}
  param{ lr_mult: 1 decay_mult: 0}
}
layer {
  bottom: "conv3_3"
  top: "conv3_3"
  name: "relu3_3"
  type: "ReLU"
}
layer {
  bottom: "conv3_3"
  top: "pool3"
  name: "pool3"
  type: "Pooling"
  pooling_param {
    pool: MAX
    kernel_size: 2
    stride: 2
  }
}
layer {
  bottom: "pool3"
  top: "conv4_1"
  name: "conv4_1"
  type: "Convolution"
  convolution_param {
    num_output: 512
    pad: 1
    kernel_size: 3
  }
  param{ lr_mult: 1 decay_mult: 0}
  param{ lr_mult: 1 decay_mult: 0}
}
layer {
  bottom: "conv4_1"
  top: "conv4_1"
  name: "relu4_1"
  type: "ReLU"
}
layer {
  bottom: "conv4_1"
  top: "conv4_2"
  name: "conv4_2"
  type: "Convolution"
  convolution_param {
    num_output: 512
    pad: 1
    kernel_size: 3
  }
  param{ lr_mult: 1 decay_mult: 0}
  param{ lr_mult: 1 decay_mult: 0}
}
layer {
  bottom: "conv4_2"
  top: "conv4_2"
  name: "relu4_2"
  type: "ReLU"
}
layer {
  bottom: "conv4_2"
  top: "conv4_3"
  name: "conv4_3"
  type: "Convolution"
  convolution_param {
    num_output: 512
    pad: 1
    kernel_size: 3
  }
  param{ lr_mult: 1 decay_mult: 0}
  param{ lr_mult: 1 decay_mult: 0}
}
layer {
  bottom: "conv4_3"
  top: "conv4_3"
  name: "relu4_3"
  type: "ReLU"
}
layer {
  bottom: "conv4_3"
  top: "pool4"
  name: "pool4"
  type: "Pooling"
  pooling_param {
    pool: MAX
    kernel_size: 2
    stride: 2
  }
}
layer {
  bottom: "pool4"
  top: "conv5_1"
  name: "conv5_1"
  type: "Convolution"
  convolution_param {
    num_output: 512
    pad: 1
    kernel_size: 3
  }
  param{ lr_mult: 1 decay_mult: 0}
  param{ lr_mult: 1 decay_mult: 0}
}
layer {
  bottom: "conv5_1"
  top: "conv5_1"
  name: "relu5_1"
  type: "ReLU"
}
layer {
  bottom: "conv5_1"
  top: "conv5_2"
  name: "conv5_2"
  type: "Convolution"
  convolution_param {
    num_output: 512
    pad: 1
    kernel_size: 3
  }
  param{ lr_mult: 1 decay_mult: 0}
  param{ lr_mult: 1 decay_mult: 0}
}
layer {
  bottom: "conv5_2"
  top: "conv5_2"
  name: "relu5_2"
  type: "ReLU"
}
layer {
  bottom: "conv5_2"
  top: "conv5_3"
  name: "conv5_3"
  type: "Convolution"
  convolution_param {
    num_output: 512
    pad: 1
    kernel_size: 3
  }
  param{ lr_mult: 1 decay_mult: 0}
  param{ lr_mult: 1 decay_mult: 0}
}
layer {
  bottom: "conv5_3"
  top: "conv5_3"
  name: "relu5_3"
  type: "ReLU"
}

layer {
  name: "roi_pool5"
  type: "ROIPooling"
  bottom: "conv5_3"
  bottom: "rois"
  top: "pool5"
  roi_pooling_param {
    pooled_w: 7
    pooled_h: 7
    spatial_scale: 0.0625 # 1/16
  }
}

layer {
  bottom: "pool5"
  top: "fc6"
  name: "fc6"
  type: "InnerProduct"
  inner_product_param {
    num_output: 4096
  }
  param{ lr_mult: 1 decay_mult: 0}
  param{ lr_mult: 1 decay_mult: 0}
}
layer {
  bottom: "fc6"
  top: "fc6"
  name: "relu6"
  type: "ReLU"
}
layer {
  bottom: "fc6"
  top: "fc6"
  name: "drop6"
  type: "Dropout"
  dropout_param {
    dropout_ratio: 0.5
  }
}
layer {
  bottom: "fc6"
  top: "fc7"
  name: "fc7"
  type: "InnerProduct"
  inner_product_param {
    num_output: 4096
  }
  param{ lr_mult: 1 decay_mult: 0}
  param{ lr_mult: 1 decay_mult: 0}
}
layer {
  bottom: "fc7"
  top: "fc7"
  name: "relu7"
  type: "ReLU"
}
layer {
  bottom: "fc7"
  top: "fc7"
  name: "drop7"
  type: "Dropout"
  dropout_param {
    dropout_ratio: 0.5
  }
}

layer{
  bottom: "fc7"
  top: "rep-frame"
  top : "rep-adjusting-Tool"
  top : "rep-adjusting-Item"
  top : "rep-adjusting-Feature"
  top : "rep-adjusting-Place"
  top : "rep-adjusting-Agent"
  top : "rep-admiring-Place"
  top : "rep-admiring-Admired"
  top : "rep-admiring-Agent"
  top : "rep-ailing-Cause"
  top : "rep-ailing-Place"
  top : "rep-ailing-Victim"
  top : "rep-ailing-VictimPart"
  top : "rep-aiming-Place"
  top : "rep-aiming-Item"
  top : "rep-aiming-Agent"
  top : "rep-aiming-Target"
  top : "rep-applauding-Place"
  top : "rep-applauding-Addressee"
  top : "rep-applauding-Agent"
  top : "rep-applying-Tool"
  top : "rep-applying-Destination"
  top : "rep-applying-Place"
  top : "rep-applying-Substance"
  top : "rep-applying-Agent"
  top : "rep-apprehending-Victim"
  top : "rep-apprehending-Place"
  top : "rep-apprehending-Agent"
  top : "rep-arching-Place"
  top : "rep-arching-BODYPART"
  top : "rep-arching-Agent"
  top : "rep-arranging-Tool"
  top : "rep-arranging-Item"
  top : "rep-arranging-Agent"
  top : "rep-arranging-Place"
  top : "rep-arresting-Suspect"
  top : "rep-arresting-Place"
  top : "rep-arresting-Agent"
  top : "rep-ascending-Agent"
  top : "rep-ascending-Place"
  top : "rep-asking-Place"
  top : "rep-asking-Addressee"
  top : "rep-asking-Agent"
  top : "rep-assembling-Tool"
  top : "rep-assembling-Component"
  top : "rep-assembling-Place"
  top : "rep-assembling-GoalItem"
  top : "rep-assembling-Agent"
  top : "rep-attaching-Destination"
  top : "rep-attaching-Tool"
  top : "rep-attaching-Item"
  top : "rep-attaching-Agent"
  top : "rep-attaching-Glue"
  top : "rep-attaching-Place"
  top : "rep-attacking-Place"
  top : "rep-attacking-Weapon"
  top : "rep-attacking-Agent"
  top : "rep-attacking-Victim"
  top : "rep-autographing-Place"
  top : "rep-autographing-Item"
  top : "rep-autographing-Receiver"
  top : "rep-autographing-Agent"
  top : "rep-baking-Place"
  top : "rep-baking-Food"
  top : "rep-baking-Agent"
  top : "rep-baking-FoodContainer"
  top : "rep-baking-HeatSource"
  top : "rep-ballooning-Agent"
  top : "rep-ballooning-Place"
  top : "rep-bandaging-VICTIM"
  top : "rep-bandaging-Place"
  top : "rep-bandaging-Agent"
  top : "rep-baptizing-BAPTIZED"
  top : "rep-baptizing-Place"
  top : "rep-baptizing-Agent"
  top : "rep-barbecuing-Place"
  top : "rep-barbecuing-Food"
  top : "rep-barbecuing-Agent"
  top : "rep-bathing-Substance"
  top : "rep-bathing-CoAgent"
  top : "rep-bathing-Tool"
  top : "rep-bathing-Place"
  top : "rep-bathing-Agent"
  top : "rep-begging-Place"
  top : "rep-begging-ITEM"
  top : "rep-begging-Agent"
  top : "rep-begging-GIVER"
  top : "rep-betting-Agent"
  top : "rep-betting-Place"
  top : "rep-biking-Agent"
  top : "rep-biking-Place"
  top : "rep-biting-Place"
  top : "rep-biting-Item"
  top : "rep-biting-Agent"
  top : "rep-blocking-Tool"
  top : "rep-blocking-Blocker"
  top : "rep-blocking-Blocked"
  top : "rep-blocking-Place"
  top : "rep-blossoming-Agent"
  top : "rep-blossoming-Place"
  top : "rep-boarding-Agent"
  top : "rep-boarding-Place"
  top : "rep-boarding-Vehicle"
  top : "rep-boating-Boaters"
  top : "rep-boating-Place"
  top : "rep-boating-Vehicle"
  top : "rep-bothering-Victim"
  top : "rep-bothering-Action"
  top : "rep-bothering-Agent"
  top : "rep-bouncing-Place"
  top : "rep-bouncing-Item"
  top : "rep-bouncing-Agent"
  top : "rep-bouncing-Surface"
  top : "rep-bowing-Agent"
  top : "rep-bowing-Place"
  top : "rep-braiding-Place"
  top : "rep-braiding-Item"
  top : "rep-braiding-Agent"
  top : "rep-branching-Brancher"
  top : "rep-branching-Place"
  top : "rep-brawling-Agent"
  top : "rep-brawling-Place"
  top : "rep-breaking-Tool"
  top : "rep-breaking-Item"
  top : "rep-breaking-Agent"
  top : "rep-breaking-Against"
  top : "rep-brewing-Target"
  top : "rep-brewing-Place"
  top : "rep-brewing-Agent"
  top : "rep-browsing-GoalItem"
  top : "rep-browsing-Place"
  top : "rep-browsing-Agent"
  top : "rep-brushing-Substance"
  top : "rep-brushing-TOOL"
  top : "rep-brushing-Target"
  top : "rep-brushing-Place"
  top : "rep-brushing-Agent"
  top : "rep-bubbling-Agent"
  top : "rep-bubbling-Place"
  top : "rep-buckling-Fastener"
  top : "rep-buckling-Item"
  top : "rep-buckling-Place"
  top : "rep-buckling-Container"
  top : "rep-buckling-Agent"
  top : "rep-building-Tool"
  top : "rep-building-Place"
  top : "rep-building-Components"
  top : "rep-building-GoalItem"
  top : "rep-building-Agent"
  top : "rep-bulldozing-Place"
  top : "rep-bulldozing-Object"
  top : "rep-bulldozing-Agent"
  top : "rep-burning-Target"
  top : "rep-burning-Place"
  top : "rep-burning-Agent"
  top : "rep-burying-Tool"
  top : "rep-burying-Item"
  top : "rep-burying-Place"
  top : "rep-burying-Destination"
  top : "rep-burying-Agent"
  top : "rep-buttering-Tool"
  top : "rep-buttering-Item"
  top : "rep-buttering-Agent"
  top : "rep-buttering-Place"
  top : "rep-butting-Target"
  top : "rep-butting-Place"
  top : "rep-butting-Agent"
  top : "rep-buttoning-Place"
  top : "rep-buttoning-Item"
  top : "rep-buttoning-Agent"
  top : "rep-buying-Place"
  top : "rep-buying-Goods"
  top : "rep-buying-Agent"
  top : "rep-buying-Payment"
  top : "rep-buying-Seller"
  top : "rep-calling-Place"
  top : "rep-calling-Tool"
  top : "rep-calling-Agent"
  top : "rep-calming-Experiencer"
  top : "rep-calming-Place"
  top : "rep-calming-Agent"
  top : "rep-camouflaging-HidingItem"
  top : "rep-camouflaging-Place"
  top : "rep-camouflaging-Agent"
  top : "rep-camping-Place"
  top : "rep-camping-Shelter"
  top : "rep-camping-Agent"
  top : "rep-caressing-RecipientPart"
  top : "rep-caressing-Place"
  top : "rep-caressing-Agent"
  top : "rep-caressing-Recipient"
  top : "rep-carrying-Place"
  top : "rep-carrying-Item"
  top : "rep-carrying-AgentPart"
  top : "rep-carrying-Agent"
  top : "rep-carting-Tool"
  top : "rep-carting-Item"
  top : "rep-carting-Agent"
  top : "rep-carting-Place"
  top : "rep-carving-SUBSTANCE"
  top : "rep-carving-Tool"
  top : "rep-carving-Agent"
  top : "rep-carving-Place"
  top : "rep-catching-CaughtItem"
  top : "rep-catching-Tool"
  top : "rep-catching-Agent"
  top : "rep-catching-Place"
  top : "rep-celebrating-Place"
  top : "rep-celebrating-Occasion"
  top : "rep-celebrating-Agent"
  top : "rep-chasing-Chasee"
  top : "rep-chasing-Place"
  top : "rep-chasing-Agent"
  top : "rep-checking-Tool"
  top : "rep-checking-Place"
  top : "rep-checking-Aspect"
  top : "rep-checking-Patient"
  top : "rep-checking-Agent"
  top : "rep-cheering-Agent"
  top : "rep-cheering-Place"
  top : "rep-cheerleading-Place"
  top : "rep-cheerleading-Supported"
  top : "rep-cheerleading-Agent"
  top : "rep-chewing-Place"
  top : "rep-chewing-Item"
  top : "rep-chewing-Agent"
  top : "rep-chiseling-Place"
  top : "rep-chiseling-Item"
  top : "rep-chiseling-Agent"
  top : "rep-chopping-Tool"
  top : "rep-chopping-Item"
  top : "rep-chopping-Agent"
  top : "rep-chopping-Place"
  top : "rep-circling-Center"
  top : "rep-circling-Place"
  top : "rep-circling-Agent"
  top : "rep-clapping-Place"
  top : "rep-clapping-AgentPart"
  top : "rep-clapping-Agent"
  top : "rep-clawing-Victim"
  top : "rep-clawing-Place"
  top : "rep-clawing-Agent"
  top : "rep-cleaning-Tool"
  top : "rep-cleaning-Source"
  top : "rep-cleaning-Agent"
  top : "rep-cleaning-Place"
  top : "rep-clearing-Tool"
  top : "rep-clearing-Item"
  top : "rep-clearing-Agent"
  top : "rep-clearing-Place"
  top : "rep-clearing-Source"
  top : "rep-clenching-Place"
  top : "rep-clenching-Item"
  top : "rep-clenching-AgentPart"
  top : "rep-clenching-Agent"
  top : "rep-climbing-Obstacle"
  top : "rep-climbing-Tool"
  top : "rep-climbing-Agent"
  top : "rep-climbing-Place"
  top : "rep-clinging-Place"
  top : "rep-clinging-ClungTo"
  top : "rep-clinging-Agent"
  top : "rep-clipping-Tool"
  top : "rep-clipping-Item"
  top : "rep-clipping-Agent"
  top : "rep-clipping-Place"
  top : "rep-clipping-Source"
  top : "rep-coaching-Place"
  top : "rep-coaching-Skill"
  top : "rep-coaching-Agent"
  top : "rep-coaching-Student"
  top : "rep-colliding-Place"
  top : "rep-colliding-Item"
  top : "rep-colliding-Agent"
  top : "rep-coloring-Tool"
  top : "rep-coloring-Item"
  top : "rep-coloring-Agent"
  top : "rep-coloring-Place"
  top : "rep-combing-Place"
  top : "rep-combing-Tool"
  top : "rep-combing-Agent"
  top : "rep-combing-Target"
  top : "rep-communicating-Adressee"
  top : "rep-communicating-Place"
  top : "rep-communicating-Agent"
  top : "rep-commuting-Place"
  top : "rep-commuting-Traveler"
  top : "rep-commuting-Vehicle"
  top : "rep-competing-Competition"
  top : "rep-competing-Place"
  top : "rep-competing-Agent"
  top : "rep-complaining-Place"
  top : "rep-complaining-Listener"
  top : "rep-complaining-Agent"
  top : "rep-confronting-Confronted"
  top : "rep-confronting-Place"
  top : "rep-confronting-Agent"
  top : "rep-congregating-Place"
  top : "rep-congregating-Individuals"
  top : "rep-constructing-Tool"
  top : "rep-constructing-Place"
  top : "rep-constructing-CreatedItem"
  top : "rep-constructing-Components"
  top : "rep-constructing-Agent"
  top : "rep-cooking-Food"
  top : "rep-cooking-Container"
  top : "rep-cooking-Agent"
  top : "rep-cooking-Tool"
  top : "rep-cooking-HeatSource"
  top : "rep-cooking-Place"
  top : "rep-coughing-Agent"
  top : "rep-coughing-Place"
  top : "rep-counting-ItemType"
  top : "rep-counting-Place"
  top : "rep-counting-Agent"
  top : "rep-covering-Place"
  top : "rep-covering-Item"
  top : "rep-covering-Agent"
  top : "rep-covering-Cover"
  top : "rep-crafting-Place"
  top : "rep-crafting-Instrument"
  top : "rep-crafting-Created"
  top : "rep-crafting-Agent"
  top : "rep-cramming-Theme"
  top : "rep-cramming-Place"
  top : "rep-cramming-Agent"
  top : "rep-cramming-Container"
  top : "rep-crashing-Place"
  top : "rep-crashing-Item"
  top : "rep-crashing-Agent"
  top : "rep-crashing-Against"
  top : "rep-crawling-Agent"
  top : "rep-crawling-Place"
  top : "rep-cresting-Agent"
  top : "rep-cresting-Place"
  top : "rep-crouching-Agent"
  top : "rep-crouching-Place"
  top : "rep-crowning-Crown"
  top : "rep-crowning-Place"
  top : "rep-crowning-Agent"
  top : "rep-crowning-CrownedEntity"
  top : "rep-crushing-Tool"
  top : "rep-crushing-Place"
  top : "rep-crushing-Agent"
  top : "rep-crushing-CrushedItem"
  top : "rep-crying-Agent"
  top : "rep-crying-Place"
  top : "rep-curling-Place"
  top : "rep-curling-Tool"
  top : "rep-curling-Agent"
  top : "rep-curling-Target"
  top : "rep-curtsying-Agent"
  top : "rep-curtsying-Place"
  top : "rep-dancing-Agent"
  top : "rep-dancing-Place"
  top : "rep-decomposing-Decomposer"
  top : "rep-decomposing-Place"
  top : "rep-decorating-Decorated"
  top : "rep-decorating-Item"
  top : "rep-decorating-Agent"
  top : "rep-decorating-Place"
  top : "rep-deflecting-Place"
  top : "rep-deflecting-Destination"
  top : "rep-deflecting-Agent"
  top : "rep-deflecting-DeflectedItem"
  top : "rep-descending-tool"
  top : "rep-descending-source"
  top : "rep-descending-Agent"
  top : "rep-descending-Place"
  top : "rep-destroying-Tool"
  top : "rep-destroying-DestroyedItem"
  top : "rep-destroying-Agent"
  top : "rep-destroying-Place"
  top : "rep-detaining-Victim"
  top : "rep-detaining-Place"
  top : "rep-detaining-Agent"
  top : "rep-dialing-Place"
  top : "rep-dialing-Item"
  top : "rep-dialing-Agent"
  top : "rep-dining-Place"
  top : "rep-dining-Food"
  top : "rep-dining-Agent"
  top : "rep-dipping-Substance"
  top : "rep-dipping-Item"
  top : "rep-dipping-Agent"
  top : "rep-dipping-Place"
  top : "rep-disciplining-Place"
  top : "rep-disciplining-Tool"
  top : "rep-disciplining-Agent"
  top : "rep-disciplining-Victim"
  top : "rep-discussing-Agents"
  top : "rep-discussing-Place"
  top : "rep-disembarking-Agent"
  top : "rep-disembarking-Place"
  top : "rep-disembarking-Vehicle"
  top : "rep-displaying-Place"
  top : "rep-displaying-Item"
  top : "rep-displaying-Agent"
  top : "rep-displaying-Target"
  top : "rep-dissecting-Tool"
  top : "rep-dissecting-Item"
  top : "rep-dissecting-Agent"
  top : "rep-dissecting-Place"
  top : "rep-distracting-Victim"
  top : "rep-distracting-Place"
  top : "rep-distracting-Agent"
  top : "rep-distributing-Tool"
  top : "rep-distributing-Place"
  top : "rep-distributing-Recipients"
  top : "rep-distributing-Distributed"
  top : "rep-distributing-Agent"
  top : "rep-diving-Agent"
  top : "rep-diving-Place"
  top : "rep-docking-Place"
  top : "rep-docking-Connector"
  top : "rep-docking-Vehicle"
  top : "rep-docking-Agent"
  top : "rep-dousing-Place"
  top : "rep-dousing-Undergoer"
  top : "rep-dousing-Agent"
  top : "rep-dousing-Liquid"
  top : "rep-dragging-Tool"
  top : "rep-dragging-Item"
  top : "rep-dragging-Place"
  top : "rep-dragging-Contact"
  top : "rep-dragging-Agent"
  top : "rep-drawing-Place"
  top : "rep-drawing-Tool"
  top : "rep-drawing-Agent"
  top : "rep-drawing-Reference"
  top : "rep-drenching-Tool"
  top : "rep-drenching-DrenchedItem"
  top : "rep-drenching-Liquid"
  top : "rep-drenching-Place"
  top : "rep-drenching-Agent"
  top : "rep-drinking-Container"
  top : "rep-drinking-Place"
  top : "rep-drinking-Agent"
  top : "rep-drinking-Liquid"
  top : "rep-dripping-Destination"
  top : "rep-dripping-Source"
  top : "rep-dripping-Fluid"
  top : "rep-dripping-Place"
  top : "rep-dripping-Agent"
  top : "rep-driving-Place"
  top : "rep-driving-Item"
  top : "rep-driving-Agent"
  top : "rep-drooling-End"
  top : "rep-drooling-Place"
  top : "rep-drooling-Agent"
  top : "rep-dropping-Place"
  top : "rep-dropping-Item"
  top : "rep-dropping-Agent"
  top : "rep-dropping-End"
  top : "rep-dropping-Start"
  top : "rep-drumming-Tool"
  top : "rep-drumming-ITEM"
  top : "rep-drumming-Agent"
  top : "rep-drumming-Place"
  top : "rep-drying-Tool"
  top : "rep-drying-Item"
  top : "rep-drying-Agent"
  top : "rep-drying-Place"
  top : "rep-ducking-Place"
  top : "rep-ducking-Blow"
  top : "rep-ducking-Agent"
  top : "rep-dusting-Tool"
  top : "rep-dusting-Source"
  top : "rep-dusting-Agent"
  top : "rep-dusting-Place"
  top : "rep-dyeing-Material"
  top : "rep-dyeing-Dye"
  top : "rep-dyeing-Agent"
  top : "rep-dyeing-Place"
  top : "rep-eating-Place"
  top : "rep-eating-Food"
  top : "rep-eating-Container"
  top : "rep-eating-Tool"
  top : "rep-eating-Agent"
  top : "rep-educating-Teacher"
  top : "rep-educating-Place"
  top : "rep-educating-Subject"
  top : "rep-educating-Student"
  top : "rep-ejecting-Destination"
  top : "rep-ejecting-Item"
  top : "rep-ejecting-Agent"
  top : "rep-ejecting-Place"
  top : "rep-ejecting-Source"
  top : "rep-embracing-Place"
  top : "rep-embracing-Coagent"
  top : "rep-embracing-Agent"
  top : "rep-emerging-Destination"
  top : "rep-emerging-Source"
  top : "rep-emerging-Agent"
  top : "rep-emerging-Place"
  top : "rep-emptying-Tool"
  top : "rep-emptying-Container"
  top : "rep-emptying-Agent"
  top : "rep-emptying-Destination"
  top : "rep-emptying-Place"
  top : "rep-emptying-Item"
  top : "rep-encouraging-Agent"
  top : "rep-encouraging-Place"
  top : "rep-encouraging-Reciever"
  top : "rep-erasing-Source"
  top : "rep-erasing-Erased"
  top : "rep-erasing-Agent"
  top : "rep-erasing-Place"
  top : "rep-erupting-Place"
  top : "rep-erupting-Substance"
  top : "rep-erupting-Agent"
  top : "rep-examining-Tool"
  top : "rep-examining-Item"
  top : "rep-examining-Agent"
  top : "rep-examining-Place"
  top : "rep-exercising-Place"
  top : "rep-exercising-AgentPart"
  top : "rep-exercising-Agent"
  top : "rep-exterminating-Place"
  top : "rep-exterminating-Instrument"
  top : "rep-exterminating-Agent"
  top : "rep-extinguishing-Tool"
  top : "rep-extinguishing-Item"
  top : "rep-extinguishing-Agent"
  top : "rep-extinguishing-Place"
  top : "rep-falling-Place"
  top : "rep-falling-Source"
  top : "rep-falling-Agent"
  top : "rep-falling-Goal"
  top : "rep-farming-Tool"
  top : "rep-farming-Item"
  top : "rep-farming-Place"
  top : "rep-farming-Ground"
  top : "rep-farming-Farmer"
  top : "rep-fastening-Destination"
  top : "rep-fastening-Tool"
  top : "rep-fastening-Connector"
  top : "rep-fastening-Agent"
  top : "rep-fastening-Place"
  top : "rep-fastening-Item"
  top : "rep-feeding-Source"
  top : "rep-feeding-Food"
  top : "rep-feeding-Place"
  top : "rep-feeding-Eater"
  top : "rep-feeding-Agent"
  top : "rep-fetching-Destination"
  top : "rep-fetching-Item"
  top : "rep-fetching-Agent"
  top : "rep-fetching-Place"
  top : "rep-fetching-Source"
  top : "rep-filling-Destination"
  top : "rep-filling-Item"
  top : "rep-filling-Agent"
  top : "rep-filling-Place"
  top : "rep-filling-Source"
  top : "rep-filming-Performer"
  top : "rep-filming-Tool"
  top : "rep-filming-Agent"
  top : "rep-filming-Place"
  top : "rep-fishing-Tool"
  top : "rep-fishing-SOURCE"
  top : "rep-fishing-Agent"
  top : "rep-fishing-Place"
  top : "rep-fixing-Tool"
  top : "rep-fixing-Place"
  top : "rep-fixing-ObjectPart"
  top : "rep-fixing-Object"
  top : "rep-fixing-Agent"
  top : "rep-flaming-Agent"
  top : "rep-flaming-Place"
  top : "rep-flapping-Place"
  top : "rep-flapping-BodyPart"
  top : "rep-flapping-Agent"
  top : "rep-flexing-Addressee"
  top : "rep-flexing-AgentPart"
  top : "rep-flexing-Agent"
  top : "rep-flexing-Place"
  top : "rep-flicking-Place"
  top : "rep-flicking-AgentPart"
  top : "rep-flicking-ObjectPart"
  top : "rep-flicking-Object"
  top : "rep-flicking-Agent"
  top : "rep-flinging-Tool"
  top : "rep-flinging-Item"
  top : "rep-flinging-Goal"
  top : "rep-flinging-Place"
  top : "rep-flinging-Agent"
  top : "rep-flipping-Place"
  top : "rep-flipping-Tool"
  top : "rep-flipping-Flipped"
  top : "rep-flipping-Agent"
  top : "rep-floating-Medium"
  top : "rep-floating-Tool"
  top : "rep-floating-Agent"
  top : "rep-floating-Place"
  top : "rep-flossing-Place"
  top : "rep-flossing-CoAgent"
  top : "rep-flossing-Agent"
  top : "rep-folding-Shape"
  top : "rep-folding-Cloth"
  top : "rep-folding-Agent"
  top : "rep-folding-Place"
  top : "rep-foraging-Place"
  top : "rep-foraging-Item"
  top : "rep-foraging-Agent"
  top : "rep-fording-Place"
  top : "rep-fording-Tool"
  top : "rep-fording-Agent"
  top : "rep-frisking-Victim"
  top : "rep-frisking-Place"
  top : "rep-frisking-Agent"
  top : "rep-frowning-Agent"
  top : "rep-frowning-Place"
  top : "rep-frying-Place"
  top : "rep-frying-Food"
  top : "rep-frying-Agent"
  top : "rep-frying-Container"
  top : "rep-fueling-Tool"
  top : "rep-fueling-Place"
  top : "rep-fueling-Agent"
  top : "rep-fueling-Recipient"
  top : "rep-gambling-Place"
  top : "rep-gambling-Stake"
  top : "rep-gambling-Agent"
  top : "rep-gardening-Place"
  top : "rep-gardening-Tool"
  top : "rep-gardening-Agent"
  top : "rep-gasping-Agent"
  top : "rep-gasping-Place"
  top : "rep-gathering-Gatherers"
  top : "rep-gathering-Place"
  top : "rep-giggling-Target"
  top : "rep-giggling-Place"
  top : "rep-giggling-Agent"
  top : "rep-giving-Place"
  top : "rep-giving-Item"
  top : "rep-giving-Agent"
  top : "rep-giving-Recipient"
  top : "rep-glaring-Perceiver"
  top : "rep-glaring-Place"
  top : "rep-glaring-Agent"
  top : "rep-glowing-Agent"
  top : "rep-glowing-Place"
  top : "rep-gluing-Item"
  top : "rep-gluing-Connector"
  top : "rep-gluing-Goal"
  top : "rep-gluing-Place"
  top : "rep-gluing-Agent"
  top : "rep-gnawing-Place"
  top : "rep-gnawing-Item"
  top : "rep-gnawing-Agent"
  top : "rep-grieving-Agent"
  top : "rep-grieving-Place"
  top : "rep-grilling-Place"
  top : "rep-grilling-Food"
  top : "rep-grilling-Agent"
  top : "rep-grimacing-Cause"
  top : "rep-grimacing-Place"
  top : "rep-grimacing-Agent"
  top : "rep-grinding-Tool"
  top : "rep-grinding-Item"
  top : "rep-grinding-Surface"
  top : "rep-grinding-Place"
  top : "rep-grinding-Agent"
  top : "rep-grinning-Agent"
  top : "rep-grinning-Place"
  top : "rep-guarding-Weapon"
  top : "rep-guarding-Item"
  top : "rep-guarding-Agent"
  top : "rep-guarding-Place"
  top : "rep-handcuffing-Victim"
  top : "rep-handcuffing-Place"
  top : "rep-handcuffing-Agent"
  top : "rep-hanging-Scaffold"
  top : "rep-hanging-Item"
  top : "rep-hanging-Agent"
  top : "rep-hanging-Place"
  top : "rep-harvesting-Tool"
  top : "rep-harvesting-HarvestedItem"
  top : "rep-harvesting-Agent"
  top : "rep-harvesting-Place"
  top : "rep-harvesting-Ground"
  top : "rep-hauling-Tool"
  top : "rep-hauling-Item"
  top : "rep-hauling-Place"
  top : "rep-hauling-Carrier"
  top : "rep-heaving-Tool"
  top : "rep-heaving-HeavedItem"
  top : "rep-heaving-Agent"
  top : "rep-heaving-Place"
  top : "rep-helping-Place"
  top : "rep-helping-Tool"
  top : "rep-helping-EntityHelped"
  top : "rep-helping-Agent"
  top : "rep-hiking-Agent"
  top : "rep-hiking-Place"
  top : "rep-hitchhiking-Agent"
  top : "rep-hitchhiking-Place"
  top : "rep-hitting-Place"
  top : "rep-hitting-Tool"
  top : "rep-hitting-Agent"
  top : "rep-hitting-Victim"
  top : "rep-hitting-VictimPart"
  top : "rep-hoeing-Agent"
  top : "rep-hoeing-Place"
  top : "rep-hoeing-Ground"
  top : "rep-hoisting-Tool"
  top : "rep-hoisting-Item"
  top : "rep-hoisting-Agent"
  top : "rep-hoisting-Place"
  top : "rep-hoisting-Source"
  top : "rep-hugging-Hugged"
  top : "rep-hugging-AgentPart"
  top : "rep-hugging-Agent"
  top : "rep-hugging-Place"
  top : "rep-hunching-Surface"
  top : "rep-hunching-Place"
  top : "rep-hunching-Agent"
  top : "rep-hunting-Place"
  top : "rep-hunting-Hunted"
  top : "rep-hunting-Agent"
  top : "rep-hurling-Place"
  top : "rep-hurling-Start"
  top : "rep-hurling-End"
  top : "rep-hurling-Object"
  top : "rep-hurling-Agent"
  top : "rep-igniting-Tool"
  top : "rep-igniting-Item"
  top : "rep-igniting-Agent"
  top : "rep-igniting-Place"
  top : "rep-ignoring-BoringThing"
  top : "rep-ignoring-Place"
  top : "rep-ignoring-Agent"
  top : "rep-imitating-Place"
  top : "rep-imitating-Model"
  top : "rep-imitating-Agent"
  top : "rep-immersing-Place"
  top : "rep-immersing-Item"
  top : "rep-immersing-Agent"
  top : "rep-immersing-Liquid"
  top : "rep-inflating-Object"
  top : "rep-inflating-Tool"
  top : "rep-inflating-Agent"
  top : "rep-inflating-Place"
  top : "rep-injecting-Source"
  top : "rep-injecting-Destination"
  top : "rep-injecting-Place"
  top : "rep-injecting-Substance"
  top : "rep-injecting-Agent"
  top : "rep-inserting-Object"
  top : "rep-inserting-Place"
  top : "rep-inserting-Agent"
  top : "rep-inserting-Container"
  top : "rep-installing-Tool"
  top : "rep-installing-Place"
  top : "rep-installing-Component"
  top : "rep-installing-Destination"
  top : "rep-installing-Agent"
  top : "rep-instructing-Student"
  top : "rep-instructing-Place"
  top : "rep-instructing-Agent"
  top : "rep-intermingling-Agents"
  top : "rep-intermingling-Place"
  top : "rep-interrogating-Addressee"
  top : "rep-interrogating-Tool"
  top : "rep-interrogating-Agent"
  top : "rep-interrogating-Place"
  top : "rep-interviewing-Interviewee"
  top : "rep-interviewing-Place"
  top : "rep-interviewing-Agent"
  top : "rep-jogging-Agent"
  top : "rep-jogging-Place"
  top : "rep-juggling-Place"
  top : "rep-juggling-Items"
  top : "rep-juggling-Agent"
  top : "rep-jumping-Source"
  top : "rep-jumping-Destination"
  top : "rep-jumping-Place"
  top : "rep-jumping-Obstacle"
  top : "rep-jumping-Agent"
  top : "rep-kicking-Victim"
  top : "rep-kicking-Place"
  top : "rep-kicking-VictimPart"
  top : "rep-kicking-Agent"
  top : "rep-kissing-CoAgent"
  top : "rep-kissing-AgentPart"
  top : "rep-kissing-CoAgentPart"
  top : "rep-kissing-Place"
  top : "rep-kissing-Agent"
  top : "rep-kneading-Place"
  top : "rep-kneading-Item"
  top : "rep-kneading-Agent"
  top : "rep-kneeling-Place"
  top : "rep-kneeling-Contact"
  top : "rep-kneeling-Agent"
  top : "rep-knocking-Place"
  top : "rep-knocking-Item"
  top : "rep-knocking-Agent"
  top : "rep-lacing-Place"
  top : "rep-lacing-Item"
  top : "rep-lacing-Agent"
  top : "rep-landing-Place"
  top : "rep-landing-Destination"
  top : "rep-landing-Agent"
  top : "rep-lapping-Place"
  top : "rep-lapping-Food"
  top : "rep-lapping-Agent"
  top : "rep-lapping-Container"
  top : "rep-lathering-Substance"
  top : "rep-lathering-Destination"
  top : "rep-lathering-Agent"
  top : "rep-lathering-Place"
  top : "rep-laughing-Agent"
  top : "rep-laughing-Place"
  top : "rep-launching-Destination"
  top : "rep-launching-Item"
  top : "rep-launching-Agent"
  top : "rep-launching-Place"
  top : "rep-launching-Source"
  top : "rep-leading-Place"
  top : "rep-leading-Follower"
  top : "rep-leading-Agent"
  top : "rep-leaking-Source"
  top : "rep-leaking-Destination"
  top : "rep-leaking-Place"
  top : "rep-leaking-Substance"
  top : "rep-leaning-Place"
  top : "rep-leaning-Item"
  top : "rep-leaning-Agent"
  top : "rep-leaning-Against"
  top : "rep-leaping-Source"
  top : "rep-leaping-Destination"
  top : "rep-leaping-Place"
  top : "rep-leaping-Obstacle"
  top : "rep-leaping-Agent"
  top : "rep-lecturing-Place"
  top : "rep-lecturing-Audience"
  top : "rep-lecturing-Agent"
  top : "rep-licking-Place"
  top : "rep-licking-Item"
  top : "rep-licking-Agent"
  top : "rep-lifting-Place"
  top : "rep-lifting-Item"
  top : "rep-lifting-Agent"
  top : "rep-lifting-End"
  top : "rep-lifting-Start"
  top : "rep-lighting-Tool"
  top : "rep-lighting-Item"
  top : "rep-lighting-Agent"
  top : "rep-lighting-Place"
  top : "rep-loading-Tool"
  top : "rep-loading-Item"
  top : "rep-loading-Place"
  top : "rep-loading-Destination"
  top : "rep-loading-Agent"
  top : "rep-locking-Tool"
  top : "rep-locking-Item"
  top : "rep-locking-Agent"
  top : "rep-locking-Place"
  top : "rep-making-Tool"
  top : "rep-making-Component"
  top : "rep-making-Place"
  top : "rep-making-GoalItem"
  top : "rep-making-Agent"
  top : "rep-manicuring-Tool"
  top : "rep-manicuring-Item"
  top : "rep-manicuring-Agent"
  top : "rep-manicuring-Place"
  top : "rep-marching-Agent"
  top : "rep-marching-Place"
  top : "rep-mashing-Tool"
  top : "rep-mashing-Item"
  top : "rep-mashing-Agent"
  top : "rep-mashing-Place"
  top : "rep-massaging-Place"
  top : "rep-massaging-CoAgent"
  top : "rep-massaging-Agent"
  top : "rep-massaging-CoAgentPart"
  top : "rep-measuring-Object"
  top : "rep-measuring-Tool"
  top : "rep-measuring-Agent"
  top : "rep-measuring-Place"
  top : "rep-measuring-Quantity"
  top : "rep-mending-Tool"
  top : "rep-mending-Item"
  top : "rep-mending-Agent"
  top : "rep-mending-Place"
  top : "rep-microwaving-Place"
  top : "rep-microwaving-Food"
  top : "rep-microwaving-Agent"
  top : "rep-microwaving-Container"
  top : "rep-milking-Tool"
  top : "rep-milking-Source"
  top : "rep-milking-Place"
  top : "rep-milking-Destination"
  top : "rep-milking-Agent"
  top : "rep-miming-Imitation"
  top : "rep-miming-Place"
  top : "rep-miming-Agent"
  top : "rep-mining-Tool"
  top : "rep-mining-Place"
  top : "rep-mining-Agent"
  top : "rep-mining-Resource"
  top : "rep-misbehaving-Agent"
  top : "rep-misbehaving-Place"
  top : "rep-moistening-Place"
  top : "rep-moistening-Item"
  top : "rep-moistening-Agent"
  top : "rep-moistening-Liquid"
  top : "rep-moisturizing-Tool"
  top : "rep-moisturizing-Place"
  top : "rep-moisturizing-Agent"
  top : "rep-moisturizing-Moisturized"
  top : "rep-molding-Substance"
  top : "rep-molding-Place"
  top : "rep-molding-Agent"
  top : "rep-molding-GoalItem"
  top : "rep-mopping-Surface"
  top : "rep-mopping-Place"
  top : "rep-mopping-Agent"
  top : "rep-mourning-Mourner"
  top : "rep-mourning-Place"
  top : "rep-mowing-Tool"
  top : "rep-mowing-Item"
  top : "rep-mowing-Agent"
  top : "rep-mowing-Place"
  top : "rep-nagging-NaggedPerson"
  top : "rep-nagging-Place"
  top : "rep-nagging-Agent"
  top : "rep-nailing-Tool"
  top : "rep-nailing-Item2"
  top : "rep-nailing-Place"
  top : "rep-nailing-Item1"
  top : "rep-nailing-Agent"
  top : "rep-nipping-Place"
  top : "rep-nipping-Item"
  top : "rep-nipping-Agent"
  top : "rep-nuzzling-Place"
  top : "rep-nuzzling-Item"
  top : "rep-nuzzling-Agent"
  top : "rep-offering-Item"
  top : "rep-offering-Beneficiary"
  top : "rep-offering-Agent"
  top : "rep-offering-Place"
  top : "rep-officiating-Event"
  top : "rep-officiating-Place"
  top : "rep-officiating-Agent"
  top : "rep-opening-Tool"
  top : "rep-opening-Item"
  top : "rep-opening-Agent"
  top : "rep-opening-Place"
  top : "rep-operating-Tool"
  top : "rep-operating-Item"
  top : "rep-operating-Agent"
  top : "rep-operating-Place"
  top : "rep-overflowing-Place"
  top : "rep-overflowing-Source"
  top : "rep-overflowing-Agent"
  top : "rep-packaging-Place"
  top : "rep-packaging-Item"
  top : "rep-packaging-Agent"
  top : "rep-packing-Place"
  top : "rep-packing-Item"
  top : "rep-packing-Agent"
  top : "rep-packing-Container"
  top : "rep-painting-Tool"
  top : "rep-painting-Item"
  top : "rep-painting-Agent"
  top : "rep-painting-Place"
  top : "rep-panhandling-Target"
  top : "rep-panhandling-Place"
  top : "rep-panhandling-Agent"
  top : "rep-parachuting-Destination"
  top : "rep-parachuting-Parachute"
  top : "rep-parachuting-Agent"
  top : "rep-parachuting-Place"
  top : "rep-parading-Agent"
  top : "rep-parading-Place"
  top : "rep-pasting-Item"
  top : "rep-pasting-Connector"
  top : "rep-pasting-Place"
  top : "rep-pasting-Object"
  top : "rep-pasting-Agent"
  top : "rep-patting-Tool"
  top : "rep-patting-Item"
  top : "rep-patting-Agent"
  top : "rep-patting-Place"
  top : "rep-pawing-PawedItem"
  top : "rep-pawing-AgentPart"
  top : "rep-pawing-Agent"
  top : "rep-pawing-Place"
  top : "rep-paying-Place"
  top : "rep-paying-Good"
  top : "rep-paying-Seller"
  top : "rep-paying-Agent"
  top : "rep-pedaling-Agent"
  top : "rep-pedaling-Place"
  top : "rep-pedaling-Vehicle"
  top : "rep-peeing-Target"
  top : "rep-peeing-Place"
  top : "rep-peeing-Agent"
  top : "rep-peeling-Tool"
  top : "rep-peeling-Item"
  top : "rep-peeling-Agent"
  top : "rep-peeling-Place"
  top : "rep-performing-Place"
  top : "rep-performing-Tool"
  top : "rep-performing-Agent"
  top : "rep-performing-Event"
  top : "rep-performing-Stage"
  top : "rep-perspiring-Agent"
  top : "rep-perspiring-Place"
  top : "rep-phoning-Place"
  top : "rep-phoning-Tool"
  top : "rep-phoning-Agent"
  top : "rep-photographing-Tool"
  top : "rep-photographing-Item"
  top : "rep-photographing-Agent"
  top : "rep-photographing-Place"
  top : "rep-picking-Place"
  top : "rep-picking-Source"
  top : "rep-picking-Agent"
  top : "rep-picking-Crop"
  top : "rep-piloting-Place"
  top : "rep-piloting-Start"
  top : "rep-piloting-Agent"
  top : "rep-piloting-End"
  top : "rep-piloting-Vehicle"
  top : "rep-pinching-Object"
  top : "rep-pinching-Place"
  top : "rep-pinching-Agent"
  top : "rep-pinching-ObjectPart"
  top : "rep-pinning-Destination"
  top : "rep-pinning-Pinned"
  top : "rep-pinning-Agent"
  top : "rep-pinning-Place"
  top : "rep-pitching-Place"
  top : "rep-pitching-Tool"
  top : "rep-pitching-Agent"
  top : "rep-pitching-Pitched"
  top : "rep-placing-Destination"
  top : "rep-placing-PlacedItem"
  top : "rep-placing-Agent"
  top : "rep-placing-Place"
  top : "rep-planting-Tool"
  top : "rep-planting-CoParticipant"
  top : "rep-planting-Place"
  top : "rep-planting-Planted"
  top : "rep-planting-Agent"
  top : "rep-plowing-Place"
  top : "rep-plowing-Instrument"
  top : "rep-plowing-Agent"
  top : "rep-plummeting-Destination"
  top : "rep-plummeting-Start"
  top : "rep-plummeting-Agent"
  top : "rep-plummeting-Place"
  top : "rep-plunging-Destination"
  top : "rep-plunging-Place"
  top : "rep-plunging-Agent"
  top : "rep-plunging-Plunged"
  top : "rep-poking-Tool"
  top : "rep-poking-Place"
  top : "rep-poking-ObjectPart"
  top : "rep-poking-Object"
  top : "rep-poking-Agent"
  top : "rep-pooing-Place"
  top : "rep-pooing-Destination"
  top : "rep-pooing-Agent"
  top : "rep-potting-Place"
  top : "rep-potting-Item"
  top : "rep-potting-Agent"
  top : "rep-potting-Container"
  top : "rep-pouncing-Place"
  top : "rep-pouncing-Destination"
  top : "rep-pouncing-Agent"
  top : "rep-pouring-Tool"
  top : "rep-pouring-Substance"
  top : "rep-pouring-Agent"
  top : "rep-pouring-Destination"
  top : "rep-pouring-Place"
  top : "rep-pouring-Source"
  top : "rep-pouting-Agent"
  top : "rep-pouting-Place"
  top : "rep-practicing-Place"
  top : "rep-practicing-Skill"
  top : "rep-practicing-Agent"
  top : "rep-practicing-Tool"
  top : "rep-praying-Agent"
  top : "rep-praying-Place"
  top : "rep-preaching-Place"
  top : "rep-preaching-Addressee"
  top : "rep-preaching-Agent"
  top : "rep-pressing-Place"
  top : "rep-pressing-Item"
  top : "rep-pressing-Agent"
  top : "rep-pricking-Tool"
  top : "rep-pricking-Pricked"
  top : "rep-pricking-Agent"
  top : "rep-pricking-Place"
  top : "rep-protesting-Agent"
  top : "rep-protesting-Place"
  top : "rep-providing-Place"
  top : "rep-providing-Item"
  top : "rep-providing-Agent"
  top : "rep-providing-Recipient"
  top : "rep-providing-Source"
  top : "rep-prowling-Target"
  top : "rep-prowling-Place"
  top : "rep-prowling-Agent"
  top : "rep-pruning-RemovedItem"
  top : "rep-pruning-Source"
  top : "rep-pruning-Tool"
  top : "rep-pruning-Place"
  top : "rep-pruning-Agent"
  top : "rep-prying-Tool"
  top : "rep-prying-Item"
  top : "rep-prying-Place"
  top : "rep-prying-From"
  top : "rep-prying-Agent"
  top : "rep-puckering-Place"
  top : "rep-puckering-AgentPart"
  top : "rep-puckering-Agent"
  top : "rep-pulling-Tool"
  top : "rep-pulling-Item"
  top : "rep-pulling-Agent"
  top : "rep-pulling-Place"
  top : "rep-pumping-Tool"
  top : "rep-pumping-Substance"
  top : "rep-pumping-Agent"
  top : "rep-pumping-Destination"
  top : "rep-pumping-Place"
  top : "rep-pumping-Source"
  top : "rep-punching-Place"
  top : "rep-punching-BodyPart"
  top : "rep-punching-Agent"
  top : "rep-punching-Victim"
  top : "rep-punting-Place"
  top : "rep-punting-Item"
  top : "rep-punting-Agent"
  top : "rep-pushing-Place"
  top : "rep-pushing-Item"
  top : "rep-pushing-AgentPart"
  top : "rep-pushing-Agent"
  top : "rep-putting-Destination"
  top : "rep-putting-Item"
  top : "rep-putting-Agent"
  top : "rep-putting-Place"
  top : "rep-queuing-Agent"
  top : "rep-queuing-Place"
  top : "rep-racing-Agent"
  top : "rep-racing-Place"
  top : "rep-rafting-Agent"
  top : "rep-rafting-Place"
  top : "rep-raining-Place"
  top : "rep-raking-Destination"
  top : "rep-raking-Item"
  top : "rep-raking-Agent"
  top : "rep-raking-Place"
  top : "rep-raking-Source"
  top : "rep-ramming-Victim"
  top : "rep-ramming-Place"
  top : "rep-ramming-RammingItem"
  top : "rep-ramming-Agent"
  top : "rep-reading-Place"
  top : "rep-reading-Item"
  top : "rep-reading-Agent"
  top : "rep-rearing-Agent"
  top : "rep-rearing-Place"
  top : "rep-reassuring-Place"
  top : "rep-reassuring-Reassured"
  top : "rep-reassuring-Agent"
  top : "rep-recording-Phenomenon"
  top : "rep-recording-Place"
  top : "rep-recording-Agent"
  top : "rep-recovering-Ailment"
  top : "rep-recovering-Place"
  top : "rep-recovering-Agent"
  top : "rep-recuperating-Agent"
  top : "rep-recuperating-Place"
  top : "rep-rehabilitating-Place"
  top : "rep-rehabilitating-Item"
  top : "rep-rehabilitating-Agent"
  top : "rep-releasing-Place"
  top : "rep-releasing-ReleasedItem"
  top : "rep-releasing-Agent"
  top : "rep-repairing-Problem"
  top : "rep-repairing-Item"
  top : "rep-repairing-Tool"
  top : "rep-repairing-Place"
  top : "rep-repairing-Agent"
  top : "rep-resting-Place"
  top : "rep-resting-Item"
  top : "rep-resting-Agent"
  top : "rep-resting-Goal"
  top : "rep-restraining-Restrained"
  top : "rep-restraining-Place"
  top : "rep-restraining-Agent"
  top : "rep-retrieving-Object"
  top : "rep-retrieving-Start"
  top : "rep-retrieving-Agent"
  top : "rep-retrieving-Place"
  top : "rep-riding-Agent"
  top : "rep-riding-Place"
  top : "rep-riding-Vehicle"
  top : "rep-rinsing-Object"
  top : "rep-rinsing-Tool"
  top : "rep-rinsing-Agent"
  top : "rep-rinsing-Place"
  top : "rep-rocking-Container"
  top : "rep-rocking-Place"
  top : "rep-rocking-Agent"
  top : "rep-rocking-Rocked"
  top : "rep-rotting-Container"
  top : "rep-rotting-Place"
  top : "rep-rotting-Agent"
  top : "rep-rowing-Agent"
  top : "rep-rowing-Place"
  top : "rep-rowing-Vehicle"
  top : "rep-rubbing-Place"
  top : "rep-rubbing-Item"
  top : "rep-rubbing-AgentPart"
  top : "rep-rubbing-Agent"
  top : "rep-running-Agent"
  top : "rep-running-Place"
  top : "rep-saluting-Target"
  top : "rep-saluting-Place"
  top : "rep-saluting-Agent"
  top : "rep-saying-Adressee"
  top : "rep-saying-Place"
  top : "rep-saying-Agent"
  top : "rep-scolding-Victim"
  top : "rep-scolding-Place"
  top : "rep-scolding-Agent"
  top : "rep-scooping-Tool"
  top : "rep-scooping-Item"
  top : "rep-scooping-Agent"
  top : "rep-scooping-Place"
  top : "rep-scooping-Source"
  top : "rep-scoring-Agent"
  top : "rep-scoring-Place"
  top : "rep-scraping-Place"
  top : "rep-scraping-ScrapedItem"
  top : "rep-scraping-Agent"
  top : "rep-scraping-Tool"
  top : "rep-scratching-Object"
  top : "rep-scratching-Tool"
  top : "rep-scratching-Agent"
  top : "rep-scratching-Place"
  top : "rep-scrubbing-Tool"
  top : "rep-scrubbing-Item"
  top : "rep-scrubbing-Agent"
  top : "rep-scrubbing-Place"
  top : "rep-sealing-Place"
  top : "rep-sealing-Item"
  top : "rep-sealing-Sealant"
  top : "rep-sealing-Agent"
  top : "rep-selling-Item"
  top : "rep-selling-Buyer"
  top : "rep-selling-Seller"
  top : "rep-selling-Place"
  top : "rep-serving-Place"
  top : "rep-serving-Item"
  top : "rep-serving-Served"
  top : "rep-serving-Agent"
  top : "rep-sewing-Tool"
  top : "rep-sewing-Item"
  top : "rep-sewing-Agent"
  top : "rep-sewing-Place"
  top : "rep-shaking-Tool"
  top : "rep-shaking-Item"
  top : "rep-shaking-Agent"
  top : "rep-shaking-Place"
  top : "rep-sharpening-Tool"
  top : "rep-sharpening-Item"
  top : "rep-sharpening-Agent"
  top : "rep-sharpening-Place"
  top : "rep-shaving-CoAgent"
  top : "rep-shaving-Substance"
  top : "rep-shaving-Place"
  top : "rep-shaving-Agent"
  top : "rep-shaving-Tool"
  top : "rep-shaving-BodyPart"
  top : "rep-shearing-Place"
  top : "rep-shearing-Item"
  top : "rep-shearing-Source"
  top : "rep-shearing-Agent"
  top : "rep-shelling-Place"
  top : "rep-shelling-Object"
  top : "rep-shelling-Agent"
  top : "rep-shelving-Destination"
  top : "rep-shelving-Item"
  top : "rep-shelving-Agent"
  top : "rep-shelving-Place"
  top : "rep-shivering-Agent"
  top : "rep-shivering-Place"
  top : "rep-shooting-Firearm"
  top : "rep-shooting-Target"
  top : "rep-shooting-Projectile"
  top : "rep-shooting-Agent"
  top : "rep-shopping-Place"
  top : "rep-shopping-Goods"
  top : "rep-shopping-Agent"
  top : "rep-shouting-Place"
  top : "rep-shouting-Addressee"
  top : "rep-shouting-Agent"
  top : "rep-shoveling-Place"
  top : "rep-shoveling-Item"
  top : "rep-shoveling-Source"
  top : "rep-shoveling-Agent"
  top : "rep-shredding-Tool"
  top : "rep-shredding-Item"
  top : "rep-shredding-Agent"
  top : "rep-shredding-Place"
  top : "rep-shrugging-Agent"
  top : "rep-shrugging-Place"
  top : "rep-shushing-Target"
  top : "rep-shushing-Place"
  top : "rep-shushing-Agent"
  top : "rep-signaling-Message"
  top : "rep-signaling-Place"
  top : "rep-signaling-Tool"
  top : "rep-signaling-Recipient"
  top : "rep-signaling-Agent"
  top : "rep-signing-Place"
  top : "rep-signing-Tool"
  top : "rep-signing-SignedItem"
  top : "rep-signing-Agent"
  top : "rep-singing-Agent"
  top : "rep-singing-Place"
  top : "rep-sitting-Place"
  top : "rep-sitting-Contact"
  top : "rep-sitting-Agent"
  top : "rep-skating-Agent"
  top : "rep-skating-Place"
  top : "rep-skating-Vehicle"
  top : "rep-sketching-Material"
  top : "rep-sketching-Image"
  top : "rep-sketching-Tool"
  top : "rep-sketching-Place"
  top : "rep-sketching-Agent"
  top : "rep-skidding-Agent"
  top : "rep-skidding-Place"
  top : "rep-skiing-Agent"
  top : "rep-skiing-Place"
  top : "rep-skipping-Place"
  top : "rep-skipping-Obstacle"
  top : "rep-skipping-Agent"
  top : "rep-slapping-Place"
  top : "rep-slapping-Tool"
  top : "rep-slapping-Agent"
  top : "rep-slapping-Victim"
  top : "rep-slapping-VictimPart"
  top : "rep-sleeping-Agent"
  top : "rep-sleeping-Place"
  top : "rep-slicing-Tool"
  top : "rep-slicing-SlicedItem"
  top : "rep-slicing-Agent"
  top : "rep-slicing-Place"
  top : "rep-sliding-Destination"
  top : "rep-sliding-Slider"
  top : "rep-sliding-Surface"
  top : "rep-sliding-Place"
  top : "rep-sliding-Agent"
  top : "rep-slipping-Place"
  top : "rep-slipping-Destination"
  top : "rep-slipping-Agent"
  top : "rep-slithering-Agent"
  top : "rep-slithering-Place"
  top : "rep-slouching-Place"
  top : "rep-slouching-Contact"
  top : "rep-slouching-Agent"
  top : "rep-smashing-Tool"
  top : "rep-smashing-Smashed"
  top : "rep-smashing-Against"
  top : "rep-smashing-Place"
  top : "rep-smashing-Agent"
  top : "rep-smearing-Tool"
  top : "rep-smearing-Item"
  top : "rep-smearing-Surface"
  top : "rep-smearing-Place"
  top : "rep-smearing-Agent"
  top : "rep-smelling-Place"
  top : "rep-smelling-Item"
  top : "rep-smelling-Agent"
  top : "rep-smiling-Agent"
  top : "rep-smiling-Place"
  top : "rep-sneezing-Agent"
  top : "rep-sneezing-Place"
  top : "rep-sniffing-Place"
  top : "rep-sniffing-Item"
  top : "rep-sniffing-Agent"
  top : "rep-snowing-Place"
  top : "rep-snuggling-Place"
  top : "rep-snuggling-CoAgent"
  top : "rep-snuggling-Agent"
  top : "rep-soaking-Place"
  top : "rep-soaking-Item"
  top : "rep-soaking-Container"
  top : "rep-soaking-Substance"
  top : "rep-soaking-Agent"
  top : "rep-soaring-Agent"
  top : "rep-soaring-Place"
  top : "rep-socializing-Place"
  top : "rep-socializing-CoAgent"
  top : "rep-socializing-Agent"
  top : "rep-sowing-Place"
  top : "rep-sowing-Tool"
  top : "rep-sowing-Agent"
  top : "rep-spanking-Place"
  top : "rep-spanking-Tool"
  top : "rep-spanking-Agent"
  top : "rep-spanking-Victim"
  top : "rep-speaking-Place"
  top : "rep-speaking-CoAgent"
  top : "rep-speaking-Agent"
  top : "rep-spearing-Victim"
  top : "rep-spearing-Place"
  top : "rep-spearing-Agent"
  top : "rep-spilling-Source"
  top : "rep-spilling-Destination"
  top : "rep-spilling-Place"
  top : "rep-spilling-Substance"
  top : "rep-spilling-Agent"
  top : "rep-spinning-Material"
  top : "rep-spinning-Tool"
  top : "rep-spinning-Agent"
  top : "rep-spinning-Place"
  top : "rep-spitting-Place"
  top : "rep-spitting-Item"
  top : "rep-spitting-Agent"
  top : "rep-spitting-Target"
  top : "rep-splashing-Tool"
  top : "rep-splashing-Place"
  top : "rep-splashing-Substance"
  top : "rep-splashing-Destination"
  top : "rep-splashing-Agent"
  top : "rep-spoiling-Agent"
  top : "rep-spoiling-Place"
  top : "rep-spraying-Source"
  top : "rep-spraying-Destination"
  top : "rep-spraying-Place"
  top : "rep-spraying-Substance"
  top : "rep-spraying-Agent"
  top : "rep-spreading-Substance"
  top : "rep-spreading-Tool"
  top : "rep-spreading-Surface"
  top : "rep-spreading-Place"
  top : "rep-spreading-Agent"
  top : "rep-sprinkling-Destination"
  top : "rep-sprinkling-Item"
  top : "rep-sprinkling-Agent"
  top : "rep-sprinkling-Place"
  top : "rep-sprinkling-Source"
  top : "rep-sprinting-Agent"
  top : "rep-sprinting-Place"
  top : "rep-sprouting-Place"
  top : "rep-sprouting-Sprouter"
  top : "rep-spying-Place"
  top : "rep-spying-Tool"
  top : "rep-spying-Agent"
  top : "rep-spying-Target"
  top : "rep-squeezing-Tool"
  top : "rep-squeezing-Item"
  top : "rep-squeezing-Agent"
  top : "rep-squeezing-Place"
  top : "rep-squinting-Place"
  top : "rep-squinting-Item"
  top : "rep-squinting-Agent"
  top : "rep-stacking-Place"
  top : "rep-stacking-Top"
  top : "rep-stacking-Bottom"
  top : "rep-stacking-Agent"
  top : "rep-stampeding-Agent"
  top : "rep-stampeding-Place"
  top : "rep-standing-Agent"
  top : "rep-standing-Place"
  top : "rep-stapling-Tool"
  top : "rep-stapling-Item"
  top : "rep-stapling-Surface"
  top : "rep-stapling-Place"
  top : "rep-stapling-Agent"
  top : "rep-staring-Place"
  top : "rep-staring-Item"
  top : "rep-staring-Agent"
  top : "rep-steering-Place"
  top : "rep-steering-Tool"
  top : "rep-steering-Vehicle"
  top : "rep-steering-Agent"
  top : "rep-stinging-Victim"
  top : "rep-stinging-Place"
  top : "rep-stinging-VictimPart"
  top : "rep-stinging-Agent"
  top : "rep-stirring-Tool"
  top : "rep-stirring-Item"
  top : "rep-stirring-Place"
  top : "rep-stirring-Container"
  top : "rep-stirring-Agent"
  top : "rep-stitching-Place"
  top : "rep-stitching-Tool"
  top : "rep-stitching-Agent"
  top : "rep-stitching-Fastener"
  top : "rep-stooping-Agent"
  top : "rep-stooping-Place"
  top : "rep-storming-Place"
  top : "rep-strapping-Destination"
  top : "rep-strapping-Strapped"
  top : "rep-strapping-Agent"
  top : "rep-strapping-Place"
  top : "rep-strapping-Strap"
  top : "rep-stretching-Place"
  top : "rep-stretching-Item"
  top : "rep-stretching-Agent"
  top : "rep-striking-CoAgent"
  top : "rep-striking-AgentPart"
  top : "rep-striking-Tool"
  top : "rep-striking-Place"
  top : "rep-striking-Agent"
  top : "rep-stripping-RemovedItem"
  top : "rep-stripping-Source"
  top : "rep-stripping-Tool"
  top : "rep-stripping-Place"
  top : "rep-stripping-Agent"
  top : "rep-stroking-Place"
  top : "rep-stroking-Object"
  top : "rep-stroking-Agent"
  top : "rep-stroking-Part"
  top : "rep-studying-Agent"
  top : "rep-studying-Place"
  top : "rep-stuffing-Destination"
  top : "rep-stuffing-Item"
  top : "rep-stuffing-Agent"
  top : "rep-stuffing-Place"
  top : "rep-stumbling-Place"
  top : "rep-stumbling-Destination"
  top : "rep-stumbling-Agent"
  top : "rep-subduing-Target"
  top : "rep-subduing-Place"
  top : "rep-subduing-Agent"
  top : "rep-submerging-Object"
  top : "rep-submerging-Place"
  top : "rep-submerging-Agent"
  top : "rep-submerging-Substance"
  top : "rep-sucking-Place"
  top : "rep-sucking-Item"
  top : "rep-sucking-Agent"
  top : "rep-surfing-Tool"
  top : "rep-surfing-Path"
  top : "rep-surfing-Agent"
  top : "rep-surfing-Place"
  top : "rep-swarming-Place"
  top : "rep-swarming-AgentType"
  top : "rep-sweeping-Surface"
  top : "rep-sweeping-Place"
  top : "rep-sweeping-Brush"
  top : "rep-sweeping-Agent"
  top : "rep-swimming-Agent"
  top : "rep-swimming-Place"
  top : "rep-swinging-Place"
  top : "rep-swinging-Carrier"
  top : "rep-swinging-Agent"
  top : "rep-swooping-Agent"
  top : "rep-swooping-Place"
  top : "rep-tackling-Victim"
  top : "rep-tackling-Place"
  top : "rep-tackling-Agent"
  top : "rep-talking-Place"
  top : "rep-talking-Listener"
  top : "rep-talking-Agent"
  top : "rep-taping-Destination"
  top : "rep-taping-Item"
  top : "rep-taping-Agent"
  top : "rep-taping-Place"
  top : "rep-tasting-Tool"
  top : "rep-tasting-Item"
  top : "rep-tasting-Agent"
  top : "rep-tasting-Place"
  top : "rep-tattooing-Place"
  top : "rep-tattooing-Tool"
  top : "rep-tattooing-Agent"
  top : "rep-tattooing-Target"
  top : "rep-taxiing-Agent"
  top : "rep-taxiing-Place"
  top : "rep-taxiing-Ground"
  top : "rep-teaching-Teacher"
  top : "rep-teaching-Place"
  top : "rep-teaching-Student"
  top : "rep-tearing-Tool"
  top : "rep-tearing-Item"
  top : "rep-tearing-Agent"
  top : "rep-tearing-Place"
  top : "rep-telephoning-Agent"
  top : "rep-telephoning-Place"
  top : "rep-throwing-Destination"
  top : "rep-throwing-Item"
  top : "rep-throwing-Agent"
  top : "rep-throwing-Place"
  top : "rep-tickling-Object"
  top : "rep-tickling-Tickled"
  top : "rep-tickling-Agent"
  top : "rep-tickling-Place"
  top : "rep-tilling-Place"
  top : "rep-tilling-Tool"
  top : "rep-tilling-Agent"
  top : "rep-tilting-Place"
  top : "rep-tilting-Item"
  top : "rep-tilting-AgentPart"
  top : "rep-tilting-Agent"
  top : "rep-tipping-Place"
  top : "rep-tipping-Item"
  top : "rep-tipping-AgentPart"
  top : "rep-tipping-Agent"
  top : "rep-towing-Place"
  top : "rep-towing-Item"
  top : "rep-towing-Agent"
  top : "rep-training-Student"
  top : "rep-training-Place"
  top : "rep-training-Agent"
  top : "rep-trimming-Tool"
  top : "rep-trimming-Item"
  top : "rep-trimming-ItemPart"
  top : "rep-trimming-Place"
  top : "rep-trimming-Agent"
  top : "rep-tripping-Place"
  top : "rep-tripping-Item"
  top : "rep-tripping-Agent"
  top : "rep-tugging-Place"
  top : "rep-tugging-Item"
  top : "rep-tugging-Agent"
  top : "rep-tuning-Object"
  top : "rep-tuning-Tool"
  top : "rep-tuning-Agent"
  top : "rep-tuning-Place"
  top : "rep-turning-TurnedItem"
  top : "rep-turning-Place"
  top : "rep-turning-Agent"
  top : "rep-twirling-Place"
  top : "rep-twirling-CoAgent"
  top : "rep-twirling-Agent"
  top : "rep-twisting-Place"
  top : "rep-twisting-AgentPart"
  top : "rep-twisting-Agent"
  top : "rep-tying-Item"
  top : "rep-tying-Connector"
  top : "rep-tying-Place"
  top : "rep-tying-Destination"
  top : "rep-tying-Agent"
  top : "rep-typing-Place"
  top : "rep-typing-Tool"
  top : "rep-typing-Agent"
  top : "rep-uncorking-Tool"
  top : "rep-uncorking-Place"
  top : "rep-uncorking-Agent"
  top : "rep-uncorking-Container"
  top : "rep-unloading-Tool"
  top : "rep-unloading-Item"
  top : "rep-unloading-Agent"
  top : "rep-unloading-Place"
  top : "rep-unloading-Source"
  top : "rep-unlocking-Tool"
  top : "rep-unlocking-Lock"
  top : "rep-unlocking-Place"
  top : "rep-unlocking-Container"
  top : "rep-unlocking-Agent"
  top : "rep-unpacking-Place"
  top : "rep-unpacking-Item"
  top : "rep-unpacking-Agent"
  top : "rep-unpacking-Container"
  top : "rep-unplugging-Unplugged"
  top : "rep-unplugging-Place"
  top : "rep-unplugging-Agent"
  top : "rep-unveiling-Place"
  top : "rep-unveiling-Object"
  top : "rep-unveiling-Agent"
  top : "rep-urinating-Target"
  top : "rep-urinating-Place"
  top : "rep-urinating-Agent"
  top : "rep-vacuuming-Place"
  top : "rep-vacuuming-Tool"
  top : "rep-vacuuming-Agent"
  top : "rep-vacuuming-Surface"
  top : "rep-vaulting-Tool"
  top : "rep-vaulting-End"
  top : "rep-vaulting-Start"
  top : "rep-vaulting-Agent"
  top : "rep-vaulting-Place"
  top : "rep-vaulting-Obstacle"
  top : "rep-videotaping-Place"
  top : "rep-videotaping-Depicted"
  top : "rep-videotaping-Agent"
  top : "rep-voting-Agent"
  top : "rep-voting-Place"
  top : "rep-waddling-Agent"
  top : "rep-waddling-Place"
  top : "rep-wading-Place"
  top : "rep-wading-Substance"
  top : "rep-wading-Agent"
  top : "rep-wagging-Addressee"
  top : "rep-wagging-AgentPart"
  top : "rep-wagging-Agent"
  top : "rep-wagging-Place"
  top : "rep-waiting-Agent"
  top : "rep-waiting-Place"
  top : "rep-walking-Agent"
  top : "rep-walking-Place"
  top : "rep-washing-Tool"
  top : "rep-washing-Item"
  top : "rep-washing-Agent"
  top : "rep-washing-Place"
  top : "rep-washing-Dirt"
  top : "rep-watering-Tool"
  top : "rep-watering-Place"
  top : "rep-watering-Agent"
  top : "rep-watering-Recipient"
  top : "rep-waving-Place"
  top : "rep-waving-Agentpart"
  top : "rep-waving-Agent"
  top : "rep-waxing-BodyPart"
  top : "rep-waxing-CoAgent"
  top : "rep-waxing-Agent"
  top : "rep-waxing-Place"
  top : "rep-weeding-Place"
  top : "rep-weeding-Tool"
  top : "rep-weeding-Agent"
  top : "rep-weeping-Agent"
  top : "rep-weeping-Place"
  top : "rep-weighing-Tool"
  top : "rep-weighing-Place"
  top : "rep-weighing-Agent"
  top : "rep-weighing-Mass"
  top : "rep-welding-Tool"
  top : "rep-welding-Item"
  top : "rep-welding-Surface"
  top : "rep-welding-Place"
  top : "rep-welding-Agent"
  top : "rep-wetting-Object"
  top : "rep-wetting-Tool"
  top : "rep-wetting-Liquid"
  top : "rep-wetting-Place"
  top : "rep-wetting-Agent"
  top : "rep-wheeling-Carrier"
  top : "rep-wheeling-Item"
  top : "rep-wheeling-Agent"
  top : "rep-wheeling-Place"
  top : "rep-whipping-Tool"
  top : "rep-whipping-Item"
  top : "rep-whipping-Agent"
  top : "rep-whipping-Place"
  top : "rep-whirling-Agent"
  top : "rep-whirling-Place"
  top : "rep-whisking-Place"
  top : "rep-whisking-Item"
  top : "rep-whisking-Agent"
  top : "rep-whisking-Container"
  top : "rep-whistling-Place"
  top : "rep-whistling-Tool"
  top : "rep-whistling-Agent"
  top : "rep-wilting-Agent"
  top : "rep-wilting-Place"
  top : "rep-winking-Place"
  top : "rep-winking-Addressee"
  top : "rep-winking-Agent"
  top : "rep-wiping-Tool"
  top : "rep-wiping-Source"
  top : "rep-wiping-Place"
  top : "rep-wiping-Substance"
  top : "rep-wiping-Agent"
  top : "rep-working-Focus"
  top : "rep-working-Place"
  top : "rep-working-Agent"
  top : "rep-wrapping-Place"
  top : "rep-wrapping-WrappedItem"
  top : "rep-wrapping-Agent"
  top : "rep-wrapping-WrappingItem"
  top : "rep-wringing-Place"
  top : "rep-wringing-Item"
  top : "rep-wringing-Agent"
  top : "rep-wrinkling-Place"
  top : "rep-wrinkling-AgentPart"
  top : "rep-wrinkling-Agent"
  top : "rep-writing-Place"
  top : "rep-writing-Tool"
  top : "rep-writing-Agent"
  top : "rep-writing-Target"
  top : "rep-yanking-Yanked"
  top : "rep-yanking-Place"
  top : "rep-yanking-YankedPart"
  top : "rep-yanking-Agent"
  top : "rep-yawning-Agent"
  top : "rep-yawning-Place"
  name: "fan"
  type: "Split"
}

layer {
  bottom: "rep-adjusting-Tool"
  top: "value-adjusting-Tool"
  name: "value-adjusting-Tool"
  type: "InnerProduct"
  inner_product_param {
    num_output: 92
  }
  param{ lr_mult: 1 decay_mult: 0}
  param{ lr_mult: 1 decay_mult: 0}
}

layer {
  bottom: "rep-adjusting-Item"
  top: "value-adjusting-Item"
  name: "value-adjusting-Item"
  type: "InnerProduct"
  inner_product_param {
    num_output: 293
  }
  param{ lr_mult: 1 decay_mult: 0}
  param{ lr_mult: 1 decay_mult: 0}
}

layer {
  bottom: "rep-adjusting-Feature"
  top: "value-adjusting-Feature"
  name: "value-adjusting-Feature"
  type: "InnerProduct"
  inner_product_param {
    num_output: 210
  }
  param{ lr_mult: 1 decay_mult: 0}
  param{ lr_mult: 1 decay_mult: 0}
}

layer {
  bottom: "rep-adjusting-Place"
  top: "value-adjusting-Place"
  name: "value-adjusting-Place"
  type: "InnerProduct"
  inner_product_param {
    num_output: 83
  }
  param{ lr_mult: 1 decay_mult: 0}
  param{ lr_mult: 1 decay_mult: 0}
}

layer {
  bottom: "rep-adjusting-Agent"
  top: "value-adjusting-Agent"
  name: "value-adjusting-Agent"
  type: "InnerProduct"
  inner_product_param {
    num_output: 49

  }
  param{ lr_mult: 1 decay_mult: 0}
  param{ lr_mult: 1 decay_mult: 0}
}

layer {
  bottom: "rep-admiring-Place"
  top: "value-admiring-Place"
  name: "value-admiring-Place"
  type: "InnerProduct"
  inner_product_param {
    num_output: 164
  }
  param{ lr_mult: 1 decay_mult: 0}
  param{ lr_mult: 1 decay_mult: 0}
}

layer {
  bottom: "rep-admiring-Admired"
  top: "value-admiring-Admired"
  name: "value-admiring-Admired"
  type: "InnerProduct"
  inner_product_param {
    num_output: 249
  }
  param{ lr_mult: 1 decay_mult: 0}
  param{ lr_mult: 1 decay_mult: 0}
}

layer {
  bottom: "rep-admiring-Agent"
  top: "value-admiring-Agent"
  name: "value-admiring-Agent"
  type: "InnerProduct"
  inner_product_param {
    num_output: 63

  }
  param{ lr_mult: 1 decay_mult: 0}
  param{ lr_mult: 1 decay_mult: 0}
}

layer {
  bottom: "rep-ailing-Cause"
  top: "value-ailing-Cause"
  name: "value-ailing-Cause"
  type: "InnerProduct"
  inner_product_param {
    num_output: 86
  }
  param{ lr_mult: 1 decay_mult: 0}
  param{ lr_mult: 1 decay_mult: 0}
}

layer {
  bottom: "rep-ailing-Place"
  top: "value-ailing-Place"
  name: "value-ailing-Place"
  type: "InnerProduct"
  inner_product_param {
    num_output: 69
  }
  param{ lr_mult: 1 decay_mult: 0}
  param{ lr_mult: 1 decay_mult: 0}
}

layer {
  bottom: "rep-ailing-Victim"
  top: "value-ailing-Victim"
  name: "value-ailing-Victim"
  type: "InnerProduct"
  inner_product_param {
    num_output: 46

  }
  param{ lr_mult: 1 decay_mult: 0}
  param{ lr_mult: 1 decay_mult: 0}
}

layer {
  bottom: "rep-ailing-VictimPart"
  top: "value-ailing-VictimPart"
  name: "value-ailing-VictimPart"
  type: "InnerProduct"
  inner_product_param {
    num_output: 55
  }
  param{ lr_mult: 1 decay_mult: 0}
  param{ lr_mult: 1 decay_mult: 0}
}

layer {
  bottom: "rep-aiming-Place"
  top: "value-aiming-Place"
  name: "value-aiming-Place"
  type: "InnerProduct"
  inner_product_param {
    num_output: 73
  }
  param{ lr_mult: 1 decay_mult: 0}
  param{ lr_mult: 1 decay_mult: 0}
}

layer {
  bottom: "rep-aiming-Item"
  top: "value-aiming-Item"
  name: "value-aiming-Item"
  type: "InnerProduct"
  inner_product_param {
    num_output: 55
  }
  param{ lr_mult: 1 decay_mult: 0}
  param{ lr_mult: 1 decay_mult: 0}
}

layer {
  bottom: "rep-aiming-Agent"
  top: "value-aiming-Agent"
  name: "value-aiming-Agent"
  type: "InnerProduct"
  inner_product_param {
    num_output: 53

  }
  param{ lr_mult: 1 decay_mult: 0}
  param{ lr_mult: 1 decay_mult: 0}
}

layer {
  bottom: "rep-aiming-Target"
  top: "value-aiming-Target"
  name: "value-aiming-Target"
  type: "InnerProduct"
  inner_product_param {
    num_output: 47
  }
  param{ lr_mult: 1 decay_mult: 0}
  param{ lr_mult: 1 decay_mult: 0}
}

layer {
  bottom: "rep-applauding-Place"
  top: "value-applauding-Place"
  name: "value-applauding-Place"
  type: "InnerProduct"
  inner_product_param {
    num_output: 104
  }
  param{ lr_mult: 1 decay_mult: 0}
  param{ lr_mult: 1 decay_mult: 0}
}

layer {
  bottom: "rep-applauding-Addressee"
  top: "value-applauding-Addressee"
  name: "value-applauding-Addressee"
  type: "InnerProduct"
  inner_product_param {
    num_output: 74
  }
  param{ lr_mult: 1 decay_mult: 0}
  param{ lr_mult: 1 decay_mult: 0}
}

layer {
  bottom: "rep-applauding-Agent"
  top: "value-applauding-Agent"
  name: "value-applauding-Agent"
  type: "InnerProduct"
  inner_product_param {
    num_output: 85

  }
  param{ lr_mult: 1 decay_mult: 0}
  param{ lr_mult: 1 decay_mult: 0}
}

layer {
  bottom: "rep-applying-Tool"
  top: "value-applying-Tool"
  name: "value-applying-Tool"
  type: "InnerProduct"
  inner_product_param {
    num_output: 82
  }
  param{ lr_mult: 1 decay_mult: 0}
  param{ lr_mult: 1 decay_mult: 0}
}

layer {
  bottom: "rep-applying-Destination"
  top: "value-applying-Destination"
  name: "value-applying-Destination"
  type: "InnerProduct"
  inner_product_param {
    num_output: 146
  }
  param{ lr_mult: 1 decay_mult: 0}
  param{ lr_mult: 1 decay_mult: 0}
}

layer {
  bottom: "rep-applying-Place"
  top: "value-applying-Place"
  name: "value-applying-Place"
  type: "InnerProduct"
  inner_product_param {
    num_output: 59
  }
  param{ lr_mult: 1 decay_mult: 0}
  param{ lr_mult: 1 decay_mult: 0}
}

layer {
  bottom: "rep-applying-Substance"
  top: "value-applying-Substance"
  name: "value-applying-Substance"
  type: "InnerProduct"
  inner_product_param {
    num_output: 125
  }
  param{ lr_mult: 1 decay_mult: 0}
  param{ lr_mult: 1 decay_mult: 0}
}

layer {
  bottom: "rep-applying-Agent"
  top: "value-applying-Agent"
  name: "value-applying-Agent"
  type: "InnerProduct"
  inner_product_param {
    num_output: 36

  }
  param{ lr_mult: 1 decay_mult: 0}
  param{ lr_mult: 1 decay_mult: 0}
}

layer {
  bottom: "rep-apprehending-Victim"
  top: "value-apprehending-Victim"
  name: "value-apprehending-Victim"
  type: "InnerProduct"
  inner_product_param {
    num_output: 54
  }
  param{ lr_mult: 1 decay_mult: 0}
  param{ lr_mult: 1 decay_mult: 0}
}

layer {
  bottom: "rep-apprehending-Place"
  top: "value-apprehending-Place"
  name: "value-apprehending-Place"
  type: "InnerProduct"
  inner_product_param {
    num_output: 70
  }
  param{ lr_mult: 1 decay_mult: 0}
  param{ lr_mult: 1 decay_mult: 0}
}

layer {
  bottom: "rep-apprehending-Agent"
  top: "value-apprehending-Agent"
  name: "value-apprehending-Agent"
  type: "InnerProduct"
  inner_product_param {
    num_output: 43

  }
  param{ lr_mult: 1 decay_mult: 0}
  param{ lr_mult: 1 decay_mult: 0}
}

layer {
  bottom: "rep-arching-Place"
  top: "value-arching-Place"
  name: "value-arching-Place"
  type: "InnerProduct"
  inner_product_param {
    num_output: 65
  }
  param{ lr_mult: 1 decay_mult: 0}
  param{ lr_mult: 1 decay_mult: 0}
}

layer {
  bottom: "rep-arching-BODYPART"
  top: "value-arching-BODYPART"
  name: "value-arching-BODYPART"
  type: "InnerProduct"
  inner_product_param {
    num_output: 33
  }
  param{ lr_mult: 1 decay_mult: 0}
  param{ lr_mult: 1 decay_mult: 0}
}

layer {
  bottom: "rep-arching-Agent"
  top: "value-arching-Agent"
  name: "value-arching-Agent"
  type: "InnerProduct"
  inner_product_param {
    num_output: 35

  }
  param{ lr_mult: 1 decay_mult: 0}
  param{ lr_mult: 1 decay_mult: 0}
}

layer {
  bottom: "rep-arranging-Tool"
  top: "value-arranging-Tool"
  name: "value-arranging-Tool"
  type: "InnerProduct"
  inner_product_param {
    num_output: 74
  }
  param{ lr_mult: 1 decay_mult: 0}
  param{ lr_mult: 1 decay_mult: 0}
}

layer {
  bottom: "rep-arranging-Item"
  top: "value-arranging-Item"
  name: "value-arranging-Item"
  type: "InnerProduct"
  inner_product_param {
    num_output: 166
  }
  param{ lr_mult: 1 decay_mult: 0}
  param{ lr_mult: 1 decay_mult: 0}
}

layer {
  bottom: "rep-arranging-Agent"
  top: "value-arranging-Agent"
  name: "value-arranging-Agent"
  type: "InnerProduct"
  inner_product_param {
    num_output: 37

  }
  param{ lr_mult: 1 decay_mult: 0}
  param{ lr_mult: 1 decay_mult: 0}
}

layer {
  bottom: "rep-arranging-Place"
  top: "value-arranging-Place"
  name: "value-arranging-Place"
  type: "InnerProduct"
  inner_product_param {
    num_output: 104
  }
  param{ lr_mult: 1 decay_mult: 0}
  param{ lr_mult: 1 decay_mult: 0}
}

layer {
  bottom: "rep-arresting-Suspect"
  top: "value-arresting-Suspect"
  name: "value-arresting-Suspect"
  type: "InnerProduct"
  inner_product_param {
    num_output: 49
  }
  param{ lr_mult: 1 decay_mult: 0}
  param{ lr_mult: 1 decay_mult: 0}
}

layer {
  bottom: "rep-arresting-Place"
  top: "value-arresting-Place"
  name: "value-arresting-Place"
  type: "InnerProduct"
  inner_product_param {
    num_output: 44
  }
  param{ lr_mult: 1 decay_mult: 0}
  param{ lr_mult: 1 decay_mult: 0}
}

layer {
  bottom: "rep-arresting-Agent"
  top: "value-arresting-Agent"
  name: "value-arresting-Agent"
  type: "InnerProduct"
  inner_product_param {
    num_output: 27

  }
  param{ lr_mult: 1 decay_mult: 0}
  param{ lr_mult: 1 decay_mult: 0}
}

layer {
  bottom: "rep-ascending-Agent"
  top: "value-ascending-Agent"
  name: "value-ascending-Agent"
  type: "InnerProduct"
  inner_product_param {
    num_output: 44

  }
  param{ lr_mult: 1 decay_mult: 0}
  param{ lr_mult: 1 decay_mult: 0}
}

layer {
  bottom: "rep-ascending-Place"
  top: "value-ascending-Place"
  name: "value-ascending-Place"
  type: "InnerProduct"
  inner_product_param {
    num_output: 66
  }
  param{ lr_mult: 1 decay_mult: 0}
  param{ lr_mult: 1 decay_mult: 0}
}

layer {
  bottom: "rep-asking-Place"
  top: "value-asking-Place"
  name: "value-asking-Place"
  type: "InnerProduct"
  inner_product_param {
    num_output: 85
  }
  param{ lr_mult: 1 decay_mult: 0}
  param{ lr_mult: 1 decay_mult: 0}
}

layer {
  bottom: "rep-asking-Addressee"
  top: "value-asking-Addressee"
  name: "value-asking-Addressee"
  type: "InnerProduct"
  inner_product_param {
    num_output: 70
  }
  param{ lr_mult: 1 decay_mult: 0}
  param{ lr_mult: 1 decay_mult: 0}
}

layer {
  bottom: "rep-asking-Agent"
  top: "value-asking-Agent"
  name: "value-asking-Agent"
  type: "InnerProduct"
  inner_product_param {
    num_output: 70

  }
  param{ lr_mult: 1 decay_mult: 0}
  param{ lr_mult: 1 decay_mult: 0}
}

layer {
  bottom: "rep-assembling-Tool"
  top: "value-assembling-Tool"
  name: "value-assembling-Tool"
  type: "InnerProduct"
  inner_product_param {
    num_output: 118
  }
  param{ lr_mult: 1 decay_mult: 0}
  param{ lr_mult: 1 decay_mult: 0}
}

layer {
  bottom: "rep-assembling-Component"
  top: "value-assembling-Component"
  name: "value-assembling-Component"
  type: "InnerProduct"
  inner_product_param {
    num_output: 224
  }
  param{ lr_mult: 1 decay_mult: 0}
  param{ lr_mult: 1 decay_mult: 0}
}

layer {
  bottom: "rep-assembling-Place"
  top: "value-assembling-Place"
  name: "value-assembling-Place"
  type: "InnerProduct"
  inner_product_param {
    num_output: 73
  }
  param{ lr_mult: 1 decay_mult: 0}
  param{ lr_mult: 1 decay_mult: 0}
}

layer {
  bottom: "rep-assembling-GoalItem"
  top: "value-assembling-GoalItem"
  name: "value-assembling-GoalItem"
  type: "InnerProduct"
  inner_product_param {
    num_output: 233
  }
  param{ lr_mult: 1 decay_mult: 0}
  param{ lr_mult: 1 decay_mult: 0}
}

layer {
  bottom: "rep-assembling-Agent"
  top: "value-assembling-Agent"
  name: "value-assembling-Agent"
  type: "InnerProduct"
  inner_product_param {
    num_output: 50

  }
  param{ lr_mult: 1 decay_mult: 0}
  param{ lr_mult: 1 decay_mult: 0}
}

layer {
  bottom: "rep-attaching-Destination"
  top: "value-attaching-Destination"
  name: "value-attaching-Destination"
  type: "InnerProduct"
  inner_product_param {
    num_output: 277
  }
  param{ lr_mult: 1 decay_mult: 0}
  param{ lr_mult: 1 decay_mult: 0}
}

layer {
  bottom: "rep-attaching-Tool"
  top: "value-attaching-Tool"
  name: "value-attaching-Tool"
  type: "InnerProduct"
  inner_product_param {
    num_output: 73
  }
  param{ lr_mult: 1 decay_mult: 0}
  param{ lr_mult: 1 decay_mult: 0}
}

layer {
  bottom: "rep-attaching-Item"
  top: "value-attaching-Item"
  name: "value-attaching-Item"
  type: "InnerProduct"
  inner_product_param {
    num_output: 292
  }
  param{ lr_mult: 1 decay_mult: 0}
  param{ lr_mult: 1 decay_mult: 0}
}

layer {
  bottom: "rep-attaching-Agent"
  top: "value-attaching-Agent"
  name: "value-attaching-Agent"
  type: "InnerProduct"
  inner_product_param {
    num_output: 41
  }
  param{ lr_mult: 1 decay_mult: 0}
  param{ lr_mult: 1 decay_mult: 0}
}

layer {
  bottom: "rep-attaching-Glue"
  top: "value-attaching-Glue"
  name: "value-attaching-Glue"
  type: "InnerProduct"
  inner_product_param {
    num_output: 114

  }
  param{ lr_mult: 1 decay_mult: 0}
  param{ lr_mult: 1 decay_mult: 0}
}

layer {
  bottom: "rep-attaching-Place"
  top: "value-attaching-Place"
  name: "value-attaching-Place"
  type: "InnerProduct"
  inner_product_param {
    num_output: 81
  }
  param{ lr_mult: 1 decay_mult: 0}
  param{ lr_mult: 1 decay_mult: 0}
}

layer {
  bottom: "rep-attacking-Place"
  top: "value-attacking-Place"
  name: "value-attacking-Place"
  type: "InnerProduct"
  inner_product_param {
    num_output: 96
  }
  param{ lr_mult: 1 decay_mult: 0}
  param{ lr_mult: 1 decay_mult: 0}
}

layer {
  bottom: "rep-attacking-Weapon"
  top: "value-attacking-Weapon"
  name: "value-attacking-Weapon"
  type: "InnerProduct"
  inner_product_param {
    num_output: 106
  }
  param{ lr_mult: 1 decay_mult: 0}
  param{ lr_mult: 1 decay_mult: 0}
}

layer {
  bottom: "rep-attacking-Agent"
  top: "value-attacking-Agent"
  name: "value-attacking-Agent"
  type: "InnerProduct"
  inner_product_param {
    num_output: 105

  }
  param{ lr_mult: 1 decay_mult: 0}
  param{ lr_mult: 1 decay_mult: 0}
}

layer {
  bottom: "rep-attacking-Victim"
  top: "value-attacking-Victim"
  name: "value-attacking-Victim"
  type: "InnerProduct"
  inner_product_param {
    num_output: 128
  }
  param{ lr_mult: 1 decay_mult: 0}
  param{ lr_mult: 1 decay_mult: 0}
}

layer {
  bottom: "rep-autographing-Place"
  top: "value-autographing-Place"
  name: "value-autographing-Place"
  type: "InnerProduct"
  inner_product_param {
    num_output: 78
  }
  param{ lr_mult: 1 decay_mult: 0}
  param{ lr_mult: 1 decay_mult: 0}
}

layer {
  bottom: "rep-autographing-Item"
  top: "value-autographing-Item"
  name: "value-autographing-Item"
  type: "InnerProduct"
  inner_product_param {
    num_output: 74
  }
  param{ lr_mult: 1 decay_mult: 0}
  param{ lr_mult: 1 decay_mult: 0}
}

layer {
  bottom: "rep-autographing-Receiver"
  top: "value-autographing-Receiver"
  name: "value-autographing-Receiver"
  type: "InnerProduct"
  inner_product_param {
    num_output: 28

  }
  param{ lr_mult: 1 decay_mult: 0}
  param{ lr_mult: 1 decay_mult: 0}
}

layer {
  bottom: "rep-autographing-Agent"
  top: "value-autographing-Agent"
  name: "value-autographing-Agent"
  type: "InnerProduct"
  inner_product_param {
    num_output: 38
  }
  param{ lr_mult: 1 decay_mult: 0}
  param{ lr_mult: 1 decay_mult: 0}
}

layer {
  bottom: "rep-baking-Place"
  top: "value-baking-Place"
  name: "value-baking-Place"
  type: "InnerProduct"
  inner_product_param {
    num_output: 32
  }
  param{ lr_mult: 1 decay_mult: 0}
  param{ lr_mult: 1 decay_mult: 0}
}

layer {
  bottom: "rep-baking-Food"
  top: "value-baking-Food"
  name: "value-baking-Food"
  type: "InnerProduct"
  inner_product_param {
    num_output: 90
  }
  param{ lr_mult: 1 decay_mult: 0}
  param{ lr_mult: 1 decay_mult: 0}
}

layer {
  bottom: "rep-baking-Agent"
  top: "value-baking-Agent"
  name: "value-baking-Agent"
  type: "InnerProduct"
  inner_product_param {
    num_output: 38
  }
  param{ lr_mult: 1 decay_mult: 0}
  param{ lr_mult: 1 decay_mult: 0}
}

layer {
  bottom: "rep-baking-FoodContainer"
  top: "value-baking-FoodContainer"
  name: "value-baking-FoodContainer"
  type: "InnerProduct"
  inner_product_param {
    num_output: 68
  }
  param{ lr_mult: 1 decay_mult: 0}
  param{ lr_mult: 1 decay_mult: 0}
}

layer {
  bottom: "rep-baking-HeatSource"
  top: "value-baking-HeatSource"
  name: "value-baking-HeatSource"
  type: "InnerProduct"
  inner_product_param {
    num_output: 22

  }
  param{ lr_mult: 1 decay_mult: 0}
  param{ lr_mult: 1 decay_mult: 0}
}

layer {
  bottom: "rep-ballooning-Agent"
  top: "value-ballooning-Agent"
  name: "value-ballooning-Agent"
  type: "InnerProduct"
  inner_product_param {
    num_output: 19

  }
  param{ lr_mult: 1 decay_mult: 0}
  param{ lr_mult: 1 decay_mult: 0}
}

layer {
  bottom: "rep-ballooning-Place"
  top: "value-ballooning-Place"
  name: "value-ballooning-Place"
  type: "InnerProduct"
  inner_product_param {
    num_output: 39
  }
  param{ lr_mult: 1 decay_mult: 0}
  param{ lr_mult: 1 decay_mult: 0}
}

layer {
  bottom: "rep-bandaging-VICTIM"
  top: "value-bandaging-VICTIM"
  name: "value-bandaging-VICTIM"
  type: "InnerProduct"
  inner_product_param {
    num_output: 48
  }
  param{ lr_mult: 1 decay_mult: 0}
  param{ lr_mult: 1 decay_mult: 0}
}

layer {
  bottom: "rep-bandaging-Place"
  top: "value-bandaging-Place"
  name: "value-bandaging-Place"
  type: "InnerProduct"
  inner_product_param {
    num_output: 72
  }
  param{ lr_mult: 1 decay_mult: 0}
  param{ lr_mult: 1 decay_mult: 0}
}

layer {
  bottom: "rep-bandaging-Agent"
  top: "value-bandaging-Agent"
  name: "value-bandaging-Agent"
  type: "InnerProduct"
  inner_product_param {
    num_output: 42

  }
  param{ lr_mult: 1 decay_mult: 0}
  param{ lr_mult: 1 decay_mult: 0}
}

layer {
  bottom: "rep-baptizing-BAPTIZED"
  top: "value-baptizing-BAPTIZED"
  name: "value-baptizing-BAPTIZED"
  type: "InnerProduct"
  inner_product_param {
    num_output: 31
  }
  param{ lr_mult: 1 decay_mult: 0}
  param{ lr_mult: 1 decay_mult: 0}
}

layer {
  bottom: "rep-baptizing-Place"
  top: "value-baptizing-Place"
  name: "value-baptizing-Place"
  type: "InnerProduct"
  inner_product_param {
    num_output: 34
  }
  param{ lr_mult: 1 decay_mult: 0}
  param{ lr_mult: 1 decay_mult: 0}
}

layer {
  bottom: "rep-baptizing-Agent"
  top: "value-baptizing-Agent"
  name: "value-baptizing-Agent"
  type: "InnerProduct"
  inner_product_param {
    num_output: 29

  }
  param{ lr_mult: 1 decay_mult: 0}
  param{ lr_mult: 1 decay_mult: 0}
}

layer {
  bottom: "rep-barbecuing-Place"
  top: "value-barbecuing-Place"
  name: "value-barbecuing-Place"
  type: "InnerProduct"
  inner_product_param {
    num_output: 60
  }
  param{ lr_mult: 1 decay_mult: 0}
  param{ lr_mult: 1 decay_mult: 0}
}

layer {
  bottom: "rep-barbecuing-Food"
  top: "value-barbecuing-Food"
  name: "value-barbecuing-Food"
  type: "InnerProduct"
  inner_product_param {
    num_output: 48
  }
  param{ lr_mult: 1 decay_mult: 0}
  param{ lr_mult: 1 decay_mult: 0}
}

layer {
  bottom: "rep-barbecuing-Agent"
  top: "value-barbecuing-Agent"
  name: "value-barbecuing-Agent"
  type: "InnerProduct"
  inner_product_param {
    num_output: 31

  }
  param{ lr_mult: 1 decay_mult: 0}
  param{ lr_mult: 1 decay_mult: 0}
}

layer {
  bottom: "rep-bathing-Substance"
  top: "value-bathing-Substance"
  name: "value-bathing-Substance"
  type: "InnerProduct"
  inner_product_param {
    num_output: 25
  }
  param{ lr_mult: 1 decay_mult: 0}
  param{ lr_mult: 1 decay_mult: 0}
}

layer {
  bottom: "rep-bathing-CoAgent"
  top: "value-bathing-CoAgent"
  name: "value-bathing-CoAgent"
  type: "InnerProduct"
  inner_product_param {
    num_output: 36
  }
  param{ lr_mult: 1 decay_mult: 0}
  param{ lr_mult: 1 decay_mult: 0}
}

layer {
  bottom: "rep-bathing-Tool"
  top: "value-bathing-Tool"
  name: "value-bathing-Tool"
  type: "InnerProduct"
  inner_product_param {
    num_output: 53
  }
  param{ lr_mult: 1 decay_mult: 0}
  param{ lr_mult: 1 decay_mult: 0}
}

layer {
  bottom: "rep-bathing-Place"
  top: "value-bathing-Place"
  name: "value-bathing-Place"
  type: "InnerProduct"
  inner_product_param {
    num_output: 36
  }
  param{ lr_mult: 1 decay_mult: 0}
  param{ lr_mult: 1 decay_mult: 0}
}

layer {
  bottom: "rep-bathing-Agent"
  top: "value-bathing-Agent"
  name: "value-bathing-Agent"
  type: "InnerProduct"
  inner_product_param {
    num_output: 37

  }
  param{ lr_mult: 1 decay_mult: 0}
  param{ lr_mult: 1 decay_mult: 0}
}

layer {
  bottom: "rep-begging-Place"
  top: "value-begging-Place"
  name: "value-begging-Place"
  type: "InnerProduct"
  inner_product_param {
    num_output: 56
  }
  param{ lr_mult: 1 decay_mult: 0}
  param{ lr_mult: 1 decay_mult: 0}
}

layer {
  bottom: "rep-begging-ITEM"
  top: "value-begging-ITEM"
  name: "value-begging-ITEM"
  type: "InnerProduct"
  inner_product_param {
    num_output: 40
  }
  param{ lr_mult: 1 decay_mult: 0}
  param{ lr_mult: 1 decay_mult: 0}
}

layer {
  bottom: "rep-begging-Agent"
  top: "value-begging-Agent"
  name: "value-begging-Agent"
  type: "InnerProduct"
  inner_product_param {
    num_output: 57

  }
  param{ lr_mult: 1 decay_mult: 0}
  param{ lr_mult: 1 decay_mult: 0}
}

layer {
  bottom: "rep-begging-GIVER"
  top: "value-begging-GIVER"
  name: "value-begging-GIVER"
  type: "InnerProduct"
  inner_product_param {
    num_output: 30
  }
  param{ lr_mult: 1 decay_mult: 0}
  param{ lr_mult: 1 decay_mult: 0}
}

layer {
  bottom: "rep-betting-Agent"
  top: "value-betting-Agent"
  name: "value-betting-Agent"
  type: "InnerProduct"
  inner_product_param {
    num_output: 23

  }
  param{ lr_mult: 1 decay_mult: 0}
  param{ lr_mult: 1 decay_mult: 0}
}

layer {
  bottom: "rep-betting-Place"
  top: "value-betting-Place"
  name: "value-betting-Place"
  type: "InnerProduct"
  inner_product_param {
    num_output: 60
  }
  param{ lr_mult: 1 decay_mult: 0}
  param{ lr_mult: 1 decay_mult: 0}
}

layer {
  bottom: "rep-biking-Agent"
  top: "value-biking-Agent"
  name: "value-biking-Agent"
  type: "InnerProduct"
  inner_product_param {
    num_output: 32

  }
  param{ lr_mult: 1 decay_mult: 0}
  param{ lr_mult: 1 decay_mult: 0}
}

layer {
  bottom: "rep-biking-Place"
  top: "value-biking-Place"
  name: "value-biking-Place"
  type: "InnerProduct"
  inner_product_param {
    num_output: 66
  }
  param{ lr_mult: 1 decay_mult: 0}
  param{ lr_mult: 1 decay_mult: 0}
}

layer {
  bottom: "rep-biting-Place"
  top: "value-biting-Place"
  name: "value-biting-Place"
  type: "InnerProduct"
  inner_product_param {
    num_output: 93
  }
  param{ lr_mult: 1 decay_mult: 0}
  param{ lr_mult: 1 decay_mult: 0}
}

layer {
  bottom: "rep-biting-Item"
  top: "value-biting-Item"
  name: "value-biting-Item"
  type: "InnerProduct"
  inner_product_param {
    num_output: 190
  }
  param{ lr_mult: 1 decay_mult: 0}
  param{ lr_mult: 1 decay_mult: 0}
}

layer {
  bottom: "rep-biting-Agent"
  top: "value-biting-Agent"
  name: "value-biting-Agent"
  type: "InnerProduct"
  inner_product_param {
    num_output: 93

  }
  param{ lr_mult: 1 decay_mult: 0}
  param{ lr_mult: 1 decay_mult: 0}
}

layer {
  bottom: "rep-blocking-Tool"
  top: "value-blocking-Tool"
  name: "value-blocking-Tool"
  type: "InnerProduct"
  inner_product_param {
    num_output: 75
  }
  param{ lr_mult: 1 decay_mult: 0}
  param{ lr_mult: 1 decay_mult: 0}
}

layer {
  bottom: "rep-blocking-Blocker"
  top: "value-blocking-Blocker"
  name: "value-blocking-Blocker"
  type: "InnerProduct"
  inner_product_param {
    num_output: 78
  }
  param{ lr_mult: 1 decay_mult: 0}
  param{ lr_mult: 1 decay_mult: 0}
}

layer {
  bottom: "rep-blocking-Blocked"
  top: "value-blocking-Blocked"
  name: "value-blocking-Blocked"
  type: "InnerProduct"
  inner_product_param {
    num_output: 84

  }
  param{ lr_mult: 1 decay_mult: 0}
  param{ lr_mult: 1 decay_mult: 0}
}

layer {
  bottom: "rep-blocking-Place"
  top: "value-blocking-Place"
  name: "value-blocking-Place"
  type: "InnerProduct"
  inner_product_param {
    num_output: 63
  }
  param{ lr_mult: 1 decay_mult: 0}
  param{ lr_mult: 1 decay_mult: 0}
}

layer {
  bottom: "rep-blossoming-Agent"
  top: "value-blossoming-Agent"
  name: "value-blossoming-Agent"
  type: "InnerProduct"
  inner_product_param {
    num_output: 31

  }
  param{ lr_mult: 1 decay_mult: 0}
  param{ lr_mult: 1 decay_mult: 0}
}

layer {
  bottom: "rep-blossoming-Place"
  top: "value-blossoming-Place"
  name: "value-blossoming-Place"
  type: "InnerProduct"
  inner_product_param {
    num_output: 64
  }
  param{ lr_mult: 1 decay_mult: 0}
  param{ lr_mult: 1 decay_mult: 0}
}

layer {
  bottom: "rep-boarding-Agent"
  top: "value-boarding-Agent"
  name: "value-boarding-Agent"
  type: "InnerProduct"
  inner_product_param {
    num_output: 42
  }
  param{ lr_mult: 1 decay_mult: 0}
  param{ lr_mult: 1 decay_mult: 0}
}

layer {
  bottom: "rep-boarding-Place"
  top: "value-boarding-Place"
  name: "value-boarding-Place"
  type: "InnerProduct"
  inner_product_param {
    num_output: 50
  }
  param{ lr_mult: 1 decay_mult: 0}
  param{ lr_mult: 1 decay_mult: 0}
}

layer {
  bottom: "rep-boarding-Vehicle"
  top: "value-boarding-Vehicle"
  name: "value-boarding-Vehicle"
  type: "InnerProduct"
  inner_product_param {
    num_output: 47

  }
  param{ lr_mult: 1 decay_mult: 0}
  param{ lr_mult: 1 decay_mult: 0}
}

layer {
  bottom: "rep-boating-Boaters"
  top: "value-boating-Boaters"
  name: "value-boating-Boaters"
  type: "InnerProduct"
  inner_product_param {
    num_output: 30
  }
  param{ lr_mult: 1 decay_mult: 0}
  param{ lr_mult: 1 decay_mult: 0}
}

layer {
  bottom: "rep-boating-Place"
  top: "value-boating-Place"
  name: "value-boating-Place"
  type: "InnerProduct"
  inner_product_param {
    num_output: 15
  }
  param{ lr_mult: 1 decay_mult: 0}
  param{ lr_mult: 1 decay_mult: 0}
}

layer {
  bottom: "rep-boating-Vehicle"
  top: "value-boating-Vehicle"
  name: "value-boating-Vehicle"
  type: "InnerProduct"
  inner_product_param {
    num_output: 32

  }
  param{ lr_mult: 1 decay_mult: 0}
  param{ lr_mult: 1 decay_mult: 0}
}

layer {
  bottom: "rep-bothering-Victim"
  top: "value-bothering-Victim"
  name: "value-bothering-Victim"
  type: "InnerProduct"
  inner_product_param {
    num_output: 64
  }
  param{ lr_mult: 1 decay_mult: 0}
  param{ lr_mult: 1 decay_mult: 0}
}

layer {
  bottom: "rep-bothering-Action"
  top: "value-bothering-Action"
  name: "value-bothering-Action"
  type: "InnerProduct"
  inner_product_param {
    num_output: 164
  }
  param{ lr_mult: 1 decay_mult: 0}
  param{ lr_mult: 1 decay_mult: 0}
}

layer {
  bottom: "rep-bothering-Agent"
  top: "value-bothering-Agent"
  name: "value-bothering-Agent"
  type: "InnerProduct"
  inner_product_param {
    num_output: 81

  }
  param{ lr_mult: 1 decay_mult: 0}
  param{ lr_mult: 1 decay_mult: 0}
}

layer {
  bottom: "rep-bouncing-Place"
  top: "value-bouncing-Place"
  name: "value-bouncing-Place"
  type: "InnerProduct"
  inner_product_param {
    num_output: 66
  }
  param{ lr_mult: 1 decay_mult: 0}
  param{ lr_mult: 1 decay_mult: 0}
}

layer {
  bottom: "rep-bouncing-Item"
  top: "value-bouncing-Item"
  name: "value-bouncing-Item"
  type: "InnerProduct"
  inner_product_param {
    num_output: 65
  }
  param{ lr_mult: 1 decay_mult: 0}
  param{ lr_mult: 1 decay_mult: 0}
}

layer {
  bottom: "rep-bouncing-Agent"
  top: "value-bouncing-Agent"
  name: "value-bouncing-Agent"
  type: "InnerProduct"
  inner_product_param {
    num_output: 61

  }
  param{ lr_mult: 1 decay_mult: 0}
  param{ lr_mult: 1 decay_mult: 0}
}

layer {
  bottom: "rep-bouncing-Surface"
  top: "value-bouncing-Surface"
  name: "value-bouncing-Surface"
  type: "InnerProduct"
  inner_product_param {
    num_output: 92
  }
  param{ lr_mult: 1 decay_mult: 0}
  param{ lr_mult: 1 decay_mult: 0}
}

layer {
  bottom: "rep-bowing-Agent"
  top: "value-bowing-Agent"
  name: "value-bowing-Agent"
  type: "InnerProduct"
  inner_product_param {
    num_output: 73

  }
  param{ lr_mult: 1 decay_mult: 0}
  param{ lr_mult: 1 decay_mult: 0}
}

layer {
  bottom: "rep-bowing-Place"
  top: "value-bowing-Place"
  name: "value-bowing-Place"
  type: "InnerProduct"
  inner_product_param {
    num_output: 115
  }
  param{ lr_mult: 1 decay_mult: 0}
  param{ lr_mult: 1 decay_mult: 0}
}

layer {
  bottom: "rep-braiding-Place"
  top: "value-braiding-Place"
  name: "value-braiding-Place"
  type: "InnerProduct"
  inner_product_param {
    num_output: 25
  }
  param{ lr_mult: 1 decay_mult: 0}
  param{ lr_mult: 1 decay_mult: 0}
}

layer {
  bottom: "rep-braiding-Item"
  top: "value-braiding-Item"
  name: "value-braiding-Item"
  type: "InnerProduct"
  inner_product_param {
    num_output: 28
  }
  param{ lr_mult: 1 decay_mult: 0}
  param{ lr_mult: 1 decay_mult: 0}
}

layer {
  bottom: "rep-braiding-Agent"
  top: "value-braiding-Agent"
  name: "value-braiding-Agent"
  type: "InnerProduct"
  inner_product_param {
    num_output: 20

  }
  param{ lr_mult: 1 decay_mult: 0}
  param{ lr_mult: 1 decay_mult: 0}
}

layer {
  bottom: "rep-branching-Brancher"
  top: "value-branching-Brancher"
  name: "value-branching-Brancher"
  type: "InnerProduct"
  inner_product_param {
    num_output: 94

  }
  param{ lr_mult: 1 decay_mult: 0}
  param{ lr_mult: 1 decay_mult: 0}
}

layer {
  bottom: "rep-branching-Place"
  top: "value-branching-Place"
  name: "value-branching-Place"
  type: "InnerProduct"
  inner_product_param {
    num_output: 79
  }
  param{ lr_mult: 1 decay_mult: 0}
  param{ lr_mult: 1 decay_mult: 0}
}

layer {
  bottom: "rep-brawling-Agent"
  top: "value-brawling-Agent"
  name: "value-brawling-Agent"
  type: "InnerProduct"
  inner_product_param {
    num_output: 50

  }
  param{ lr_mult: 1 decay_mult: 0}
  param{ lr_mult: 1 decay_mult: 0}
}

layer {
  bottom: "rep-brawling-Place"
  top: "value-brawling-Place"
  name: "value-brawling-Place"
  type: "InnerProduct"
  inner_product_param {
    num_output: 84
  }
  param{ lr_mult: 1 decay_mult: 0}
  param{ lr_mult: 1 decay_mult: 0}
}

layer {
  bottom: "rep-breaking-Tool"
  top: "value-breaking-Tool"
  name: "value-breaking-Tool"
  type: "InnerProduct"
  inner_product_param {
    num_output: 72
  }
  param{ lr_mult: 1 decay_mult: 0}
  param{ lr_mult: 1 decay_mult: 0}
}

layer {
  bottom: "rep-breaking-Item"
  top: "value-breaking-Item"
  name: "value-breaking-Item"
  type: "InnerProduct"
  inner_product_param {
    num_output: 113
  }
  param{ lr_mult: 1 decay_mult: 0}
  param{ lr_mult: 1 decay_mult: 0}
}

layer {
  bottom: "rep-breaking-Agent"
  top: "value-breaking-Agent"
  name: "value-breaking-Agent"
  type: "InnerProduct"
  inner_product_param {
    num_output: 61

  }
  param{ lr_mult: 1 decay_mult: 0}
  param{ lr_mult: 1 decay_mult: 0}
}

layer {
  bottom: "rep-breaking-Against"
  top: "value-breaking-Against"
  name: "value-breaking-Against"
  type: "InnerProduct"
  inner_product_param {
    num_output: 73
  }
  param{ lr_mult: 1 decay_mult: 0}
  param{ lr_mult: 1 decay_mult: 0}
}

layer {
  bottom: "rep-brewing-Target"
  top: "value-brewing-Target"
  name: "value-brewing-Target"
  type: "InnerProduct"
  inner_product_param {
    num_output: 31
  }
  param{ lr_mult: 1 decay_mult: 0}
  param{ lr_mult: 1 decay_mult: 0}
}

layer {
  bottom: "rep-brewing-Place"
  top: "value-brewing-Place"
  name: "value-brewing-Place"
  type: "InnerProduct"
  inner_product_param {
    num_output: 41
  }
  param{ lr_mult: 1 decay_mult: 0}
  param{ lr_mult: 1 decay_mult: 0}
}

layer {
  bottom: "rep-brewing-Agent"
  top: "value-brewing-Agent"
  name: "value-brewing-Agent"
  type: "InnerProduct"
  inner_product_param {
    num_output: 32

  }
  param{ lr_mult: 1 decay_mult: 0}
  param{ lr_mult: 1 decay_mult: 0}
}

layer {
  bottom: "rep-browsing-GoalItem"
  top: "value-browsing-GoalItem"
  name: "value-browsing-GoalItem"
  type: "InnerProduct"
  inner_product_param {
    num_output: 92
  }
  param{ lr_mult: 1 decay_mult: 0}
  param{ lr_mult: 1 decay_mult: 0}
}

layer {
  bottom: "rep-browsing-Place"
  top: "value-browsing-Place"
  name: "value-browsing-Place"
  type: "InnerProduct"
  inner_product_param {
    num_output: 57
  }
  param{ lr_mult: 1 decay_mult: 0}
  param{ lr_mult: 1 decay_mult: 0}
}

layer {
  bottom: "rep-browsing-Agent"
  top: "value-browsing-Agent"
  name: "value-browsing-Agent"
  type: "InnerProduct"
  inner_product_param {
    num_output: 21

  }
  param{ lr_mult: 1 decay_mult: 0}
  param{ lr_mult: 1 decay_mult: 0}
}

layer {
  bottom: "rep-brushing-Substance"
  top: "value-brushing-Substance"
  name: "value-brushing-Substance"
  type: "InnerProduct"
  inner_product_param {
    num_output: 43
  }
  param{ lr_mult: 1 decay_mult: 0}
  param{ lr_mult: 1 decay_mult: 0}
}

layer {
  bottom: "rep-brushing-TOOL"
  top: "value-brushing-TOOL"
  name: "value-brushing-TOOL"
  type: "InnerProduct"
  inner_product_param {
    num_output: 28
  }
  param{ lr_mult: 1 decay_mult: 0}
  param{ lr_mult: 1 decay_mult: 0}
}

layer {
  bottom: "rep-brushing-Target"
  top: "value-brushing-Target"
  name: "value-brushing-Target"
  type: "InnerProduct"
  inner_product_param {
    num_output: 164
  }
  param{ lr_mult: 1 decay_mult: 0}
  param{ lr_mult: 1 decay_mult: 0}
}

layer {
  bottom: "rep-brushing-Place"
  top: "value-brushing-Place"
  name: "value-brushing-Place"
  type: "InnerProduct"
  inner_product_param {
    num_output: 89
  }
  param{ lr_mult: 1 decay_mult: 0}
  param{ lr_mult: 1 decay_mult: 0}
}

layer {
  bottom: "rep-brushing-Agent"
  top: "value-brushing-Agent"
  name: "value-brushing-Agent"
  type: "InnerProduct"
  inner_product_param {
    num_output: 50

  }
  param{ lr_mult: 1 decay_mult: 0}
  param{ lr_mult: 1 decay_mult: 0}
}

layer {
  bottom: "rep-bubbling-Agent"
  top: "value-bubbling-Agent"
  name: "value-bubbling-Agent"
  type: "InnerProduct"
  inner_product_param {
    num_output: 135

  }
  param{ lr_mult: 1 decay_mult: 0}
  param{ lr_mult: 1 decay_mult: 0}
}

layer {
  bottom: "rep-bubbling-Place"
  top: "value-bubbling-Place"
  name: "value-bubbling-Place"
  type: "InnerProduct"
  inner_product_param {
    num_output: 91
  }
  param{ lr_mult: 1 decay_mult: 0}
  param{ lr_mult: 1 decay_mult: 0}
}

layer {
  bottom: "rep-buckling-Fastener"
  top: "value-buckling-Fastener"
  name: "value-buckling-Fastener"
  type: "InnerProduct"
  inner_product_param {
    num_output: 19
  }
  param{ lr_mult: 1 decay_mult: 0}
  param{ lr_mult: 1 decay_mult: 0}
}

layer {
  bottom: "rep-buckling-Item"
  top: "value-buckling-Item"
  name: "value-buckling-Item"
  type: "InnerProduct"
  inner_product_param {
    num_output: 50
  }
  param{ lr_mult: 1 decay_mult: 0}
  param{ lr_mult: 1 decay_mult: 0}
}

layer {
  bottom: "rep-buckling-Place"
  top: "value-buckling-Place"
  name: "value-buckling-Place"
  type: "InnerProduct"
  inner_product_param {
    num_output: 30
  }
  param{ lr_mult: 1 decay_mult: 0}
  param{ lr_mult: 1 decay_mult: 0}
}

layer {
  bottom: "rep-buckling-Container"
  top: "value-buckling-Container"
  name: "value-buckling-Container"
  type: "InnerProduct"
  inner_product_param {
    num_output: 49
  }
  param{ lr_mult: 1 decay_mult: 0}
  param{ lr_mult: 1 decay_mult: 0}
}

layer {
  bottom: "rep-buckling-Agent"
  top: "value-buckling-Agent"
  name: "value-buckling-Agent"
  type: "InnerProduct"
  inner_product_param {
    num_output: 37

  }
  param{ lr_mult: 1 decay_mult: 0}
  param{ lr_mult: 1 decay_mult: 0}
}

layer {
  bottom: "rep-building-Tool"
  top: "value-building-Tool"
  name: "value-building-Tool"
  type: "InnerProduct"
  inner_product_param {
    num_output: 115
  }
  param{ lr_mult: 1 decay_mult: 0}
  param{ lr_mult: 1 decay_mult: 0}
}

layer {
  bottom: "rep-building-Place"
  top: "value-building-Place"
  name: "value-building-Place"
  type: "InnerProduct"
  inner_product_param {
    num_output: 55
  }
  param{ lr_mult: 1 decay_mult: 0}
  param{ lr_mult: 1 decay_mult: 0}
}

layer {
  bottom: "rep-building-Components"
  top: "value-building-Components"
  name: "value-building-Components"
  type: "InnerProduct"
  inner_product_param {
    num_output: 109
  }
  param{ lr_mult: 1 decay_mult: 0}
  param{ lr_mult: 1 decay_mult: 0}
}

layer {
  bottom: "rep-building-GoalItem"
  top: "value-building-GoalItem"
  name: "value-building-GoalItem"
  type: "InnerProduct"
  inner_product_param {
    num_output: 133
  }
  param{ lr_mult: 1 decay_mult: 0}
  param{ lr_mult: 1 decay_mult: 0}
}

layer {
  bottom: "rep-building-Agent"
  top: "value-building-Agent"
  name: "value-building-Agent"
  type: "InnerProduct"
  inner_product_param {
    num_output: 45

  }
  param{ lr_mult: 1 decay_mult: 0}
  param{ lr_mult: 1 decay_mult: 0}
}

layer {
  bottom: "rep-bulldozing-Place"
  top: "value-bulldozing-Place"
  name: "value-bulldozing-Place"
  type: "InnerProduct"
  inner_product_param {
    num_output: 49
  }
  param{ lr_mult: 1 decay_mult: 0}
  param{ lr_mult: 1 decay_mult: 0}
}

layer {
  bottom: "rep-bulldozing-Object"
  top: "value-bulldozing-Object"
  name: "value-bulldozing-Object"
  type: "InnerProduct"
  inner_product_param {
    num_output: 51
  }
  param{ lr_mult: 1 decay_mult: 0}
  param{ lr_mult: 1 decay_mult: 0}
}

layer {
  bottom: "rep-bulldozing-Agent"
  top: "value-bulldozing-Agent"
  name: "value-bulldozing-Agent"
  type: "InnerProduct"
  inner_product_param {
    num_output: 14

  }
  param{ lr_mult: 1 decay_mult: 0}
  param{ lr_mult: 1 decay_mult: 0}
}

layer {
  bottom: "rep-burning-Target"
  top: "value-burning-Target"
  name: "value-burning-Target"
  type: "InnerProduct"
  inner_product_param {
    num_output: 166
  }
  param{ lr_mult: 1 decay_mult: 0}
  param{ lr_mult: 1 decay_mult: 0}
}

layer {
  bottom: "rep-burning-Place"
  top: "value-burning-Place"
  name: "value-burning-Place"
  type: "InnerProduct"
  inner_product_param {
    num_output: 81
  }
  param{ lr_mult: 1 decay_mult: 0}
  param{ lr_mult: 1 decay_mult: 0}
}

layer {
  bottom: "rep-burning-Agent"
  top: "value-burning-Agent"
  name: "value-burning-Agent"
  type: "InnerProduct"
  inner_product_param {
    num_output: 50

  }
  param{ lr_mult: 1 decay_mult: 0}
  param{ lr_mult: 1 decay_mult: 0}
}

layer {
  bottom: "rep-burying-Tool"
  top: "value-burying-Tool"
  name: "value-burying-Tool"
  type: "InnerProduct"
  inner_product_param {
    num_output: 40
  }
  param{ lr_mult: 1 decay_mult: 0}
  param{ lr_mult: 1 decay_mult: 0}
}

layer {
  bottom: "rep-burying-Item"
  top: "value-burying-Item"
  name: "value-burying-Item"
  type: "InnerProduct"
  inner_product_param {
    num_output: 94
  }
  param{ lr_mult: 1 decay_mult: 0}
  param{ lr_mult: 1 decay_mult: 0}
}

layer {
  bottom: "rep-burying-Place"
  top: "value-burying-Place"
  name: "value-burying-Place"
  type: "InnerProduct"
  inner_product_param {
    num_output: 48
  }
  param{ lr_mult: 1 decay_mult: 0}
  param{ lr_mult: 1 decay_mult: 0}
}

layer {
  bottom: "rep-burying-Destination"
  top: "value-burying-Destination"
  name: "value-burying-Destination"
  type: "InnerProduct"
  inner_product_param {
    num_output: 34
  }
  param{ lr_mult: 1 decay_mult: 0}
  param{ lr_mult: 1 decay_mult: 0}
}

layer {
  bottom: "rep-burying-Agent"
  top: "value-burying-Agent"
  name: "value-burying-Agent"
  type: "InnerProduct"
  inner_product_param {
    num_output: 44

  }
  param{ lr_mult: 1 decay_mult: 0}
  param{ lr_mult: 1 decay_mult: 0}
}

layer {
  bottom: "rep-buttering-Tool"
  top: "value-buttering-Tool"
  name: "value-buttering-Tool"
  type: "InnerProduct"
  inner_product_param {
    num_output: 42
  }
  param{ lr_mult: 1 decay_mult: 0}
  param{ lr_mult: 1 decay_mult: 0}
}

layer {
  bottom: "rep-buttering-Item"
  top: "value-buttering-Item"
  name: "value-buttering-Item"
  type: "InnerProduct"
  inner_product_param {
    num_output: 65
  }
  param{ lr_mult: 1 decay_mult: 0}
  param{ lr_mult: 1 decay_mult: 0}
}

layer {
  bottom: "rep-buttering-Agent"
  top: "value-buttering-Agent"
  name: "value-buttering-Agent"
  type: "InnerProduct"
  inner_product_param {
    num_output: 22

  }
  param{ lr_mult: 1 decay_mult: 0}
  param{ lr_mult: 1 decay_mult: 0}
}

layer {
  bottom: "rep-buttering-Place"
  top: "value-buttering-Place"
  name: "value-buttering-Place"
  type: "InnerProduct"
  inner_product_param {
    num_output: 39
  }
  param{ lr_mult: 1 decay_mult: 0}
  param{ lr_mult: 1 decay_mult: 0}
}

layer {
  bottom: "rep-butting-Target"
  top: "value-butting-Target"
  name: "value-butting-Target"
  type: "InnerProduct"
  inner_product_param {
    num_output: 81
  }
  param{ lr_mult: 1 decay_mult: 0}
  param{ lr_mult: 1 decay_mult: 0}
}

layer {
  bottom: "rep-butting-Place"
  top: "value-butting-Place"
  name: "value-butting-Place"
  type: "InnerProduct"
  inner_product_param {
    num_output: 71
  }
  param{ lr_mult: 1 decay_mult: 0}
  param{ lr_mult: 1 decay_mult: 0}
}

layer {
  bottom: "rep-butting-Agent"
  top: "value-butting-Agent"
  name: "value-butting-Agent"
  type: "InnerProduct"
  inner_product_param {
    num_output: 69

  }
  param{ lr_mult: 1 decay_mult: 0}
  param{ lr_mult: 1 decay_mult: 0}
}

layer {
  bottom: "rep-buttoning-Place"
  top: "value-buttoning-Place"
  name: "value-buttoning-Place"
  type: "InnerProduct"
  inner_product_param {
    num_output: 31
  }
  param{ lr_mult: 1 decay_mult: 0}
  param{ lr_mult: 1 decay_mult: 0}
}

layer {
  bottom: "rep-buttoning-Item"
  top: "value-buttoning-Item"
  name: "value-buttoning-Item"
  type: "InnerProduct"
  inner_product_param {
    num_output: 47
  }
  param{ lr_mult: 1 decay_mult: 0}
  param{ lr_mult: 1 decay_mult: 0}
}

layer {
  bottom: "rep-buttoning-Agent"
  top: "value-buttoning-Agent"
  name: "value-buttoning-Agent"
  type: "InnerProduct"
  inner_product_param {
    num_output: 25

  }
  param{ lr_mult: 1 decay_mult: 0}
  param{ lr_mult: 1 decay_mult: 0}
}

layer {
  bottom: "rep-buying-Place"
  top: "value-buying-Place"
  name: "value-buying-Place"
  type: "InnerProduct"
  inner_product_param {
    num_output: 66
  }
  param{ lr_mult: 1 decay_mult: 0}
  param{ lr_mult: 1 decay_mult: 0}
}

layer {
  bottom: "rep-buying-Goods"
  top: "value-buying-Goods"
  name: "value-buying-Goods"
  type: "InnerProduct"
  inner_product_param {
    num_output: 117
  }
  param{ lr_mult: 1 decay_mult: 0}
  param{ lr_mult: 1 decay_mult: 0}
}

layer {
  bottom: "rep-buying-Agent"
  top: "value-buying-Agent"
  name: "value-buying-Agent"
  type: "InnerProduct"
  inner_product_param {
    num_output: 35
  }
  param{ lr_mult: 1 decay_mult: 0}
  param{ lr_mult: 1 decay_mult: 0}
}

layer {
  bottom: "rep-buying-Payment"
  top: "value-buying-Payment"
  name: "value-buying-Payment"
  type: "InnerProduct"
  inner_product_param {
    num_output: 25
  }
  param{ lr_mult: 1 decay_mult: 0}
  param{ lr_mult: 1 decay_mult: 0}
}

layer {
  bottom: "rep-buying-Seller"
  top: "value-buying-Seller"
  name: "value-buying-Seller"
  type: "InnerProduct"
  inner_product_param {
    num_output: 29

  }
  param{ lr_mult: 1 decay_mult: 0}
  param{ lr_mult: 1 decay_mult: 0}
}

layer {
  bottom: "rep-calling-Place"
  top: "value-calling-Place"
  name: "value-calling-Place"
  type: "InnerProduct"
  inner_product_param {
    num_output: 52
  }
  param{ lr_mult: 1 decay_mult: 0}
  param{ lr_mult: 1 decay_mult: 0}
}

layer {
  bottom: "rep-calling-Tool"
  top: "value-calling-Tool"
  name: "value-calling-Tool"
  type: "InnerProduct"
  inner_product_param {
    num_output: 11
  }
  param{ lr_mult: 1 decay_mult: 0}
  param{ lr_mult: 1 decay_mult: 0}
}

layer {
  bottom: "rep-calling-Agent"
  top: "value-calling-Agent"
  name: "value-calling-Agent"
  type: "InnerProduct"
  inner_product_param {
    num_output: 34

  }
  param{ lr_mult: 1 decay_mult: 0}
  param{ lr_mult: 1 decay_mult: 0}
}

layer {
  bottom: "rep-calming-Experiencer"
  top: "value-calming-Experiencer"
  name: "value-calming-Experiencer"
  type: "InnerProduct"
  inner_product_param {
    num_output: 25
  }
  param{ lr_mult: 1 decay_mult: 0}
  param{ lr_mult: 1 decay_mult: 0}
}

layer {
  bottom: "rep-calming-Place"
  top: "value-calming-Place"
  name: "value-calming-Place"
  type: "InnerProduct"
  inner_product_param {
    num_output: 66
  }
  param{ lr_mult: 1 decay_mult: 0}
  param{ lr_mult: 1 decay_mult: 0}
}

layer {
  bottom: "rep-calming-Agent"
  top: "value-calming-Agent"
  name: "value-calming-Agent"
  type: "InnerProduct"
  inner_product_param {
    num_output: 43

  }
  param{ lr_mult: 1 decay_mult: 0}
  param{ lr_mult: 1 decay_mult: 0}
}

layer {
  bottom: "rep-camouflaging-HidingItem"
  top: "value-camouflaging-HidingItem"
  name: "value-camouflaging-HidingItem"
  type: "InnerProduct"
  inner_product_param {
    num_output: 56
  }
  param{ lr_mult: 1 decay_mult: 0}
  param{ lr_mult: 1 decay_mult: 0}
}

layer {
  bottom: "rep-camouflaging-Place"
  top: "value-camouflaging-Place"
  name: "value-camouflaging-Place"
  type: "InnerProduct"
  inner_product_param {
    num_output: 50
  }
  param{ lr_mult: 1 decay_mult: 0}
  param{ lr_mult: 1 decay_mult: 0}
}

layer {
  bottom: "rep-camouflaging-Agent"
  top: "value-camouflaging-Agent"
  name: "value-camouflaging-Agent"
  type: "InnerProduct"
  inner_product_param {
    num_output: 86

  }
  param{ lr_mult: 1 decay_mult: 0}
  param{ lr_mult: 1 decay_mult: 0}
}

layer {
  bottom: "rep-camping-Place"
  top: "value-camping-Place"
  name: "value-camping-Place"
  type: "InnerProduct"
  inner_product_param {
    num_output: 54
  }
  param{ lr_mult: 1 decay_mult: 0}
  param{ lr_mult: 1 decay_mult: 0}
}

layer {
  bottom: "rep-camping-Shelter"
  top: "value-camping-Shelter"
  name: "value-camping-Shelter"
  type: "InnerProduct"
  inner_product_param {
    num_output: 26
  }
  param{ lr_mult: 1 decay_mult: 0}
  param{ lr_mult: 1 decay_mult: 0}
}

layer {
  bottom: "rep-camping-Agent"
  top: "value-camping-Agent"
  name: "value-camping-Agent"
  type: "InnerProduct"
  inner_product_param {
    num_output: 37

  }
  param{ lr_mult: 1 decay_mult: 0}
  param{ lr_mult: 1 decay_mult: 0}
}

layer {
  bottom: "rep-caressing-RecipientPart"
  top: "value-caressing-RecipientPart"
  name: "value-caressing-RecipientPart"
  type: "InnerProduct"
  inner_product_param {
    num_output: 53
  }
  param{ lr_mult: 1 decay_mult: 0}
  param{ lr_mult: 1 decay_mult: 0}
}

layer {
  bottom: "rep-caressing-Place"
  top: "value-caressing-Place"
  name: "value-caressing-Place"
  type: "InnerProduct"
  inner_product_param {
    num_output: 79
  }
  param{ lr_mult: 1 decay_mult: 0}
  param{ lr_mult: 1 decay_mult: 0}
}

layer {
  bottom: "rep-caressing-Agent"
  top: "value-caressing-Agent"
  name: "value-caressing-Agent"
  type: "InnerProduct"
  inner_product_param {
    num_output: 43

  }
  param{ lr_mult: 1 decay_mult: 0}
  param{ lr_mult: 1 decay_mult: 0}
}

layer {
  bottom: "rep-caressing-Recipient"
  top: "value-caressing-Recipient"
  name: "value-caressing-Recipient"
  type: "InnerProduct"
  inner_product_param {
    num_output: 64
  }
  param{ lr_mult: 1 decay_mult: 0}
  param{ lr_mult: 1 decay_mult: 0}
}

layer {
  bottom: "rep-carrying-Place"
  top: "value-carrying-Place"
  name: "value-carrying-Place"
  type: "InnerProduct"
  inner_product_param {
    num_output: 102
  }
  param{ lr_mult: 1 decay_mult: 0}
  param{ lr_mult: 1 decay_mult: 0}
}

layer {
  bottom: "rep-carrying-Item"
  top: "value-carrying-Item"
  name: "value-carrying-Item"
  type: "InnerProduct"
  inner_product_param {
    num_output: 214
  }
  param{ lr_mult: 1 decay_mult: 0}
  param{ lr_mult: 1 decay_mult: 0}
}

layer {
  bottom: "rep-carrying-AgentPart"
  top: "value-carrying-AgentPart"
  name: "value-carrying-AgentPart"
  type: "InnerProduct"
  inner_product_param {
    num_output: 50

  }
  param{ lr_mult: 1 decay_mult: 0}
  param{ lr_mult: 1 decay_mult: 0}
}

layer {
  bottom: "rep-carrying-Agent"
  top: "value-carrying-Agent"
  name: "value-carrying-Agent"
  type: "InnerProduct"
  inner_product_param {
    num_output: 56
  }
  param{ lr_mult: 1 decay_mult: 0}
  param{ lr_mult: 1 decay_mult: 0}
}

layer {
  bottom: "rep-carting-Tool"
  top: "value-carting-Tool"
  name: "value-carting-Tool"
  type: "InnerProduct"
  inner_product_param {
    num_output: 62
  }
  param{ lr_mult: 1 decay_mult: 0}
  param{ lr_mult: 1 decay_mult: 0}
}

layer {
  bottom: "rep-carting-Item"
  top: "value-carting-Item"
  name: "value-carting-Item"
  type: "InnerProduct"
  inner_product_param {
    num_output: 162
  }
  param{ lr_mult: 1 decay_mult: 0}
  param{ lr_mult: 1 decay_mult: 0}
}

layer {
  bottom: "rep-carting-Agent"
  top: "value-carting-Agent"
  name: "value-carting-Agent"
  type: "InnerProduct"
  inner_product_param {
    num_output: 76

  }
  param{ lr_mult: 1 decay_mult: 0}
  param{ lr_mult: 1 decay_mult: 0}
}

layer {
  bottom: "rep-carting-Place"
  top: "value-carting-Place"
  name: "value-carting-Place"
  type: "InnerProduct"
  inner_product_param {
    num_output: 84
  }
  param{ lr_mult: 1 decay_mult: 0}
  param{ lr_mult: 1 decay_mult: 0}
}

layer {
  bottom: "rep-carving-SUBSTANCE"
  top: "value-carving-SUBSTANCE"
  name: "value-carving-SUBSTANCE"
  type: "InnerProduct"
  inner_product_param {
    num_output: 78
  }
  param{ lr_mult: 1 decay_mult: 0}
  param{ lr_mult: 1 decay_mult: 0}
}

layer {
  bottom: "rep-carving-Tool"
  top: "value-carving-Tool"
  name: "value-carving-Tool"
  type: "InnerProduct"
  inner_product_param {
    num_output: 57
  }
  param{ lr_mult: 1 decay_mult: 0}
  param{ lr_mult: 1 decay_mult: 0}
}

layer {
  bottom: "rep-carving-Agent"
  top: "value-carving-Agent"
  name: "value-carving-Agent"
  type: "InnerProduct"
  inner_product_param {
    num_output: 25

  }
  param{ lr_mult: 1 decay_mult: 0}
  param{ lr_mult: 1 decay_mult: 0}
}

layer {
  bottom: "rep-carving-Place"
  top: "value-carving-Place"
  name: "value-carving-Place"
  type: "InnerProduct"
  inner_product_param {
    num_output: 48
  }
  param{ lr_mult: 1 decay_mult: 0}
  param{ lr_mult: 1 decay_mult: 0}
}

layer {
  bottom: "rep-catching-CaughtItem"
  top: "value-catching-CaughtItem"
  name: "value-catching-CaughtItem"
  type: "InnerProduct"
  inner_product_param {
    num_output: 96
  }
  param{ lr_mult: 1 decay_mult: 0}
  param{ lr_mult: 1 decay_mult: 0}
}

layer {
  bottom: "rep-catching-Tool"
  top: "value-catching-Tool"
  name: "value-catching-Tool"
  type: "InnerProduct"
  inner_product_param {
    num_output: 67
  }
  param{ lr_mult: 1 decay_mult: 0}
  param{ lr_mult: 1 decay_mult: 0}
}

layer {
  bottom: "rep-catching-Agent"
  top: "value-catching-Agent"
  name: "value-catching-Agent"
  type: "InnerProduct"
  inner_product_param {
    num_output: 93

  }
  param{ lr_mult: 1 decay_mult: 0}
  param{ lr_mult: 1 decay_mult: 0}
}

layer {
  bottom: "rep-catching-Place"
  top: "value-catching-Place"
  name: "value-catching-Place"
  type: "InnerProduct"
  inner_product_param {
    num_output: 91
  }
  param{ lr_mult: 1 decay_mult: 0}
  param{ lr_mult: 1 decay_mult: 0}
}

layer {
  bottom: "rep-celebrating-Place"
  top: "value-celebrating-Place"
  name: "value-celebrating-Place"
  type: "InnerProduct"
  inner_product_param {
    num_output: 100
  }
  param{ lr_mult: 1 decay_mult: 0}
  param{ lr_mult: 1 decay_mult: 0}
}

layer {
  bottom: "rep-celebrating-Occasion"
  top: "value-celebrating-Occasion"
  name: "value-celebrating-Occasion"
  type: "InnerProduct"
  inner_product_param {
    num_output: 118
  }
  param{ lr_mult: 1 decay_mult: 0}
  param{ lr_mult: 1 decay_mult: 0}
}

layer {
  bottom: "rep-celebrating-Agent"
  top: "value-celebrating-Agent"
  name: "value-celebrating-Agent"
  type: "InnerProduct"
  inner_product_param {
    num_output: 83

  }
  param{ lr_mult: 1 decay_mult: 0}
  param{ lr_mult: 1 decay_mult: 0}
}

layer {
  bottom: "rep-chasing-Chasee"
  top: "value-chasing-Chasee"
  name: "value-chasing-Chasee"
  type: "InnerProduct"
  inner_product_param {
    num_output: 156
  }
  param{ lr_mult: 1 decay_mult: 0}
  param{ lr_mult: 1 decay_mult: 0}
}

layer {
  bottom: "rep-chasing-Place"
  top: "value-chasing-Place"
  name: "value-chasing-Place"
  type: "InnerProduct"
  inner_product_param {
    num_output: 112
  }
  param{ lr_mult: 1 decay_mult: 0}
  param{ lr_mult: 1 decay_mult: 0}
}

layer {
  bottom: "rep-chasing-Agent"
  top: "value-chasing-Agent"
  name: "value-chasing-Agent"
  type: "InnerProduct"
  inner_product_param {
    num_output: 118

  }
  param{ lr_mult: 1 decay_mult: 0}
  param{ lr_mult: 1 decay_mult: 0}
}

layer {
  bottom: "rep-checking-Tool"
  top: "value-checking-Tool"
  name: "value-checking-Tool"
  type: "InnerProduct"
  inner_product_param {
    num_output: 111
  }
  param{ lr_mult: 1 decay_mult: 0}
  param{ lr_mult: 1 decay_mult: 0}
}

layer {
  bottom: "rep-checking-Place"
  top: "value-checking-Place"
  name: "value-checking-Place"
  type: "InnerProduct"
  inner_product_param {
    num_output: 84
  }
  param{ lr_mult: 1 decay_mult: 0}
  param{ lr_mult: 1 decay_mult: 0}
}

layer {
  bottom: "rep-checking-Aspect"
  top: "value-checking-Aspect"
  name: "value-checking-Aspect"
  type: "InnerProduct"
  inner_product_param {
    num_output: 167
  }
  param{ lr_mult: 1 decay_mult: 0}
  param{ lr_mult: 1 decay_mult: 0}
}

layer {
  bottom: "rep-checking-Patient"
  top: "value-checking-Patient"
  name: "value-checking-Patient"
  type: "InnerProduct"
  inner_product_param {
    num_output: 155
  }
  param{ lr_mult: 1 decay_mult: 0}
  param{ lr_mult: 1 decay_mult: 0}
}

layer {
  bottom: "rep-checking-Agent"
  top: "value-checking-Agent"
  name: "value-checking-Agent"
  type: "InnerProduct"
  inner_product_param {
    num_output: 43

  }
  param{ lr_mult: 1 decay_mult: 0}
  param{ lr_mult: 1 decay_mult: 0}
}

layer {
  bottom: "rep-cheering-Agent"
  top: "value-cheering-Agent"
  name: "value-cheering-Agent"
  type: "InnerProduct"
  inner_product_param {
    num_output: 38

  }
  param{ lr_mult: 1 decay_mult: 0}
  param{ lr_mult: 1 decay_mult: 0}
}

layer {
  bottom: "rep-cheering-Place"
  top: "value-cheering-Place"
  name: "value-cheering-Place"
  type: "InnerProduct"
  inner_product_param {
    num_output: 76
  }
  param{ lr_mult: 1 decay_mult: 0}
  param{ lr_mult: 1 decay_mult: 0}
}

layer {
  bottom: "rep-cheerleading-Place"
  top: "value-cheerleading-Place"
  name: "value-cheerleading-Place"
  type: "InnerProduct"
  inner_product_param {
    num_output: 50
  }
  param{ lr_mult: 1 decay_mult: 0}
  param{ lr_mult: 1 decay_mult: 0}
}

layer {
  bottom: "rep-cheerleading-Supported"
  top: "value-cheerleading-Supported"
  name: "value-cheerleading-Supported"
  type: "InnerProduct"
  inner_product_param {
    num_output: 33
  }
  param{ lr_mult: 1 decay_mult: 0}
  param{ lr_mult: 1 decay_mult: 0}
}

layer {
  bottom: "rep-cheerleading-Agent"
  top: "value-cheerleading-Agent"
  name: "value-cheerleading-Agent"
  type: "InnerProduct"
  inner_product_param {
    num_output: 14

  }
  param{ lr_mult: 1 decay_mult: 0}
  param{ lr_mult: 1 decay_mult: 0}
}

layer {
  bottom: "rep-chewing-Place"
  top: "value-chewing-Place"
  name: "value-chewing-Place"
  type: "InnerProduct"
  inner_product_param {
    num_output: 67
  }
  param{ lr_mult: 1 decay_mult: 0}
  param{ lr_mult: 1 decay_mult: 0}
}

layer {
  bottom: "rep-chewing-Item"
  top: "value-chewing-Item"
  name: "value-chewing-Item"
  type: "InnerProduct"
  inner_product_param {
    num_output: 179
  }
  param{ lr_mult: 1 decay_mult: 0}
  param{ lr_mult: 1 decay_mult: 0}
}

layer {
  bottom: "rep-chewing-Agent"
  top: "value-chewing-Agent"
  name: "value-chewing-Agent"
  type: "InnerProduct"
  inner_product_param {
    num_output: 82

  }
  param{ lr_mult: 1 decay_mult: 0}
  param{ lr_mult: 1 decay_mult: 0}
}

layer {
  bottom: "rep-chiseling-Place"
  top: "value-chiseling-Place"
  name: "value-chiseling-Place"
  type: "InnerProduct"
  inner_product_param {
    num_output: 45
  }
  param{ lr_mult: 1 decay_mult: 0}
  param{ lr_mult: 1 decay_mult: 0}
}

layer {
  bottom: "rep-chiseling-Item"
  top: "value-chiseling-Item"
  name: "value-chiseling-Item"
  type: "InnerProduct"
  inner_product_param {
    num_output: 69
  }
  param{ lr_mult: 1 decay_mult: 0}
  param{ lr_mult: 1 decay_mult: 0}
}

layer {
  bottom: "rep-chiseling-Agent"
  top: "value-chiseling-Agent"
  name: "value-chiseling-Agent"
  type: "InnerProduct"
  inner_product_param {
    num_output: 24

  }
  param{ lr_mult: 1 decay_mult: 0}
  param{ lr_mult: 1 decay_mult: 0}
}

layer {
  bottom: "rep-chopping-Tool"
  top: "value-chopping-Tool"
  name: "value-chopping-Tool"
  type: "InnerProduct"
  inner_product_param {
    num_output: 26
  }
  param{ lr_mult: 1 decay_mult: 0}
  param{ lr_mult: 1 decay_mult: 0}
}

layer {
  bottom: "rep-chopping-Item"
  top: "value-chopping-Item"
  name: "value-chopping-Item"
  type: "InnerProduct"
  inner_product_param {
    num_output: 87
  }
  param{ lr_mult: 1 decay_mult: 0}
  param{ lr_mult: 1 decay_mult: 0}
}

layer {
  bottom: "rep-chopping-Agent"
  top: "value-chopping-Agent"
  name: "value-chopping-Agent"
  type: "InnerProduct"
  inner_product_param {
    num_output: 22

  }
  param{ lr_mult: 1 decay_mult: 0}
  param{ lr_mult: 1 decay_mult: 0}
}

layer {
  bottom: "rep-chopping-Place"
  top: "value-chopping-Place"
  name: "value-chopping-Place"
  type: "InnerProduct"
  inner_product_param {
    num_output: 42
  }
  param{ lr_mult: 1 decay_mult: 0}
  param{ lr_mult: 1 decay_mult: 0}
}

layer {
  bottom: "rep-circling-Center"
  top: "value-circling-Center"
  name: "value-circling-Center"
  type: "InnerProduct"
  inner_product_param {
    num_output: 86
  }
  param{ lr_mult: 1 decay_mult: 0}
  param{ lr_mult: 1 decay_mult: 0}
}

layer {
  bottom: "rep-circling-Place"
  top: "value-circling-Place"
  name: "value-circling-Place"
  type: "InnerProduct"
  inner_product_param {
    num_output: 61
  }
  param{ lr_mult: 1 decay_mult: 0}
  param{ lr_mult: 1 decay_mult: 0}
}

layer {
  bottom: "rep-circling-Agent"
  top: "value-circling-Agent"
  name: "value-circling-Agent"
  type: "InnerProduct"
  inner_product_param {
    num_output: 94

  }
  param{ lr_mult: 1 decay_mult: 0}
  param{ lr_mult: 1 decay_mult: 0}
}

layer {
  bottom: "rep-clapping-Place"
  top: "value-clapping-Place"
  name: "value-clapping-Place"
  type: "InnerProduct"
  inner_product_param {
    num_output: 79
  }
  param{ lr_mult: 1 decay_mult: 0}
  param{ lr_mult: 1 decay_mult: 0}
}

layer {
  bottom: "rep-clapping-AgentPart"
  top: "value-clapping-AgentPart"
  name: "value-clapping-AgentPart"
  type: "InnerProduct"
  inner_product_param {
    num_output: 8
  }
  param{ lr_mult: 1 decay_mult: 0}
  param{ lr_mult: 1 decay_mult: 0}
}

layer {
  bottom: "rep-clapping-Agent"
  top: "value-clapping-Agent"
  name: "value-clapping-Agent"
  type: "InnerProduct"
  inner_product_param {
    num_output: 72

  }
  param{ lr_mult: 1 decay_mult: 0}
  param{ lr_mult: 1 decay_mult: 0}
}

layer {
  bottom: "rep-clawing-Victim"
  top: "value-clawing-Victim"
  name: "value-clawing-Victim"
  type: "InnerProduct"
  inner_product_param {
    num_output: 155
  }
  param{ lr_mult: 1 decay_mult: 0}
  param{ lr_mult: 1 decay_mult: 0}
}

layer {
  bottom: "rep-clawing-Place"
  top: "value-clawing-Place"
  name: "value-clawing-Place"
  type: "InnerProduct"
  inner_product_param {
    num_output: 80
  }
  param{ lr_mult: 1 decay_mult: 0}
  param{ lr_mult: 1 decay_mult: 0}
}

layer {
  bottom: "rep-clawing-Agent"
  top: "value-clawing-Agent"
  name: "value-clawing-Agent"
  type: "InnerProduct"
  inner_product_param {
    num_output: 59

  }
  param{ lr_mult: 1 decay_mult: 0}
  param{ lr_mult: 1 decay_mult: 0}
}

layer {
  bottom: "rep-cleaning-Tool"
  top: "value-cleaning-Tool"
  name: "value-cleaning-Tool"
  type: "InnerProduct"
  inner_product_param {
    num_output: 131
  }
  param{ lr_mult: 1 decay_mult: 0}
  param{ lr_mult: 1 decay_mult: 0}
}

layer {
  bottom: "rep-cleaning-Source"
  top: "value-cleaning-Source"
  name: "value-cleaning-Source"
  type: "InnerProduct"
  inner_product_param {
    num_output: 273
  }
  param{ lr_mult: 1 decay_mult: 0}
  param{ lr_mult: 1 decay_mult: 0}
}

layer {
  bottom: "rep-cleaning-Agent"
  top: "value-cleaning-Agent"
  name: "value-cleaning-Agent"
  type: "InnerProduct"
  inner_product_param {
    num_output: 81

  }
  param{ lr_mult: 1 decay_mult: 0}
  param{ lr_mult: 1 decay_mult: 0}
}

layer {
  bottom: "rep-cleaning-Place"
  top: "value-cleaning-Place"
  name: "value-cleaning-Place"
  type: "InnerProduct"
  inner_product_param {
    num_output: 160
  }
  param{ lr_mult: 1 decay_mult: 0}
  param{ lr_mult: 1 decay_mult: 0}
}

layer {
  bottom: "rep-clearing-Tool"
  top: "value-clearing-Tool"
  name: "value-clearing-Tool"
  type: "InnerProduct"
  inner_product_param {
    num_output: 90
  }
  param{ lr_mult: 1 decay_mult: 0}
  param{ lr_mult: 1 decay_mult: 0}
}

layer {
  bottom: "rep-clearing-Item"
  top: "value-clearing-Item"
  name: "value-clearing-Item"
  type: "InnerProduct"
  inner_product_param {
    num_output: 91
  }
  param{ lr_mult: 1 decay_mult: 0}
  param{ lr_mult: 1 decay_mult: 0}
}

layer {
  bottom: "rep-clearing-Agent"
  top: "value-clearing-Agent"
  name: "value-clearing-Agent"
  type: "InnerProduct"
  inner_product_param {
    num_output: 45
  }
  param{ lr_mult: 1 decay_mult: 0}
  param{ lr_mult: 1 decay_mult: 0}
}

layer {
  bottom: "rep-clearing-Place"
  top: "value-clearing-Place"
  name: "value-clearing-Place"
  type: "InnerProduct"
  inner_product_param {
    num_output: 72
  }
  param{ lr_mult: 1 decay_mult: 0}
  param{ lr_mult: 1 decay_mult: 0}
}

layer {
  bottom: "rep-clearing-Source"
  top: "value-clearing-Source"
  name: "value-clearing-Source"
  type: "InnerProduct"
  inner_product_param {
    num_output: 108

  }
  param{ lr_mult: 1 decay_mult: 0}
  param{ lr_mult: 1 decay_mult: 0}
}

layer {
  bottom: "rep-clenching-Place"
  top: "value-clenching-Place"
  name: "value-clenching-Place"
  type: "InnerProduct"
  inner_product_param {
    num_output: 38
  }
  param{ lr_mult: 1 decay_mult: 0}
  param{ lr_mult: 1 decay_mult: 0}
}

layer {
  bottom: "rep-clenching-Item"
  top: "value-clenching-Item"
  name: "value-clenching-Item"
  type: "InnerProduct"
  inner_product_param {
    num_output: 35
  }
  param{ lr_mult: 1 decay_mult: 0}
  param{ lr_mult: 1 decay_mult: 0}
}

layer {
  bottom: "rep-clenching-AgentPart"
  top: "value-clenching-AgentPart"
  name: "value-clenching-AgentPart"
  type: "InnerProduct"
  inner_product_param {
    num_output: 14

  }
  param{ lr_mult: 1 decay_mult: 0}
  param{ lr_mult: 1 decay_mult: 0}
}

layer {
  bottom: "rep-clenching-Agent"
  top: "value-clenching-Agent"
  name: "value-clenching-Agent"
  type: "InnerProduct"
  inner_product_param {
    num_output: 40
  }
  param{ lr_mult: 1 decay_mult: 0}
  param{ lr_mult: 1 decay_mult: 0}
}

layer {
  bottom: "rep-climbing-Obstacle"
  top: "value-climbing-Obstacle"
  name: "value-climbing-Obstacle"
  type: "InnerProduct"
  inner_product_param {
    num_output: 64
  }
  param{ lr_mult: 1 decay_mult: 0}
  param{ lr_mult: 1 decay_mult: 0}
}

layer {
  bottom: "rep-climbing-Tool"
  top: "value-climbing-Tool"
  name: "value-climbing-Tool"
  type: "InnerProduct"
  inner_product_param {
    num_output: 54
  }
  param{ lr_mult: 1 decay_mult: 0}
  param{ lr_mult: 1 decay_mult: 0}
}

layer {
  bottom: "rep-climbing-Agent"
  top: "value-climbing-Agent"
  name: "value-climbing-Agent"
  type: "InnerProduct"
  inner_product_param {
    num_output: 49

  }
  param{ lr_mult: 1 decay_mult: 0}
  param{ lr_mult: 1 decay_mult: 0}
}

layer {
  bottom: "rep-climbing-Place"
  top: "value-climbing-Place"
  name: "value-climbing-Place"
  type: "InnerProduct"
  inner_product_param {
    num_output: 47
  }
  param{ lr_mult: 1 decay_mult: 0}
  param{ lr_mult: 1 decay_mult: 0}
}

layer {
  bottom: "rep-clinging-Place"
  top: "value-clinging-Place"
  name: "value-clinging-Place"
  type: "InnerProduct"
  inner_product_param {
    num_output: 88
  }
  param{ lr_mult: 1 decay_mult: 0}
  param{ lr_mult: 1 decay_mult: 0}
}

layer {
  bottom: "rep-clinging-ClungTo"
  top: "value-clinging-ClungTo"
  name: "value-clinging-ClungTo"
  type: "InnerProduct"
  inner_product_param {
    num_output: 155
  }
  param{ lr_mult: 1 decay_mult: 0}
  param{ lr_mult: 1 decay_mult: 0}
}

layer {
  bottom: "rep-clinging-Agent"
  top: "value-clinging-Agent"
  name: "value-clinging-Agent"
  type: "InnerProduct"
  inner_product_param {
    num_output: 110

  }
  param{ lr_mult: 1 decay_mult: 0}
  param{ lr_mult: 1 decay_mult: 0}
}

layer {
  bottom: "rep-clipping-Tool"
  top: "value-clipping-Tool"
  name: "value-clipping-Tool"
  type: "InnerProduct"
  inner_product_param {
    num_output: 33
  }
  param{ lr_mult: 1 decay_mult: 0}
  param{ lr_mult: 1 decay_mult: 0}
}

layer {
  bottom: "rep-clipping-Item"
  top: "value-clipping-Item"
  name: "value-clipping-Item"
  type: "InnerProduct"
  inner_product_param {
    num_output: 67
  }
  param{ lr_mult: 1 decay_mult: 0}
  param{ lr_mult: 1 decay_mult: 0}
}

layer {
  bottom: "rep-clipping-Agent"
  top: "value-clipping-Agent"
  name: "value-clipping-Agent"
  type: "InnerProduct"
  inner_product_param {
    num_output: 26
  }
  param{ lr_mult: 1 decay_mult: 0}
  param{ lr_mult: 1 decay_mult: 0}
}

layer {
  bottom: "rep-clipping-Place"
  top: "value-clipping-Place"
  name: "value-clipping-Place"
  type: "InnerProduct"
  inner_product_param {
    num_output: 60
  }
  param{ lr_mult: 1 decay_mult: 0}
  param{ lr_mult: 1 decay_mult: 0}
}

layer {
  bottom: "rep-clipping-Source"
  top: "value-clipping-Source"
  name: "value-clipping-Source"
  type: "InnerProduct"
  inner_product_param {
    num_output: 89

  }
  param{ lr_mult: 1 decay_mult: 0}
  param{ lr_mult: 1 decay_mult: 0}
}

layer {
  bottom: "rep-coaching-Place"
  top: "value-coaching-Place"
  name: "value-coaching-Place"
  type: "InnerProduct"
  inner_product_param {
    num_output: 48
  }
  param{ lr_mult: 1 decay_mult: 0}
  param{ lr_mult: 1 decay_mult: 0}
}

layer {
  bottom: "rep-coaching-Skill"
  top: "value-coaching-Skill"
  name: "value-coaching-Skill"
  type: "InnerProduct"
  inner_product_param {
    num_output: 73
  }
  param{ lr_mult: 1 decay_mult: 0}
  param{ lr_mult: 1 decay_mult: 0}
}

layer {
  bottom: "rep-coaching-Agent"
  top: "value-coaching-Agent"
  name: "value-coaching-Agent"
  type: "InnerProduct"
  inner_product_param {
    num_output: 25

  }
  param{ lr_mult: 1 decay_mult: 0}
  param{ lr_mult: 1 decay_mult: 0}
}

layer {
  bottom: "rep-coaching-Student"
  top: "value-coaching-Student"
  name: "value-coaching-Student"
  type: "InnerProduct"
  inner_product_param {
    num_output: 46
  }
  param{ lr_mult: 1 decay_mult: 0}
  param{ lr_mult: 1 decay_mult: 0}
}

layer {
  bottom: "rep-colliding-Place"
  top: "value-colliding-Place"
  name: "value-colliding-Place"
  type: "InnerProduct"
  inner_product_param {
    num_output: 74
  }
  param{ lr_mult: 1 decay_mult: 0}
  param{ lr_mult: 1 decay_mult: 0}
}

layer {
  bottom: "rep-colliding-Item"
  top: "value-colliding-Item"
  name: "value-colliding-Item"
  type: "InnerProduct"
  inner_product_param {
    num_output: 99
  }
  param{ lr_mult: 1 decay_mult: 0}
  param{ lr_mult: 1 decay_mult: 0}
}

layer {
  bottom: "rep-colliding-Agent"
  top: "value-colliding-Agent"
  name: "value-colliding-Agent"
  type: "InnerProduct"
  inner_product_param {
    num_output: 59

  }
  param{ lr_mult: 1 decay_mult: 0}
  param{ lr_mult: 1 decay_mult: 0}
}

layer {
  bottom: "rep-coloring-Tool"
  top: "value-coloring-Tool"
  name: "value-coloring-Tool"
  type: "InnerProduct"
  inner_product_param {
    num_output: 31
  }
  param{ lr_mult: 1 decay_mult: 0}
  param{ lr_mult: 1 decay_mult: 0}
}

layer {
  bottom: "rep-coloring-Item"
  top: "value-coloring-Item"
  name: "value-coloring-Item"
  type: "InnerProduct"
  inner_product_param {
    num_output: 67
  }
  param{ lr_mult: 1 decay_mult: 0}
  param{ lr_mult: 1 decay_mult: 0}
}

layer {
  bottom: "rep-coloring-Agent"
  top: "value-coloring-Agent"
  name: "value-coloring-Agent"
  type: "InnerProduct"
  inner_product_param {
    num_output: 24

  }
  param{ lr_mult: 1 decay_mult: 0}
  param{ lr_mult: 1 decay_mult: 0}
}

layer {
  bottom: "rep-coloring-Place"
  top: "value-coloring-Place"
  name: "value-coloring-Place"
  type: "InnerProduct"
  inner_product_param {
    num_output: 45
  }
  param{ lr_mult: 1 decay_mult: 0}
  param{ lr_mult: 1 decay_mult: 0}
}

layer {
  bottom: "rep-combing-Place"
  top: "value-combing-Place"
  name: "value-combing-Place"
  type: "InnerProduct"
  inner_product_param {
    num_output: 34
  }
  param{ lr_mult: 1 decay_mult: 0}
  param{ lr_mult: 1 decay_mult: 0}
}

layer {
  bottom: "rep-combing-Tool"
  top: "value-combing-Tool"
  name: "value-combing-Tool"
  type: "InnerProduct"
  inner_product_param {
    num_output: 19
  }
  param{ lr_mult: 1 decay_mult: 0}
  param{ lr_mult: 1 decay_mult: 0}
}

layer {
  bottom: "rep-combing-Agent"
  top: "value-combing-Agent"
  name: "value-combing-Agent"
  type: "InnerProduct"
  inner_product_param {
    num_output: 17

  }
  param{ lr_mult: 1 decay_mult: 0}
  param{ lr_mult: 1 decay_mult: 0}
}

layer {
  bottom: "rep-combing-Target"
  top: "value-combing-Target"
  name: "value-combing-Target"
  type: "InnerProduct"
  inner_product_param {
    num_output: 19
  }
  param{ lr_mult: 1 decay_mult: 0}
  param{ lr_mult: 1 decay_mult: 0}
}

layer {
  bottom: "rep-communicating-Adressee"
  top: "value-communicating-Adressee"
  name: "value-communicating-Adressee"
  type: "InnerProduct"
  inner_product_param {
    num_output: 61
  }
  param{ lr_mult: 1 decay_mult: 0}
  param{ lr_mult: 1 decay_mult: 0}
}

layer {
  bottom: "rep-communicating-Place"
  top: "value-communicating-Place"
  name: "value-communicating-Place"
  type: "InnerProduct"
  inner_product_param {
    num_output: 99
  }
  param{ lr_mult: 1 decay_mult: 0}
  param{ lr_mult: 1 decay_mult: 0}
}

layer {
  bottom: "rep-communicating-Agent"
  top: "value-communicating-Agent"
  name: "value-communicating-Agent"
  type: "InnerProduct"
  inner_product_param {
    num_output: 50

  }
  param{ lr_mult: 1 decay_mult: 0}
  param{ lr_mult: 1 decay_mult: 0}
}

layer {
  bottom: "rep-commuting-Place"
  top: "value-commuting-Place"
  name: "value-commuting-Place"
  type: "InnerProduct"
  inner_product_param {
    num_output: 43
  }
  param{ lr_mult: 1 decay_mult: 0}
  param{ lr_mult: 1 decay_mult: 0}
}

layer {
  bottom: "rep-commuting-Traveler"
  top: "value-commuting-Traveler"
  name: "value-commuting-Traveler"
  type: "InnerProduct"
  inner_product_param {
    num_output: 19
  }
  param{ lr_mult: 1 decay_mult: 0}
  param{ lr_mult: 1 decay_mult: 0}
}

layer {
  bottom: "rep-commuting-Vehicle"
  top: "value-commuting-Vehicle"
  name: "value-commuting-Vehicle"
  type: "InnerProduct"
  inner_product_param {
    num_output: 24

  }
  param{ lr_mult: 1 decay_mult: 0}
  param{ lr_mult: 1 decay_mult: 0}
}

layer {
  bottom: "rep-competing-Competition"
  top: "value-competing-Competition"
  name: "value-competing-Competition"
  type: "InnerProduct"
  inner_product_param {
    num_output: 130
  }
  param{ lr_mult: 1 decay_mult: 0}
  param{ lr_mult: 1 decay_mult: 0}
}

layer {
  bottom: "rep-competing-Place"
  top: "value-competing-Place"
  name: "value-competing-Place"
  type: "InnerProduct"
  inner_product_param {
    num_output: 77
  }
  param{ lr_mult: 1 decay_mult: 0}
  param{ lr_mult: 1 decay_mult: 0}
}

layer {
  bottom: "rep-competing-Agent"
  top: "value-competing-Agent"
  name: "value-competing-Agent"
  type: "InnerProduct"
  inner_product_param {
    num_output: 89

  }
  param{ lr_mult: 1 decay_mult: 0}
  param{ lr_mult: 1 decay_mult: 0}
}

layer {
  bottom: "rep-complaining-Place"
  top: "value-complaining-Place"
  name: "value-complaining-Place"
  type: "InnerProduct"
  inner_product_param {
    num_output: 85
  }
  param{ lr_mult: 1 decay_mult: 0}
  param{ lr_mult: 1 decay_mult: 0}
}

layer {
  bottom: "rep-complaining-Listener"
  top: "value-complaining-Listener"
  name: "value-complaining-Listener"
  type: "InnerProduct"
  inner_product_param {
    num_output: 74
  }
  param{ lr_mult: 1 decay_mult: 0}
  param{ lr_mult: 1 decay_mult: 0}
}

layer {
  bottom: "rep-complaining-Agent"
  top: "value-complaining-Agent"
  name: "value-complaining-Agent"
  type: "InnerProduct"
  inner_product_param {
    num_output: 51

  }
  param{ lr_mult: 1 decay_mult: 0}
  param{ lr_mult: 1 decay_mult: 0}
}

layer {
  bottom: "rep-confronting-Confronted"
  top: "value-confronting-Confronted"
  name: "value-confronting-Confronted"
  type: "InnerProduct"
  inner_product_param {
    num_output: 73
  }
  param{ lr_mult: 1 decay_mult: 0}
  param{ lr_mult: 1 decay_mult: 0}
}

layer {
  bottom: "rep-confronting-Place"
  top: "value-confronting-Place"
  name: "value-confronting-Place"
  type: "InnerProduct"
  inner_product_param {
    num_output: 69
  }
  param{ lr_mult: 1 decay_mult: 0}
  param{ lr_mult: 1 decay_mult: 0}
}

layer {
  bottom: "rep-confronting-Agent"
  top: "value-confronting-Agent"
  name: "value-confronting-Agent"
  type: "InnerProduct"
  inner_product_param {
    num_output: 62

  }
  param{ lr_mult: 1 decay_mult: 0}
  param{ lr_mult: 1 decay_mult: 0}
}

layer {
  bottom: "rep-congregating-Place"
  top: "value-congregating-Place"
  name: "value-congregating-Place"
  type: "InnerProduct"
  inner_product_param {
    num_output: 154

  }
  param{ lr_mult: 1 decay_mult: 0}
  param{ lr_mult: 1 decay_mult: 0}
}

layer {
  bottom: "rep-congregating-Individuals"
  top: "value-congregating-Individuals"
  name: "value-congregating-Individuals"
  type: "InnerProduct"
  inner_product_param {
    num_output: 99
  }
  param{ lr_mult: 1 decay_mult: 0}
  param{ lr_mult: 1 decay_mult: 0}
}

layer {
  bottom: "rep-constructing-Tool"
  top: "value-constructing-Tool"
  name: "value-constructing-Tool"
  type: "InnerProduct"
  inner_product_param {
    num_output: 114
  }
  param{ lr_mult: 1 decay_mult: 0}
  param{ lr_mult: 1 decay_mult: 0}
}

layer {
  bottom: "rep-constructing-Place"
  top: "value-constructing-Place"
  name: "value-constructing-Place"
  type: "InnerProduct"
  inner_product_param {
    num_output: 66
  }
  param{ lr_mult: 1 decay_mult: 0}
  param{ lr_mult: 1 decay_mult: 0}
}

layer {
  bottom: "rep-constructing-CreatedItem"
  top: "value-constructing-CreatedItem"
  name: "value-constructing-CreatedItem"
  type: "InnerProduct"
  inner_product_param {
    num_output: 138
  }
  param{ lr_mult: 1 decay_mult: 0}
  param{ lr_mult: 1 decay_mult: 0}
}

layer {
  bottom: "rep-constructing-Components"
  top: "value-constructing-Components"
  name: "value-constructing-Components"
  type: "InnerProduct"
  inner_product_param {
    num_output: 103
  }
  param{ lr_mult: 1 decay_mult: 0}
  param{ lr_mult: 1 decay_mult: 0}
}

layer {
  bottom: "rep-constructing-Agent"
  top: "value-constructing-Agent"
  name: "value-constructing-Agent"
  type: "InnerProduct"
  inner_product_param {
    num_output: 27

  }
  param{ lr_mult: 1 decay_mult: 0}
  param{ lr_mult: 1 decay_mult: 0}
}

layer {
  bottom: "rep-cooking-Food"
  top: "value-cooking-Food"
  name: "value-cooking-Food"
  type: "InnerProduct"
  inner_product_param {
    num_output: 104
  }
  param{ lr_mult: 1 decay_mult: 0}
  param{ lr_mult: 1 decay_mult: 0}
}

layer {
  bottom: "rep-cooking-Container"
  top: "value-cooking-Container"
  name: "value-cooking-Container"
  type: "InnerProduct"
  inner_product_param {
    num_output: 54
  }
  param{ lr_mult: 1 decay_mult: 0}
  param{ lr_mult: 1 decay_mult: 0}
}

layer {
  bottom: "rep-cooking-Agent"
  top: "value-cooking-Agent"
  name: "value-cooking-Agent"
  type: "InnerProduct"
  inner_product_param {
    num_output: 44
  }
  param{ lr_mult: 1 decay_mult: 0}
  param{ lr_mult: 1 decay_mult: 0}
}

layer {
  bottom: "rep-cooking-Tool"
  top: "value-cooking-Tool"
  name: "value-cooking-Tool"
  type: "InnerProduct"
  inner_product_param {
    num_output: 56
  }
  param{ lr_mult: 1 decay_mult: 0}
  param{ lr_mult: 1 decay_mult: 0}
}

layer {
  bottom: "rep-cooking-HeatSource"
  top: "value-cooking-HeatSource"
  name: "value-cooking-HeatSource"
  type: "InnerProduct"
  inner_product_param {
    num_output: 38

  }
  param{ lr_mult: 1 decay_mult: 0}
  param{ lr_mult: 1 decay_mult: 0}
}

layer {
  bottom: "rep-cooking-Place"
  top: "value-cooking-Place"
  name: "value-cooking-Place"
  type: "InnerProduct"
  inner_product_param {
    num_output: 42
  }
  param{ lr_mult: 1 decay_mult: 0}
  param{ lr_mult: 1 decay_mult: 0}
}

layer {
  bottom: "rep-coughing-Agent"
  top: "value-coughing-Agent"
  name: "value-coughing-Agent"
  type: "InnerProduct"
  inner_product_param {
    num_output: 21

  }
  param{ lr_mult: 1 decay_mult: 0}
  param{ lr_mult: 1 decay_mult: 0}
}

layer {
  bottom: "rep-coughing-Place"
  top: "value-coughing-Place"
  name: "value-coughing-Place"
  type: "InnerProduct"
  inner_product_param {
    num_output: 31
  }
  param{ lr_mult: 1 decay_mult: 0}
  param{ lr_mult: 1 decay_mult: 0}
}

layer {
  bottom: "rep-counting-ItemType"
  top: "value-counting-ItemType"
  name: "value-counting-ItemType"
  type: "InnerProduct"
  inner_product_param {
    num_output: 186
  }
  param{ lr_mult: 1 decay_mult: 0}
  param{ lr_mult: 1 decay_mult: 0}
}

layer {
  bottom: "rep-counting-Place"
  top: "value-counting-Place"
  name: "value-counting-Place"
  type: "InnerProduct"
  inner_product_param {
    num_output: 70
  }
  param{ lr_mult: 1 decay_mult: 0}
  param{ lr_mult: 1 decay_mult: 0}
}

layer {
  bottom: "rep-counting-Agent"
  top: "value-counting-Agent"
  name: "value-counting-Agent"
  type: "InnerProduct"
  inner_product_param {
    num_output: 43

  }
  param{ lr_mult: 1 decay_mult: 0}
  param{ lr_mult: 1 decay_mult: 0}
}

layer {
  bottom: "rep-covering-Place"
  top: "value-covering-Place"
  name: "value-covering-Place"
  type: "InnerProduct"
  inner_product_param {
    num_output: 57
  }
  param{ lr_mult: 1 decay_mult: 0}
  param{ lr_mult: 1 decay_mult: 0}
}

layer {
  bottom: "rep-covering-Item"
  top: "value-covering-Item"
  name: "value-covering-Item"
  type: "InnerProduct"
  inner_product_param {
    num_output: 135
  }
  param{ lr_mult: 1 decay_mult: 0}
  param{ lr_mult: 1 decay_mult: 0}
}

layer {
  bottom: "rep-covering-Agent"
  top: "value-covering-Agent"
  name: "value-covering-Agent"
  type: "InnerProduct"
  inner_product_param {
    num_output: 54

  }
  param{ lr_mult: 1 decay_mult: 0}
  param{ lr_mult: 1 decay_mult: 0}
}

layer {
  bottom: "rep-covering-Cover"
  top: "value-covering-Cover"
  name: "value-covering-Cover"
  type: "InnerProduct"
  inner_product_param {
    num_output: 137
  }
  param{ lr_mult: 1 decay_mult: 0}
  param{ lr_mult: 1 decay_mult: 0}
}

layer {
  bottom: "rep-crafting-Place"
  top: "value-crafting-Place"
  name: "value-crafting-Place"
  type: "InnerProduct"
  inner_product_param {
    num_output: 37
  }
  param{ lr_mult: 1 decay_mult: 0}
  param{ lr_mult: 1 decay_mult: 0}
}

layer {
  bottom: "rep-crafting-Instrument"
  top: "value-crafting-Instrument"
  name: "value-crafting-Instrument"
  type: "InnerProduct"
  inner_product_param {
    num_output: 108
  }
  param{ lr_mult: 1 decay_mult: 0}
  param{ lr_mult: 1 decay_mult: 0}
}

layer {
  bottom: "rep-crafting-Created"
  top: "value-crafting-Created"
  name: "value-crafting-Created"
  type: "InnerProduct"
  inner_product_param {
    num_output: 137

  }
  param{ lr_mult: 1 decay_mult: 0}
  param{ lr_mult: 1 decay_mult: 0}
}

layer {
  bottom: "rep-crafting-Agent"
  top: "value-crafting-Agent"
  name: "value-crafting-Agent"
  type: "InnerProduct"
  inner_product_param {
    num_output: 28
  }
  param{ lr_mult: 1 decay_mult: 0}
  param{ lr_mult: 1 decay_mult: 0}
}

layer {
  bottom: "rep-cramming-Theme"
  top: "value-cramming-Theme"
  name: "value-cramming-Theme"
  type: "InnerProduct"
  inner_product_param {
    num_output: 110
  }
  param{ lr_mult: 1 decay_mult: 0}
  param{ lr_mult: 1 decay_mult: 0}
}

layer {
  bottom: "rep-cramming-Place"
  top: "value-cramming-Place"
  name: "value-cramming-Place"
  type: "InnerProduct"
  inner_product_param {
    num_output: 73
  }
  param{ lr_mult: 1 decay_mult: 0}
  param{ lr_mult: 1 decay_mult: 0}
}

layer {
  bottom: "rep-cramming-Agent"
  top: "value-cramming-Agent"
  name: "value-cramming-Agent"
  type: "InnerProduct"
  inner_product_param {
    num_output: 50

  }
  param{ lr_mult: 1 decay_mult: 0}
  param{ lr_mult: 1 decay_mult: 0}
}

layer {
  bottom: "rep-cramming-Container"
  top: "value-cramming-Container"
  name: "value-cramming-Container"
  type: "InnerProduct"
  inner_product_param {
    num_output: 82
  }
  param{ lr_mult: 1 decay_mult: 0}
  param{ lr_mult: 1 decay_mult: 0}
}

layer {
  bottom: "rep-crashing-Place"
  top: "value-crashing-Place"
  name: "value-crashing-Place"
  type: "InnerProduct"
  inner_product_param {
    num_output: 65
  }
  param{ lr_mult: 1 decay_mult: 0}
  param{ lr_mult: 1 decay_mult: 0}
}

layer {
  bottom: "rep-crashing-Item"
  top: "value-crashing-Item"
  name: "value-crashing-Item"
  type: "InnerProduct"
  inner_product_param {
    num_output: 30
  }
  param{ lr_mult: 1 decay_mult: 0}
  param{ lr_mult: 1 decay_mult: 0}
}

layer {
  bottom: "rep-crashing-Agent"
  top: "value-crashing-Agent"
  name: "value-crashing-Agent"
  type: "InnerProduct"
  inner_product_param {
    num_output: 58

  }
  param{ lr_mult: 1 decay_mult: 0}
  param{ lr_mult: 1 decay_mult: 0}
}

layer {
  bottom: "rep-crashing-Against"
  top: "value-crashing-Against"
  name: "value-crashing-Against"
  type: "InnerProduct"
  inner_product_param {
    num_output: 95
  }
  param{ lr_mult: 1 decay_mult: 0}
  param{ lr_mult: 1 decay_mult: 0}
}

layer {
  bottom: "rep-crawling-Agent"
  top: "value-crawling-Agent"
  name: "value-crawling-Agent"
  type: "InnerProduct"
  inner_product_param {
    num_output: 56

  }
  param{ lr_mult: 1 decay_mult: 0}
  param{ lr_mult: 1 decay_mult: 0}
}

layer {
  bottom: "rep-crawling-Place"
  top: "value-crawling-Place"
  name: "value-crawling-Place"
  type: "InnerProduct"
  inner_product_param {
    num_output: 100
  }
  param{ lr_mult: 1 decay_mult: 0}
  param{ lr_mult: 1 decay_mult: 0}
}

layer {
  bottom: "rep-cresting-Agent"
  top: "value-cresting-Agent"
  name: "value-cresting-Agent"
  type: "InnerProduct"
  inner_product_param {
    num_output: 64

  }
  param{ lr_mult: 1 decay_mult: 0}
  param{ lr_mult: 1 decay_mult: 0}
}

layer {
  bottom: "rep-cresting-Place"
  top: "value-cresting-Place"
  name: "value-cresting-Place"
  type: "InnerProduct"
  inner_product_param {
    num_output: 47
  }
  param{ lr_mult: 1 decay_mult: 0}
  param{ lr_mult: 1 decay_mult: 0}
}

layer {
  bottom: "rep-crouching-Agent"
  top: "value-crouching-Agent"
  name: "value-crouching-Agent"
  type: "InnerProduct"
  inner_product_param {
    num_output: 73

  }
  param{ lr_mult: 1 decay_mult: 0}
  param{ lr_mult: 1 decay_mult: 0}
}

layer {
  bottom: "rep-crouching-Place"
  top: "value-crouching-Place"
  name: "value-crouching-Place"
  type: "InnerProduct"
  inner_product_param {
    num_output: 156
  }
  param{ lr_mult: 1 decay_mult: 0}
  param{ lr_mult: 1 decay_mult: 0}
}

layer {
  bottom: "rep-crowning-Crown"
  top: "value-crowning-Crown"
  name: "value-crowning-Crown"
  type: "InnerProduct"
  inner_product_param {
    num_output: 27
  }
  param{ lr_mult: 1 decay_mult: 0}
  param{ lr_mult: 1 decay_mult: 0}
}

layer {
  bottom: "rep-crowning-Place"
  top: "value-crowning-Place"
  name: "value-crowning-Place"
  type: "InnerProduct"
  inner_product_param {
    num_output: 33
  }
  param{ lr_mult: 1 decay_mult: 0}
  param{ lr_mult: 1 decay_mult: 0}
}

layer {
  bottom: "rep-crowning-Agent"
  top: "value-crowning-Agent"
  name: "value-crowning-Agent"
  type: "InnerProduct"
  inner_product_param {
    num_output: 20

  }
  param{ lr_mult: 1 decay_mult: 0}
  param{ lr_mult: 1 decay_mult: 0}
}

layer {
  bottom: "rep-crowning-CrownedEntity"
  top: "value-crowning-CrownedEntity"
  name: "value-crowning-CrownedEntity"
  type: "InnerProduct"
  inner_product_param {
    num_output: 27
  }
  param{ lr_mult: 1 decay_mult: 0}
  param{ lr_mult: 1 decay_mult: 0}
}

layer {
  bottom: "rep-crushing-Tool"
  top: "value-crushing-Tool"
  name: "value-crushing-Tool"
  type: "InnerProduct"
  inner_product_param {
    num_output: 127
  }
  param{ lr_mult: 1 decay_mult: 0}
  param{ lr_mult: 1 decay_mult: 0}
}

layer {
  bottom: "rep-crushing-Place"
  top: "value-crushing-Place"
  name: "value-crushing-Place"
  type: "InnerProduct"
  inner_product_param {
    num_output: 74
  }
  param{ lr_mult: 1 decay_mult: 0}
  param{ lr_mult: 1 decay_mult: 0}
}

layer {
  bottom: "rep-crushing-Agent"
  top: "value-crushing-Agent"
  name: "value-crushing-Agent"
  type: "InnerProduct"
  inner_product_param {
    num_output: 76

  }
  param{ lr_mult: 1 decay_mult: 0}
  param{ lr_mult: 1 decay_mult: 0}
}

layer {
  bottom: "rep-crushing-CrushedItem"
  top: "value-crushing-CrushedItem"
  name: "value-crushing-CrushedItem"
  type: "InnerProduct"
  inner_product_param {
    num_output: 176
  }
  param{ lr_mult: 1 decay_mult: 0}
  param{ lr_mult: 1 decay_mult: 0}
}

layer {
  bottom: "rep-crying-Agent"
  top: "value-crying-Agent"
  name: "value-crying-Agent"
  type: "InnerProduct"
  inner_product_param {
    num_output: 30

  }
  param{ lr_mult: 1 decay_mult: 0}
  param{ lr_mult: 1 decay_mult: 0}
}

layer {
  bottom: "rep-crying-Place"
  top: "value-crying-Place"
  name: "value-crying-Place"
  type: "InnerProduct"
  inner_product_param {
    num_output: 75
  }
  param{ lr_mult: 1 decay_mult: 0}
  param{ lr_mult: 1 decay_mult: 0}
}

layer {
  bottom: "rep-curling-Place"
  top: "value-curling-Place"
  name: "value-curling-Place"
  type: "InnerProduct"
  inner_product_param {
    num_output: 35
  }
  param{ lr_mult: 1 decay_mult: 0}
  param{ lr_mult: 1 decay_mult: 0}
}

layer {
  bottom: "rep-curling-Tool"
  top: "value-curling-Tool"
  name: "value-curling-Tool"
  type: "InnerProduct"
  inner_product_param {
    num_output: 39
  }
  param{ lr_mult: 1 decay_mult: 0}
  param{ lr_mult: 1 decay_mult: 0}
}

layer {
  bottom: "rep-curling-Agent"
  top: "value-curling-Agent"
  name: "value-curling-Agent"
  type: "InnerProduct"
  inner_product_param {
    num_output: 32

  }
  param{ lr_mult: 1 decay_mult: 0}
  param{ lr_mult: 1 decay_mult: 0}
}

layer {
  bottom: "rep-curling-Target"
  top: "value-curling-Target"
  name: "value-curling-Target"
  type: "InnerProduct"
  inner_product_param {
    num_output: 27
  }
  param{ lr_mult: 1 decay_mult: 0}
  param{ lr_mult: 1 decay_mult: 0}
}

layer {
  bottom: "rep-curtsying-Agent"
  top: "value-curtsying-Agent"
  name: "value-curtsying-Agent"
  type: "InnerProduct"
  inner_product_param {
    num_output: 26

  }
  param{ lr_mult: 1 decay_mult: 0}
  param{ lr_mult: 1 decay_mult: 0}
}

layer {
  bottom: "rep-curtsying-Place"
  top: "value-curtsying-Place"
  name: "value-curtsying-Place"
  type: "InnerProduct"
  inner_product_param {
    num_output: 52
  }
  param{ lr_mult: 1 decay_mult: 0}
  param{ lr_mult: 1 decay_mult: 0}
}

layer {
  bottom: "rep-dancing-Agent"
  top: "value-dancing-Agent"
  name: "value-dancing-Agent"
  type: "InnerProduct"
  inner_product_param {
    num_output: 37

  }
  param{ lr_mult: 1 decay_mult: 0}
  param{ lr_mult: 1 decay_mult: 0}
}

layer {
  bottom: "rep-dancing-Place"
  top: "value-dancing-Place"
  name: "value-dancing-Place"
  type: "InnerProduct"
  inner_product_param {
    num_output: 65
  }
  param{ lr_mult: 1 decay_mult: 0}
  param{ lr_mult: 1 decay_mult: 0}
}

layer {
  bottom: "rep-decomposing-Decomposer"
  top: "value-decomposing-Decomposer"
  name: "value-decomposing-Decomposer"
  type: "InnerProduct"
  inner_product_param {
    num_output: 100

  }
  param{ lr_mult: 1 decay_mult: 0}
  param{ lr_mult: 1 decay_mult: 0}
}

layer {
  bottom: "rep-decomposing-Place"
  top: "value-decomposing-Place"
  name: "value-decomposing-Place"
  type: "InnerProduct"
  inner_product_param {
    num_output: 66
  }
  param{ lr_mult: 1 decay_mult: 0}
  param{ lr_mult: 1 decay_mult: 0}
}

layer {
  bottom: "rep-decorating-Decorated"
  top: "value-decorating-Decorated"
  name: "value-decorating-Decorated"
  type: "InnerProduct"
  inner_product_param {
    num_output: 160
  }
  param{ lr_mult: 1 decay_mult: 0}
  param{ lr_mult: 1 decay_mult: 0}
}

layer {
  bottom: "rep-decorating-Item"
  top: "value-decorating-Item"
  name: "value-decorating-Item"
  type: "InnerProduct"
  inner_product_param {
    num_output: 135
  }
  param{ lr_mult: 1 decay_mult: 0}
  param{ lr_mult: 1 decay_mult: 0}
}

layer {
  bottom: "rep-decorating-Agent"
  top: "value-decorating-Agent"
  name: "value-decorating-Agent"
  type: "InnerProduct"
  inner_product_param {
    num_output: 34

  }
  param{ lr_mult: 1 decay_mult: 0}
  param{ lr_mult: 1 decay_mult: 0}
}

layer {
  bottom: "rep-decorating-Place"
  top: "value-decorating-Place"
  name: "value-decorating-Place"
  type: "InnerProduct"
  inner_product_param {
    num_output: 56
  }
  param{ lr_mult: 1 decay_mult: 0}
  param{ lr_mult: 1 decay_mult: 0}
}

layer {
  bottom: "rep-deflecting-Place"
  top: "value-deflecting-Place"
  name: "value-deflecting-Place"
  type: "InnerProduct"
  inner_product_param {
    num_output: 48
  }
  param{ lr_mult: 1 decay_mult: 0}
  param{ lr_mult: 1 decay_mult: 0}
}

layer {
  bottom: "rep-deflecting-Destination"
  top: "value-deflecting-Destination"
  name: "value-deflecting-Destination"
  type: "InnerProduct"
  inner_product_param {
    num_output: 66
  }
  param{ lr_mult: 1 decay_mult: 0}
  param{ lr_mult: 1 decay_mult: 0}
}

layer {
  bottom: "rep-deflecting-Agent"
  top: "value-deflecting-Agent"
  name: "value-deflecting-Agent"
  type: "InnerProduct"
  inner_product_param {
    num_output: 58

  }
  param{ lr_mult: 1 decay_mult: 0}
  param{ lr_mult: 1 decay_mult: 0}
}

layer {
  bottom: "rep-deflecting-DeflectedItem"
  top: "value-deflecting-DeflectedItem"
  name: "value-deflecting-DeflectedItem"
  type: "InnerProduct"
  inner_product_param {
    num_output: 66
  }
  param{ lr_mult: 1 decay_mult: 0}
  param{ lr_mult: 1 decay_mult: 0}
}

layer {
  bottom: "rep-descending-tool"
  top: "value-descending-tool"
  name: "value-descending-tool"
  type: "InnerProduct"
  inner_product_param {
    num_output: 86
  }
  param{ lr_mult: 1 decay_mult: 0}
  param{ lr_mult: 1 decay_mult: 0}
}

layer {
  bottom: "rep-descending-source"
  top: "value-descending-source"
  name: "value-descending-source"
  type: "InnerProduct"
  inner_product_param {
    num_output: 102
  }
  param{ lr_mult: 1 decay_mult: 0}
  param{ lr_mult: 1 decay_mult: 0}
}

layer {
…
  bottom: "value-cresting-Agent"
  bottom: "value-crouching-Place"
  bottom: "value-crouching-Agent"
  bottom: "value-crowning-Place"
  bottom: "value-crowning-Crown"
  bottom: "value-crowning-CrownedEntity"
  bottom: "value-crowning-Agent"
  bottom: "value-crushing-Place"
  bottom: "value-crushing-Tool"
  bottom: "value-crushing-CrushedItem"
  bottom: "value-crushing-Agent"
  bottom: "value-crying-Place"
  bottom: "value-crying-Agent"
  bottom: "value-curling-Tool"
  bottom: "value-curling-Place"
  bottom: "value-curling-Target"
  bottom: "value-curling-Agent"
  bottom: "value-curtsying-Place"
  bottom: "value-curtsying-Agent"
  bottom: "value-dancing-Place"
  bottom: "value-dancing-Agent"
  bottom: "value-decomposing-Place"
  bottom: "value-decomposing-Decomposer"
  bottom: "value-decorating-Item"
  bottom: "value-decorating-Decorated"
  bottom: "value-decorating-Place"
  bottom: "value-decorating-Agent"
  bottom: "value-deflecting-Destination"
  bottom: "value-deflecting-Place"
  bottom: "value-deflecting-DeflectedItem"
  bottom: "value-deflecting-Agent"
  bottom: "value-descending-source"
  bottom: "value-descending-tool"
  bottom: "value-descending-Place"
  bottom: "value-descending-Agent"
  bottom: "value-destroying-DestroyedItem"
  bottom: "value-destroying-Tool"
  bottom: "value-destroying-Place"
  bottom: "value-destroying-Agent"
  bottom: "value-detaining-Place"
  bottom: "value-detaining-Victim"
  bottom: "value-detaining-Agent"
  bottom: "value-dialing-Item"
  bottom: "value-dialing-Place"
  bottom: "value-dialing-Agent"
  bottom: "value-dining-Food"
  bottom: "value-dining-Place"
  bottom: "value-dining-Agent"
  bottom: "value-dipping-Item"
  bottom: "value-dipping-Substance"
  bottom: "value-dipping-Place"
  bottom: "value-dipping-Agent"
  bottom: "value-disciplining-Tool"
  bottom: "value-disciplining-Place"
  bottom: "value-disciplining-Victim"
  bottom: "value-disciplining-Agent"
  bottom: "value-discussing-Place"
  bottom: "value-discussing-Agents"
  bottom: "value-disembarking-Place"
  bottom: "value-disembarking-Agent"
  bottom: "value-disembarking-Vehicle"
  bottom: "value-displaying-Item"
  bottom: "value-displaying-Place"
  bottom: "value-displaying-Target"
  bottom: "value-displaying-Agent"
  bottom: "value-dissecting-Item"
  bottom: "value-dissecting-Tool"
  bottom: "value-dissecting-Place"
  bottom: "value-dissecting-Agent"
  bottom: "value-distracting-Place"
  bottom: "value-distracting-Victim"
  bottom: "value-distracting-Agent"
  bottom: "value-distributing-Place"
  bottom: "value-distributing-Tool"
  bottom: "value-distributing-Distributed"
  bottom: "value-distributing-Recipients"
  bottom: "value-distributing-Agent"
  bottom: "value-diving-Place"
  bottom: "value-diving-Agent"
  bottom: "value-docking-Connector"
  bottom: "value-docking-Place"
  bottom: "value-docking-Agent"
  bottom: "value-docking-Vehicle"
  bottom: "value-dousing-Undergoer"
  bottom: "value-dousing-Place"
  bottom: "value-dousing-Liquid"
  bottom: "value-dousing-Agent"
  bottom: "value-dragging-Item"
  bottom: "value-dragging-Tool"
  bottom: "value-dragging-Contact"
  bottom: "value-dragging-Place"
  bottom: "value-dragging-Agent"
  bottom: "value-drawing-Tool"
  bottom: "value-drawing-Place"
  bottom: "value-drawing-Reference"
  bottom: "value-drawing-Agent"
  bottom: "value-drenching-DrenchedItem"
  bottom: "value-drenching-Tool"
  bottom: "value-drenching-Place"
  bottom: "value-drenching-Liquid"
  bottom: "value-drenching-Agent"
  bottom: "value-drinking-Place"
  bottom: "value-drinking-Container"
  bottom: "value-drinking-Liquid"
  bottom: "value-drinking-Agent"
  bottom: "value-dripping-Source"
  bottom: "value-dripping-Destination"
  bottom: "value-dripping-Place"
  bottom: "value-dripping-Fluid"
  bottom: "value-dripping-Agent"
  bottom: "value-driving-Item"
  bottom: "value-driving-Place"
  bottom: "value-driving-Agent"
  bottom: "value-drooling-Place"
  bottom: "value-drooling-End"
  bottom: "value-drooling-Agent"
  bottom: "value-dropping-Item"
  bottom: "value-dropping-Place"
  bottom: "value-dropping-End"
  bottom: "value-dropping-Agent"
  bottom: "value-dropping-Start"
  bottom: "value-drumming-ITEM"
  bottom: "value-drumming-Tool"
  bottom: "value-drumming-Place"
  bottom: "value-drumming-Agent"
  bottom: "value-drying-Item"
  bottom: "value-drying-Tool"
  bottom: "value-drying-Place"
  bottom: "value-drying-Agent"
  bottom: "value-ducking-Blow"
  bottom: "value-ducking-Place"
  bottom: "value-ducking-Agent"
  bottom: "value-dusting-Source"
  bottom: "value-dusting-Tool"
  bottom: "value-dusting-Place"
  bottom: "value-dusting-Agent"
  bottom: "value-dyeing-Dye"
  bottom: "value-dyeing-Material"
  bottom: "value-dyeing-Place"
  bottom: "value-dyeing-Agent"
  bottom: "value-eating-Food"
  bottom: "value-eating-Place"
  bottom: "value-eating-Tool"
  bottom: "value-eating-Container"
  bottom: "value-eating-Agent"
  bottom: "value-educating-Place"
  bottom: "value-educating-Teacher"
  bottom: "value-educating-Student"
  bottom: "value-educating-Subject"
  bottom: "value-ejecting-Item"
  bottom: "value-ejecting-Destination"
  bottom: "value-ejecting-Place"
  bottom: "value-ejecting-Agent"
  bottom: "value-ejecting-Source"
  bottom: "value-embracing-Coagent"
  bottom: "value-embracing-Place"
  bottom: "value-embracing-Agent"
  bottom: "value-emerging-Source"
  bottom: "value-emerging-Destination"
  bottom: "value-emerging-Place"
  bottom: "value-emerging-Agent"
  bottom: "value-emptying-Container"
  bottom: "value-emptying-Tool"
  bottom: "value-emptying-Destination"
  bottom: "value-emptying-Agent"
  bottom: "value-emptying-Item"
  bottom: "value-emptying-Place"
  bottom: "value-encouraging-Place"
  bottom: "value-encouraging-Agent"
  bottom: "value-encouraging-Reciever"
  bottom: "value-erasing-Erased"
  bottom: "value-erasing-Source"
  bottom: "value-erasing-Place"
  bottom: "value-erasing-Agent"
  bottom: "value-erupting-Substance"
  bottom: "value-erupting-Place"
  bottom: "value-erupting-Agent"
  bottom: "value-examining-Item"
  bottom: "value-examining-Tool"
  bottom: "value-examining-Place"
  bottom: "value-examining-Agent"
  bottom: "value-exercising-AgentPart"
  bottom: "value-exercising-Place"
  bottom: "value-exercising-Agent"
  bottom: "value-exterminating-Instrument"
  bottom: "value-exterminating-Place"
  bottom: "value-exterminating-Agent"
  bottom: "value-extinguishing-Item"
  bottom: "value-extinguishing-Tool"
  bottom: "value-extinguishing-Place"
  bottom: "value-extinguishing-Agent"
  bottom: "value-falling-Source"
  bottom: "value-falling-Place"
  bottom: "value-falling-Goal"
  bottom: "value-falling-Agent"
  bottom: "value-farming-Item"
  bottom: "value-farming-Tool"
  bottom: "value-farming-Ground"
  bottom: "value-farming-Place"
  bottom: "value-farming-Farmer"
  bottom: "value-fastening-Tool"
  bottom: "value-fastening-Destination"
  bottom: "value-fastening-Agent"
  bottom: "value-fastening-Connector"
  bottom: "value-fastening-Item"
  bottom: "value-fastening-Place"
  bottom: "value-feeding-Food"
  bottom: "value-feeding-Source"
  bottom: "value-feeding-Eater"
  bottom: "value-feeding-Place"
  bottom: "value-feeding-Agent"
  bottom: "value-fetching-Item"
  bottom: "value-fetching-Destination"
  bottom: "value-fetching-Place"
  bottom: "value-fetching-Agent"
  bottom: "value-fetching-Source"
  bottom: "value-filling-Item"
  bottom: "value-filling-Destination"
  bottom: "value-filling-Place"
  bottom: "value-filling-Agent"
  bottom: "value-filling-Source"
  bottom: "value-filming-Tool"
  bottom: "value-filming-Performer"
  bottom: "value-filming-Place"
  bottom: "value-filming-Agent"
  bottom: "value-fishing-SOURCE"
  bottom: "value-fishing-Tool"
  bottom: "value-fishing-Place"
  bottom: "value-fishing-Agent"
  bottom: "value-fixing-Place"
  bottom: "value-fixing-Tool"
  bottom: "value-fixing-Object"
  bottom: "value-fixing-ObjectPart"
  bottom: "value-fixing-Agent"
  bottom: "value-flaming-Place"
  bottom: "value-flaming-Agent"
  bottom: "value-flapping-BodyPart"
  bottom: "value-flapping-Place"
  bottom: "value-flapping-Agent"
  bottom: "value-flexing-AgentPart"
  bottom: "value-flexing-Addressee"
  bottom: "value-flexing-Place"
  bottom: "value-flexing-Agent"
  bottom: "value-flicking-AgentPart"
  bottom: "value-flicking-Place"
  bottom: "value-flicking-Object"
  bottom: "value-flicking-ObjectPart"
  bottom: "value-flicking-Agent"
  bottom: "value-flinging-Item"
  bottom: "value-flinging-Tool"
  bottom: "value-flinging-Place"
  bottom: "value-flinging-Goal"
  bottom: "value-flinging-Agent"
  bottom: "value-flipping-Tool"
  bottom: "value-flipping-Place"
  bottom: "value-flipping-Agent"
  bottom: "value-flipping-Flipped"
  bottom: "value-floating-Tool"
  bottom: "value-floating-Medium"
  bottom: "value-floating-Place"
  bottom: "value-floating-Agent"
  bottom: "value-flossing-CoAgent"
  bottom: "value-flossing-Place"
  bottom: "value-flossing-Agent"
  bottom: "value-folding-Cloth"
  bottom: "value-folding-Shape"
  bottom: "value-folding-Place"
  bottom: "value-folding-Agent"
  bottom: "value-foraging-Item"
  bottom: "value-foraging-Place"
  bottom: "value-foraging-Agent"
  bottom: "value-fording-Tool"
  bottom: "value-fording-Place"
  bottom: "value-fording-Agent"
  bottom: "value-frisking-Place"
  bottom: "value-frisking-Victim"
  bottom: "value-frisking-Agent"
  bottom: "value-frowning-Place"
  bottom: "value-frowning-Agent"
  bottom: "value-frying-Food"
  bottom: "value-frying-Place"
  bottom: "value-frying-Container"
  bottom: "value-frying-Agent"
  bottom: "value-fueling-Place"
  bottom: "value-fueling-Tool"
  bottom: "value-fueling-Recipient"
  bottom: "value-fueling-Agent"
  bottom: "value-gambling-Stake"
  bottom: "value-gambling-Place"
  bottom: "value-gambling-Agent"
  bottom: "value-gardening-Tool"
  bottom: "value-gardening-Place"
  bottom: "value-gardening-Agent"
  bottom: "value-gasping-Place"
  bottom: "value-gasping-Agent"
  bottom: "value-gathering-Place"
  bottom: "value-gathering-Gatherers"
  bottom: "value-giggling-Place"
  bottom: "value-giggling-Target"
  bottom: "value-giggling-Agent"
  bottom: "value-giving-Item"
  bottom: "value-giving-Place"
  bottom: "value-giving-Recipient"
  bottom: "value-giving-Agent"
  bottom: "value-glaring-Place"
  bottom: "value-glaring-Perceiver"
  bottom: "value-glaring-Agent"
  bottom: "value-glowing-Place"
  bottom: "value-glowing-Agent"
  bottom: "value-gluing-Connector"
  bottom: "value-gluing-Item"
  bottom: "value-gluing-Place"
  bottom: "value-gluing-Goal"
  bottom: "value-gluing-Agent"
  bottom: "value-gnawing-Item"
  bottom: "value-gnawing-Place"
  bottom: "value-gnawing-Agent"
  bottom: "value-grieving-Place"
  bottom: "value-grieving-Agent"
  bottom: "value-grilling-Food"
  bottom: "value-grilling-Place"
  bottom: "value-grilling-Agent"
  bottom: "value-grimacing-Place"
  bottom: "value-grimacing-Cause"
  bottom: "value-grimacing-Agent"
  bottom: "value-grinding-Item"
  bottom: "value-grinding-Tool"
  bottom: "value-grinding-Place"
  bottom: "value-grinding-Surface"
  bottom: "value-grinding-Agent"
  bottom: "value-grinning-Place"
  bottom: "value-grinning-Agent"
  bottom: "value-guarding-Item"
  bottom: "value-guarding-Weapon"
  bottom: "value-guarding-Place"
  bottom: "value-guarding-Agent"
  bottom: "value-handcuffing-Place"
  bottom: "value-handcuffing-Victim"
  bottom: "value-handcuffing-Agent"
  bottom: "value-hanging-Item"
  bottom: "value-hanging-Scaffold"
  bottom: "value-hanging-Place"
  bottom: "value-hanging-Agent"
  bottom: "value-harvesting-HarvestedItem"
  bottom: "value-harvesting-Tool"
  bottom: "value-harvesting-Place"
  bottom: "value-harvesting-Agent"
  bottom: "value-harvesting-Ground"
  bottom: "value-hauling-Item"
  bottom: "value-hauling-Tool"
  bottom: "value-hauling-Carrier"
  bottom: "value-hauling-Place"
  bottom: "value-heaving-HeavedItem"
  bottom: "value-heaving-Tool"
  bottom: "value-heaving-Place"
  bottom: "value-heaving-Agent"
  bottom: "value-helping-Tool"
  bottom: "value-helping-Place"
  bottom: "value-helping-Agent"
  bottom: "value-helping-EntityHelped"
  bottom: "value-hiking-Place"
  bottom: "value-hiking-Agent"
  bottom: "value-hitchhiking-Place"
  bottom: "value-hitchhiking-Agent"
  bottom: "value-hitting-Tool"
  bottom: "value-hitting-Place"
  bottom: "value-hitting-Victim"
  bottom: "value-hitting-Agent"
  bottom: "value-hitting-VictimPart"
  bottom: "value-hoeing-Place"
  bottom: "value-hoeing-Agent"
  bottom: "value-hoeing-Ground"
  bottom: "value-hoisting-Item"
  bottom: "value-hoisting-Tool"
  bottom: "value-hoisting-Place"
  bottom: "value-hoisting-Agent"
  bottom: "value-hoisting-Source"
  bottom: "value-hugging-AgentPart"
  bottom: "value-hugging-Hugged"
  bottom: "value-hugging-Place"
  bottom: "value-hugging-Agent"
  bottom: "value-hunching-Place"
  bottom: "value-hunching-Surface"
  bottom: "value-hunching-Agent"
  bottom: "value-hunting-Hunted"
  bottom: "value-hunting-Place"
  bottom: "value-hunting-Agent"
  bottom: "value-hurling-Start"
  bottom: "value-hurling-Place"
  bottom: "value-hurling-Object"
  bottom: "value-hurling-End"
  bottom: "value-hurling-Agent"
  bottom: "value-igniting-Item"
  bottom: "value-igniting-Tool"
  bottom: "value-igniting-Place"
  bottom: "value-igniting-Agent"
  bottom: "value-ignoring-Place"
  bottom: "value-ignoring-BoringThing"
  bottom: "value-ignoring-Agent"
  bottom: "value-imitating-Model"
  bottom: "value-imitating-Place"
  bottom: "value-imitating-Agent"
  bottom: "value-immersing-Item"
  bottom: "value-immersing-Place"
  bottom: "value-immersing-Liquid"
  bottom: "value-immersing-Agent"
  bottom: "value-inflating-Tool"
  bottom: "value-inflating-Object"
  bottom: "value-inflating-Place"
  bottom: "value-inflating-Agent"
  bottom: "value-injecting-Destination"
  bottom: "value-injecting-Source"
  bottom: "value-injecting-Substance"
  bottom: "value-injecting-Place"
  bottom: "value-injecting-Agent"
  bottom: "value-inserting-Place"
  bottom: "value-inserting-Object"
  bottom: "value-inserting-Container"
  bottom: "value-inserting-Agent"
  bottom: "value-installing-Place"
  bottom: "value-installing-Tool"
  bottom: "value-installing-Destination"
  bottom: "value-installing-Component"
  bottom: "value-installing-Agent"
  bottom: "value-instructing-Place"
  bottom: "value-instructing-Student"
  bottom: "value-instructing-Agent"
  bottom: "value-intermingling-Place"
  bottom: "value-intermingling-Agents"
  bottom: "value-interrogating-Tool"
  bottom: "value-interrogating-Addressee"
  bottom: "value-interrogating-Place"
  bottom: "value-interrogating-Agent"
  bottom: "value-interviewing-Place"
  bottom: "value-interviewing-Interviewee"
  bottom: "value-interviewing-Agent"
  bottom: "value-jogging-Place"
  bottom: "value-jogging-Agent"
  bottom: "value-juggling-Items"
  bottom: "value-juggling-Place"
  bottom: "value-juggling-Agent"
  bottom: "value-jumping-Destination"
  bottom: "value-jumping-Source"
  bottom: "value-jumping-Obstacle"
  bottom: "value-jumping-Place"
  bottom: "value-jumping-Agent"
  bottom: "value-kicking-Place"
  bottom: "value-kicking-Victim"
  bottom: "value-kicking-Agent"
  bottom: "value-kicking-VictimPart"
  bottom: "value-kissing-AgentPart"
  bottom: "value-kissing-CoAgent"
  bottom: "value-kissing-Place"
  bottom: "value-kissing-CoAgentPart"
  bottom: "value-kissing-Agent"
  bottom: "value-kneading-Item"
  bottom: "value-kneading-Place"
  bottom: "value-kneading-Agent"
  bottom: "value-kneeling-Contact"
  bottom: "value-kneeling-Place"
  bottom: "value-kneeling-Agent"
  bottom: "value-knocking-Item"
  bottom: "value-knocking-Place"
  bottom: "value-knocking-Agent"
  bottom: "value-lacing-Item"
  bottom: "value-lacing-Place"
  bottom: "value-lacing-Agent"
  bottom: "value-landing-Destination"
  bottom: "value-landing-Place"
  bottom: "value-landing-Agent"
  bottom: "value-lapping-Food"
  bottom: "value-lapping-Place"
  bottom: "value-lapping-Container"
  bottom: "value-lapping-Agent"
  bottom: "value-lathering-Destination"
  bottom: "value-lathering-Substance"
  bottom: "value-lathering-Place"
  bottom: "value-lathering-Agent"
  bottom: "value-laughing-Place"
  bottom: "value-laughing-Agent"
  bottom: "value-launching-Item"
  bottom: "value-launching-Destination"
  bottom: "value-launching-Place"
  bottom: "value-launching-Agent"
  bottom: "value-launching-Source"
  bottom: "value-leading-Follower"
  bottom: "value-leading-Place"
  bottom: "value-leading-Agent"
  bottom: "value-leaking-Destination"
  bottom: "value-leaking-Source"
  bottom: "value-leaking-Substance"
  bottom: "value-leaking-Place"
  bottom: "value-leaning-Item"
  bottom: "value-leaning-Place"
  bottom: "value-leaning-Against"
  bottom: "value-leaning-Agent"
  bottom: "value-leaping-Destination"
  bottom: "value-leaping-Source"
  bottom: "value-leaping-Obstacle"
  bottom: "value-leaping-Place"
  bottom: "value-leaping-Agent"
  bottom: "value-lecturing-Audience"
  bottom: "value-lecturing-Place"
  bottom: "value-lecturing-Agent"
  bottom: "value-licking-Item"
  bottom: "value-licking-Place"
  bottom: "value-licking-Agent"
  bottom: "value-lifting-Item"
  bottom: "value-lifting-Place"
  bottom: "value-lifting-End"
  bottom: "value-lifting-Agent"
  bottom: "value-lifting-Start"
  bottom: "value-lighting-Item"
  bottom: "value-lighting-Tool"
  bottom: "value-lighting-Place"
  bottom: "value-lighting-Agent"
  bottom: "value-loading-Item"
  bottom: "value-loading-Tool"
  bottom: "value-loading-Destination"
  bottom: "value-loading-Place"
  bottom: "value-loading-Agent"
  bottom: "value-locking-Item"
  bottom: "value-locking-Tool"
  bottom: "value-locking-Place"
  bottom: "value-locking-Agent"
  bottom: "value-making-Component"
  bottom: "value-making-Tool"
  bottom: "value-making-GoalItem"
  bottom: "value-making-Place"
  bottom: "value-making-Agent"
  bottom: "value-manicuring-Item"
  bottom: "value-manicuring-Tool"
  bottom: "value-manicuring-Place"
  bottom: "value-manicuring-Agent"
  bottom: "value-marching-Place"
  bottom: "value-marching-Agent"
  bottom: "value-mashing-Item"
  bottom: "value-mashing-Tool"
  bottom: "value-mashing-Place"
  bottom: "value-mashing-Agent"
  bottom: "value-massaging-CoAgent"
  bottom: "value-massaging-Place"
  bottom: "value-massaging-CoAgentPart"
  bottom: "value-massaging-Agent"
  bottom: "value-measuring-Tool"
  bottom: "value-measuring-Object"
  bottom: "value-measuring-Place"
  bottom: "value-measuring-Agent"
  bottom: "value-measuring-Quantity"
  bottom: "value-mending-Item"
  bottom: "value-mending-Tool"
  bottom: "value-mending-Place"
  bottom: "value-mending-Agent"
  bottom: "value-microwaving-Food"
  bottom: "value-microwaving-Place"
  bottom: "value-microwaving-Container"
  bottom: "value-microwaving-Agent"
  bottom: "value-milking-Source"
  bottom: "value-milking-Tool"
  bottom: "value-milking-Destination"
  bottom: "value-milking-Place"
  bottom: "value-milking-Agent"
  bottom: "value-miming-Place"
  bottom: "value-miming-Imitation"
  bottom: "value-miming-Agent"
  bottom: "value-mining-Place"
  bottom: "value-mining-Tool"
  bottom: "value-mining-Resource"
  bottom: "value-mining-Agent"
  bottom: "value-misbehaving-Place"
  bottom: "value-misbehaving-Agent"
  bottom: "value-moistening-Item"
  bottom: "value-moistening-Place"
  bottom: "value-moistening-Liquid"
  bottom: "value-moistening-Agent"
  bottom: "value-moisturizing-Place"
  bottom: "value-moisturizing-Tool"
  bottom: "value-moisturizing-Moisturized"
  bottom: "value-moisturizing-Agent"
  bottom: "value-molding-Place"
  bottom: "value-molding-Substance"
  bottom: "value-molding-GoalItem"
  bottom: "value-molding-Agent"
  bottom: "value-mopping-Place"
  bottom: "value-mopping-Surface"
  bottom: "value-mopping-Agent"
  bottom: "value-mourning-Place"
  bottom: "value-mourning-Mourner"
  bottom: "value-mowing-Item"
  bottom: "value-mowing-Tool"
  bottom: "value-mowing-Place"
  bottom: "value-mowing-Agent"
  bottom: "value-nagging-Place"
  bottom: "value-nagging-NaggedPerson"
  bottom: "value-nagging-Agent"
  bottom: "value-nailing-Item2"
  bottom: "value-nailing-Tool"
  bottom: "value-nailing-Item1"
  bottom: "value-nailing-Place"
  bottom: "value-nailing-Agent"
  bottom: "value-nipping-Item"
  bottom: "value-nipping-Place"
  bottom: "value-nipping-Agent"
  bottom: "value-nuzzling-Item"
  bottom: "value-nuzzling-Place"
  bottom: "value-nuzzling-Agent"
  bottom: "value-offering-Beneficiary"
  bottom: "value-offering-Item"
  bottom: "value-offering-Place"
  bottom: "value-offering-Agent"
  bottom: "value-officiating-Place"
  bottom: "value-officiating-Event"
  bottom: "value-officiating-Agent"
  bottom: "value-opening-Item"
  bottom: "value-opening-Tool"
  bottom: "value-opening-Place"
  bottom: "value-opening-Agent"
  bottom: "value-operating-Item"
  bottom: "value-operating-Tool"
  bottom: "value-operating-Place"
  bottom: "value-operating-Agent"
  bottom: "value-overflowing-Source"
  bottom: "value-overflowing-Place"
  bottom: "value-overflowing-Agent"
  bottom: "value-packaging-Item"
  bottom: "value-packaging-Place"
  bottom: "value-packaging-Agent"
  bottom: "value-packing-Item"
  bottom: "value-packing-Place"
  bottom: "value-packing-Container"
  bottom: "value-packing-Agent"
  bottom: "value-painting-Item"
  bottom: "value-painting-Tool"
  bottom: "value-painting-Place"
  bottom: "value-painting-Agent"
  bottom: "value-panhandling-Place"
  bottom: "value-panhandling-Target"
  bottom: "value-panhandling-Agent"
  bottom: "value-parachuting-Parachute"
  bottom: "value-parachuting-Destination"
  bottom: "value-parachuting-Place"
  bottom: "value-parachuting-Agent"
  bottom: "value-parading-Place"
  bottom: "value-parading-Agent"
  bottom: "value-pasting-Connector"
  bottom: "value-pasting-Item"
  bottom: "value-pasting-Object"
  bottom: "value-pasting-Place"
  bottom: "value-pasting-Agent"
  bottom: "value-patting-Item"
  bottom: "value-patting-Tool"
  bottom: "value-patting-Place"
  bottom: "value-patting-Agent"
  bottom: "value-pawing-AgentPart"
  bottom: "value-pawing-PawedItem"
  bottom: "value-pawing-Place"
  bottom: "value-pawing-Agent"
  bottom: "value-paying-Good"
  bottom: "value-paying-Place"
  bottom: "value-paying-Agent"
  bottom: "value-paying-Seller"
  bottom: "value-pedaling-Place"
  bottom: "value-pedaling-Agent"
  bottom: "value-pedaling-Vehicle"
  bottom: "value-peeing-Place"
  bottom: "value-peeing-Target"
  bottom: "value-peeing-Agent"
  bottom: "value-peeling-Item"
  bottom: "value-peeling-Tool"
  bottom: "value-peeling-Place"
  bottom: "value-peeling-Agent"
  bottom: "value-performing-Tool"
  bottom: "value-performing-Place"
  bottom: "value-performing-Event"
  bottom: "value-performing-Agent"
  bottom: "value-performing-Stage"
  bottom: "value-perspiring-Place"
  bottom: "value-perspiring-Agent"
  bottom: "value-phoning-Tool"
  bottom: "value-phoning-Place"
  bottom: "value-phoning-Agent"
  bottom: "value-photographing-Item"
  bottom: "value-photographing-Tool"
  bottom: "value-photographing-Place"
  bottom: "value-photographing-Agent"
  bottom: "value-picking-Source"
  bottom: "value-picking-Place"
  bottom: "value-picking-Crop"
  bottom: "value-picking-Agent"
  bottom: "value-piloting-Start"
  bottom: "value-piloting-Place"
  bottom: "value-piloting-End"
  bottom: "value-piloting-Agent"
  bottom: "value-piloting-Vehicle"
  bottom: "value-pinching-Place"
  bottom: "value-pinching-Object"
  bottom: "value-pinching-ObjectPart"
  bottom: "value-pinching-Agent"
  bottom: "value-pinning-Pinned"
  bottom: "value-pinning-Destination"
  bottom: "value-pinning-Place"
  bottom: "value-pinning-Agent"
  bottom: "value-pitching-Tool"
  bottom: "value-pitching-Place"
  bottom: "value-pitching-Pitched"
  bottom: "value-pitching-Agent"
  bottom: "value-placing-PlacedItem"
  bottom: "value-placing-Destination"
  bottom: "value-placing-Place"
  bottom: "value-placing-Agent"
  bottom: "value-planting-CoParticipant"
  bottom: "value-planting-Tool"
  bottom: "value-planting-Planted"
  bottom: "value-planting-Place"
  bottom: "value-planting-Agent"
  bottom: "value-plowing-Instrument"
  bottom: "value-plowing-Place"
  bottom: "value-plowing-Agent"
  bottom: "value-plummeting-Start"
  bottom: "value-plummeting-Destination"
  bottom: "value-plummeting-Place"
  bottom: "value-plummeting-Agent"
  bottom: "value-plunging-Place"
  bottom: "value-plunging-Destination"
  bottom: "value-plunging-Plunged"
  bottom: "value-plunging-Agent"
  bottom: "value-poking-Place"
  bottom: "value-poking-Tool"
  bottom: "value-poking-Object"
  bottom: "value-poking-ObjectPart"
  bottom: "value-poking-Agent"
  bottom: "value-pooing-Destination"
  bottom: "value-pooing-Place"
  bottom: "value-pooing-Agent"
  bottom: "value-potting-Item"
  bottom: "value-potting-Place"
  bottom: "value-potting-Container"
  bottom: "value-potting-Agent"
  bottom: "value-pouncing-Destination"
  bottom: "value-pouncing-Place"
  bottom: "value-pouncing-Agent"
  bottom: "value-pouring-Substance"
  bottom: "value-pouring-Tool"
  bottom: "value-pouring-Destination"
  bottom: "value-pouring-Agent"
  bottom: "value-pouring-Source"
  bottom: "value-pouring-Place"
  bottom: "value-pouting-Place"
  bottom: "value-pouting-Agent"
  bottom: "value-practicing-Skill"
  bottom: "value-practicing-Place"
  bottom: "value-practicing-Tool"
  bottom: "value-practicing-Agent"
  bottom: "value-praying-Place"
  bottom: "value-praying-Agent"
  bottom: "value-preaching-Addressee"
  bottom: "value-preaching-Place"
  bottom: "value-preaching-Agent"
  bottom: "value-pressing-Item"
  bottom: "value-pressing-Place"
  bottom: "value-pressing-Agent"
  bottom: "value-pricking-Pricked"
  bottom: "value-pricking-Tool"
  bottom: "value-pricking-Place"
  bottom: "value-pricking-Agent"
  bottom: "value-protesting-Place"
  bottom: "value-protesting-Agent"
  bottom: "value-providing-Item"
  bottom: "value-providing-Place"
  bottom: "value-providing-Recipient"
  bottom: "value-providing-Agent"
  bottom: "value-providing-Source"
  bottom: "value-prowling-Place"
  bottom: "value-prowling-Target"
  bottom: "value-prowling-Agent"
  bottom: "value-pruning-Source"
  bottom: "value-pruning-RemovedItem"
  bottom: "value-pruning-Place"
  bottom: "value-pruning-Tool"
  bottom: "value-pruning-Agent"
  bottom: "value-prying-Item"
  bottom: "value-prying-Tool"
  bottom: "value-prying-From"
  bottom: "value-prying-Place"
  bottom: "value-prying-Agent"
  bottom: "value-puckering-AgentPart"
  bottom: "value-puckering-Place"
  bottom: "value-puckering-Agent"
  bottom: "value-pulling-Item"
  bottom: "value-pulling-Tool"
  bottom: "value-pulling-Place"
  bottom: "value-pulling-Agent"
  bottom: "value-pumping-Substance"
  bottom: "value-pumping-Tool"
  bottom: "value-pumping-Destination"
  bottom: "value-pumping-Agent"
  bottom: "value-pumping-Source"
  bottom: "value-pumping-Place"
  bottom: "value-punching-BodyPart"
  bottom: "value-punching-Place"
  bottom: "value-punching-Victim"
  bottom: "value-punching-Agent"
  bottom: "value-punting-Item"
  bottom: "value-punting-Place"
  bottom: "value-punting-Agent"
  bottom: "value-pushing-Item"
  bottom: "value-pushing-Place"
  bottom: "value-pushing-Agent"
  bottom: "value-pushing-AgentPart"
  bottom: "value-putting-Item"
  bottom: "value-putting-Destination"
  bottom: "value-putting-Place"
  bottom: "value-putting-Agent"
  bottom: "value-queuing-Place"
  bottom: "value-queuing-Agent"
  bottom: "value-racing-Place"
  bottom: "value-racing-Agent"
  bottom: "value-rafting-Place"
  bottom: "value-rafting-Agent"
  bottom: "value-raining-Place"
  bottom: "value-raking-Item"
  bottom: "value-raking-Destination"
  bottom: "value-raking-Place"
  bottom: "value-raking-Agent"
  bottom: "value-raking-Source"
  bottom: "value-ramming-Place"
  bottom: "value-ramming-Victim"
  bottom: "value-ramming-Agent"
  bottom: "value-ramming-RammingItem"
  bottom: "value-reading-Item"
  bottom: "value-reading-Place"
  bottom: "value-reading-Agent"
  bottom: "value-rearing-Place"
  bottom: "value-rearing-Agent"
  bottom: "value-reassuring-Reassured"
  bottom: "value-reassuring-Place"
  bottom: "value-reassuring-Agent"
  bottom: "value-recording-Place"
  bottom: "value-recording-Phenomenon"
  bottom: "value-recording-Agent"
  bottom: "value-recovering-Place"
  bottom: "value-recovering-Ailment"
  bottom: "value-recovering-Agent"
  bottom: "value-recuperating-Place"
  bottom: "value-recuperating-Agent"
  bottom: "value-rehabilitating-Item"
  bottom: "value-rehabilitating-Place"
  bottom: "value-rehabilitating-Agent"
  bottom: "value-releasing-ReleasedItem"
  bottom: "value-releasing-Place"
  bottom: "value-releasing-Agent"
  bottom: "value-repairing-Item"
  bottom: "value-repairing-Problem"
  bottom: "value-repairing-Place"
  bottom: "value-repairing-Tool"
  bottom: "value-repairing-Agent"
  bottom: "value-resting-Item"
  bottom: "value-resting-Place"
  bottom: "value-resting-Goal"
  bottom: "value-resting-Agent"
  bottom: "value-restraining-Place"
  bottom: "value-restraining-Restrained"
  bottom: "value-restraining-Agent"
  bottom: "value-retrieving-Start"
  bottom: "value-retrieving-Object"
  bottom: "value-retrieving-Place"
  bottom: "value-retrieving-Agent"
  bottom: "value-riding-Place"
  bottom: "value-riding-Agent"
  bottom: "value-riding-Vehicle"
  bottom: "value-rinsing-Tool"
  bottom: "value-rinsing-Object"
  bottom: "value-rinsing-Place"
  bottom: "value-rinsing-Agent"
  bottom: "value-rocking-Place"
  bottom: "value-rocking-Container"
  bottom: "value-rocking-Rocked"
  bottom: "value-rocking-Agent"
  bottom: "value-rotting-Place"
  bottom: "value-rotting-Container"
  bottom: "value-rotting-Agent"
  bottom: "value-rowing-Place"
  bottom: "value-rowing-Agent"
  bottom: "value-rowing-Vehicle"
  bottom: "value-rubbing-Item"
  bottom: "value-rubbing-Place"
  bottom: "value-rubbing-Agent"
  bottom: "value-rubbing-AgentPart"
  bottom: "value-running-Place"
  bottom: "value-running-Agent"
  bottom: "value-saluting-Place"
  bottom: "value-saluting-Target"
  bottom: "value-saluting-Agent"
  bottom: "value-saying-Place"
  bottom: "value-saying-Adressee"
  bottom: "value-saying-Agent"
  bottom: "value-scolding-Place"
  bottom: "value-scolding-Victim"
  bottom: "value-scolding-Agent"
  bottom: "value-scooping-Item"
  bottom: "value-scooping-Tool"
  bottom: "value-scooping-Place"
  bottom: "value-scooping-Agent"
  bottom: "value-scooping-Source"
  bottom: "value-scoring-Place"
  bottom: "value-scoring-Agent"
  bottom: "value-scraping-ScrapedItem"
  bottom: "value-scraping-Place"
  bottom: "value-scraping-Tool"
  bottom: "value-scraping-Agent"
  bottom: "value-scratching-Tool"
  bottom: "value-scratching-Object"
  bottom: "value-scratching-Place"
  bottom: "value-scratching-Agent"
  bottom: "value-scrubbing-Item"
  bottom: "value-scrubbing-Tool"
  bottom: "value-scrubbing-Place"
  bottom: "value-scrubbing-Agent"
  bottom: "value-sealing-Item"
  bottom: "value-sealing-Place"
  bottom: "value-sealing-Agent"
  bottom: "value-sealing-Sealant"
  bottom: "value-selling-Buyer"
  bottom: "value-selling-Item"
  bottom: "value-selling-Place"
  bottom: "value-selling-Seller"
  bottom: "value-serving-Item"
  bottom: "value-serving-Place"
  bottom: "value-serving-Agent"
  bottom: "value-serving-Served"
  bottom: "value-sewing-Item"
  bottom: "value-sewing-Tool"
  bottom: "value-sewing-Place"
  bottom: "value-sewing-Agent"
  bottom: "value-shaking-Item"
  bottom: "value-shaking-Tool"
  bottom: "value-shaking-Place"
  bottom: "value-shaking-Agent"
  bottom: "value-sharpening-Item"
  bottom: "value-sharpening-Tool"
  bottom: "value-sharpening-Place"
  bottom: "value-sharpening-Agent"
  bottom: "value-shaving-Substance"
  bottom: "value-shaving-CoAgent"
  bottom: "value-shaving-Agent"
  bottom: "value-shaving-Place"
  bottom: "value-shaving-BodyPart"
  bottom: "value-shaving-Tool"
  bottom: "value-shearing-Item"
  bottom: "value-shearing-Place"
  bottom: "value-shearing-Agent"
  bottom: "value-shearing-Source"
  bottom: "value-shelling-Object"
  bottom: "value-shelling-Place"
  bottom: "value-shelling-Agent"
  bottom: "value-shelving-Item"
  bottom: "value-shelving-Destination"
  bottom: "value-shelving-Place"
  bottom: "value-shelving-Agent"
  bottom: "value-shivering-Place"
  bottom: "value-shivering-Agent"
  bottom: "value-shooting-Target"
  bottom: "value-shooting-Firearm"
  bottom: "value-shooting-Agent"
  bottom: "value-shooting-Projectile"
  bottom: "value-shopping-Goods"
  bottom: "value-shopping-Place"
  bottom: "value-shopping-Agent"
  bottom: "value-shouting-Addressee"
  bottom: "value-shouting-Place"
  bottom: "value-shouting-Agent"
  bottom: "value-shoveling-Item"
  bottom: "value-shoveling-Place"
  bottom: "value-shoveling-Agent"
  bottom: "value-shoveling-Source"
  bottom: "value-shredding-Item"
  bottom: "value-shredding-Tool"
  bottom: "value-shredding-Place"
  bottom: "value-shredding-Agent"
  bottom: "value-shrugging-Place"
  bottom: "value-shrugging-Agent"
  bottom: "value-shushing-Place"
  bottom: "value-shushing-Target"
  bottom: "value-shushing-Agent"
  bottom: "value-signaling-Place"
  bottom: "value-signaling-Message"
  bottom: "value-signaling-Recipient"
  bottom: "value-signaling-Tool"
  bottom: "value-signaling-Agent"
  bottom: "value-signing-Tool"
  bottom: "value-signing-Place"
  bottom: "value-signing-Agent"
  bottom: "value-signing-SignedItem"
  bottom: "value-singing-Place"
  bottom: "value-singing-Agent"
  bottom: "value-sitting-Contact"
  bottom: "value-sitting-Place"
  bottom: "value-sitting-Agent"
  bottom: "value-skating-Place"
  bottom: "value-skating-Agent"
  bottom: "value-skating-Vehicle"
  bottom: "value-sketching-Image"
  bottom: "value-sketching-Material"
  bottom: "value-sketching-Place"
  bottom: "value-sketching-Tool"
  bottom: "value-sketching-Agent"
  bottom: "value-skidding-Place"
  bottom: "value-skidding-Agent"
  bottom: "value-skiing-Place"
  bottom: "value-skiing-Agent"
  bottom: "value-skipping-Obstacle"
  bottom: "value-skipping-Place"
  bottom: "value-skipping-Agent"
  bottom: "value-slapping-Tool"
  bottom: "value-slapping-Place"
  bottom: "value-slapping-Victim"
  bottom: "value-slapping-Agent"
  bottom: "value-slapping-VictimPart"
  bottom: "value-sleeping-Place"
  bottom: "value-sleeping-Agent"
  bottom: "value-slicing-SlicedItem"
  bottom: "value-slicing-Tool"
  bottom: "value-slicing-Place"
  bottom: "value-slicing-Agent"
  bottom: "value-sliding-Slider"
  bottom: "value-sliding-Destination"
  bottom: "value-sliding-Place"
  bottom: "value-sliding-Surface"
  bottom: "value-sliding-Agent"
  bottom: "value-slipping-Destination"
  bottom: "value-slipping-Place"
  bottom: "value-slipping-Agent"
  bottom: "value-slithering-Place"
  bottom: "value-slithering-Agent"
  bottom: "value-slouching-Contact"
  bottom: "value-slouching-Place"
  bottom: "value-slouching-Agent"
  bottom: "value-smashing-Smashed"
  bottom: "value-smashing-Tool"
  bottom: "value-smashing-Place"
  bottom: "value-smashing-Against"
  bottom: "value-smashing-Agent"
  bottom: "value-smearing-Item"
  bottom: "value-smearing-Tool"
  bottom: "value-smearing-Place"
  bottom: "value-smearing-Surface"
  bottom: "value-smearing-Agent"
  bottom: "value-smelling-Item"
  bottom: "value-smelling-Place"
  bottom: "value-smelling-Agent"
  bottom: "value-smiling-Place"
  bottom: "value-smiling-Agent"
  bottom: "value-sneezing-Place"
  bottom: "value-sneezing-Agent"
  bottom: "value-sniffing-Item"
  bottom: "value-sniffing-Place"
  bottom: "value-sniffing-Agent"
  bottom: "value-snowing-Place"
  bottom: "value-snuggling-CoAgent"
  bottom: "value-snuggling-Place"
  bottom: "value-snuggling-Agent"
  bottom: "value-soaking-Item"
  bottom: "value-soaking-Place"
  bottom: "value-soaking-Substance"
  bottom: "value-soaking-Container"
  bottom: "value-soaking-Agent"
  bottom: "value-soaring-Place"
  bottom: "value-soaring-Agent"
  bottom: "value-socializing-CoAgent"
  bottom: "value-socializing-Place"
  bottom: "value-socializing-Agent"
  bottom: "value-sowing-Tool"
  bottom: "value-sowing-Place"
  bottom: "value-sowing-Agent"
  bottom: "value-spanking-Tool"
  bottom: "value-spanking-Place"
  bottom: "value-spanking-Victim"
  bottom: "value-spanking-Agent"
  bottom: "value-speaking-CoAgent"
  bottom: "value-speaking-Place"
  bottom: "value-speaking-Agent"
  bottom: "value-spearing-Place"
  bottom: "value-spearing-Victim"
  bottom: "value-spearing-Agent"
  bottom: "value-spilling-Destination"
  bottom: "value-spilling-Source"
  bottom: "value-spilling-Substance"
  bottom: "value-spilling-Place"
  bottom: "value-spilling-Agent"
  bottom: "value-spinning-Tool"
  bottom: "value-spinning-Material"
  bottom: "value-spinning-Place"
  bottom: "value-spinning-Agent"
  bottom: "value-spitting-Item"
  bottom: "value-spitting-Place"
  bottom: "value-spitting-Target"
  bottom: "value-spitting-Agent"
  bottom: "value-splashing-Place"
  bottom: "value-splashing-Tool"
  bottom: "value-splashing-Destination"
  bottom: "value-splashing-Substance"
  bottom: "value-splashing-Agent"
  bottom: "value-spoiling-Place"
  bottom: "value-spoiling-Agent"
  bottom: "value-spraying-Destination"
  bottom: "value-spraying-Source"
  bottom: "value-spraying-Substance"
  bottom: "value-spraying-Place"
  bottom: "value-spraying-Agent"
  bottom: "value-spreading-Tool"
  bottom: "value-spreading-Substance"
  bottom: "value-spreading-Place"
  bottom: "value-spreading-Surface"
  bottom: "value-spreading-Agent"
  bottom: "value-sprinkling-Item"
  bottom: "value-sprinkling-Destination"
  bottom: "value-sprinkling-Place"
  bottom: "value-sprinkling-Agent"
  bottom: "value-sprinkling-Source"
  bottom: "value-sprinting-Place"
  bottom: "value-sprinting-Agent"
  bottom: "value-sprouting-Sprouter"
  bottom: "value-sprouting-Place"
  bottom: "value-spying-Tool"
  bottom: "value-spying-Place"
  bottom: "value-spying-Target"
  bottom: "value-spying-Agent"
  bottom: "value-squeezing-Item"
  bottom: "value-squeezing-Tool"
  bottom: "value-squeezing-Place"
  bottom: "value-squeezing-Agent"
  bottom: "value-squinting-Item"
  bottom: "value-squinting-Place"
  bottom: "value-squinting-Agent"
  bottom: "value-stacking-Top"
  bottom: "value-stacking-Place"
  bottom: "value-stacking-Agent"
  bottom: "value-stacking-Bottom"
  bottom: "value-stampeding-Place"
  bottom: "value-stampeding-Agent"
  bottom: "value-standing-Place"
  bottom: "value-standing-Agent"
  bottom: "value-stapling-Item"
  bottom: "value-stapling-Tool"
  bottom: "value-stapling-Place"
  bottom: "value-stapling-Surface"
  bottom: "value-stapling-Agent"
  bottom: "value-staring-Item"
  bottom: "value-staring-Place"
  bottom: "value-staring-Agent"
  bottom: "value-steering-Tool"
  bottom: "value-steering-Place"
  bottom: "value-steering-Agent"
  bottom: "value-steering-Vehicle"
  bottom: "value-stinging-Place"
  bottom: "value-stinging-Victim"
  bottom: "value-stinging-Agent"
  bottom: "value-stinging-VictimPart"
  bottom: "value-stirring-Item"
  bottom: "value-stirring-Tool"
  bottom: "value-stirring-Container"
  bottom: "value-stirring-Place"
  bottom: "value-stirring-Agent"
  bottom: "value-stitching-Tool"
  bottom: "value-stitching-Place"
  bottom: "value-stitching-Fastener"
  bottom: "value-stitching-Agent"
  bottom: "value-stooping-Place"
  bottom: "value-stooping-Agent"
  bottom: "value-storming-Place"
  bottom: "value-strapping-Strapped"
  bottom: "value-strapping-Destination"
  bottom: "value-strapping-Place"
  bottom: "value-strapping-Agent"
  bottom: "value-strapping-Strap"
  bottom: "value-stretching-Item"
  bottom: "value-stretching-Place"
  bottom: "value-stretching-Agent"
  bottom: "value-striking-AgentPart"
  bottom: "value-striking-CoAgent"
  bottom: "value-striking-Place"
  bottom: "value-striking-Tool"
  bottom: "value-striking-Agent"
  bottom: "value-stripping-Source"
  bottom: "value-stripping-RemovedItem"
  bottom: "value-stripping-Place"
  bottom: "value-stripping-Tool"
  bottom: "value-stripping-Agent"
  bottom: "value-stroking-Object"
  bottom: "value-stroking-Place"
  bottom: "value-stroking-Part"
  bottom: "value-stroking-Agent"
  bottom: "value-studying-Place"
  bottom: "value-studying-Agent"
  bottom: "value-stuffing-Item"
  bottom: "value-stuffing-Destination"
  bottom: "value-stuffing-Place"
  bottom: "value-stuffing-Agent"
  bottom: "value-stumbling-Destination"
  bottom: "value-stumbling-Place"
  bottom: "value-stumbling-Agent"
  bottom: "value-subduing-Place"
  bottom: "value-subduing-Target"
  bottom: "value-subduing-Agent"
  bottom: "value-submerging-Place"
  bottom: "value-submerging-Object"
  bottom: "value-submerging-Substance"
  bottom: "value-submerging-Agent"
  bottom: "value-sucking-Item"
  bottom: "value-sucking-Place"
  bottom: "value-sucking-Agent"
  bottom: "value-surfing-Path"
  bottom: "value-surfing-Tool"
  bottom: "value-surfing-Place"
  bottom: "value-surfing-Agent"
  bottom: "value-swarming-AgentType"
  bottom: "value-swarming-Place"
  bottom: "value-sweeping-Place"
  bottom: "value-sweeping-Surface"
  bottom: "value-sweeping-Agent"
  bottom: "value-sweeping-Brush"
  bottom: "value-swimming-Place"
  bottom: "value-swimming-Agent"
  bottom: "value-swinging-Carrier"
  bottom: "value-swinging-Place"
  bottom: "value-swinging-Agent"
  bottom: "value-swooping-Place"
  bottom: "value-swooping-Agent"
  bottom: "value-tackling-Place"
  bottom: "value-tackling-Victim"
  bottom: "value-tackling-Agent"
  bottom: "value-talking-Listener"
  bottom: "value-talking-Place"
  bottom: "value-talking-Agent"
  bottom: "value-taping-Item"
  bottom: "value-taping-Destination"
  bottom: "value-taping-Place"
  bottom: "value-taping-Agent"
  bottom: "value-tasting-Item"
  bottom: "value-tasting-Tool"
  bottom: "value-tasting-Place"
  bottom: "value-tasting-Agent"
  bottom: "value-tattooing-Tool"
  bottom: "value-tattooing-Place"
  bottom: "value-tattooing-Target"
  bottom: "value-tattooing-Agent"
  bottom: "value-taxiing-Place"
  bottom: "value-taxiing-Agent"
  bottom: "value-taxiing-Ground"
  bottom: "value-teaching-Place"
  bottom: "value-teaching-Teacher"
  bottom: "value-teaching-Student"
  bottom: "value-tearing-Item"
  bottom: "value-tearing-Tool"
  bottom: "value-tearing-Place"
  bottom: "value-tearing-Agent"
  bottom: "value-telephoning-Place"
  bottom: "value-telephoning-Agent"
  bottom: "value-throwing-Item"
  bottom: "value-throwing-Destination"
  bottom: "value-throwing-Place"
  bottom: "value-throwing-Agent"
  bottom: "value-tickling-Tickled"
  bottom: "value-tickling-Object"
  bottom: "value-tickling-Place"
  bottom: "value-tickling-Agent"
  bottom: "value-tilling-Tool"
  bottom: "value-tilling-Place"
  bottom: "value-tilling-Agent"
  bottom: "value-tilting-Item"
  bottom: "value-tilting-Place"
  bottom: "value-tilting-Agent"
  bottom: "value-tilting-AgentPart"
  bottom: "value-tipping-Item"
  bottom: "value-tipping-Place"
  bottom: "value-tipping-Agent"
  bottom: "value-tipping-AgentPart"
  bottom: "value-towing-Item"
  bottom: "value-towing-Place"
  bottom: "value-towing-Agent"
  bottom: "value-training-Place"
  bottom: "value-training-Student"
  bottom: "value-training-Agent"
  bottom: "value-trimming-Item"
  bottom: "value-trimming-Tool"
  bottom: "value-trimming-Place"
  bottom: "value-trimming-ItemPart"
  bottom: "value-trimming-Agent"
  bottom: "value-tripping-Item"
  bottom: "value-tripping-Place"
  bottom: "value-tripping-Agent"
  bottom: "value-tugging-Item"
  bottom: "value-tugging-Place"
  bottom: "value-tugging-Agent"
  bottom: "value-tuning-Tool"
  bottom: "value-tuning-Object"
  bottom: "value-tuning-Place"
  bottom: "value-tuning-Agent"
  bottom: "value-turning-Place"
  bottom: "value-turning-TurnedItem"
  bottom: "value-turning-Agent"
  bottom: "value-twirling-CoAgent"
  bottom: "value-twirling-Place"
  bottom: "value-twirling-Agent"
  bottom: "value-twisting-AgentPart"
  bottom: "value-twisting-Place"
  bottom: "value-twisting-Agent"
  bottom: "value-tying-Connector"
  bottom: "value-tying-Item"
  bottom: "value-tying-Destination"
  bottom: "value-tying-Place"
  bottom: "value-tying-Agent"
  bottom: "value-typing-Tool"
  bottom: "value-typing-Place"
  bottom: "value-typing-Agent"
  bottom: "value-uncorking-Place"
  bottom: "value-uncorking-Tool"
  bottom: "value-uncorking-Container"
  bottom: "value-uncorking-Agent"
  bottom: "value-unloading-Item"
  bottom: "value-unloading-Tool"
  bottom: "value-unloading-Place"
  bottom: "value-unloading-Agent"
  bottom: "value-unloading-Source"
  bottom: "value-unlocking-Lock"
  bottom: "value-unlocking-Tool"
  bottom: "value-unlocking-Container"
  bottom: "value-unlocking-Place"
  bottom: "value-unlocking-Agent"
  bottom: "value-unpacking-Item"
  bottom: "value-unpacking-Place"
  bottom: "value-unpacking-Container"
  bottom: "value-unpacking-Agent"
  bottom: "value-unplugging-Place"
  bottom: "value-unplugging-Unplugged"
  bottom: "value-unplugging-Agent"
  bottom: "value-unveiling-Object"
  bottom: "value-unveiling-Place"
  bottom: "value-unveiling-Agent"
  bottom: "value-urinating-Place"
  bottom: "value-urinating-Target"
  bottom: "value-urinating-Agent"
  bottom: "value-vacuuming-Tool"
  bottom: "value-vacuuming-Place"
  bottom: "value-vacuuming-Surface"
  bottom: "value-vacuuming-Agent"
  bottom: "value-vaulting-End"
  bottom: "value-vaulting-Tool"
  bottom: "value-vaulting-Agent"
  bottom: "value-vaulting-Start"
  bottom: "value-vaulting-Obstacle"
  bottom: "value-vaulting-Place"
  bottom: "value-videotaping-Depicted"
  bottom: "value-videotaping-Place"
  bottom: "value-videotaping-Agent"
  bottom: "value-voting-Place"
  bottom: "value-voting-Agent"
  bottom: "value-waddling-Place"
  bottom: "value-waddling-Agent"
  bottom: "value-wading-Substance"
  bottom: "value-wading-Place"
  bottom: "value-wading-Agent"
  bottom: "value-wagging-AgentPart"
  bottom: "value-wagging-Addressee"
  bottom: "value-wagging-Place"
  bottom: "value-wagging-Agent"
  bottom: "value-waiting-Place"
  bottom: "value-waiting-Agent"
  bottom: "value-walking-Place"
  bottom: "value-walking-Agent"
  bottom: "value-washing-Item"
  bottom: "value-washing-Tool"
  bottom: "value-washing-Place"
  bottom: "value-washing-Agent"
  bottom: "value-washing-Dirt"
  bottom: "value-watering-Place"
  bottom: "value-watering-Tool"
  bottom: "value-watering-Recipient"
  bottom: "value-watering-Agent"
  bottom: "value-waving-Agentpart"
  bottom: "value-waving-Place"
  bottom: "value-waving-Agent"
  bottom: "value-waxing-CoAgent"
  bottom: "value-waxing-BodyPart"
  bottom: "value-waxing-Place"
  bottom: "value-waxing-Agent"
  bottom: "value-weeding-Tool"
  bottom: "value-weeding-Place"
  bottom: "value-weeding-Agent"
  bottom: "value-weeping-Place"
  bottom: "value-weeping-Agent"
  bottom: "value-weighing-Place"
  bottom: "value-weighing-Tool"
  bottom: "value-weighing-Mass"
  bottom: "value-weighing-Agent"
  bottom: "value-welding-Item"
  bottom: "value-welding-Tool"
  bottom: "value-welding-Place"
  bottom: "value-welding-Surface"
  bottom: "value-welding-Agent"
  bottom: "value-wetting-Tool"
  bottom: "value-wetting-Object"
  bottom: "value-wetting-Place"
  bottom: "value-wetting-Liquid"
  bottom: "value-wetting-Agent"
  bottom: "value-wheeling-Item"
  bottom: "value-wheeling-Carrier"
  bottom: "value-wheeling-Place"
  bottom: "value-wheeling-Agent"
  bottom: "value-whipping-Item"
  bottom: "value-whipping-Tool"
  bottom: "value-whipping-Place"
  bottom: "value-whipping-Agent"
  bottom: "value-whirling-Place"
  bottom: "value-whirling-Agent"
  bottom: "value-whisking-Item"
  bottom: "value-whisking-Place"
  bottom: "value-whisking-Container"
  bottom: "value-whisking-Agent"
  bottom: "value-whistling-Tool"
  bottom: "value-whistling-Place"
  bottom: "value-whistling-Agent"
  bottom: "value-wilting-Place"
  bottom: "value-wilting-Agent"
  bottom: "value-winking-Addressee"
  bottom: "value-winking-Place"
  bottom: "value-winking-Agent"
  bottom: "value-wiping-Source"
  bottom: "value-wiping-Tool"
  bottom: "value-wiping-Substance"
  bottom: "value-wiping-Place"
  bottom: "value-wiping-Agent"
  bottom: "value-working-Place"
  bottom: "value-working-Focus"
  bottom: "value-working-Agent"
  bottom: "value-wrapping-WrappedItem"
  bottom: "value-wrapping-Place"
  bottom: "value-wrapping-WrappingItem"
  bottom: "value-wrapping-Agent"
  bottom: "value-wringing-Item"
  bottom: "value-wringing-Place"
  bottom: "value-wringing-Agent"
  bottom: "value-wrinkling-AgentPart"
  bottom: "value-wrinkling-Place"
  bottom: "value-wrinkling-Agent"
  bottom: "value-writing-Tool"
  bottom: "value-writing-Place"
  bottom: "value-writing-Target"
  bottom: "value-writing-Agent"
  bottom: "value-yanking-Place"
  bottom: "value-yanking-Yanked"
  bottom: "value-yanking-Agent"
  bottom: "value-yanking-YankedPart"
  bottom: "value-yawning-Place"
  bottom: "value-yawning-Agent"
  bottom: "value-frame"
  bottom: "label"
  name: "crf-log-loss"
  top: "crf-log-loss"
  top: "frame-structure"
  top: "frame-score"
  type: "MILFrameLoss"
  frame_loss_param{
    lambda : 0
    references : 3
    maxlabels : 7
    structure : "of500/of500_structure.tab"
    mode: 0
    syns: "of500/object/object_value.tabs"
    total_syns : 11789
    bounding_boxes: 1
  }
}
layer {
  bottom: "label"
  bottom: "frame-structure"
  bottom: "frame-score"
  top: "top1-verb-acc"
  top: "top1-arg-acc"
  top: "top1-any-acc"
  top: "top1-full-acc"
  top: "top1-*arg-acc"
  top: "top1-*any-acc"
  top: "top1-*full-acc"
  name: "top1-evaluation"
  type: "StructureFrameAccuracy"
  structure_frame_accuracy_param{
    references: 3
    maxlabels: 7
    topk: 1
    total_verbs: 504
  }
}
layer {
  bottom: "label"
  bottom: "frame-structure"
  bottom: "frame-score"
  top: "top5-verb-acc"
  top: "top5-arg-acc"
  top: "top5-any-acc"
  top: "top5-full-acc"
  top: "top5-*arg-acc"
  top: "top5-*any-acc"
  top: "top5-*full-acc"
  name: "top5-evaluation"
  type: "StructureFrameAccuracy"
  structure_frame_accuracy_param{
    references: 3
    maxlabels: 7
    topk: 5
    total_verbs: 504
  }
}

